module @m {
  func.func @convnext_adam_train_step(%x: tensor<32x150528xf32>, %psW: tensor<96x3x4x4xf32>, %psb: tensor<96xf32>, %s0b0dW: tensor<96x1x7x7xf32>, %s0b0db: tensor<96xf32>, %s0b0ng: tensor<f32>, %s0b0nbt: tensor<f32>, %s0b0eW: tensor<384x96x1x1xf32>, %s0b0eb: tensor<384xf32>, %s0b0pW: tensor<96x384x1x1xf32>, %s0b0pb: tensor<96xf32>, %s0b0lg: tensor<96xf32>, %s0b1dW: tensor<96x1x7x7xf32>, %s0b1db: tensor<96xf32>, %s0b1ng: tensor<f32>, %s0b1nbt: tensor<f32>, %s0b1eW: tensor<384x96x1x1xf32>, %s0b1eb: tensor<384xf32>, %s0b1pW: tensor<96x384x1x1xf32>, %s0b1pb: tensor<96xf32>, %s0b1lg: tensor<96xf32>, %s0b2dW: tensor<96x1x7x7xf32>, %s0b2db: tensor<96xf32>, %s0b2ng: tensor<f32>, %s0b2nbt: tensor<f32>, %s0b2eW: tensor<384x96x1x1xf32>, %s0b2eb: tensor<384xf32>, %s0b2pW: tensor<96x384x1x1xf32>, %s0b2pb: tensor<96xf32>, %s0b2lg: tensor<96xf32>, %d0ng: tensor<f32>, %d0nbt: tensor<f32>, %d0W: tensor<192x96x2x2xf32>, %d0b: tensor<192xf32>, %s1b0dW: tensor<192x1x7x7xf32>, %s1b0db: tensor<192xf32>, %s1b0ng: tensor<f32>, %s1b0nbt: tensor<f32>, %s1b0eW: tensor<768x192x1x1xf32>, %s1b0eb: tensor<768xf32>, %s1b0pW: tensor<192x768x1x1xf32>, %s1b0pb: tensor<192xf32>, %s1b0lg: tensor<192xf32>, %s1b1dW: tensor<192x1x7x7xf32>, %s1b1db: tensor<192xf32>, %s1b1ng: tensor<f32>, %s1b1nbt: tensor<f32>, %s1b1eW: tensor<768x192x1x1xf32>, %s1b1eb: tensor<768xf32>, %s1b1pW: tensor<192x768x1x1xf32>, %s1b1pb: tensor<192xf32>, %s1b1lg: tensor<192xf32>, %s1b2dW: tensor<192x1x7x7xf32>, %s1b2db: tensor<192xf32>, %s1b2ng: tensor<f32>, %s1b2nbt: tensor<f32>, %s1b2eW: tensor<768x192x1x1xf32>, %s1b2eb: tensor<768xf32>, %s1b2pW: tensor<192x768x1x1xf32>, %s1b2pb: tensor<192xf32>, %s1b2lg: tensor<192xf32>, %d1ng: tensor<f32>, %d1nbt: tensor<f32>, %d1W: tensor<384x192x2x2xf32>, %d1b: tensor<384xf32>, %s2b0dW: tensor<384x1x7x7xf32>, %s2b0db: tensor<384xf32>, %s2b0ng: tensor<f32>, %s2b0nbt: tensor<f32>, %s2b0eW: tensor<1536x384x1x1xf32>, %s2b0eb: tensor<1536xf32>, %s2b0pW: tensor<384x1536x1x1xf32>, %s2b0pb: tensor<384xf32>, %s2b0lg: tensor<384xf32>, %s2b1dW: tensor<384x1x7x7xf32>, %s2b1db: tensor<384xf32>, %s2b1ng: tensor<f32>, %s2b1nbt: tensor<f32>, %s2b1eW: tensor<1536x384x1x1xf32>, %s2b1eb: tensor<1536xf32>, %s2b1pW: tensor<384x1536x1x1xf32>, %s2b1pb: tensor<384xf32>, %s2b1lg: tensor<384xf32>, %s2b2dW: tensor<384x1x7x7xf32>, %s2b2db: tensor<384xf32>, %s2b2ng: tensor<f32>, %s2b2nbt: tensor<f32>, %s2b2eW: tensor<1536x384x1x1xf32>, %s2b2eb: tensor<1536xf32>, %s2b2pW: tensor<384x1536x1x1xf32>, %s2b2pb: tensor<384xf32>, %s2b2lg: tensor<384xf32>, %s2b3dW: tensor<384x1x7x7xf32>, %s2b3db: tensor<384xf32>, %s2b3ng: tensor<f32>, %s2b3nbt: tensor<f32>, %s2b3eW: tensor<1536x384x1x1xf32>, %s2b3eb: tensor<1536xf32>, %s2b3pW: tensor<384x1536x1x1xf32>, %s2b3pb: tensor<384xf32>, %s2b3lg: tensor<384xf32>, %s2b4dW: tensor<384x1x7x7xf32>, %s2b4db: tensor<384xf32>, %s2b4ng: tensor<f32>, %s2b4nbt: tensor<f32>, %s2b4eW: tensor<1536x384x1x1xf32>, %s2b4eb: tensor<1536xf32>, %s2b4pW: tensor<384x1536x1x1xf32>, %s2b4pb: tensor<384xf32>, %s2b4lg: tensor<384xf32>, %s2b5dW: tensor<384x1x7x7xf32>, %s2b5db: tensor<384xf32>, %s2b5ng: tensor<f32>, %s2b5nbt: tensor<f32>, %s2b5eW: tensor<1536x384x1x1xf32>, %s2b5eb: tensor<1536xf32>, %s2b5pW: tensor<384x1536x1x1xf32>, %s2b5pb: tensor<384xf32>, %s2b5lg: tensor<384xf32>, %s2b6dW: tensor<384x1x7x7xf32>, %s2b6db: tensor<384xf32>, %s2b6ng: tensor<f32>, %s2b6nbt: tensor<f32>, %s2b6eW: tensor<1536x384x1x1xf32>, %s2b6eb: tensor<1536xf32>, %s2b6pW: tensor<384x1536x1x1xf32>, %s2b6pb: tensor<384xf32>, %s2b6lg: tensor<384xf32>, %s2b7dW: tensor<384x1x7x7xf32>, %s2b7db: tensor<384xf32>, %s2b7ng: tensor<f32>, %s2b7nbt: tensor<f32>, %s2b7eW: tensor<1536x384x1x1xf32>, %s2b7eb: tensor<1536xf32>, %s2b7pW: tensor<384x1536x1x1xf32>, %s2b7pb: tensor<384xf32>, %s2b7lg: tensor<384xf32>, %s2b8dW: tensor<384x1x7x7xf32>, %s2b8db: tensor<384xf32>, %s2b8ng: tensor<f32>, %s2b8nbt: tensor<f32>, %s2b8eW: tensor<1536x384x1x1xf32>, %s2b8eb: tensor<1536xf32>, %s2b8pW: tensor<384x1536x1x1xf32>, %s2b8pb: tensor<384xf32>, %s2b8lg: tensor<384xf32>, %d2ng: tensor<f32>, %d2nbt: tensor<f32>, %d2W: tensor<768x384x2x2xf32>, %d2b: tensor<768xf32>, %s3b0dW: tensor<768x1x7x7xf32>, %s3b0db: tensor<768xf32>, %s3b0ng: tensor<f32>, %s3b0nbt: tensor<f32>, %s3b0eW: tensor<3072x768x1x1xf32>, %s3b0eb: tensor<3072xf32>, %s3b0pW: tensor<768x3072x1x1xf32>, %s3b0pb: tensor<768xf32>, %s3b0lg: tensor<768xf32>, %s3b1dW: tensor<768x1x7x7xf32>, %s3b1db: tensor<768xf32>, %s3b1ng: tensor<f32>, %s3b1nbt: tensor<f32>, %s3b1eW: tensor<3072x768x1x1xf32>, %s3b1eb: tensor<3072xf32>, %s3b1pW: tensor<768x3072x1x1xf32>, %s3b1pb: tensor<768xf32>, %s3b1lg: tensor<768xf32>, %s3b2dW: tensor<768x1x7x7xf32>, %s3b2db: tensor<768xf32>, %s3b2ng: tensor<f32>, %s3b2nbt: tensor<f32>, %s3b2eW: tensor<3072x768x1x1xf32>, %s3b2eb: tensor<3072xf32>, %s3b2pW: tensor<768x3072x1x1xf32>, %s3b2pb: tensor<768xf32>, %s3b2lg: tensor<768xf32>, %hng: tensor<f32>, %hnbt: tensor<f32>, %Wd: tensor<768x10xf32>, %bd: tensor<10xf32>, %psWm: tensor<96x3x4x4xf32>, %psbm: tensor<96xf32>, %s0b0dWm: tensor<96x1x7x7xf32>, %s0b0dbm: tensor<96xf32>, %s0b0ngm: tensor<f32>, %s0b0nbtm: tensor<f32>, %s0b0eWm: tensor<384x96x1x1xf32>, %s0b0ebm: tensor<384xf32>, %s0b0pWm: tensor<96x384x1x1xf32>, %s0b0pbm: tensor<96xf32>, %s0b0lgm: tensor<96xf32>, %s0b1dWm: tensor<96x1x7x7xf32>, %s0b1dbm: tensor<96xf32>, %s0b1ngm: tensor<f32>, %s0b1nbtm: tensor<f32>, %s0b1eWm: tensor<384x96x1x1xf32>, %s0b1ebm: tensor<384xf32>, %s0b1pWm: tensor<96x384x1x1xf32>, %s0b1pbm: tensor<96xf32>, %s0b1lgm: tensor<96xf32>, %s0b2dWm: tensor<96x1x7x7xf32>, %s0b2dbm: tensor<96xf32>, %s0b2ngm: tensor<f32>, %s0b2nbtm: tensor<f32>, %s0b2eWm: tensor<384x96x1x1xf32>, %s0b2ebm: tensor<384xf32>, %s0b2pWm: tensor<96x384x1x1xf32>, %s0b2pbm: tensor<96xf32>, %s0b2lgm: tensor<96xf32>, %d0ngm: tensor<f32>, %d0nbtm: tensor<f32>, %d0Wm: tensor<192x96x2x2xf32>, %d0bm: tensor<192xf32>, %s1b0dWm: tensor<192x1x7x7xf32>, %s1b0dbm: tensor<192xf32>, %s1b0ngm: tensor<f32>, %s1b0nbtm: tensor<f32>, %s1b0eWm: tensor<768x192x1x1xf32>, %s1b0ebm: tensor<768xf32>, %s1b0pWm: tensor<192x768x1x1xf32>, %s1b0pbm: tensor<192xf32>, %s1b0lgm: tensor<192xf32>, %s1b1dWm: tensor<192x1x7x7xf32>, %s1b1dbm: tensor<192xf32>, %s1b1ngm: tensor<f32>, %s1b1nbtm: tensor<f32>, %s1b1eWm: tensor<768x192x1x1xf32>, %s1b1ebm: tensor<768xf32>, %s1b1pWm: tensor<192x768x1x1xf32>, %s1b1pbm: tensor<192xf32>, %s1b1lgm: tensor<192xf32>, %s1b2dWm: tensor<192x1x7x7xf32>, %s1b2dbm: tensor<192xf32>, %s1b2ngm: tensor<f32>, %s1b2nbtm: tensor<f32>, %s1b2eWm: tensor<768x192x1x1xf32>, %s1b2ebm: tensor<768xf32>, %s1b2pWm: tensor<192x768x1x1xf32>, %s1b2pbm: tensor<192xf32>, %s1b2lgm: tensor<192xf32>, %d1ngm: tensor<f32>, %d1nbtm: tensor<f32>, %d1Wm: tensor<384x192x2x2xf32>, %d1bm: tensor<384xf32>, %s2b0dWm: tensor<384x1x7x7xf32>, %s2b0dbm: tensor<384xf32>, %s2b0ngm: tensor<f32>, %s2b0nbtm: tensor<f32>, %s2b0eWm: tensor<1536x384x1x1xf32>, %s2b0ebm: tensor<1536xf32>, %s2b0pWm: tensor<384x1536x1x1xf32>, %s2b0pbm: tensor<384xf32>, %s2b0lgm: tensor<384xf32>, %s2b1dWm: tensor<384x1x7x7xf32>, %s2b1dbm: tensor<384xf32>, %s2b1ngm: tensor<f32>, %s2b1nbtm: tensor<f32>, %s2b1eWm: tensor<1536x384x1x1xf32>, %s2b1ebm: tensor<1536xf32>, %s2b1pWm: tensor<384x1536x1x1xf32>, %s2b1pbm: tensor<384xf32>, %s2b1lgm: tensor<384xf32>, %s2b2dWm: tensor<384x1x7x7xf32>, %s2b2dbm: tensor<384xf32>, %s2b2ngm: tensor<f32>, %s2b2nbtm: tensor<f32>, %s2b2eWm: tensor<1536x384x1x1xf32>, %s2b2ebm: tensor<1536xf32>, %s2b2pWm: tensor<384x1536x1x1xf32>, %s2b2pbm: tensor<384xf32>, %s2b2lgm: tensor<384xf32>, %s2b3dWm: tensor<384x1x7x7xf32>, %s2b3dbm: tensor<384xf32>, %s2b3ngm: tensor<f32>, %s2b3nbtm: tensor<f32>, %s2b3eWm: tensor<1536x384x1x1xf32>, %s2b3ebm: tensor<1536xf32>, %s2b3pWm: tensor<384x1536x1x1xf32>, %s2b3pbm: tensor<384xf32>, %s2b3lgm: tensor<384xf32>, %s2b4dWm: tensor<384x1x7x7xf32>, %s2b4dbm: tensor<384xf32>, %s2b4ngm: tensor<f32>, %s2b4nbtm: tensor<f32>, %s2b4eWm: tensor<1536x384x1x1xf32>, %s2b4ebm: tensor<1536xf32>, %s2b4pWm: tensor<384x1536x1x1xf32>, %s2b4pbm: tensor<384xf32>, %s2b4lgm: tensor<384xf32>, %s2b5dWm: tensor<384x1x7x7xf32>, %s2b5dbm: tensor<384xf32>, %s2b5ngm: tensor<f32>, %s2b5nbtm: tensor<f32>, %s2b5eWm: tensor<1536x384x1x1xf32>, %s2b5ebm: tensor<1536xf32>, %s2b5pWm: tensor<384x1536x1x1xf32>, %s2b5pbm: tensor<384xf32>, %s2b5lgm: tensor<384xf32>, %s2b6dWm: tensor<384x1x7x7xf32>, %s2b6dbm: tensor<384xf32>, %s2b6ngm: tensor<f32>, %s2b6nbtm: tensor<f32>, %s2b6eWm: tensor<1536x384x1x1xf32>, %s2b6ebm: tensor<1536xf32>, %s2b6pWm: tensor<384x1536x1x1xf32>, %s2b6pbm: tensor<384xf32>, %s2b6lgm: tensor<384xf32>, %s2b7dWm: tensor<384x1x7x7xf32>, %s2b7dbm: tensor<384xf32>, %s2b7ngm: tensor<f32>, %s2b7nbtm: tensor<f32>, %s2b7eWm: tensor<1536x384x1x1xf32>, %s2b7ebm: tensor<1536xf32>, %s2b7pWm: tensor<384x1536x1x1xf32>, %s2b7pbm: tensor<384xf32>, %s2b7lgm: tensor<384xf32>, %s2b8dWm: tensor<384x1x7x7xf32>, %s2b8dbm: tensor<384xf32>, %s2b8ngm: tensor<f32>, %s2b8nbtm: tensor<f32>, %s2b8eWm: tensor<1536x384x1x1xf32>, %s2b8ebm: tensor<1536xf32>, %s2b8pWm: tensor<384x1536x1x1xf32>, %s2b8pbm: tensor<384xf32>, %s2b8lgm: tensor<384xf32>, %d2ngm: tensor<f32>, %d2nbtm: tensor<f32>, %d2Wm: tensor<768x384x2x2xf32>, %d2bm: tensor<768xf32>, %s3b0dWm: tensor<768x1x7x7xf32>, %s3b0dbm: tensor<768xf32>, %s3b0ngm: tensor<f32>, %s3b0nbtm: tensor<f32>, %s3b0eWm: tensor<3072x768x1x1xf32>, %s3b0ebm: tensor<3072xf32>, %s3b0pWm: tensor<768x3072x1x1xf32>, %s3b0pbm: tensor<768xf32>, %s3b0lgm: tensor<768xf32>, %s3b1dWm: tensor<768x1x7x7xf32>, %s3b1dbm: tensor<768xf32>, %s3b1ngm: tensor<f32>, %s3b1nbtm: tensor<f32>, %s3b1eWm: tensor<3072x768x1x1xf32>, %s3b1ebm: tensor<3072xf32>, %s3b1pWm: tensor<768x3072x1x1xf32>, %s3b1pbm: tensor<768xf32>, %s3b1lgm: tensor<768xf32>, %s3b2dWm: tensor<768x1x7x7xf32>, %s3b2dbm: tensor<768xf32>, %s3b2ngm: tensor<f32>, %s3b2nbtm: tensor<f32>, %s3b2eWm: tensor<3072x768x1x1xf32>, %s3b2ebm: tensor<3072xf32>, %s3b2pWm: tensor<768x3072x1x1xf32>, %s3b2pbm: tensor<768xf32>, %s3b2lgm: tensor<768xf32>, %hngm: tensor<f32>, %hnbtm: tensor<f32>, %Wdm: tensor<768x10xf32>, %bdm: tensor<10xf32>, %psWv: tensor<96x3x4x4xf32>, %psbv: tensor<96xf32>, %s0b0dWv: tensor<96x1x7x7xf32>, %s0b0dbv: tensor<96xf32>, %s0b0ngv: tensor<f32>, %s0b0nbtv: tensor<f32>, %s0b0eWv: tensor<384x96x1x1xf32>, %s0b0ebv: tensor<384xf32>, %s0b0pWv: tensor<96x384x1x1xf32>, %s0b0pbv: tensor<96xf32>, %s0b0lgv: tensor<96xf32>, %s0b1dWv: tensor<96x1x7x7xf32>, %s0b1dbv: tensor<96xf32>, %s0b1ngv: tensor<f32>, %s0b1nbtv: tensor<f32>, %s0b1eWv: tensor<384x96x1x1xf32>, %s0b1ebv: tensor<384xf32>, %s0b1pWv: tensor<96x384x1x1xf32>, %s0b1pbv: tensor<96xf32>, %s0b1lgv: tensor<96xf32>, %s0b2dWv: tensor<96x1x7x7xf32>, %s0b2dbv: tensor<96xf32>, %s0b2ngv: tensor<f32>, %s0b2nbtv: tensor<f32>, %s0b2eWv: tensor<384x96x1x1xf32>, %s0b2ebv: tensor<384xf32>, %s0b2pWv: tensor<96x384x1x1xf32>, %s0b2pbv: tensor<96xf32>, %s0b2lgv: tensor<96xf32>, %d0ngv: tensor<f32>, %d0nbtv: tensor<f32>, %d0Wv: tensor<192x96x2x2xf32>, %d0bv: tensor<192xf32>, %s1b0dWv: tensor<192x1x7x7xf32>, %s1b0dbv: tensor<192xf32>, %s1b0ngv: tensor<f32>, %s1b0nbtv: tensor<f32>, %s1b0eWv: tensor<768x192x1x1xf32>, %s1b0ebv: tensor<768xf32>, %s1b0pWv: tensor<192x768x1x1xf32>, %s1b0pbv: tensor<192xf32>, %s1b0lgv: tensor<192xf32>, %s1b1dWv: tensor<192x1x7x7xf32>, %s1b1dbv: tensor<192xf32>, %s1b1ngv: tensor<f32>, %s1b1nbtv: tensor<f32>, %s1b1eWv: tensor<768x192x1x1xf32>, %s1b1ebv: tensor<768xf32>, %s1b1pWv: tensor<192x768x1x1xf32>, %s1b1pbv: tensor<192xf32>, %s1b1lgv: tensor<192xf32>, %s1b2dWv: tensor<192x1x7x7xf32>, %s1b2dbv: tensor<192xf32>, %s1b2ngv: tensor<f32>, %s1b2nbtv: tensor<f32>, %s1b2eWv: tensor<768x192x1x1xf32>, %s1b2ebv: tensor<768xf32>, %s1b2pWv: tensor<192x768x1x1xf32>, %s1b2pbv: tensor<192xf32>, %s1b2lgv: tensor<192xf32>, %d1ngv: tensor<f32>, %d1nbtv: tensor<f32>, %d1Wv: tensor<384x192x2x2xf32>, %d1bv: tensor<384xf32>, %s2b0dWv: tensor<384x1x7x7xf32>, %s2b0dbv: tensor<384xf32>, %s2b0ngv: tensor<f32>, %s2b0nbtv: tensor<f32>, %s2b0eWv: tensor<1536x384x1x1xf32>, %s2b0ebv: tensor<1536xf32>, %s2b0pWv: tensor<384x1536x1x1xf32>, %s2b0pbv: tensor<384xf32>, %s2b0lgv: tensor<384xf32>, %s2b1dWv: tensor<384x1x7x7xf32>, %s2b1dbv: tensor<384xf32>, %s2b1ngv: tensor<f32>, %s2b1nbtv: tensor<f32>, %s2b1eWv: tensor<1536x384x1x1xf32>, %s2b1ebv: tensor<1536xf32>, %s2b1pWv: tensor<384x1536x1x1xf32>, %s2b1pbv: tensor<384xf32>, %s2b1lgv: tensor<384xf32>, %s2b2dWv: tensor<384x1x7x7xf32>, %s2b2dbv: tensor<384xf32>, %s2b2ngv: tensor<f32>, %s2b2nbtv: tensor<f32>, %s2b2eWv: tensor<1536x384x1x1xf32>, %s2b2ebv: tensor<1536xf32>, %s2b2pWv: tensor<384x1536x1x1xf32>, %s2b2pbv: tensor<384xf32>, %s2b2lgv: tensor<384xf32>, %s2b3dWv: tensor<384x1x7x7xf32>, %s2b3dbv: tensor<384xf32>, %s2b3ngv: tensor<f32>, %s2b3nbtv: tensor<f32>, %s2b3eWv: tensor<1536x384x1x1xf32>, %s2b3ebv: tensor<1536xf32>, %s2b3pWv: tensor<384x1536x1x1xf32>, %s2b3pbv: tensor<384xf32>, %s2b3lgv: tensor<384xf32>, %s2b4dWv: tensor<384x1x7x7xf32>, %s2b4dbv: tensor<384xf32>, %s2b4ngv: tensor<f32>, %s2b4nbtv: tensor<f32>, %s2b4eWv: tensor<1536x384x1x1xf32>, %s2b4ebv: tensor<1536xf32>, %s2b4pWv: tensor<384x1536x1x1xf32>, %s2b4pbv: tensor<384xf32>, %s2b4lgv: tensor<384xf32>, %s2b5dWv: tensor<384x1x7x7xf32>, %s2b5dbv: tensor<384xf32>, %s2b5ngv: tensor<f32>, %s2b5nbtv: tensor<f32>, %s2b5eWv: tensor<1536x384x1x1xf32>, %s2b5ebv: tensor<1536xf32>, %s2b5pWv: tensor<384x1536x1x1xf32>, %s2b5pbv: tensor<384xf32>, %s2b5lgv: tensor<384xf32>, %s2b6dWv: tensor<384x1x7x7xf32>, %s2b6dbv: tensor<384xf32>, %s2b6ngv: tensor<f32>, %s2b6nbtv: tensor<f32>, %s2b6eWv: tensor<1536x384x1x1xf32>, %s2b6ebv: tensor<1536xf32>, %s2b6pWv: tensor<384x1536x1x1xf32>, %s2b6pbv: tensor<384xf32>, %s2b6lgv: tensor<384xf32>, %s2b7dWv: tensor<384x1x7x7xf32>, %s2b7dbv: tensor<384xf32>, %s2b7ngv: tensor<f32>, %s2b7nbtv: tensor<f32>, %s2b7eWv: tensor<1536x384x1x1xf32>, %s2b7ebv: tensor<1536xf32>, %s2b7pWv: tensor<384x1536x1x1xf32>, %s2b7pbv: tensor<384xf32>, %s2b7lgv: tensor<384xf32>, %s2b8dWv: tensor<384x1x7x7xf32>, %s2b8dbv: tensor<384xf32>, %s2b8ngv: tensor<f32>, %s2b8nbtv: tensor<f32>, %s2b8eWv: tensor<1536x384x1x1xf32>, %s2b8ebv: tensor<1536xf32>, %s2b8pWv: tensor<384x1536x1x1xf32>, %s2b8pbv: tensor<384xf32>, %s2b8lgv: tensor<384xf32>, %d2ngv: tensor<f32>, %d2nbtv: tensor<f32>, %d2Wv: tensor<768x384x2x2xf32>, %d2bv: tensor<768xf32>, %s3b0dWv: tensor<768x1x7x7xf32>, %s3b0dbv: tensor<768xf32>, %s3b0ngv: tensor<f32>, %s3b0nbtv: tensor<f32>, %s3b0eWv: tensor<3072x768x1x1xf32>, %s3b0ebv: tensor<3072xf32>, %s3b0pWv: tensor<768x3072x1x1xf32>, %s3b0pbv: tensor<768xf32>, %s3b0lgv: tensor<768xf32>, %s3b1dWv: tensor<768x1x7x7xf32>, %s3b1dbv: tensor<768xf32>, %s3b1ngv: tensor<f32>, %s3b1nbtv: tensor<f32>, %s3b1eWv: tensor<3072x768x1x1xf32>, %s3b1ebv: tensor<3072xf32>, %s3b1pWv: tensor<768x3072x1x1xf32>, %s3b1pbv: tensor<768xf32>, %s3b1lgv: tensor<768xf32>, %s3b2dWv: tensor<768x1x7x7xf32>, %s3b2dbv: tensor<768xf32>, %s3b2ngv: tensor<f32>, %s3b2nbtv: tensor<f32>, %s3b2eWv: tensor<3072x768x1x1xf32>, %s3b2ebv: tensor<3072xf32>, %s3b2pWv: tensor<768x3072x1x1xf32>, %s3b2pbv: tensor<768xf32>, %s3b2lgv: tensor<768xf32>, %hngv: tensor<f32>, %hnbtv: tensor<f32>, %Wdv: tensor<768x10xf32>, %bdv: tensor<10xf32>, %lr: tensor<f32>, %bc1: tensor<f32>, %bc2: tensor<f32>, %onehot: tensor<32x10xf32>) -> (tensor<96x3x4x4xf32>, tensor<96xf32>, tensor<96x1x7x7xf32>, tensor<96xf32>, tensor<f32>, tensor<f32>, tensor<384x96x1x1xf32>, tensor<384xf32>, tensor<96x384x1x1xf32>, tensor<96xf32>, tensor<96xf32>, tensor<96x1x7x7xf32>, tensor<96xf32>, tensor<f32>, tensor<f32>, tensor<384x96x1x1xf32>, tensor<384xf32>, tensor<96x384x1x1xf32>, tensor<96xf32>, tensor<96xf32>, tensor<96x1x7x7xf32>, tensor<96xf32>, tensor<f32>, tensor<f32>, tensor<384x96x1x1xf32>, tensor<384xf32>, tensor<96x384x1x1xf32>, tensor<96xf32>, tensor<96xf32>, tensor<f32>, tensor<f32>, tensor<192x96x2x2xf32>, tensor<192xf32>, tensor<192x1x7x7xf32>, tensor<192xf32>, tensor<f32>, tensor<f32>, tensor<768x192x1x1xf32>, tensor<768xf32>, tensor<192x768x1x1xf32>, tensor<192xf32>, tensor<192xf32>, tensor<192x1x7x7xf32>, tensor<192xf32>, tensor<f32>, tensor<f32>, tensor<768x192x1x1xf32>, tensor<768xf32>, tensor<192x768x1x1xf32>, tensor<192xf32>, tensor<192xf32>, tensor<192x1x7x7xf32>, tensor<192xf32>, tensor<f32>, tensor<f32>, tensor<768x192x1x1xf32>, tensor<768xf32>, tensor<192x768x1x1xf32>, tensor<192xf32>, tensor<192xf32>, tensor<f32>, tensor<f32>, tensor<384x192x2x2xf32>, tensor<384xf32>, tensor<384x1x7x7xf32>, tensor<384xf32>, tensor<f32>, tensor<f32>, tensor<1536x384x1x1xf32>, tensor<1536xf32>, tensor<384x1536x1x1xf32>, tensor<384xf32>, tensor<384xf32>, tensor<384x1x7x7xf32>, tensor<384xf32>, tensor<f32>, tensor<f32>, tensor<1536x384x1x1xf32>, tensor<1536xf32>, tensor<384x1536x1x1xf32>, tensor<384xf32>, tensor<384xf32>, tensor<384x1x7x7xf32>, tensor<384xf32>, tensor<f32>, tensor<f32>, tensor<1536x384x1x1xf32>, tensor<1536xf32>, tensor<384x1536x1x1xf32>, tensor<384xf32>, tensor<384xf32>, tensor<384x1x7x7xf32>, tensor<384xf32>, tensor<f32>, tensor<f32>, tensor<1536x384x1x1xf32>, tensor<1536xf32>, tensor<384x1536x1x1xf32>, tensor<384xf32>, tensor<384xf32>, tensor<384x1x7x7xf32>, tensor<384xf32>, tensor<f32>, tensor<f32>, tensor<1536x384x1x1xf32>, tensor<1536xf32>, tensor<384x1536x1x1xf32>, tensor<384xf32>, tensor<384xf32>, tensor<384x1x7x7xf32>, tensor<384xf32>, tensor<f32>, tensor<f32>, tensor<1536x384x1x1xf32>, tensor<1536xf32>, tensor<384x1536x1x1xf32>, tensor<384xf32>, tensor<384xf32>, tensor<384x1x7x7xf32>, tensor<384xf32>, tensor<f32>, tensor<f32>, tensor<1536x384x1x1xf32>, tensor<1536xf32>, tensor<384x1536x1x1xf32>, tensor<384xf32>, tensor<384xf32>, tensor<384x1x7x7xf32>, tensor<384xf32>, tensor<f32>, tensor<f32>, tensor<1536x384x1x1xf32>, tensor<1536xf32>, tensor<384x1536x1x1xf32>, tensor<384xf32>, tensor<384xf32>, tensor<384x1x7x7xf32>, tensor<384xf32>, tensor<f32>, tensor<f32>, tensor<1536x384x1x1xf32>, tensor<1536xf32>, tensor<384x1536x1x1xf32>, tensor<384xf32>, tensor<384xf32>, tensor<f32>, tensor<f32>, tensor<768x384x2x2xf32>, tensor<768xf32>, tensor<768x1x7x7xf32>, tensor<768xf32>, tensor<f32>, tensor<f32>, tensor<3072x768x1x1xf32>, tensor<3072xf32>, tensor<768x3072x1x1xf32>, tensor<768xf32>, tensor<768xf32>, tensor<768x1x7x7xf32>, tensor<768xf32>, tensor<f32>, tensor<f32>, tensor<3072x768x1x1xf32>, tensor<3072xf32>, tensor<768x3072x1x1xf32>, tensor<768xf32>, tensor<768xf32>, tensor<768x1x7x7xf32>, tensor<768xf32>, tensor<f32>, tensor<f32>, tensor<3072x768x1x1xf32>, tensor<3072xf32>, tensor<768x3072x1x1xf32>, tensor<768xf32>, tensor<768xf32>, tensor<f32>, tensor<f32>, tensor<768x10xf32>, tensor<10xf32>, tensor<96x3x4x4xf32>, tensor<96xf32>, tensor<96x1x7x7xf32>, tensor<96xf32>, tensor<f32>, tensor<f32>, tensor<384x96x1x1xf32>, tensor<384xf32>, tensor<96x384x1x1xf32>, tensor<96xf32>, tensor<96xf32>, tensor<96x1x7x7xf32>, tensor<96xf32>, tensor<f32>, tensor<f32>, tensor<384x96x1x1xf32>, tensor<384xf32>, tensor<96x384x1x1xf32>, tensor<96xf32>, tensor<96xf32>, tensor<96x1x7x7xf32>, tensor<96xf32>, tensor<f32>, tensor<f32>, tensor<384x96x1x1xf32>, tensor<384xf32>, tensor<96x384x1x1xf32>, tensor<96xf32>, tensor<96xf32>, tensor<f32>, tensor<f32>, tensor<192x96x2x2xf32>, tensor<192xf32>, tensor<192x1x7x7xf32>, tensor<192xf32>, tensor<f32>, tensor<f32>, tensor<768x192x1x1xf32>, tensor<768xf32>, tensor<192x768x1x1xf32>, tensor<192xf32>, tensor<192xf32>, tensor<192x1x7x7xf32>, tensor<192xf32>, tensor<f32>, tensor<f32>, tensor<768x192x1x1xf32>, tensor<768xf32>, tensor<192x768x1x1xf32>, tensor<192xf32>, tensor<192xf32>, tensor<192x1x7x7xf32>, tensor<192xf32>, tensor<f32>, tensor<f32>, tensor<768x192x1x1xf32>, tensor<768xf32>, tensor<192x768x1x1xf32>, tensor<192xf32>, tensor<192xf32>, tensor<f32>, tensor<f32>, tensor<384x192x2x2xf32>, tensor<384xf32>, tensor<384x1x7x7xf32>, tensor<384xf32>, tensor<f32>, tensor<f32>, tensor<1536x384x1x1xf32>, tensor<1536xf32>, tensor<384x1536x1x1xf32>, tensor<384xf32>, tensor<384xf32>, tensor<384x1x7x7xf32>, tensor<384xf32>, tensor<f32>, tensor<f32>, tensor<1536x384x1x1xf32>, tensor<1536xf32>, tensor<384x1536x1x1xf32>, tensor<384xf32>, tensor<384xf32>, tensor<384x1x7x7xf32>, tensor<384xf32>, tensor<f32>, tensor<f32>, tensor<1536x384x1x1xf32>, tensor<1536xf32>, tensor<384x1536x1x1xf32>, tensor<384xf32>, tensor<384xf32>, tensor<384x1x7x7xf32>, tensor<384xf32>, tensor<f32>, tensor<f32>, tensor<1536x384x1x1xf32>, tensor<1536xf32>, tensor<384x1536x1x1xf32>, tensor<384xf32>, tensor<384xf32>, tensor<384x1x7x7xf32>, tensor<384xf32>, tensor<f32>, tensor<f32>, tensor<1536x384x1x1xf32>, tensor<1536xf32>, tensor<384x1536x1x1xf32>, tensor<384xf32>, tensor<384xf32>, tensor<384x1x7x7xf32>, tensor<384xf32>, tensor<f32>, tensor<f32>, tensor<1536x384x1x1xf32>, tensor<1536xf32>, tensor<384x1536x1x1xf32>, tensor<384xf32>, tensor<384xf32>, tensor<384x1x7x7xf32>, tensor<384xf32>, tensor<f32>, tensor<f32>, tensor<1536x384x1x1xf32>, tensor<1536xf32>, tensor<384x1536x1x1xf32>, tensor<384xf32>, tensor<384xf32>, tensor<384x1x7x7xf32>, tensor<384xf32>, tensor<f32>, tensor<f32>, tensor<1536x384x1x1xf32>, tensor<1536xf32>, tensor<384x1536x1x1xf32>, tensor<384xf32>, tensor<384xf32>, tensor<384x1x7x7xf32>, tensor<384xf32>, tensor<f32>, tensor<f32>, tensor<1536x384x1x1xf32>, tensor<1536xf32>, tensor<384x1536x1x1xf32>, tensor<384xf32>, tensor<384xf32>, tensor<f32>, tensor<f32>, tensor<768x384x2x2xf32>, tensor<768xf32>, tensor<768x1x7x7xf32>, tensor<768xf32>, tensor<f32>, tensor<f32>, tensor<3072x768x1x1xf32>, tensor<3072xf32>, tensor<768x3072x1x1xf32>, tensor<768xf32>, tensor<768xf32>, tensor<768x1x7x7xf32>, tensor<768xf32>, tensor<f32>, tensor<f32>, tensor<3072x768x1x1xf32>, tensor<3072xf32>, tensor<768x3072x1x1xf32>, tensor<768xf32>, tensor<768xf32>, tensor<768x1x7x7xf32>, tensor<768xf32>, tensor<f32>, tensor<f32>, tensor<3072x768x1x1xf32>, tensor<3072xf32>, tensor<768x3072x1x1xf32>, tensor<768xf32>, tensor<768xf32>, tensor<f32>, tensor<f32>, tensor<768x10xf32>, tensor<10xf32>, tensor<96x3x4x4xf32>, tensor<96xf32>, tensor<96x1x7x7xf32>, tensor<96xf32>, tensor<f32>, tensor<f32>, tensor<384x96x1x1xf32>, tensor<384xf32>, tensor<96x384x1x1xf32>, tensor<96xf32>, tensor<96xf32>, tensor<96x1x7x7xf32>, tensor<96xf32>, tensor<f32>, tensor<f32>, tensor<384x96x1x1xf32>, tensor<384xf32>, tensor<96x384x1x1xf32>, tensor<96xf32>, tensor<96xf32>, tensor<96x1x7x7xf32>, tensor<96xf32>, tensor<f32>, tensor<f32>, tensor<384x96x1x1xf32>, tensor<384xf32>, tensor<96x384x1x1xf32>, tensor<96xf32>, tensor<96xf32>, tensor<f32>, tensor<f32>, tensor<192x96x2x2xf32>, tensor<192xf32>, tensor<192x1x7x7xf32>, tensor<192xf32>, tensor<f32>, tensor<f32>, tensor<768x192x1x1xf32>, tensor<768xf32>, tensor<192x768x1x1xf32>, tensor<192xf32>, tensor<192xf32>, tensor<192x1x7x7xf32>, tensor<192xf32>, tensor<f32>, tensor<f32>, tensor<768x192x1x1xf32>, tensor<768xf32>, tensor<192x768x1x1xf32>, tensor<192xf32>, tensor<192xf32>, tensor<192x1x7x7xf32>, tensor<192xf32>, tensor<f32>, tensor<f32>, tensor<768x192x1x1xf32>, tensor<768xf32>, tensor<192x768x1x1xf32>, tensor<192xf32>, tensor<192xf32>, tensor<f32>, tensor<f32>, tensor<384x192x2x2xf32>, tensor<384xf32>, tensor<384x1x7x7xf32>, tensor<384xf32>, tensor<f32>, tensor<f32>, tensor<1536x384x1x1xf32>, tensor<1536xf32>, tensor<384x1536x1x1xf32>, tensor<384xf32>, tensor<384xf32>, tensor<384x1x7x7xf32>, tensor<384xf32>, tensor<f32>, tensor<f32>, tensor<1536x384x1x1xf32>, tensor<1536xf32>, tensor<384x1536x1x1xf32>, tensor<384xf32>, tensor<384xf32>, tensor<384x1x7x7xf32>, tensor<384xf32>, tensor<f32>, tensor<f32>, tensor<1536x384x1x1xf32>, tensor<1536xf32>, tensor<384x1536x1x1xf32>, tensor<384xf32>, tensor<384xf32>, tensor<384x1x7x7xf32>, tensor<384xf32>, tensor<f32>, tensor<f32>, tensor<1536x384x1x1xf32>, tensor<1536xf32>, tensor<384x1536x1x1xf32>, tensor<384xf32>, tensor<384xf32>, tensor<384x1x7x7xf32>, tensor<384xf32>, tensor<f32>, tensor<f32>, tensor<1536x384x1x1xf32>, tensor<1536xf32>, tensor<384x1536x1x1xf32>, tensor<384xf32>, tensor<384xf32>, tensor<384x1x7x7xf32>, tensor<384xf32>, tensor<f32>, tensor<f32>, tensor<1536x384x1x1xf32>, tensor<1536xf32>, tensor<384x1536x1x1xf32>, tensor<384xf32>, tensor<384xf32>, tensor<384x1x7x7xf32>, tensor<384xf32>, tensor<f32>, tensor<f32>, tensor<1536x384x1x1xf32>, tensor<1536xf32>, tensor<384x1536x1x1xf32>, tensor<384xf32>, tensor<384xf32>, tensor<384x1x7x7xf32>, tensor<384xf32>, tensor<f32>, tensor<f32>, tensor<1536x384x1x1xf32>, tensor<1536xf32>, tensor<384x1536x1x1xf32>, tensor<384xf32>, tensor<384xf32>, tensor<384x1x7x7xf32>, tensor<384xf32>, tensor<f32>, tensor<f32>, tensor<1536x384x1x1xf32>, tensor<1536xf32>, tensor<384x1536x1x1xf32>, tensor<384xf32>, tensor<384xf32>, tensor<f32>, tensor<f32>, tensor<768x384x2x2xf32>, tensor<768xf32>, tensor<768x1x7x7xf32>, tensor<768xf32>, tensor<f32>, tensor<f32>, tensor<3072x768x1x1xf32>, tensor<3072xf32>, tensor<768x3072x1x1xf32>, tensor<768xf32>, tensor<768xf32>, tensor<768x1x7x7xf32>, tensor<768xf32>, tensor<f32>, tensor<f32>, tensor<3072x768x1x1xf32>, tensor<3072xf32>, tensor<768x3072x1x1xf32>, tensor<768xf32>, tensor<768xf32>, tensor<768x1x7x7xf32>, tensor<768xf32>, tensor<f32>, tensor<f32>, tensor<3072x768x1x1xf32>, tensor<3072xf32>, tensor<768x3072x1x1xf32>, tensor<768xf32>, tensor<768xf32>, tensor<f32>, tensor<f32>, tensor<768x10xf32>, tensor<10xf32>, tensor<f32>, tensor<f32>, tensor<f32>) {
    %sc = stablehlo.constant dense<0.0> : tensor<f32>
    %xr = stablehlo.reshape %x : (tensor<32x150528xf32>) -> tensor<32x3x224x224xf32>
    %psc = stablehlo.convolution(%xr, %psW)
      dim_numbers = [b, f, 0, 1]x[o, i, 0, 1]->[b, f, 0, 1],
      window = {stride = [4, 4], pad = [[0, 0], [0, 0]], lhs_dilate = [1, 1], rhs_dilate = [1, 1]}
      {batch_group_count = 1 : i64, feature_group_count = 1 : i64} : (tensor<32x3x224x224xf32>, tensor<96x3x4x4xf32>) -> tensor<32x96x56x56xf32>
    %psbb = stablehlo.broadcast_in_dim %psb, dims = [1] : (tensor<96xf32>) -> tensor<32x96x56x56xf32>
    %ps = stablehlo.add %psc, %psbb : tensor<32x96x56x56xf32>
    %s0b0dc = stablehlo.convolution(%ps, %s0b0dW)
      dim_numbers = [b, f, 0, 1]x[o, i, 0, 1]->[b, f, 0, 1],
      window = {stride = [1, 1], pad = [[3, 3], [3, 3]], lhs_dilate = [1, 1], rhs_dilate = [1, 1]}
      {batch_group_count = 1 : i64, feature_group_count = 96 : i64} : (tensor<32x96x56x56xf32>, tensor<96x1x7x7xf32>) -> tensor<32x96x56x56xf32>
    %s0b0dbb = stablehlo.broadcast_in_dim %s0b0db, dims = [1] : (tensor<96xf32>) -> tensor<32x96x56x56xf32>
    %s0b0d = stablehlo.add %s0b0dc, %s0b0dbb : tensor<32x96x56x56xf32>
    %s0b0nri = stablehlo.reshape %s0b0d : (tensor<32x96x56x56xf32>) -> tensor<32x301056xf32>
    %s0b0nnf = stablehlo.constant dense<301056.0> : tensor<32x301056xf32>
    %s0b0nep = stablehlo.constant dense<1.0e-6> : tensor<32x301056xf32>
    %s0b0nsmr = stablehlo.reduce(%s0b0nri init: %sc) applies stablehlo.add across dimensions = [1] : (tensor<32x301056xf32>, tensor<f32>) -> tensor<32xf32>
    %s0b0nsm = stablehlo.broadcast_in_dim %s0b0nsmr, dims = [0] : (tensor<32xf32>) -> tensor<32x301056xf32>
    %s0b0nmu = stablehlo.divide %s0b0nsm, %s0b0nnf : tensor<32x301056xf32>
    %s0b0nxc = stablehlo.subtract %s0b0nri, %s0b0nmu : tensor<32x301056xf32>
    %s0b0nsq = stablehlo.multiply %s0b0nxc, %s0b0nxc : tensor<32x301056xf32>
    %s0b0nvsr = stablehlo.reduce(%s0b0nsq init: %sc) applies stablehlo.add across dimensions = [1] : (tensor<32x301056xf32>, tensor<f32>) -> tensor<32xf32>
    %s0b0nvs = stablehlo.broadcast_in_dim %s0b0nvsr, dims = [0] : (tensor<32xf32>) -> tensor<32x301056xf32>
    %s0b0nvr = stablehlo.divide %s0b0nvs, %s0b0nnf : tensor<32x301056xf32>
    %s0b0nve = stablehlo.add %s0b0nvr, %s0b0nep : tensor<32x301056xf32>
    %s0b0nistd = stablehlo.rsqrt %s0b0nve : tensor<32x301056xf32>
    %s0b0nxh = stablehlo.multiply %s0b0nxc, %s0b0nistd : tensor<32x301056xf32>
    %s0b0ngb = stablehlo.broadcast_in_dim %s0b0ng, dims = [] : (tensor<f32>) -> tensor<32x301056xf32>
    %s0b0nbtb = stablehlo.broadcast_in_dim %s0b0nbt, dims = [] : (tensor<f32>) -> tensor<32x301056xf32>
    %s0b0ngx = stablehlo.multiply %s0b0nxh, %s0b0ngb : tensor<32x301056xf32>
    %s0b0nfl = stablehlo.add %s0b0ngx, %s0b0nbtb : tensor<32x301056xf32>
    %s0b0n = stablehlo.reshape %s0b0nfl : (tensor<32x301056xf32>) -> tensor<32x96x56x56xf32>
    %s0b0ec = stablehlo.convolution(%s0b0n, %s0b0eW)
      dim_numbers = [b, f, 0, 1]x[o, i, 0, 1]->[b, f, 0, 1],
      window = {stride = [1, 1], pad = [[0, 0], [0, 0]], lhs_dilate = [1, 1], rhs_dilate = [1, 1]}
      {batch_group_count = 1 : i64, feature_group_count = 1 : i64} : (tensor<32x96x56x56xf32>, tensor<384x96x1x1xf32>) -> tensor<32x384x56x56xf32>
    %s0b0ebb = stablehlo.broadcast_in_dim %s0b0eb, dims = [1] : (tensor<384xf32>) -> tensor<32x384x56x56xf32>
    %s0b0e = stablehlo.add %s0b0ec, %s0b0ebb : tensor<32x384x56x56xf32>
    %s0b0gx2 = stablehlo.multiply %s0b0e, %s0b0e : tensor<32x384x56x56xf32>
    %s0b0gx3 = stablehlo.multiply %s0b0gx2, %s0b0e : tensor<32x384x56x56xf32>
    %s0b0gck = stablehlo.constant dense<0.044715> : tensor<32x384x56x56xf32>
    %s0b0gkx3 = stablehlo.multiply %s0b0gck, %s0b0gx3 : tensor<32x384x56x56xf32>
    %s0b0ginn = stablehlo.add %s0b0e, %s0b0gkx3 : tensor<32x384x56x56xf32>
    %s0b0gcs = stablehlo.constant dense<0.7978845608028654> : tensor<32x384x56x56xf32>
    %s0b0gu = stablehlo.multiply %s0b0gcs, %s0b0ginn : tensor<32x384x56x56xf32>
    %s0b0gt = stablehlo.tanh %s0b0gu : tensor<32x384x56x56xf32>
    %s0b0gone = stablehlo.constant dense<1.0> : tensor<32x384x56x56xf32>
    %s0b0gopt = stablehlo.add %s0b0gone, %s0b0gt : tensor<32x384x56x56xf32>
    %s0b0ghalf = stablehlo.constant dense<0.5> : tensor<32x384x56x56xf32>
    %s0b0ghx = stablehlo.multiply %s0b0ghalf, %s0b0e : tensor<32x384x56x56xf32>
    %s0b0g = stablehlo.multiply %s0b0ghx, %s0b0gopt : tensor<32x384x56x56xf32>
    %s0b0pc = stablehlo.convolution(%s0b0g, %s0b0pW)
      dim_numbers = [b, f, 0, 1]x[o, i, 0, 1]->[b, f, 0, 1],
      window = {stride = [1, 1], pad = [[0, 0], [0, 0]], lhs_dilate = [1, 1], rhs_dilate = [1, 1]}
      {batch_group_count = 1 : i64, feature_group_count = 1 : i64} : (tensor<32x384x56x56xf32>, tensor<96x384x1x1xf32>) -> tensor<32x96x56x56xf32>
    %s0b0pbb = stablehlo.broadcast_in_dim %s0b0pb, dims = [1] : (tensor<96xf32>) -> tensor<32x96x56x56xf32>
    %s0b0p = stablehlo.add %s0b0pc, %s0b0pbb : tensor<32x96x56x56xf32>
    %s0b0lsgb = stablehlo.broadcast_in_dim %s0b0lg, dims = [1] : (tensor<96xf32>) -> tensor<32x96x56x56xf32>
    %s0b0ls = stablehlo.multiply %s0b0p, %s0b0lsgb : tensor<32x96x56x56xf32>
    %s0b0o = stablehlo.add %s0b0ls, %ps : tensor<32x96x56x56xf32>
    %s0b1dc = stablehlo.convolution(%s0b0o, %s0b1dW)
      dim_numbers = [b, f, 0, 1]x[o, i, 0, 1]->[b, f, 0, 1],
      window = {stride = [1, 1], pad = [[3, 3], [3, 3]], lhs_dilate = [1, 1], rhs_dilate = [1, 1]}
      {batch_group_count = 1 : i64, feature_group_count = 96 : i64} : (tensor<32x96x56x56xf32>, tensor<96x1x7x7xf32>) -> tensor<32x96x56x56xf32>
    %s0b1dbb = stablehlo.broadcast_in_dim %s0b1db, dims = [1] : (tensor<96xf32>) -> tensor<32x96x56x56xf32>
    %s0b1d = stablehlo.add %s0b1dc, %s0b1dbb : tensor<32x96x56x56xf32>
    %s0b1nri = stablehlo.reshape %s0b1d : (tensor<32x96x56x56xf32>) -> tensor<32x301056xf32>
    %s0b1nnf = stablehlo.constant dense<301056.0> : tensor<32x301056xf32>
    %s0b1nep = stablehlo.constant dense<1.0e-6> : tensor<32x301056xf32>
    %s0b1nsmr = stablehlo.reduce(%s0b1nri init: %sc) applies stablehlo.add across dimensions = [1] : (tensor<32x301056xf32>, tensor<f32>) -> tensor<32xf32>
    %s0b1nsm = stablehlo.broadcast_in_dim %s0b1nsmr, dims = [0] : (tensor<32xf32>) -> tensor<32x301056xf32>
    %s0b1nmu = stablehlo.divide %s0b1nsm, %s0b1nnf : tensor<32x301056xf32>
    %s0b1nxc = stablehlo.subtract %s0b1nri, %s0b1nmu : tensor<32x301056xf32>
    %s0b1nsq = stablehlo.multiply %s0b1nxc, %s0b1nxc : tensor<32x301056xf32>
    %s0b1nvsr = stablehlo.reduce(%s0b1nsq init: %sc) applies stablehlo.add across dimensions = [1] : (tensor<32x301056xf32>, tensor<f32>) -> tensor<32xf32>
    %s0b1nvs = stablehlo.broadcast_in_dim %s0b1nvsr, dims = [0] : (tensor<32xf32>) -> tensor<32x301056xf32>
    %s0b1nvr = stablehlo.divide %s0b1nvs, %s0b1nnf : tensor<32x301056xf32>
    %s0b1nve = stablehlo.add %s0b1nvr, %s0b1nep : tensor<32x301056xf32>
    %s0b1nistd = stablehlo.rsqrt %s0b1nve : tensor<32x301056xf32>
    %s0b1nxh = stablehlo.multiply %s0b1nxc, %s0b1nistd : tensor<32x301056xf32>
    %s0b1ngb = stablehlo.broadcast_in_dim %s0b1ng, dims = [] : (tensor<f32>) -> tensor<32x301056xf32>
    %s0b1nbtb = stablehlo.broadcast_in_dim %s0b1nbt, dims = [] : (tensor<f32>) -> tensor<32x301056xf32>
    %s0b1ngx = stablehlo.multiply %s0b1nxh, %s0b1ngb : tensor<32x301056xf32>
    %s0b1nfl = stablehlo.add %s0b1ngx, %s0b1nbtb : tensor<32x301056xf32>
    %s0b1n = stablehlo.reshape %s0b1nfl : (tensor<32x301056xf32>) -> tensor<32x96x56x56xf32>
    %s0b1ec = stablehlo.convolution(%s0b1n, %s0b1eW)
      dim_numbers = [b, f, 0, 1]x[o, i, 0, 1]->[b, f, 0, 1],
      window = {stride = [1, 1], pad = [[0, 0], [0, 0]], lhs_dilate = [1, 1], rhs_dilate = [1, 1]}
      {batch_group_count = 1 : i64, feature_group_count = 1 : i64} : (tensor<32x96x56x56xf32>, tensor<384x96x1x1xf32>) -> tensor<32x384x56x56xf32>
    %s0b1ebb = stablehlo.broadcast_in_dim %s0b1eb, dims = [1] : (tensor<384xf32>) -> tensor<32x384x56x56xf32>
    %s0b1e = stablehlo.add %s0b1ec, %s0b1ebb : tensor<32x384x56x56xf32>
    %s0b1gx2 = stablehlo.multiply %s0b1e, %s0b1e : tensor<32x384x56x56xf32>
    %s0b1gx3 = stablehlo.multiply %s0b1gx2, %s0b1e : tensor<32x384x56x56xf32>
    %s0b1gck = stablehlo.constant dense<0.044715> : tensor<32x384x56x56xf32>
    %s0b1gkx3 = stablehlo.multiply %s0b1gck, %s0b1gx3 : tensor<32x384x56x56xf32>
    %s0b1ginn = stablehlo.add %s0b1e, %s0b1gkx3 : tensor<32x384x56x56xf32>
    %s0b1gcs = stablehlo.constant dense<0.7978845608028654> : tensor<32x384x56x56xf32>
    %s0b1gu = stablehlo.multiply %s0b1gcs, %s0b1ginn : tensor<32x384x56x56xf32>
    %s0b1gt = stablehlo.tanh %s0b1gu : tensor<32x384x56x56xf32>
    %s0b1gone = stablehlo.constant dense<1.0> : tensor<32x384x56x56xf32>
    %s0b1gopt = stablehlo.add %s0b1gone, %s0b1gt : tensor<32x384x56x56xf32>
    %s0b1ghalf = stablehlo.constant dense<0.5> : tensor<32x384x56x56xf32>
    %s0b1ghx = stablehlo.multiply %s0b1ghalf, %s0b1e : tensor<32x384x56x56xf32>
    %s0b1g = stablehlo.multiply %s0b1ghx, %s0b1gopt : tensor<32x384x56x56xf32>
    %s0b1pc = stablehlo.convolution(%s0b1g, %s0b1pW)
      dim_numbers = [b, f, 0, 1]x[o, i, 0, 1]->[b, f, 0, 1],
      window = {stride = [1, 1], pad = [[0, 0], [0, 0]], lhs_dilate = [1, 1], rhs_dilate = [1, 1]}
      {batch_group_count = 1 : i64, feature_group_count = 1 : i64} : (tensor<32x384x56x56xf32>, tensor<96x384x1x1xf32>) -> tensor<32x96x56x56xf32>
    %s0b1pbb = stablehlo.broadcast_in_dim %s0b1pb, dims = [1] : (tensor<96xf32>) -> tensor<32x96x56x56xf32>
    %s0b1p = stablehlo.add %s0b1pc, %s0b1pbb : tensor<32x96x56x56xf32>
    %s0b1lsgb = stablehlo.broadcast_in_dim %s0b1lg, dims = [1] : (tensor<96xf32>) -> tensor<32x96x56x56xf32>
    %s0b1ls = stablehlo.multiply %s0b1p, %s0b1lsgb : tensor<32x96x56x56xf32>
    %s0b1o = stablehlo.add %s0b1ls, %s0b0o : tensor<32x96x56x56xf32>
    %s0b2dc = stablehlo.convolution(%s0b1o, %s0b2dW)
      dim_numbers = [b, f, 0, 1]x[o, i, 0, 1]->[b, f, 0, 1],
      window = {stride = [1, 1], pad = [[3, 3], [3, 3]], lhs_dilate = [1, 1], rhs_dilate = [1, 1]}
      {batch_group_count = 1 : i64, feature_group_count = 96 : i64} : (tensor<32x96x56x56xf32>, tensor<96x1x7x7xf32>) -> tensor<32x96x56x56xf32>
    %s0b2dbb = stablehlo.broadcast_in_dim %s0b2db, dims = [1] : (tensor<96xf32>) -> tensor<32x96x56x56xf32>
    %s0b2d = stablehlo.add %s0b2dc, %s0b2dbb : tensor<32x96x56x56xf32>
    %s0b2nri = stablehlo.reshape %s0b2d : (tensor<32x96x56x56xf32>) -> tensor<32x301056xf32>
    %s0b2nnf = stablehlo.constant dense<301056.0> : tensor<32x301056xf32>
    %s0b2nep = stablehlo.constant dense<1.0e-6> : tensor<32x301056xf32>
    %s0b2nsmr = stablehlo.reduce(%s0b2nri init: %sc) applies stablehlo.add across dimensions = [1] : (tensor<32x301056xf32>, tensor<f32>) -> tensor<32xf32>
    %s0b2nsm = stablehlo.broadcast_in_dim %s0b2nsmr, dims = [0] : (tensor<32xf32>) -> tensor<32x301056xf32>
    %s0b2nmu = stablehlo.divide %s0b2nsm, %s0b2nnf : tensor<32x301056xf32>
    %s0b2nxc = stablehlo.subtract %s0b2nri, %s0b2nmu : tensor<32x301056xf32>
    %s0b2nsq = stablehlo.multiply %s0b2nxc, %s0b2nxc : tensor<32x301056xf32>
    %s0b2nvsr = stablehlo.reduce(%s0b2nsq init: %sc) applies stablehlo.add across dimensions = [1] : (tensor<32x301056xf32>, tensor<f32>) -> tensor<32xf32>
    %s0b2nvs = stablehlo.broadcast_in_dim %s0b2nvsr, dims = [0] : (tensor<32xf32>) -> tensor<32x301056xf32>
    %s0b2nvr = stablehlo.divide %s0b2nvs, %s0b2nnf : tensor<32x301056xf32>
    %s0b2nve = stablehlo.add %s0b2nvr, %s0b2nep : tensor<32x301056xf32>
    %s0b2nistd = stablehlo.rsqrt %s0b2nve : tensor<32x301056xf32>
    %s0b2nxh = stablehlo.multiply %s0b2nxc, %s0b2nistd : tensor<32x301056xf32>
    %s0b2ngb = stablehlo.broadcast_in_dim %s0b2ng, dims = [] : (tensor<f32>) -> tensor<32x301056xf32>
    %s0b2nbtb = stablehlo.broadcast_in_dim %s0b2nbt, dims = [] : (tensor<f32>) -> tensor<32x301056xf32>
    %s0b2ngx = stablehlo.multiply %s0b2nxh, %s0b2ngb : tensor<32x301056xf32>
    %s0b2nfl = stablehlo.add %s0b2ngx, %s0b2nbtb : tensor<32x301056xf32>
    %s0b2n = stablehlo.reshape %s0b2nfl : (tensor<32x301056xf32>) -> tensor<32x96x56x56xf32>
    %s0b2ec = stablehlo.convolution(%s0b2n, %s0b2eW)
      dim_numbers = [b, f, 0, 1]x[o, i, 0, 1]->[b, f, 0, 1],
      window = {stride = [1, 1], pad = [[0, 0], [0, 0]], lhs_dilate = [1, 1], rhs_dilate = [1, 1]}
      {batch_group_count = 1 : i64, feature_group_count = 1 : i64} : (tensor<32x96x56x56xf32>, tensor<384x96x1x1xf32>) -> tensor<32x384x56x56xf32>
    %s0b2ebb = stablehlo.broadcast_in_dim %s0b2eb, dims = [1] : (tensor<384xf32>) -> tensor<32x384x56x56xf32>
    %s0b2e = stablehlo.add %s0b2ec, %s0b2ebb : tensor<32x384x56x56xf32>
    %s0b2gx2 = stablehlo.multiply %s0b2e, %s0b2e : tensor<32x384x56x56xf32>
    %s0b2gx3 = stablehlo.multiply %s0b2gx2, %s0b2e : tensor<32x384x56x56xf32>
    %s0b2gck = stablehlo.constant dense<0.044715> : tensor<32x384x56x56xf32>
    %s0b2gkx3 = stablehlo.multiply %s0b2gck, %s0b2gx3 : tensor<32x384x56x56xf32>
    %s0b2ginn = stablehlo.add %s0b2e, %s0b2gkx3 : tensor<32x384x56x56xf32>
    %s0b2gcs = stablehlo.constant dense<0.7978845608028654> : tensor<32x384x56x56xf32>
    %s0b2gu = stablehlo.multiply %s0b2gcs, %s0b2ginn : tensor<32x384x56x56xf32>
    %s0b2gt = stablehlo.tanh %s0b2gu : tensor<32x384x56x56xf32>
    %s0b2gone = stablehlo.constant dense<1.0> : tensor<32x384x56x56xf32>
    %s0b2gopt = stablehlo.add %s0b2gone, %s0b2gt : tensor<32x384x56x56xf32>
    %s0b2ghalf = stablehlo.constant dense<0.5> : tensor<32x384x56x56xf32>
    %s0b2ghx = stablehlo.multiply %s0b2ghalf, %s0b2e : tensor<32x384x56x56xf32>
    %s0b2g = stablehlo.multiply %s0b2ghx, %s0b2gopt : tensor<32x384x56x56xf32>
    %s0b2pc = stablehlo.convolution(%s0b2g, %s0b2pW)
      dim_numbers = [b, f, 0, 1]x[o, i, 0, 1]->[b, f, 0, 1],
      window = {stride = [1, 1], pad = [[0, 0], [0, 0]], lhs_dilate = [1, 1], rhs_dilate = [1, 1]}
      {batch_group_count = 1 : i64, feature_group_count = 1 : i64} : (tensor<32x384x56x56xf32>, tensor<96x384x1x1xf32>) -> tensor<32x96x56x56xf32>
    %s0b2pbb = stablehlo.broadcast_in_dim %s0b2pb, dims = [1] : (tensor<96xf32>) -> tensor<32x96x56x56xf32>
    %s0b2p = stablehlo.add %s0b2pc, %s0b2pbb : tensor<32x96x56x56xf32>
    %s0b2lsgb = stablehlo.broadcast_in_dim %s0b2lg, dims = [1] : (tensor<96xf32>) -> tensor<32x96x56x56xf32>
    %s0b2ls = stablehlo.multiply %s0b2p, %s0b2lsgb : tensor<32x96x56x56xf32>
    %s0b2o = stablehlo.add %s0b2ls, %s0b1o : tensor<32x96x56x56xf32>
    %d0nri = stablehlo.reshape %s0b2o : (tensor<32x96x56x56xf32>) -> tensor<32x301056xf32>
    %d0nnf = stablehlo.constant dense<301056.0> : tensor<32x301056xf32>
    %d0nep = stablehlo.constant dense<1.0e-6> : tensor<32x301056xf32>
    %d0nsmr = stablehlo.reduce(%d0nri init: %sc) applies stablehlo.add across dimensions = [1] : (tensor<32x301056xf32>, tensor<f32>) -> tensor<32xf32>
    %d0nsm = stablehlo.broadcast_in_dim %d0nsmr, dims = [0] : (tensor<32xf32>) -> tensor<32x301056xf32>
    %d0nmu = stablehlo.divide %d0nsm, %d0nnf : tensor<32x301056xf32>
    %d0nxc = stablehlo.subtract %d0nri, %d0nmu : tensor<32x301056xf32>
    %d0nsq = stablehlo.multiply %d0nxc, %d0nxc : tensor<32x301056xf32>
    %d0nvsr = stablehlo.reduce(%d0nsq init: %sc) applies stablehlo.add across dimensions = [1] : (tensor<32x301056xf32>, tensor<f32>) -> tensor<32xf32>
    %d0nvs = stablehlo.broadcast_in_dim %d0nvsr, dims = [0] : (tensor<32xf32>) -> tensor<32x301056xf32>
    %d0nvr = stablehlo.divide %d0nvs, %d0nnf : tensor<32x301056xf32>
    %d0nve = stablehlo.add %d0nvr, %d0nep : tensor<32x301056xf32>
    %d0nistd = stablehlo.rsqrt %d0nve : tensor<32x301056xf32>
    %d0nxh = stablehlo.multiply %d0nxc, %d0nistd : tensor<32x301056xf32>
    %d0ngb = stablehlo.broadcast_in_dim %d0ng, dims = [] : (tensor<f32>) -> tensor<32x301056xf32>
    %d0nbtb = stablehlo.broadcast_in_dim %d0nbt, dims = [] : (tensor<f32>) -> tensor<32x301056xf32>
    %d0ngx = stablehlo.multiply %d0nxh, %d0ngb : tensor<32x301056xf32>
    %d0nfl = stablehlo.add %d0ngx, %d0nbtb : tensor<32x301056xf32>
    %d0n = stablehlo.reshape %d0nfl : (tensor<32x301056xf32>) -> tensor<32x96x56x56xf32>
    %d0cc = stablehlo.convolution(%d0n, %d0W)
      dim_numbers = [b, f, 0, 1]x[o, i, 0, 1]->[b, f, 0, 1],
      window = {stride = [2, 2], pad = [[0, 0], [0, 0]], lhs_dilate = [1, 1], rhs_dilate = [1, 1]}
      {batch_group_count = 1 : i64, feature_group_count = 1 : i64} : (tensor<32x96x56x56xf32>, tensor<192x96x2x2xf32>) -> tensor<32x192x28x28xf32>
    %d0cbb = stablehlo.broadcast_in_dim %d0b, dims = [1] : (tensor<192xf32>) -> tensor<32x192x28x28xf32>
    %d0c = stablehlo.add %d0cc, %d0cbb : tensor<32x192x28x28xf32>
    %s1b0dc = stablehlo.convolution(%d0c, %s1b0dW)
      dim_numbers = [b, f, 0, 1]x[o, i, 0, 1]->[b, f, 0, 1],
      window = {stride = [1, 1], pad = [[3, 3], [3, 3]], lhs_dilate = [1, 1], rhs_dilate = [1, 1]}
      {batch_group_count = 1 : i64, feature_group_count = 192 : i64} : (tensor<32x192x28x28xf32>, tensor<192x1x7x7xf32>) -> tensor<32x192x28x28xf32>
    %s1b0dbb = stablehlo.broadcast_in_dim %s1b0db, dims = [1] : (tensor<192xf32>) -> tensor<32x192x28x28xf32>
    %s1b0d = stablehlo.add %s1b0dc, %s1b0dbb : tensor<32x192x28x28xf32>
    %s1b0nri = stablehlo.reshape %s1b0d : (tensor<32x192x28x28xf32>) -> tensor<32x150528xf32>
    %s1b0nnf = stablehlo.constant dense<150528.0> : tensor<32x150528xf32>
    %s1b0nep = stablehlo.constant dense<1.0e-6> : tensor<32x150528xf32>
    %s1b0nsmr = stablehlo.reduce(%s1b0nri init: %sc) applies stablehlo.add across dimensions = [1] : (tensor<32x150528xf32>, tensor<f32>) -> tensor<32xf32>
    %s1b0nsm = stablehlo.broadcast_in_dim %s1b0nsmr, dims = [0] : (tensor<32xf32>) -> tensor<32x150528xf32>
    %s1b0nmu = stablehlo.divide %s1b0nsm, %s1b0nnf : tensor<32x150528xf32>
    %s1b0nxc = stablehlo.subtract %s1b0nri, %s1b0nmu : tensor<32x150528xf32>
    %s1b0nsq = stablehlo.multiply %s1b0nxc, %s1b0nxc : tensor<32x150528xf32>
    %s1b0nvsr = stablehlo.reduce(%s1b0nsq init: %sc) applies stablehlo.add across dimensions = [1] : (tensor<32x150528xf32>, tensor<f32>) -> tensor<32xf32>
    %s1b0nvs = stablehlo.broadcast_in_dim %s1b0nvsr, dims = [0] : (tensor<32xf32>) -> tensor<32x150528xf32>
    %s1b0nvr = stablehlo.divide %s1b0nvs, %s1b0nnf : tensor<32x150528xf32>
    %s1b0nve = stablehlo.add %s1b0nvr, %s1b0nep : tensor<32x150528xf32>
    %s1b0nistd = stablehlo.rsqrt %s1b0nve : tensor<32x150528xf32>
    %s1b0nxh = stablehlo.multiply %s1b0nxc, %s1b0nistd : tensor<32x150528xf32>
    %s1b0ngb = stablehlo.broadcast_in_dim %s1b0ng, dims = [] : (tensor<f32>) -> tensor<32x150528xf32>
    %s1b0nbtb = stablehlo.broadcast_in_dim %s1b0nbt, dims = [] : (tensor<f32>) -> tensor<32x150528xf32>
    %s1b0ngx = stablehlo.multiply %s1b0nxh, %s1b0ngb : tensor<32x150528xf32>
    %s1b0nfl = stablehlo.add %s1b0ngx, %s1b0nbtb : tensor<32x150528xf32>
    %s1b0n = stablehlo.reshape %s1b0nfl : (tensor<32x150528xf32>) -> tensor<32x192x28x28xf32>
    %s1b0ec = stablehlo.convolution(%s1b0n, %s1b0eW)
      dim_numbers = [b, f, 0, 1]x[o, i, 0, 1]->[b, f, 0, 1],
      window = {stride = [1, 1], pad = [[0, 0], [0, 0]], lhs_dilate = [1, 1], rhs_dilate = [1, 1]}
      {batch_group_count = 1 : i64, feature_group_count = 1 : i64} : (tensor<32x192x28x28xf32>, tensor<768x192x1x1xf32>) -> tensor<32x768x28x28xf32>
    %s1b0ebb = stablehlo.broadcast_in_dim %s1b0eb, dims = [1] : (tensor<768xf32>) -> tensor<32x768x28x28xf32>
    %s1b0e = stablehlo.add %s1b0ec, %s1b0ebb : tensor<32x768x28x28xf32>
    %s1b0gx2 = stablehlo.multiply %s1b0e, %s1b0e : tensor<32x768x28x28xf32>
    %s1b0gx3 = stablehlo.multiply %s1b0gx2, %s1b0e : tensor<32x768x28x28xf32>
    %s1b0gck = stablehlo.constant dense<0.044715> : tensor<32x768x28x28xf32>
    %s1b0gkx3 = stablehlo.multiply %s1b0gck, %s1b0gx3 : tensor<32x768x28x28xf32>
    %s1b0ginn = stablehlo.add %s1b0e, %s1b0gkx3 : tensor<32x768x28x28xf32>
    %s1b0gcs = stablehlo.constant dense<0.7978845608028654> : tensor<32x768x28x28xf32>
    %s1b0gu = stablehlo.multiply %s1b0gcs, %s1b0ginn : tensor<32x768x28x28xf32>
    %s1b0gt = stablehlo.tanh %s1b0gu : tensor<32x768x28x28xf32>
    %s1b0gone = stablehlo.constant dense<1.0> : tensor<32x768x28x28xf32>
    %s1b0gopt = stablehlo.add %s1b0gone, %s1b0gt : tensor<32x768x28x28xf32>
    %s1b0ghalf = stablehlo.constant dense<0.5> : tensor<32x768x28x28xf32>
    %s1b0ghx = stablehlo.multiply %s1b0ghalf, %s1b0e : tensor<32x768x28x28xf32>
    %s1b0g = stablehlo.multiply %s1b0ghx, %s1b0gopt : tensor<32x768x28x28xf32>
    %s1b0pc = stablehlo.convolution(%s1b0g, %s1b0pW)
      dim_numbers = [b, f, 0, 1]x[o, i, 0, 1]->[b, f, 0, 1],
      window = {stride = [1, 1], pad = [[0, 0], [0, 0]], lhs_dilate = [1, 1], rhs_dilate = [1, 1]}
      {batch_group_count = 1 : i64, feature_group_count = 1 : i64} : (tensor<32x768x28x28xf32>, tensor<192x768x1x1xf32>) -> tensor<32x192x28x28xf32>
    %s1b0pbb = stablehlo.broadcast_in_dim %s1b0pb, dims = [1] : (tensor<192xf32>) -> tensor<32x192x28x28xf32>
    %s1b0p = stablehlo.add %s1b0pc, %s1b0pbb : tensor<32x192x28x28xf32>
    %s1b0lsgb = stablehlo.broadcast_in_dim %s1b0lg, dims = [1] : (tensor<192xf32>) -> tensor<32x192x28x28xf32>
    %s1b0ls = stablehlo.multiply %s1b0p, %s1b0lsgb : tensor<32x192x28x28xf32>
    %s1b0o = stablehlo.add %s1b0ls, %d0c : tensor<32x192x28x28xf32>
    %s1b1dc = stablehlo.convolution(%s1b0o, %s1b1dW)
      dim_numbers = [b, f, 0, 1]x[o, i, 0, 1]->[b, f, 0, 1],
      window = {stride = [1, 1], pad = [[3, 3], [3, 3]], lhs_dilate = [1, 1], rhs_dilate = [1, 1]}
      {batch_group_count = 1 : i64, feature_group_count = 192 : i64} : (tensor<32x192x28x28xf32>, tensor<192x1x7x7xf32>) -> tensor<32x192x28x28xf32>
    %s1b1dbb = stablehlo.broadcast_in_dim %s1b1db, dims = [1] : (tensor<192xf32>) -> tensor<32x192x28x28xf32>
    %s1b1d = stablehlo.add %s1b1dc, %s1b1dbb : tensor<32x192x28x28xf32>
    %s1b1nri = stablehlo.reshape %s1b1d : (tensor<32x192x28x28xf32>) -> tensor<32x150528xf32>
    %s1b1nnf = stablehlo.constant dense<150528.0> : tensor<32x150528xf32>
    %s1b1nep = stablehlo.constant dense<1.0e-6> : tensor<32x150528xf32>
    %s1b1nsmr = stablehlo.reduce(%s1b1nri init: %sc) applies stablehlo.add across dimensions = [1] : (tensor<32x150528xf32>, tensor<f32>) -> tensor<32xf32>
    %s1b1nsm = stablehlo.broadcast_in_dim %s1b1nsmr, dims = [0] : (tensor<32xf32>) -> tensor<32x150528xf32>
    %s1b1nmu = stablehlo.divide %s1b1nsm, %s1b1nnf : tensor<32x150528xf32>
    %s1b1nxc = stablehlo.subtract %s1b1nri, %s1b1nmu : tensor<32x150528xf32>
    %s1b1nsq = stablehlo.multiply %s1b1nxc, %s1b1nxc : tensor<32x150528xf32>
    %s1b1nvsr = stablehlo.reduce(%s1b1nsq init: %sc) applies stablehlo.add across dimensions = [1] : (tensor<32x150528xf32>, tensor<f32>) -> tensor<32xf32>
    %s1b1nvs = stablehlo.broadcast_in_dim %s1b1nvsr, dims = [0] : (tensor<32xf32>) -> tensor<32x150528xf32>
    %s1b1nvr = stablehlo.divide %s1b1nvs, %s1b1nnf : tensor<32x150528xf32>
    %s1b1nve = stablehlo.add %s1b1nvr, %s1b1nep : tensor<32x150528xf32>
    %s1b1nistd = stablehlo.rsqrt %s1b1nve : tensor<32x150528xf32>
    %s1b1nxh = stablehlo.multiply %s1b1nxc, %s1b1nistd : tensor<32x150528xf32>
    %s1b1ngb = stablehlo.broadcast_in_dim %s1b1ng, dims = [] : (tensor<f32>) -> tensor<32x150528xf32>
    %s1b1nbtb = stablehlo.broadcast_in_dim %s1b1nbt, dims = [] : (tensor<f32>) -> tensor<32x150528xf32>
    %s1b1ngx = stablehlo.multiply %s1b1nxh, %s1b1ngb : tensor<32x150528xf32>
    %s1b1nfl = stablehlo.add %s1b1ngx, %s1b1nbtb : tensor<32x150528xf32>
    %s1b1n = stablehlo.reshape %s1b1nfl : (tensor<32x150528xf32>) -> tensor<32x192x28x28xf32>
    %s1b1ec = stablehlo.convolution(%s1b1n, %s1b1eW)
      dim_numbers = [b, f, 0, 1]x[o, i, 0, 1]->[b, f, 0, 1],
      window = {stride = [1, 1], pad = [[0, 0], [0, 0]], lhs_dilate = [1, 1], rhs_dilate = [1, 1]}
      {batch_group_count = 1 : i64, feature_group_count = 1 : i64} : (tensor<32x192x28x28xf32>, tensor<768x192x1x1xf32>) -> tensor<32x768x28x28xf32>
    %s1b1ebb = stablehlo.broadcast_in_dim %s1b1eb, dims = [1] : (tensor<768xf32>) -> tensor<32x768x28x28xf32>
    %s1b1e = stablehlo.add %s1b1ec, %s1b1ebb : tensor<32x768x28x28xf32>
    %s1b1gx2 = stablehlo.multiply %s1b1e, %s1b1e : tensor<32x768x28x28xf32>
    %s1b1gx3 = stablehlo.multiply %s1b1gx2, %s1b1e : tensor<32x768x28x28xf32>
    %s1b1gck = stablehlo.constant dense<0.044715> : tensor<32x768x28x28xf32>
    %s1b1gkx3 = stablehlo.multiply %s1b1gck, %s1b1gx3 : tensor<32x768x28x28xf32>
    %s1b1ginn = stablehlo.add %s1b1e, %s1b1gkx3 : tensor<32x768x28x28xf32>
    %s1b1gcs = stablehlo.constant dense<0.7978845608028654> : tensor<32x768x28x28xf32>
    %s1b1gu = stablehlo.multiply %s1b1gcs, %s1b1ginn : tensor<32x768x28x28xf32>
    %s1b1gt = stablehlo.tanh %s1b1gu : tensor<32x768x28x28xf32>
    %s1b1gone = stablehlo.constant dense<1.0> : tensor<32x768x28x28xf32>
    %s1b1gopt = stablehlo.add %s1b1gone, %s1b1gt : tensor<32x768x28x28xf32>
    %s1b1ghalf = stablehlo.constant dense<0.5> : tensor<32x768x28x28xf32>
    %s1b1ghx = stablehlo.multiply %s1b1ghalf, %s1b1e : tensor<32x768x28x28xf32>
    %s1b1g = stablehlo.multiply %s1b1ghx, %s1b1gopt : tensor<32x768x28x28xf32>
    %s1b1pc = stablehlo.convolution(%s1b1g, %s1b1pW)
      dim_numbers = [b, f, 0, 1]x[o, i, 0, 1]->[b, f, 0, 1],
      window = {stride = [1, 1], pad = [[0, 0], [0, 0]], lhs_dilate = [1, 1], rhs_dilate = [1, 1]}
      {batch_group_count = 1 : i64, feature_group_count = 1 : i64} : (tensor<32x768x28x28xf32>, tensor<192x768x1x1xf32>) -> tensor<32x192x28x28xf32>
    %s1b1pbb = stablehlo.broadcast_in_dim %s1b1pb, dims = [1] : (tensor<192xf32>) -> tensor<32x192x28x28xf32>
    %s1b1p = stablehlo.add %s1b1pc, %s1b1pbb : tensor<32x192x28x28xf32>
    %s1b1lsgb = stablehlo.broadcast_in_dim %s1b1lg, dims = [1] : (tensor<192xf32>) -> tensor<32x192x28x28xf32>
    %s1b1ls = stablehlo.multiply %s1b1p, %s1b1lsgb : tensor<32x192x28x28xf32>
    %s1b1o = stablehlo.add %s1b1ls, %s1b0o : tensor<32x192x28x28xf32>
    %s1b2dc = stablehlo.convolution(%s1b1o, %s1b2dW)
      dim_numbers = [b, f, 0, 1]x[o, i, 0, 1]->[b, f, 0, 1],
      window = {stride = [1, 1], pad = [[3, 3], [3, 3]], lhs_dilate = [1, 1], rhs_dilate = [1, 1]}
      {batch_group_count = 1 : i64, feature_group_count = 192 : i64} : (tensor<32x192x28x28xf32>, tensor<192x1x7x7xf32>) -> tensor<32x192x28x28xf32>
    %s1b2dbb = stablehlo.broadcast_in_dim %s1b2db, dims = [1] : (tensor<192xf32>) -> tensor<32x192x28x28xf32>
    %s1b2d = stablehlo.add %s1b2dc, %s1b2dbb : tensor<32x192x28x28xf32>
    %s1b2nri = stablehlo.reshape %s1b2d : (tensor<32x192x28x28xf32>) -> tensor<32x150528xf32>
    %s1b2nnf = stablehlo.constant dense<150528.0> : tensor<32x150528xf32>
    %s1b2nep = stablehlo.constant dense<1.0e-6> : tensor<32x150528xf32>
    %s1b2nsmr = stablehlo.reduce(%s1b2nri init: %sc) applies stablehlo.add across dimensions = [1] : (tensor<32x150528xf32>, tensor<f32>) -> tensor<32xf32>
    %s1b2nsm = stablehlo.broadcast_in_dim %s1b2nsmr, dims = [0] : (tensor<32xf32>) -> tensor<32x150528xf32>
    %s1b2nmu = stablehlo.divide %s1b2nsm, %s1b2nnf : tensor<32x150528xf32>
    %s1b2nxc = stablehlo.subtract %s1b2nri, %s1b2nmu : tensor<32x150528xf32>
    %s1b2nsq = stablehlo.multiply %s1b2nxc, %s1b2nxc : tensor<32x150528xf32>
    %s1b2nvsr = stablehlo.reduce(%s1b2nsq init: %sc) applies stablehlo.add across dimensions = [1] : (tensor<32x150528xf32>, tensor<f32>) -> tensor<32xf32>
    %s1b2nvs = stablehlo.broadcast_in_dim %s1b2nvsr, dims = [0] : (tensor<32xf32>) -> tensor<32x150528xf32>
    %s1b2nvr = stablehlo.divide %s1b2nvs, %s1b2nnf : tensor<32x150528xf32>
    %s1b2nve = stablehlo.add %s1b2nvr, %s1b2nep : tensor<32x150528xf32>
    %s1b2nistd = stablehlo.rsqrt %s1b2nve : tensor<32x150528xf32>
    %s1b2nxh = stablehlo.multiply %s1b2nxc, %s1b2nistd : tensor<32x150528xf32>
    %s1b2ngb = stablehlo.broadcast_in_dim %s1b2ng, dims = [] : (tensor<f32>) -> tensor<32x150528xf32>
    %s1b2nbtb = stablehlo.broadcast_in_dim %s1b2nbt, dims = [] : (tensor<f32>) -> tensor<32x150528xf32>
    %s1b2ngx = stablehlo.multiply %s1b2nxh, %s1b2ngb : tensor<32x150528xf32>
    %s1b2nfl = stablehlo.add %s1b2ngx, %s1b2nbtb : tensor<32x150528xf32>
    %s1b2n = stablehlo.reshape %s1b2nfl : (tensor<32x150528xf32>) -> tensor<32x192x28x28xf32>
    %s1b2ec = stablehlo.convolution(%s1b2n, %s1b2eW)
      dim_numbers = [b, f, 0, 1]x[o, i, 0, 1]->[b, f, 0, 1],
      window = {stride = [1, 1], pad = [[0, 0], [0, 0]], lhs_dilate = [1, 1], rhs_dilate = [1, 1]}
      {batch_group_count = 1 : i64, feature_group_count = 1 : i64} : (tensor<32x192x28x28xf32>, tensor<768x192x1x1xf32>) -> tensor<32x768x28x28xf32>
    %s1b2ebb = stablehlo.broadcast_in_dim %s1b2eb, dims = [1] : (tensor<768xf32>) -> tensor<32x768x28x28xf32>
    %s1b2e = stablehlo.add %s1b2ec, %s1b2ebb : tensor<32x768x28x28xf32>
    %s1b2gx2 = stablehlo.multiply %s1b2e, %s1b2e : tensor<32x768x28x28xf32>
    %s1b2gx3 = stablehlo.multiply %s1b2gx2, %s1b2e : tensor<32x768x28x28xf32>
    %s1b2gck = stablehlo.constant dense<0.044715> : tensor<32x768x28x28xf32>
    %s1b2gkx3 = stablehlo.multiply %s1b2gck, %s1b2gx3 : tensor<32x768x28x28xf32>
    %s1b2ginn = stablehlo.add %s1b2e, %s1b2gkx3 : tensor<32x768x28x28xf32>
    %s1b2gcs = stablehlo.constant dense<0.7978845608028654> : tensor<32x768x28x28xf32>
    %s1b2gu = stablehlo.multiply %s1b2gcs, %s1b2ginn : tensor<32x768x28x28xf32>
    %s1b2gt = stablehlo.tanh %s1b2gu : tensor<32x768x28x28xf32>
    %s1b2gone = stablehlo.constant dense<1.0> : tensor<32x768x28x28xf32>
    %s1b2gopt = stablehlo.add %s1b2gone, %s1b2gt : tensor<32x768x28x28xf32>
    %s1b2ghalf = stablehlo.constant dense<0.5> : tensor<32x768x28x28xf32>
    %s1b2ghx = stablehlo.multiply %s1b2ghalf, %s1b2e : tensor<32x768x28x28xf32>
    %s1b2g = stablehlo.multiply %s1b2ghx, %s1b2gopt : tensor<32x768x28x28xf32>
    %s1b2pc = stablehlo.convolution(%s1b2g, %s1b2pW)
      dim_numbers = [b, f, 0, 1]x[o, i, 0, 1]->[b, f, 0, 1],
      window = {stride = [1, 1], pad = [[0, 0], [0, 0]], lhs_dilate = [1, 1], rhs_dilate = [1, 1]}
      {batch_group_count = 1 : i64, feature_group_count = 1 : i64} : (tensor<32x768x28x28xf32>, tensor<192x768x1x1xf32>) -> tensor<32x192x28x28xf32>
    %s1b2pbb = stablehlo.broadcast_in_dim %s1b2pb, dims = [1] : (tensor<192xf32>) -> tensor<32x192x28x28xf32>
    %s1b2p = stablehlo.add %s1b2pc, %s1b2pbb : tensor<32x192x28x28xf32>
    %s1b2lsgb = stablehlo.broadcast_in_dim %s1b2lg, dims = [1] : (tensor<192xf32>) -> tensor<32x192x28x28xf32>
    %s1b2ls = stablehlo.multiply %s1b2p, %s1b2lsgb : tensor<32x192x28x28xf32>
    %s1b2o = stablehlo.add %s1b2ls, %s1b1o : tensor<32x192x28x28xf32>
    %d1nri = stablehlo.reshape %s1b2o : (tensor<32x192x28x28xf32>) -> tensor<32x150528xf32>
    %d1nnf = stablehlo.constant dense<150528.0> : tensor<32x150528xf32>
    %d1nep = stablehlo.constant dense<1.0e-6> : tensor<32x150528xf32>
    %d1nsmr = stablehlo.reduce(%d1nri init: %sc) applies stablehlo.add across dimensions = [1] : (tensor<32x150528xf32>, tensor<f32>) -> tensor<32xf32>
    %d1nsm = stablehlo.broadcast_in_dim %d1nsmr, dims = [0] : (tensor<32xf32>) -> tensor<32x150528xf32>
    %d1nmu = stablehlo.divide %d1nsm, %d1nnf : tensor<32x150528xf32>
    %d1nxc = stablehlo.subtract %d1nri, %d1nmu : tensor<32x150528xf32>
    %d1nsq = stablehlo.multiply %d1nxc, %d1nxc : tensor<32x150528xf32>
    %d1nvsr = stablehlo.reduce(%d1nsq init: %sc) applies stablehlo.add across dimensions = [1] : (tensor<32x150528xf32>, tensor<f32>) -> tensor<32xf32>
    %d1nvs = stablehlo.broadcast_in_dim %d1nvsr, dims = [0] : (tensor<32xf32>) -> tensor<32x150528xf32>
    %d1nvr = stablehlo.divide %d1nvs, %d1nnf : tensor<32x150528xf32>
    %d1nve = stablehlo.add %d1nvr, %d1nep : tensor<32x150528xf32>
    %d1nistd = stablehlo.rsqrt %d1nve : tensor<32x150528xf32>
    %d1nxh = stablehlo.multiply %d1nxc, %d1nistd : tensor<32x150528xf32>
    %d1ngb = stablehlo.broadcast_in_dim %d1ng, dims = [] : (tensor<f32>) -> tensor<32x150528xf32>
    %d1nbtb = stablehlo.broadcast_in_dim %d1nbt, dims = [] : (tensor<f32>) -> tensor<32x150528xf32>
    %d1ngx = stablehlo.multiply %d1nxh, %d1ngb : tensor<32x150528xf32>
    %d1nfl = stablehlo.add %d1ngx, %d1nbtb : tensor<32x150528xf32>
    %d1n = stablehlo.reshape %d1nfl : (tensor<32x150528xf32>) -> tensor<32x192x28x28xf32>
    %d1cc = stablehlo.convolution(%d1n, %d1W)
      dim_numbers = [b, f, 0, 1]x[o, i, 0, 1]->[b, f, 0, 1],
      window = {stride = [2, 2], pad = [[0, 0], [0, 0]], lhs_dilate = [1, 1], rhs_dilate = [1, 1]}
      {batch_group_count = 1 : i64, feature_group_count = 1 : i64} : (tensor<32x192x28x28xf32>, tensor<384x192x2x2xf32>) -> tensor<32x384x14x14xf32>
    %d1cbb = stablehlo.broadcast_in_dim %d1b, dims = [1] : (tensor<384xf32>) -> tensor<32x384x14x14xf32>
    %d1c = stablehlo.add %d1cc, %d1cbb : tensor<32x384x14x14xf32>
    %s2b0dc = stablehlo.convolution(%d1c, %s2b0dW)
      dim_numbers = [b, f, 0, 1]x[o, i, 0, 1]->[b, f, 0, 1],
      window = {stride = [1, 1], pad = [[3, 3], [3, 3]], lhs_dilate = [1, 1], rhs_dilate = [1, 1]}
      {batch_group_count = 1 : i64, feature_group_count = 384 : i64} : (tensor<32x384x14x14xf32>, tensor<384x1x7x7xf32>) -> tensor<32x384x14x14xf32>
    %s2b0dbb = stablehlo.broadcast_in_dim %s2b0db, dims = [1] : (tensor<384xf32>) -> tensor<32x384x14x14xf32>
    %s2b0d = stablehlo.add %s2b0dc, %s2b0dbb : tensor<32x384x14x14xf32>
    %s2b0nri = stablehlo.reshape %s2b0d : (tensor<32x384x14x14xf32>) -> tensor<32x75264xf32>
    %s2b0nnf = stablehlo.constant dense<75264.0> : tensor<32x75264xf32>
    %s2b0nep = stablehlo.constant dense<1.0e-6> : tensor<32x75264xf32>
    %s2b0nsmr = stablehlo.reduce(%s2b0nri init: %sc) applies stablehlo.add across dimensions = [1] : (tensor<32x75264xf32>, tensor<f32>) -> tensor<32xf32>
    %s2b0nsm = stablehlo.broadcast_in_dim %s2b0nsmr, dims = [0] : (tensor<32xf32>) -> tensor<32x75264xf32>
    %s2b0nmu = stablehlo.divide %s2b0nsm, %s2b0nnf : tensor<32x75264xf32>
    %s2b0nxc = stablehlo.subtract %s2b0nri, %s2b0nmu : tensor<32x75264xf32>
    %s2b0nsq = stablehlo.multiply %s2b0nxc, %s2b0nxc : tensor<32x75264xf32>
    %s2b0nvsr = stablehlo.reduce(%s2b0nsq init: %sc) applies stablehlo.add across dimensions = [1] : (tensor<32x75264xf32>, tensor<f32>) -> tensor<32xf32>
    %s2b0nvs = stablehlo.broadcast_in_dim %s2b0nvsr, dims = [0] : (tensor<32xf32>) -> tensor<32x75264xf32>
    %s2b0nvr = stablehlo.divide %s2b0nvs, %s2b0nnf : tensor<32x75264xf32>
    %s2b0nve = stablehlo.add %s2b0nvr, %s2b0nep : tensor<32x75264xf32>
    %s2b0nistd = stablehlo.rsqrt %s2b0nve : tensor<32x75264xf32>
    %s2b0nxh = stablehlo.multiply %s2b0nxc, %s2b0nistd : tensor<32x75264xf32>
    %s2b0ngb = stablehlo.broadcast_in_dim %s2b0ng, dims = [] : (tensor<f32>) -> tensor<32x75264xf32>
    %s2b0nbtb = stablehlo.broadcast_in_dim %s2b0nbt, dims = [] : (tensor<f32>) -> tensor<32x75264xf32>
    %s2b0ngx = stablehlo.multiply %s2b0nxh, %s2b0ngb : tensor<32x75264xf32>
    %s2b0nfl = stablehlo.add %s2b0ngx, %s2b0nbtb : tensor<32x75264xf32>
    %s2b0n = stablehlo.reshape %s2b0nfl : (tensor<32x75264xf32>) -> tensor<32x384x14x14xf32>
    %s2b0ec = stablehlo.convolution(%s2b0n, %s2b0eW)
      dim_numbers = [b, f, 0, 1]x[o, i, 0, 1]->[b, f, 0, 1],
      window = {stride = [1, 1], pad = [[0, 0], [0, 0]], lhs_dilate = [1, 1], rhs_dilate = [1, 1]}
      {batch_group_count = 1 : i64, feature_group_count = 1 : i64} : (tensor<32x384x14x14xf32>, tensor<1536x384x1x1xf32>) -> tensor<32x1536x14x14xf32>
    %s2b0ebb = stablehlo.broadcast_in_dim %s2b0eb, dims = [1] : (tensor<1536xf32>) -> tensor<32x1536x14x14xf32>
    %s2b0e = stablehlo.add %s2b0ec, %s2b0ebb : tensor<32x1536x14x14xf32>
    %s2b0gx2 = stablehlo.multiply %s2b0e, %s2b0e : tensor<32x1536x14x14xf32>
    %s2b0gx3 = stablehlo.multiply %s2b0gx2, %s2b0e : tensor<32x1536x14x14xf32>
    %s2b0gck = stablehlo.constant dense<0.044715> : tensor<32x1536x14x14xf32>
    %s2b0gkx3 = stablehlo.multiply %s2b0gck, %s2b0gx3 : tensor<32x1536x14x14xf32>
    %s2b0ginn = stablehlo.add %s2b0e, %s2b0gkx3 : tensor<32x1536x14x14xf32>
    %s2b0gcs = stablehlo.constant dense<0.7978845608028654> : tensor<32x1536x14x14xf32>
    %s2b0gu = stablehlo.multiply %s2b0gcs, %s2b0ginn : tensor<32x1536x14x14xf32>
    %s2b0gt = stablehlo.tanh %s2b0gu : tensor<32x1536x14x14xf32>
    %s2b0gone = stablehlo.constant dense<1.0> : tensor<32x1536x14x14xf32>
    %s2b0gopt = stablehlo.add %s2b0gone, %s2b0gt : tensor<32x1536x14x14xf32>
    %s2b0ghalf = stablehlo.constant dense<0.5> : tensor<32x1536x14x14xf32>
    %s2b0ghx = stablehlo.multiply %s2b0ghalf, %s2b0e : tensor<32x1536x14x14xf32>
    %s2b0g = stablehlo.multiply %s2b0ghx, %s2b0gopt : tensor<32x1536x14x14xf32>
    %s2b0pc = stablehlo.convolution(%s2b0g, %s2b0pW)
      dim_numbers = [b, f, 0, 1]x[o, i, 0, 1]->[b, f, 0, 1],
      window = {stride = [1, 1], pad = [[0, 0], [0, 0]], lhs_dilate = [1, 1], rhs_dilate = [1, 1]}
      {batch_group_count = 1 : i64, feature_group_count = 1 : i64} : (tensor<32x1536x14x14xf32>, tensor<384x1536x1x1xf32>) -> tensor<32x384x14x14xf32>
    %s2b0pbb = stablehlo.broadcast_in_dim %s2b0pb, dims = [1] : (tensor<384xf32>) -> tensor<32x384x14x14xf32>
    %s2b0p = stablehlo.add %s2b0pc, %s2b0pbb : tensor<32x384x14x14xf32>
    %s2b0lsgb = stablehlo.broadcast_in_dim %s2b0lg, dims = [1] : (tensor<384xf32>) -> tensor<32x384x14x14xf32>
    %s2b0ls = stablehlo.multiply %s2b0p, %s2b0lsgb : tensor<32x384x14x14xf32>
    %s2b0o = stablehlo.add %s2b0ls, %d1c : tensor<32x384x14x14xf32>
    %s2b1dc = stablehlo.convolution(%s2b0o, %s2b1dW)
      dim_numbers = [b, f, 0, 1]x[o, i, 0, 1]->[b, f, 0, 1],
      window = {stride = [1, 1], pad = [[3, 3], [3, 3]], lhs_dilate = [1, 1], rhs_dilate = [1, 1]}
      {batch_group_count = 1 : i64, feature_group_count = 384 : i64} : (tensor<32x384x14x14xf32>, tensor<384x1x7x7xf32>) -> tensor<32x384x14x14xf32>
    %s2b1dbb = stablehlo.broadcast_in_dim %s2b1db, dims = [1] : (tensor<384xf32>) -> tensor<32x384x14x14xf32>
    %s2b1d = stablehlo.add %s2b1dc, %s2b1dbb : tensor<32x384x14x14xf32>
    %s2b1nri = stablehlo.reshape %s2b1d : (tensor<32x384x14x14xf32>) -> tensor<32x75264xf32>
    %s2b1nnf = stablehlo.constant dense<75264.0> : tensor<32x75264xf32>
    %s2b1nep = stablehlo.constant dense<1.0e-6> : tensor<32x75264xf32>
    %s2b1nsmr = stablehlo.reduce(%s2b1nri init: %sc) applies stablehlo.add across dimensions = [1] : (tensor<32x75264xf32>, tensor<f32>) -> tensor<32xf32>
    %s2b1nsm = stablehlo.broadcast_in_dim %s2b1nsmr, dims = [0] : (tensor<32xf32>) -> tensor<32x75264xf32>
    %s2b1nmu = stablehlo.divide %s2b1nsm, %s2b1nnf : tensor<32x75264xf32>
    %s2b1nxc = stablehlo.subtract %s2b1nri, %s2b1nmu : tensor<32x75264xf32>
    %s2b1nsq = stablehlo.multiply %s2b1nxc, %s2b1nxc : tensor<32x75264xf32>
    %s2b1nvsr = stablehlo.reduce(%s2b1nsq init: %sc) applies stablehlo.add across dimensions = [1] : (tensor<32x75264xf32>, tensor<f32>) -> tensor<32xf32>
    %s2b1nvs = stablehlo.broadcast_in_dim %s2b1nvsr, dims = [0] : (tensor<32xf32>) -> tensor<32x75264xf32>
    %s2b1nvr = stablehlo.divide %s2b1nvs, %s2b1nnf : tensor<32x75264xf32>
    %s2b1nve = stablehlo.add %s2b1nvr, %s2b1nep : tensor<32x75264xf32>
    %s2b1nistd = stablehlo.rsqrt %s2b1nve : tensor<32x75264xf32>
    %s2b1nxh = stablehlo.multiply %s2b1nxc, %s2b1nistd : tensor<32x75264xf32>
    %s2b1ngb = stablehlo.broadcast_in_dim %s2b1ng, dims = [] : (tensor<f32>) -> tensor<32x75264xf32>
    %s2b1nbtb = stablehlo.broadcast_in_dim %s2b1nbt, dims = [] : (tensor<f32>) -> tensor<32x75264xf32>
    %s2b1ngx = stablehlo.multiply %s2b1nxh, %s2b1ngb : tensor<32x75264xf32>
    %s2b1nfl = stablehlo.add %s2b1ngx, %s2b1nbtb : tensor<32x75264xf32>
    %s2b1n = stablehlo.reshape %s2b1nfl : (tensor<32x75264xf32>) -> tensor<32x384x14x14xf32>
    %s2b1ec = stablehlo.convolution(%s2b1n, %s2b1eW)
      dim_numbers = [b, f, 0, 1]x[o, i, 0, 1]->[b, f, 0, 1],
      window = {stride = [1, 1], pad = [[0, 0], [0, 0]], lhs_dilate = [1, 1], rhs_dilate = [1, 1]}
      {batch_group_count = 1 : i64, feature_group_count = 1 : i64} : (tensor<32x384x14x14xf32>, tensor<1536x384x1x1xf32>) -> tensor<32x1536x14x14xf32>
    %s2b1ebb = stablehlo.broadcast_in_dim %s2b1eb, dims = [1] : (tensor<1536xf32>) -> tensor<32x1536x14x14xf32>
    %s2b1e = stablehlo.add %s2b1ec, %s2b1ebb : tensor<32x1536x14x14xf32>
    %s2b1gx2 = stablehlo.multiply %s2b1e, %s2b1e : tensor<32x1536x14x14xf32>
    %s2b1gx3 = stablehlo.multiply %s2b1gx2, %s2b1e : tensor<32x1536x14x14xf32>
    %s2b1gck = stablehlo.constant dense<0.044715> : tensor<32x1536x14x14xf32>
    %s2b1gkx3 = stablehlo.multiply %s2b1gck, %s2b1gx3 : tensor<32x1536x14x14xf32>
    %s2b1ginn = stablehlo.add %s2b1e, %s2b1gkx3 : tensor<32x1536x14x14xf32>
    %s2b1gcs = stablehlo.constant dense<0.7978845608028654> : tensor<32x1536x14x14xf32>
    %s2b1gu = stablehlo.multiply %s2b1gcs, %s2b1ginn : tensor<32x1536x14x14xf32>
    %s2b1gt = stablehlo.tanh %s2b1gu : tensor<32x1536x14x14xf32>
    %s2b1gone = stablehlo.constant dense<1.0> : tensor<32x1536x14x14xf32>
    %s2b1gopt = stablehlo.add %s2b1gone, %s2b1gt : tensor<32x1536x14x14xf32>
    %s2b1ghalf = stablehlo.constant dense<0.5> : tensor<32x1536x14x14xf32>
    %s2b1ghx = stablehlo.multiply %s2b1ghalf, %s2b1e : tensor<32x1536x14x14xf32>
    %s2b1g = stablehlo.multiply %s2b1ghx, %s2b1gopt : tensor<32x1536x14x14xf32>
    %s2b1pc = stablehlo.convolution(%s2b1g, %s2b1pW)
      dim_numbers = [b, f, 0, 1]x[o, i, 0, 1]->[b, f, 0, 1],
      window = {stride = [1, 1], pad = [[0, 0], [0, 0]], lhs_dilate = [1, 1], rhs_dilate = [1, 1]}
      {batch_group_count = 1 : i64, feature_group_count = 1 : i64} : (tensor<32x1536x14x14xf32>, tensor<384x1536x1x1xf32>) -> tensor<32x384x14x14xf32>
    %s2b1pbb = stablehlo.broadcast_in_dim %s2b1pb, dims = [1] : (tensor<384xf32>) -> tensor<32x384x14x14xf32>
    %s2b1p = stablehlo.add %s2b1pc, %s2b1pbb : tensor<32x384x14x14xf32>
    %s2b1lsgb = stablehlo.broadcast_in_dim %s2b1lg, dims = [1] : (tensor<384xf32>) -> tensor<32x384x14x14xf32>
    %s2b1ls = stablehlo.multiply %s2b1p, %s2b1lsgb : tensor<32x384x14x14xf32>
    %s2b1o = stablehlo.add %s2b1ls, %s2b0o : tensor<32x384x14x14xf32>
    %s2b2dc = stablehlo.convolution(%s2b1o, %s2b2dW)
      dim_numbers = [b, f, 0, 1]x[o, i, 0, 1]->[b, f, 0, 1],
      window = {stride = [1, 1], pad = [[3, 3], [3, 3]], lhs_dilate = [1, 1], rhs_dilate = [1, 1]}
      {batch_group_count = 1 : i64, feature_group_count = 384 : i64} : (tensor<32x384x14x14xf32>, tensor<384x1x7x7xf32>) -> tensor<32x384x14x14xf32>
    %s2b2dbb = stablehlo.broadcast_in_dim %s2b2db, dims = [1] : (tensor<384xf32>) -> tensor<32x384x14x14xf32>
    %s2b2d = stablehlo.add %s2b2dc, %s2b2dbb : tensor<32x384x14x14xf32>
    %s2b2nri = stablehlo.reshape %s2b2d : (tensor<32x384x14x14xf32>) -> tensor<32x75264xf32>
    %s2b2nnf = stablehlo.constant dense<75264.0> : tensor<32x75264xf32>
    %s2b2nep = stablehlo.constant dense<1.0e-6> : tensor<32x75264xf32>
    %s2b2nsmr = stablehlo.reduce(%s2b2nri init: %sc) applies stablehlo.add across dimensions = [1] : (tensor<32x75264xf32>, tensor<f32>) -> tensor<32xf32>
    %s2b2nsm = stablehlo.broadcast_in_dim %s2b2nsmr, dims = [0] : (tensor<32xf32>) -> tensor<32x75264xf32>
    %s2b2nmu = stablehlo.divide %s2b2nsm, %s2b2nnf : tensor<32x75264xf32>
    %s2b2nxc = stablehlo.subtract %s2b2nri, %s2b2nmu : tensor<32x75264xf32>
    %s2b2nsq = stablehlo.multiply %s2b2nxc, %s2b2nxc : tensor<32x75264xf32>
    %s2b2nvsr = stablehlo.reduce(%s2b2nsq init: %sc) applies stablehlo.add across dimensions = [1] : (tensor<32x75264xf32>, tensor<f32>) -> tensor<32xf32>
    %s2b2nvs = stablehlo.broadcast_in_dim %s2b2nvsr, dims = [0] : (tensor<32xf32>) -> tensor<32x75264xf32>
    %s2b2nvr = stablehlo.divide %s2b2nvs, %s2b2nnf : tensor<32x75264xf32>
    %s2b2nve = stablehlo.add %s2b2nvr, %s2b2nep : tensor<32x75264xf32>
    %s2b2nistd = stablehlo.rsqrt %s2b2nve : tensor<32x75264xf32>
    %s2b2nxh = stablehlo.multiply %s2b2nxc, %s2b2nistd : tensor<32x75264xf32>
    %s2b2ngb = stablehlo.broadcast_in_dim %s2b2ng, dims = [] : (tensor<f32>) -> tensor<32x75264xf32>
    %s2b2nbtb = stablehlo.broadcast_in_dim %s2b2nbt, dims = [] : (tensor<f32>) -> tensor<32x75264xf32>
    %s2b2ngx = stablehlo.multiply %s2b2nxh, %s2b2ngb : tensor<32x75264xf32>
    %s2b2nfl = stablehlo.add %s2b2ngx, %s2b2nbtb : tensor<32x75264xf32>
    %s2b2n = stablehlo.reshape %s2b2nfl : (tensor<32x75264xf32>) -> tensor<32x384x14x14xf32>
    %s2b2ec = stablehlo.convolution(%s2b2n, %s2b2eW)
      dim_numbers = [b, f, 0, 1]x[o, i, 0, 1]->[b, f, 0, 1],
      window = {stride = [1, 1], pad = [[0, 0], [0, 0]], lhs_dilate = [1, 1], rhs_dilate = [1, 1]}
      {batch_group_count = 1 : i64, feature_group_count = 1 : i64} : (tensor<32x384x14x14xf32>, tensor<1536x384x1x1xf32>) -> tensor<32x1536x14x14xf32>
    %s2b2ebb = stablehlo.broadcast_in_dim %s2b2eb, dims = [1] : (tensor<1536xf32>) -> tensor<32x1536x14x14xf32>
    %s2b2e = stablehlo.add %s2b2ec, %s2b2ebb : tensor<32x1536x14x14xf32>
    %s2b2gx2 = stablehlo.multiply %s2b2e, %s2b2e : tensor<32x1536x14x14xf32>
    %s2b2gx3 = stablehlo.multiply %s2b2gx2, %s2b2e : tensor<32x1536x14x14xf32>
    %s2b2gck = stablehlo.constant dense<0.044715> : tensor<32x1536x14x14xf32>
    %s2b2gkx3 = stablehlo.multiply %s2b2gck, %s2b2gx3 : tensor<32x1536x14x14xf32>
    %s2b2ginn = stablehlo.add %s2b2e, %s2b2gkx3 : tensor<32x1536x14x14xf32>
    %s2b2gcs = stablehlo.constant dense<0.7978845608028654> : tensor<32x1536x14x14xf32>
    %s2b2gu = stablehlo.multiply %s2b2gcs, %s2b2ginn : tensor<32x1536x14x14xf32>
    %s2b2gt = stablehlo.tanh %s2b2gu : tensor<32x1536x14x14xf32>
    %s2b2gone = stablehlo.constant dense<1.0> : tensor<32x1536x14x14xf32>
    %s2b2gopt = stablehlo.add %s2b2gone, %s2b2gt : tensor<32x1536x14x14xf32>
    %s2b2ghalf = stablehlo.constant dense<0.5> : tensor<32x1536x14x14xf32>
    %s2b2ghx = stablehlo.multiply %s2b2ghalf, %s2b2e : tensor<32x1536x14x14xf32>
    %s2b2g = stablehlo.multiply %s2b2ghx, %s2b2gopt : tensor<32x1536x14x14xf32>
    %s2b2pc = stablehlo.convolution(%s2b2g, %s2b2pW)
      dim_numbers = [b, f, 0, 1]x[o, i, 0, 1]->[b, f, 0, 1],
      window = {stride = [1, 1], pad = [[0, 0], [0, 0]], lhs_dilate = [1, 1], rhs_dilate = [1, 1]}
      {batch_group_count = 1 : i64, feature_group_count = 1 : i64} : (tensor<32x1536x14x14xf32>, tensor<384x1536x1x1xf32>) -> tensor<32x384x14x14xf32>
    %s2b2pbb = stablehlo.broadcast_in_dim %s2b2pb, dims = [1] : (tensor<384xf32>) -> tensor<32x384x14x14xf32>
    %s2b2p = stablehlo.add %s2b2pc, %s2b2pbb : tensor<32x384x14x14xf32>
    %s2b2lsgb = stablehlo.broadcast_in_dim %s2b2lg, dims = [1] : (tensor<384xf32>) -> tensor<32x384x14x14xf32>
    %s2b2ls = stablehlo.multiply %s2b2p, %s2b2lsgb : tensor<32x384x14x14xf32>
    %s2b2o = stablehlo.add %s2b2ls, %s2b1o : tensor<32x384x14x14xf32>
    %s2b3dc = stablehlo.convolution(%s2b2o, %s2b3dW)
      dim_numbers = [b, f, 0, 1]x[o, i, 0, 1]->[b, f, 0, 1],
      window = {stride = [1, 1], pad = [[3, 3], [3, 3]], lhs_dilate = [1, 1], rhs_dilate = [1, 1]}
      {batch_group_count = 1 : i64, feature_group_count = 384 : i64} : (tensor<32x384x14x14xf32>, tensor<384x1x7x7xf32>) -> tensor<32x384x14x14xf32>
    %s2b3dbb = stablehlo.broadcast_in_dim %s2b3db, dims = [1] : (tensor<384xf32>) -> tensor<32x384x14x14xf32>
    %s2b3d = stablehlo.add %s2b3dc, %s2b3dbb : tensor<32x384x14x14xf32>
    %s2b3nri = stablehlo.reshape %s2b3d : (tensor<32x384x14x14xf32>) -> tensor<32x75264xf32>
    %s2b3nnf = stablehlo.constant dense<75264.0> : tensor<32x75264xf32>
    %s2b3nep = stablehlo.constant dense<1.0e-6> : tensor<32x75264xf32>
    %s2b3nsmr = stablehlo.reduce(%s2b3nri init: %sc) applies stablehlo.add across dimensions = [1] : (tensor<32x75264xf32>, tensor<f32>) -> tensor<32xf32>
    %s2b3nsm = stablehlo.broadcast_in_dim %s2b3nsmr, dims = [0] : (tensor<32xf32>) -> tensor<32x75264xf32>
    %s2b3nmu = stablehlo.divide %s2b3nsm, %s2b3nnf : tensor<32x75264xf32>
    %s2b3nxc = stablehlo.subtract %s2b3nri, %s2b3nmu : tensor<32x75264xf32>
    %s2b3nsq = stablehlo.multiply %s2b3nxc, %s2b3nxc : tensor<32x75264xf32>
    %s2b3nvsr = stablehlo.reduce(%s2b3nsq init: %sc) applies stablehlo.add across dimensions = [1] : (tensor<32x75264xf32>, tensor<f32>) -> tensor<32xf32>
    %s2b3nvs = stablehlo.broadcast_in_dim %s2b3nvsr, dims = [0] : (tensor<32xf32>) -> tensor<32x75264xf32>
    %s2b3nvr = stablehlo.divide %s2b3nvs, %s2b3nnf : tensor<32x75264xf32>
    %s2b3nve = stablehlo.add %s2b3nvr, %s2b3nep : tensor<32x75264xf32>
    %s2b3nistd = stablehlo.rsqrt %s2b3nve : tensor<32x75264xf32>
    %s2b3nxh = stablehlo.multiply %s2b3nxc, %s2b3nistd : tensor<32x75264xf32>
    %s2b3ngb = stablehlo.broadcast_in_dim %s2b3ng, dims = [] : (tensor<f32>) -> tensor<32x75264xf32>
    %s2b3nbtb = stablehlo.broadcast_in_dim %s2b3nbt, dims = [] : (tensor<f32>) -> tensor<32x75264xf32>
    %s2b3ngx = stablehlo.multiply %s2b3nxh, %s2b3ngb : tensor<32x75264xf32>
    %s2b3nfl = stablehlo.add %s2b3ngx, %s2b3nbtb : tensor<32x75264xf32>
    %s2b3n = stablehlo.reshape %s2b3nfl : (tensor<32x75264xf32>) -> tensor<32x384x14x14xf32>
    %s2b3ec = stablehlo.convolution(%s2b3n, %s2b3eW)
      dim_numbers = [b, f, 0, 1]x[o, i, 0, 1]->[b, f, 0, 1],
      window = {stride = [1, 1], pad = [[0, 0], [0, 0]], lhs_dilate = [1, 1], rhs_dilate = [1, 1]}
      {batch_group_count = 1 : i64, feature_group_count = 1 : i64} : (tensor<32x384x14x14xf32>, tensor<1536x384x1x1xf32>) -> tensor<32x1536x14x14xf32>
    %s2b3ebb = stablehlo.broadcast_in_dim %s2b3eb, dims = [1] : (tensor<1536xf32>) -> tensor<32x1536x14x14xf32>
    %s2b3e = stablehlo.add %s2b3ec, %s2b3ebb : tensor<32x1536x14x14xf32>
    %s2b3gx2 = stablehlo.multiply %s2b3e, %s2b3e : tensor<32x1536x14x14xf32>
    %s2b3gx3 = stablehlo.multiply %s2b3gx2, %s2b3e : tensor<32x1536x14x14xf32>
    %s2b3gck = stablehlo.constant dense<0.044715> : tensor<32x1536x14x14xf32>
    %s2b3gkx3 = stablehlo.multiply %s2b3gck, %s2b3gx3 : tensor<32x1536x14x14xf32>
    %s2b3ginn = stablehlo.add %s2b3e, %s2b3gkx3 : tensor<32x1536x14x14xf32>
    %s2b3gcs = stablehlo.constant dense<0.7978845608028654> : tensor<32x1536x14x14xf32>
    %s2b3gu = stablehlo.multiply %s2b3gcs, %s2b3ginn : tensor<32x1536x14x14xf32>
    %s2b3gt = stablehlo.tanh %s2b3gu : tensor<32x1536x14x14xf32>
    %s2b3gone = stablehlo.constant dense<1.0> : tensor<32x1536x14x14xf32>
    %s2b3gopt = stablehlo.add %s2b3gone, %s2b3gt : tensor<32x1536x14x14xf32>
    %s2b3ghalf = stablehlo.constant dense<0.5> : tensor<32x1536x14x14xf32>
    %s2b3ghx = stablehlo.multiply %s2b3ghalf, %s2b3e : tensor<32x1536x14x14xf32>
    %s2b3g = stablehlo.multiply %s2b3ghx, %s2b3gopt : tensor<32x1536x14x14xf32>
    %s2b3pc = stablehlo.convolution(%s2b3g, %s2b3pW)
      dim_numbers = [b, f, 0, 1]x[o, i, 0, 1]->[b, f, 0, 1],
      window = {stride = [1, 1], pad = [[0, 0], [0, 0]], lhs_dilate = [1, 1], rhs_dilate = [1, 1]}
      {batch_group_count = 1 : i64, feature_group_count = 1 : i64} : (tensor<32x1536x14x14xf32>, tensor<384x1536x1x1xf32>) -> tensor<32x384x14x14xf32>
    %s2b3pbb = stablehlo.broadcast_in_dim %s2b3pb, dims = [1] : (tensor<384xf32>) -> tensor<32x384x14x14xf32>
    %s2b3p = stablehlo.add %s2b3pc, %s2b3pbb : tensor<32x384x14x14xf32>
    %s2b3lsgb = stablehlo.broadcast_in_dim %s2b3lg, dims = [1] : (tensor<384xf32>) -> tensor<32x384x14x14xf32>
    %s2b3ls = stablehlo.multiply %s2b3p, %s2b3lsgb : tensor<32x384x14x14xf32>
    %s2b3o = stablehlo.add %s2b3ls, %s2b2o : tensor<32x384x14x14xf32>
    %s2b4dc = stablehlo.convolution(%s2b3o, %s2b4dW)
      dim_numbers = [b, f, 0, 1]x[o, i, 0, 1]->[b, f, 0, 1],
      window = {stride = [1, 1], pad = [[3, 3], [3, 3]], lhs_dilate = [1, 1], rhs_dilate = [1, 1]}
      {batch_group_count = 1 : i64, feature_group_count = 384 : i64} : (tensor<32x384x14x14xf32>, tensor<384x1x7x7xf32>) -> tensor<32x384x14x14xf32>
    %s2b4dbb = stablehlo.broadcast_in_dim %s2b4db, dims = [1] : (tensor<384xf32>) -> tensor<32x384x14x14xf32>
    %s2b4d = stablehlo.add %s2b4dc, %s2b4dbb : tensor<32x384x14x14xf32>
    %s2b4nri = stablehlo.reshape %s2b4d : (tensor<32x384x14x14xf32>) -> tensor<32x75264xf32>
    %s2b4nnf = stablehlo.constant dense<75264.0> : tensor<32x75264xf32>
    %s2b4nep = stablehlo.constant dense<1.0e-6> : tensor<32x75264xf32>
    %s2b4nsmr = stablehlo.reduce(%s2b4nri init: %sc) applies stablehlo.add across dimensions = [1] : (tensor<32x75264xf32>, tensor<f32>) -> tensor<32xf32>
    %s2b4nsm = stablehlo.broadcast_in_dim %s2b4nsmr, dims = [0] : (tensor<32xf32>) -> tensor<32x75264xf32>
    %s2b4nmu = stablehlo.divide %s2b4nsm, %s2b4nnf : tensor<32x75264xf32>
    %s2b4nxc = stablehlo.subtract %s2b4nri, %s2b4nmu : tensor<32x75264xf32>
    %s2b4nsq = stablehlo.multiply %s2b4nxc, %s2b4nxc : tensor<32x75264xf32>
    %s2b4nvsr = stablehlo.reduce(%s2b4nsq init: %sc) applies stablehlo.add across dimensions = [1] : (tensor<32x75264xf32>, tensor<f32>) -> tensor<32xf32>
    %s2b4nvs = stablehlo.broadcast_in_dim %s2b4nvsr, dims = [0] : (tensor<32xf32>) -> tensor<32x75264xf32>
    %s2b4nvr = stablehlo.divide %s2b4nvs, %s2b4nnf : tensor<32x75264xf32>
    %s2b4nve = stablehlo.add %s2b4nvr, %s2b4nep : tensor<32x75264xf32>
    %s2b4nistd = stablehlo.rsqrt %s2b4nve : tensor<32x75264xf32>
    %s2b4nxh = stablehlo.multiply %s2b4nxc, %s2b4nistd : tensor<32x75264xf32>
    %s2b4ngb = stablehlo.broadcast_in_dim %s2b4ng, dims = [] : (tensor<f32>) -> tensor<32x75264xf32>
    %s2b4nbtb = stablehlo.broadcast_in_dim %s2b4nbt, dims = [] : (tensor<f32>) -> tensor<32x75264xf32>
    %s2b4ngx = stablehlo.multiply %s2b4nxh, %s2b4ngb : tensor<32x75264xf32>
    %s2b4nfl = stablehlo.add %s2b4ngx, %s2b4nbtb : tensor<32x75264xf32>
    %s2b4n = stablehlo.reshape %s2b4nfl : (tensor<32x75264xf32>) -> tensor<32x384x14x14xf32>
    %s2b4ec = stablehlo.convolution(%s2b4n, %s2b4eW)
      dim_numbers = [b, f, 0, 1]x[o, i, 0, 1]->[b, f, 0, 1],
      window = {stride = [1, 1], pad = [[0, 0], [0, 0]], lhs_dilate = [1, 1], rhs_dilate = [1, 1]}
      {batch_group_count = 1 : i64, feature_group_count = 1 : i64} : (tensor<32x384x14x14xf32>, tensor<1536x384x1x1xf32>) -> tensor<32x1536x14x14xf32>
    %s2b4ebb = stablehlo.broadcast_in_dim %s2b4eb, dims = [1] : (tensor<1536xf32>) -> tensor<32x1536x14x14xf32>
    %s2b4e = stablehlo.add %s2b4ec, %s2b4ebb : tensor<32x1536x14x14xf32>
    %s2b4gx2 = stablehlo.multiply %s2b4e, %s2b4e : tensor<32x1536x14x14xf32>
    %s2b4gx3 = stablehlo.multiply %s2b4gx2, %s2b4e : tensor<32x1536x14x14xf32>
    %s2b4gck = stablehlo.constant dense<0.044715> : tensor<32x1536x14x14xf32>
    %s2b4gkx3 = stablehlo.multiply %s2b4gck, %s2b4gx3 : tensor<32x1536x14x14xf32>
    %s2b4ginn = stablehlo.add %s2b4e, %s2b4gkx3 : tensor<32x1536x14x14xf32>
    %s2b4gcs = stablehlo.constant dense<0.7978845608028654> : tensor<32x1536x14x14xf32>
    %s2b4gu = stablehlo.multiply %s2b4gcs, %s2b4ginn : tensor<32x1536x14x14xf32>
    %s2b4gt = stablehlo.tanh %s2b4gu : tensor<32x1536x14x14xf32>
    %s2b4gone = stablehlo.constant dense<1.0> : tensor<32x1536x14x14xf32>
    %s2b4gopt = stablehlo.add %s2b4gone, %s2b4gt : tensor<32x1536x14x14xf32>
    %s2b4ghalf = stablehlo.constant dense<0.5> : tensor<32x1536x14x14xf32>
    %s2b4ghx = stablehlo.multiply %s2b4ghalf, %s2b4e : tensor<32x1536x14x14xf32>
    %s2b4g = stablehlo.multiply %s2b4ghx, %s2b4gopt : tensor<32x1536x14x14xf32>
    %s2b4pc = stablehlo.convolution(%s2b4g, %s2b4pW)
      dim_numbers = [b, f, 0, 1]x[o, i, 0, 1]->[b, f, 0, 1],
      window = {stride = [1, 1], pad = [[0, 0], [0, 0]], lhs_dilate = [1, 1], rhs_dilate = [1, 1]}
      {batch_group_count = 1 : i64, feature_group_count = 1 : i64} : (tensor<32x1536x14x14xf32>, tensor<384x1536x1x1xf32>) -> tensor<32x384x14x14xf32>
    %s2b4pbb = stablehlo.broadcast_in_dim %s2b4pb, dims = [1] : (tensor<384xf32>) -> tensor<32x384x14x14xf32>
    %s2b4p = stablehlo.add %s2b4pc, %s2b4pbb : tensor<32x384x14x14xf32>
    %s2b4lsgb = stablehlo.broadcast_in_dim %s2b4lg, dims = [1] : (tensor<384xf32>) -> tensor<32x384x14x14xf32>
    %s2b4ls = stablehlo.multiply %s2b4p, %s2b4lsgb : tensor<32x384x14x14xf32>
    %s2b4o = stablehlo.add %s2b4ls, %s2b3o : tensor<32x384x14x14xf32>
    %s2b5dc = stablehlo.convolution(%s2b4o, %s2b5dW)
      dim_numbers = [b, f, 0, 1]x[o, i, 0, 1]->[b, f, 0, 1],
      window = {stride = [1, 1], pad = [[3, 3], [3, 3]], lhs_dilate = [1, 1], rhs_dilate = [1, 1]}
      {batch_group_count = 1 : i64, feature_group_count = 384 : i64} : (tensor<32x384x14x14xf32>, tensor<384x1x7x7xf32>) -> tensor<32x384x14x14xf32>
    %s2b5dbb = stablehlo.broadcast_in_dim %s2b5db, dims = [1] : (tensor<384xf32>) -> tensor<32x384x14x14xf32>
    %s2b5d = stablehlo.add %s2b5dc, %s2b5dbb : tensor<32x384x14x14xf32>
    %s2b5nri = stablehlo.reshape %s2b5d : (tensor<32x384x14x14xf32>) -> tensor<32x75264xf32>
    %s2b5nnf = stablehlo.constant dense<75264.0> : tensor<32x75264xf32>
    %s2b5nep = stablehlo.constant dense<1.0e-6> : tensor<32x75264xf32>
    %s2b5nsmr = stablehlo.reduce(%s2b5nri init: %sc) applies stablehlo.add across dimensions = [1] : (tensor<32x75264xf32>, tensor<f32>) -> tensor<32xf32>
    %s2b5nsm = stablehlo.broadcast_in_dim %s2b5nsmr, dims = [0] : (tensor<32xf32>) -> tensor<32x75264xf32>
    %s2b5nmu = stablehlo.divide %s2b5nsm, %s2b5nnf : tensor<32x75264xf32>
    %s2b5nxc = stablehlo.subtract %s2b5nri, %s2b5nmu : tensor<32x75264xf32>
    %s2b5nsq = stablehlo.multiply %s2b5nxc, %s2b5nxc : tensor<32x75264xf32>
    %s2b5nvsr = stablehlo.reduce(%s2b5nsq init: %sc) applies stablehlo.add across dimensions = [1] : (tensor<32x75264xf32>, tensor<f32>) -> tensor<32xf32>
    %s2b5nvs = stablehlo.broadcast_in_dim %s2b5nvsr, dims = [0] : (tensor<32xf32>) -> tensor<32x75264xf32>
    %s2b5nvr = stablehlo.divide %s2b5nvs, %s2b5nnf : tensor<32x75264xf32>
    %s2b5nve = stablehlo.add %s2b5nvr, %s2b5nep : tensor<32x75264xf32>
    %s2b5nistd = stablehlo.rsqrt %s2b5nve : tensor<32x75264xf32>
    %s2b5nxh = stablehlo.multiply %s2b5nxc, %s2b5nistd : tensor<32x75264xf32>
    %s2b5ngb = stablehlo.broadcast_in_dim %s2b5ng, dims = [] : (tensor<f32>) -> tensor<32x75264xf32>
    %s2b5nbtb = stablehlo.broadcast_in_dim %s2b5nbt, dims = [] : (tensor<f32>) -> tensor<32x75264xf32>
    %s2b5ngx = stablehlo.multiply %s2b5nxh, %s2b5ngb : tensor<32x75264xf32>
    %s2b5nfl = stablehlo.add %s2b5ngx, %s2b5nbtb : tensor<32x75264xf32>
    %s2b5n = stablehlo.reshape %s2b5nfl : (tensor<32x75264xf32>) -> tensor<32x384x14x14xf32>
    %s2b5ec = stablehlo.convolution(%s2b5n, %s2b5eW)
      dim_numbers = [b, f, 0, 1]x[o, i, 0, 1]->[b, f, 0, 1],
      window = {stride = [1, 1], pad = [[0, 0], [0, 0]], lhs_dilate = [1, 1], rhs_dilate = [1, 1]}
      {batch_group_count = 1 : i64, feature_group_count = 1 : i64} : (tensor<32x384x14x14xf32>, tensor<1536x384x1x1xf32>) -> tensor<32x1536x14x14xf32>
    %s2b5ebb = stablehlo.broadcast_in_dim %s2b5eb, dims = [1] : (tensor<1536xf32>) -> tensor<32x1536x14x14xf32>
    %s2b5e = stablehlo.add %s2b5ec, %s2b5ebb : tensor<32x1536x14x14xf32>
    %s2b5gx2 = stablehlo.multiply %s2b5e, %s2b5e : tensor<32x1536x14x14xf32>
    %s2b5gx3 = stablehlo.multiply %s2b5gx2, %s2b5e : tensor<32x1536x14x14xf32>
    %s2b5gck = stablehlo.constant dense<0.044715> : tensor<32x1536x14x14xf32>
    %s2b5gkx3 = stablehlo.multiply %s2b5gck, %s2b5gx3 : tensor<32x1536x14x14xf32>
    %s2b5ginn = stablehlo.add %s2b5e, %s2b5gkx3 : tensor<32x1536x14x14xf32>
    %s2b5gcs = stablehlo.constant dense<0.7978845608028654> : tensor<32x1536x14x14xf32>
    %s2b5gu = stablehlo.multiply %s2b5gcs, %s2b5ginn : tensor<32x1536x14x14xf32>
    %s2b5gt = stablehlo.tanh %s2b5gu : tensor<32x1536x14x14xf32>
    %s2b5gone = stablehlo.constant dense<1.0> : tensor<32x1536x14x14xf32>
    %s2b5gopt = stablehlo.add %s2b5gone, %s2b5gt : tensor<32x1536x14x14xf32>
    %s2b5ghalf = stablehlo.constant dense<0.5> : tensor<32x1536x14x14xf32>
    %s2b5ghx = stablehlo.multiply %s2b5ghalf, %s2b5e : tensor<32x1536x14x14xf32>
    %s2b5g = stablehlo.multiply %s2b5ghx, %s2b5gopt : tensor<32x1536x14x14xf32>
    %s2b5pc = stablehlo.convolution(%s2b5g, %s2b5pW)
      dim_numbers = [b, f, 0, 1]x[o, i, 0, 1]->[b, f, 0, 1],
      window = {stride = [1, 1], pad = [[0, 0], [0, 0]], lhs_dilate = [1, 1], rhs_dilate = [1, 1]}
      {batch_group_count = 1 : i64, feature_group_count = 1 : i64} : (tensor<32x1536x14x14xf32>, tensor<384x1536x1x1xf32>) -> tensor<32x384x14x14xf32>
    %s2b5pbb = stablehlo.broadcast_in_dim %s2b5pb, dims = [1] : (tensor<384xf32>) -> tensor<32x384x14x14xf32>
    %s2b5p = stablehlo.add %s2b5pc, %s2b5pbb : tensor<32x384x14x14xf32>
    %s2b5lsgb = stablehlo.broadcast_in_dim %s2b5lg, dims = [1] : (tensor<384xf32>) -> tensor<32x384x14x14xf32>
    %s2b5ls = stablehlo.multiply %s2b5p, %s2b5lsgb : tensor<32x384x14x14xf32>
    %s2b5o = stablehlo.add %s2b5ls, %s2b4o : tensor<32x384x14x14xf32>
    %s2b6dc = stablehlo.convolution(%s2b5o, %s2b6dW)
      dim_numbers = [b, f, 0, 1]x[o, i, 0, 1]->[b, f, 0, 1],
      window = {stride = [1, 1], pad = [[3, 3], [3, 3]], lhs_dilate = [1, 1], rhs_dilate = [1, 1]}
      {batch_group_count = 1 : i64, feature_group_count = 384 : i64} : (tensor<32x384x14x14xf32>, tensor<384x1x7x7xf32>) -> tensor<32x384x14x14xf32>
    %s2b6dbb = stablehlo.broadcast_in_dim %s2b6db, dims = [1] : (tensor<384xf32>) -> tensor<32x384x14x14xf32>
    %s2b6d = stablehlo.add %s2b6dc, %s2b6dbb : tensor<32x384x14x14xf32>
    %s2b6nri = stablehlo.reshape %s2b6d : (tensor<32x384x14x14xf32>) -> tensor<32x75264xf32>
    %s2b6nnf = stablehlo.constant dense<75264.0> : tensor<32x75264xf32>
    %s2b6nep = stablehlo.constant dense<1.0e-6> : tensor<32x75264xf32>
    %s2b6nsmr = stablehlo.reduce(%s2b6nri init: %sc) applies stablehlo.add across dimensions = [1] : (tensor<32x75264xf32>, tensor<f32>) -> tensor<32xf32>
    %s2b6nsm = stablehlo.broadcast_in_dim %s2b6nsmr, dims = [0] : (tensor<32xf32>) -> tensor<32x75264xf32>
    %s2b6nmu = stablehlo.divide %s2b6nsm, %s2b6nnf : tensor<32x75264xf32>
    %s2b6nxc = stablehlo.subtract %s2b6nri, %s2b6nmu : tensor<32x75264xf32>
    %s2b6nsq = stablehlo.multiply %s2b6nxc, %s2b6nxc : tensor<32x75264xf32>
    %s2b6nvsr = stablehlo.reduce(%s2b6nsq init: %sc) applies stablehlo.add across dimensions = [1] : (tensor<32x75264xf32>, tensor<f32>) -> tensor<32xf32>
    %s2b6nvs = stablehlo.broadcast_in_dim %s2b6nvsr, dims = [0] : (tensor<32xf32>) -> tensor<32x75264xf32>
    %s2b6nvr = stablehlo.divide %s2b6nvs, %s2b6nnf : tensor<32x75264xf32>
    %s2b6nve = stablehlo.add %s2b6nvr, %s2b6nep : tensor<32x75264xf32>
    %s2b6nistd = stablehlo.rsqrt %s2b6nve : tensor<32x75264xf32>
    %s2b6nxh = stablehlo.multiply %s2b6nxc, %s2b6nistd : tensor<32x75264xf32>
    %s2b6ngb = stablehlo.broadcast_in_dim %s2b6ng, dims = [] : (tensor<f32>) -> tensor<32x75264xf32>
    %s2b6nbtb = stablehlo.broadcast_in_dim %s2b6nbt, dims = [] : (tensor<f32>) -> tensor<32x75264xf32>
    %s2b6ngx = stablehlo.multiply %s2b6nxh, %s2b6ngb : tensor<32x75264xf32>
    %s2b6nfl = stablehlo.add %s2b6ngx, %s2b6nbtb : tensor<32x75264xf32>
    %s2b6n = stablehlo.reshape %s2b6nfl : (tensor<32x75264xf32>) -> tensor<32x384x14x14xf32>
    %s2b6ec = stablehlo.convolution(%s2b6n, %s2b6eW)
      dim_numbers = [b, f, 0, 1]x[o, i, 0, 1]->[b, f, 0, 1],
      window = {stride = [1, 1], pad = [[0, 0], [0, 0]], lhs_dilate = [1, 1], rhs_dilate = [1, 1]}
      {batch_group_count = 1 : i64, feature_group_count = 1 : i64} : (tensor<32x384x14x14xf32>, tensor<1536x384x1x1xf32>) -> tensor<32x1536x14x14xf32>
    %s2b6ebb = stablehlo.broadcast_in_dim %s2b6eb, dims = [1] : (tensor<1536xf32>) -> tensor<32x1536x14x14xf32>
    %s2b6e = stablehlo.add %s2b6ec, %s2b6ebb : tensor<32x1536x14x14xf32>
    %s2b6gx2 = stablehlo.multiply %s2b6e, %s2b6e : tensor<32x1536x14x14xf32>
    %s2b6gx3 = stablehlo.multiply %s2b6gx2, %s2b6e : tensor<32x1536x14x14xf32>
    %s2b6gck = stablehlo.constant dense<0.044715> : tensor<32x1536x14x14xf32>
    %s2b6gkx3 = stablehlo.multiply %s2b6gck, %s2b6gx3 : tensor<32x1536x14x14xf32>
    %s2b6ginn = stablehlo.add %s2b6e, %s2b6gkx3 : tensor<32x1536x14x14xf32>
    %s2b6gcs = stablehlo.constant dense<0.7978845608028654> : tensor<32x1536x14x14xf32>
    %s2b6gu = stablehlo.multiply %s2b6gcs, %s2b6ginn : tensor<32x1536x14x14xf32>
    %s2b6gt = stablehlo.tanh %s2b6gu : tensor<32x1536x14x14xf32>
    %s2b6gone = stablehlo.constant dense<1.0> : tensor<32x1536x14x14xf32>
    %s2b6gopt = stablehlo.add %s2b6gone, %s2b6gt : tensor<32x1536x14x14xf32>
    %s2b6ghalf = stablehlo.constant dense<0.5> : tensor<32x1536x14x14xf32>
    %s2b6ghx = stablehlo.multiply %s2b6ghalf, %s2b6e : tensor<32x1536x14x14xf32>
    %s2b6g = stablehlo.multiply %s2b6ghx, %s2b6gopt : tensor<32x1536x14x14xf32>
    %s2b6pc = stablehlo.convolution(%s2b6g, %s2b6pW)
      dim_numbers = [b, f, 0, 1]x[o, i, 0, 1]->[b, f, 0, 1],
      window = {stride = [1, 1], pad = [[0, 0], [0, 0]], lhs_dilate = [1, 1], rhs_dilate = [1, 1]}
      {batch_group_count = 1 : i64, feature_group_count = 1 : i64} : (tensor<32x1536x14x14xf32>, tensor<384x1536x1x1xf32>) -> tensor<32x384x14x14xf32>
    %s2b6pbb = stablehlo.broadcast_in_dim %s2b6pb, dims = [1] : (tensor<384xf32>) -> tensor<32x384x14x14xf32>
    %s2b6p = stablehlo.add %s2b6pc, %s2b6pbb : tensor<32x384x14x14xf32>
    %s2b6lsgb = stablehlo.broadcast_in_dim %s2b6lg, dims = [1] : (tensor<384xf32>) -> tensor<32x384x14x14xf32>
    %s2b6ls = stablehlo.multiply %s2b6p, %s2b6lsgb : tensor<32x384x14x14xf32>
    %s2b6o = stablehlo.add %s2b6ls, %s2b5o : tensor<32x384x14x14xf32>
    %s2b7dc = stablehlo.convolution(%s2b6o, %s2b7dW)
      dim_numbers = [b, f, 0, 1]x[o, i, 0, 1]->[b, f, 0, 1],
      window = {stride = [1, 1], pad = [[3, 3], [3, 3]], lhs_dilate = [1, 1], rhs_dilate = [1, 1]}
      {batch_group_count = 1 : i64, feature_group_count = 384 : i64} : (tensor<32x384x14x14xf32>, tensor<384x1x7x7xf32>) -> tensor<32x384x14x14xf32>
    %s2b7dbb = stablehlo.broadcast_in_dim %s2b7db, dims = [1] : (tensor<384xf32>) -> tensor<32x384x14x14xf32>
    %s2b7d = stablehlo.add %s2b7dc, %s2b7dbb : tensor<32x384x14x14xf32>
    %s2b7nri = stablehlo.reshape %s2b7d : (tensor<32x384x14x14xf32>) -> tensor<32x75264xf32>
    %s2b7nnf = stablehlo.constant dense<75264.0> : tensor<32x75264xf32>
    %s2b7nep = stablehlo.constant dense<1.0e-6> : tensor<32x75264xf32>
    %s2b7nsmr = stablehlo.reduce(%s2b7nri init: %sc) applies stablehlo.add across dimensions = [1] : (tensor<32x75264xf32>, tensor<f32>) -> tensor<32xf32>
    %s2b7nsm = stablehlo.broadcast_in_dim %s2b7nsmr, dims = [0] : (tensor<32xf32>) -> tensor<32x75264xf32>
    %s2b7nmu = stablehlo.divide %s2b7nsm, %s2b7nnf : tensor<32x75264xf32>
    %s2b7nxc = stablehlo.subtract %s2b7nri, %s2b7nmu : tensor<32x75264xf32>
    %s2b7nsq = stablehlo.multiply %s2b7nxc, %s2b7nxc : tensor<32x75264xf32>
    %s2b7nvsr = stablehlo.reduce(%s2b7nsq init: %sc) applies stablehlo.add across dimensions = [1] : (tensor<32x75264xf32>, tensor<f32>) -> tensor<32xf32>
    %s2b7nvs = stablehlo.broadcast_in_dim %s2b7nvsr, dims = [0] : (tensor<32xf32>) -> tensor<32x75264xf32>
    %s2b7nvr = stablehlo.divide %s2b7nvs, %s2b7nnf : tensor<32x75264xf32>
    %s2b7nve = stablehlo.add %s2b7nvr, %s2b7nep : tensor<32x75264xf32>
    %s2b7nistd = stablehlo.rsqrt %s2b7nve : tensor<32x75264xf32>
    %s2b7nxh = stablehlo.multiply %s2b7nxc, %s2b7nistd : tensor<32x75264xf32>
    %s2b7ngb = stablehlo.broadcast_in_dim %s2b7ng, dims = [] : (tensor<f32>) -> tensor<32x75264xf32>
    %s2b7nbtb = stablehlo.broadcast_in_dim %s2b7nbt, dims = [] : (tensor<f32>) -> tensor<32x75264xf32>
    %s2b7ngx = stablehlo.multiply %s2b7nxh, %s2b7ngb : tensor<32x75264xf32>
    %s2b7nfl = stablehlo.add %s2b7ngx, %s2b7nbtb : tensor<32x75264xf32>
    %s2b7n = stablehlo.reshape %s2b7nfl : (tensor<32x75264xf32>) -> tensor<32x384x14x14xf32>
    %s2b7ec = stablehlo.convolution(%s2b7n, %s2b7eW)
      dim_numbers = [b, f, 0, 1]x[o, i, 0, 1]->[b, f, 0, 1],
      window = {stride = [1, 1], pad = [[0, 0], [0, 0]], lhs_dilate = [1, 1], rhs_dilate = [1, 1]}
      {batch_group_count = 1 : i64, feature_group_count = 1 : i64} : (tensor<32x384x14x14xf32>, tensor<1536x384x1x1xf32>) -> tensor<32x1536x14x14xf32>
    %s2b7ebb = stablehlo.broadcast_in_dim %s2b7eb, dims = [1] : (tensor<1536xf32>) -> tensor<32x1536x14x14xf32>
    %s2b7e = stablehlo.add %s2b7ec, %s2b7ebb : tensor<32x1536x14x14xf32>
    %s2b7gx2 = stablehlo.multiply %s2b7e, %s2b7e : tensor<32x1536x14x14xf32>
    %s2b7gx3 = stablehlo.multiply %s2b7gx2, %s2b7e : tensor<32x1536x14x14xf32>
    %s2b7gck = stablehlo.constant dense<0.044715> : tensor<32x1536x14x14xf32>
    %s2b7gkx3 = stablehlo.multiply %s2b7gck, %s2b7gx3 : tensor<32x1536x14x14xf32>
    %s2b7ginn = stablehlo.add %s2b7e, %s2b7gkx3 : tensor<32x1536x14x14xf32>
    %s2b7gcs = stablehlo.constant dense<0.7978845608028654> : tensor<32x1536x14x14xf32>
    %s2b7gu = stablehlo.multiply %s2b7gcs, %s2b7ginn : tensor<32x1536x14x14xf32>
    %s2b7gt = stablehlo.tanh %s2b7gu : tensor<32x1536x14x14xf32>
    %s2b7gone = stablehlo.constant dense<1.0> : tensor<32x1536x14x14xf32>
    %s2b7gopt = stablehlo.add %s2b7gone, %s2b7gt : tensor<32x1536x14x14xf32>
    %s2b7ghalf = stablehlo.constant dense<0.5> : tensor<32x1536x14x14xf32>
    %s2b7ghx = stablehlo.multiply %s2b7ghalf, %s2b7e : tensor<32x1536x14x14xf32>
    %s2b7g = stablehlo.multiply %s2b7ghx, %s2b7gopt : tensor<32x1536x14x14xf32>
    %s2b7pc = stablehlo.convolution(%s2b7g, %s2b7pW)
      dim_numbers = [b, f, 0, 1]x[o, i, 0, 1]->[b, f, 0, 1],
      window = {stride = [1, 1], pad = [[0, 0], [0, 0]], lhs_dilate = [1, 1], rhs_dilate = [1, 1]}
      {batch_group_count = 1 : i64, feature_group_count = 1 : i64} : (tensor<32x1536x14x14xf32>, tensor<384x1536x1x1xf32>) -> tensor<32x384x14x14xf32>
    %s2b7pbb = stablehlo.broadcast_in_dim %s2b7pb, dims = [1] : (tensor<384xf32>) -> tensor<32x384x14x14xf32>
    %s2b7p = stablehlo.add %s2b7pc, %s2b7pbb : tensor<32x384x14x14xf32>
    %s2b7lsgb = stablehlo.broadcast_in_dim %s2b7lg, dims = [1] : (tensor<384xf32>) -> tensor<32x384x14x14xf32>
    %s2b7ls = stablehlo.multiply %s2b7p, %s2b7lsgb : tensor<32x384x14x14xf32>
    %s2b7o = stablehlo.add %s2b7ls, %s2b6o : tensor<32x384x14x14xf32>
    %s2b8dc = stablehlo.convolution(%s2b7o, %s2b8dW)
      dim_numbers = [b, f, 0, 1]x[o, i, 0, 1]->[b, f, 0, 1],
      window = {stride = [1, 1], pad = [[3, 3], [3, 3]], lhs_dilate = [1, 1], rhs_dilate = [1, 1]}
      {batch_group_count = 1 : i64, feature_group_count = 384 : i64} : (tensor<32x384x14x14xf32>, tensor<384x1x7x7xf32>) -> tensor<32x384x14x14xf32>
    %s2b8dbb = stablehlo.broadcast_in_dim %s2b8db, dims = [1] : (tensor<384xf32>) -> tensor<32x384x14x14xf32>
    %s2b8d = stablehlo.add %s2b8dc, %s2b8dbb : tensor<32x384x14x14xf32>
    %s2b8nri = stablehlo.reshape %s2b8d : (tensor<32x384x14x14xf32>) -> tensor<32x75264xf32>
    %s2b8nnf = stablehlo.constant dense<75264.0> : tensor<32x75264xf32>
    %s2b8nep = stablehlo.constant dense<1.0e-6> : tensor<32x75264xf32>
    %s2b8nsmr = stablehlo.reduce(%s2b8nri init: %sc) applies stablehlo.add across dimensions = [1] : (tensor<32x75264xf32>, tensor<f32>) -> tensor<32xf32>
    %s2b8nsm = stablehlo.broadcast_in_dim %s2b8nsmr, dims = [0] : (tensor<32xf32>) -> tensor<32x75264xf32>
    %s2b8nmu = stablehlo.divide %s2b8nsm, %s2b8nnf : tensor<32x75264xf32>
    %s2b8nxc = stablehlo.subtract %s2b8nri, %s2b8nmu : tensor<32x75264xf32>
    %s2b8nsq = stablehlo.multiply %s2b8nxc, %s2b8nxc : tensor<32x75264xf32>
    %s2b8nvsr = stablehlo.reduce(%s2b8nsq init: %sc) applies stablehlo.add across dimensions = [1] : (tensor<32x75264xf32>, tensor<f32>) -> tensor<32xf32>
    %s2b8nvs = stablehlo.broadcast_in_dim %s2b8nvsr, dims = [0] : (tensor<32xf32>) -> tensor<32x75264xf32>
    %s2b8nvr = stablehlo.divide %s2b8nvs, %s2b8nnf : tensor<32x75264xf32>
    %s2b8nve = stablehlo.add %s2b8nvr, %s2b8nep : tensor<32x75264xf32>
    %s2b8nistd = stablehlo.rsqrt %s2b8nve : tensor<32x75264xf32>
    %s2b8nxh = stablehlo.multiply %s2b8nxc, %s2b8nistd : tensor<32x75264xf32>
    %s2b8ngb = stablehlo.broadcast_in_dim %s2b8ng, dims = [] : (tensor<f32>) -> tensor<32x75264xf32>
    %s2b8nbtb = stablehlo.broadcast_in_dim %s2b8nbt, dims = [] : (tensor<f32>) -> tensor<32x75264xf32>
    %s2b8ngx = stablehlo.multiply %s2b8nxh, %s2b8ngb : tensor<32x75264xf32>
    %s2b8nfl = stablehlo.add %s2b8ngx, %s2b8nbtb : tensor<32x75264xf32>
    %s2b8n = stablehlo.reshape %s2b8nfl : (tensor<32x75264xf32>) -> tensor<32x384x14x14xf32>
    %s2b8ec = stablehlo.convolution(%s2b8n, %s2b8eW)
      dim_numbers = [b, f, 0, 1]x[o, i, 0, 1]->[b, f, 0, 1],
      window = {stride = [1, 1], pad = [[0, 0], [0, 0]], lhs_dilate = [1, 1], rhs_dilate = [1, 1]}
      {batch_group_count = 1 : i64, feature_group_count = 1 : i64} : (tensor<32x384x14x14xf32>, tensor<1536x384x1x1xf32>) -> tensor<32x1536x14x14xf32>
    %s2b8ebb = stablehlo.broadcast_in_dim %s2b8eb, dims = [1] : (tensor<1536xf32>) -> tensor<32x1536x14x14xf32>
    %s2b8e = stablehlo.add %s2b8ec, %s2b8ebb : tensor<32x1536x14x14xf32>
    %s2b8gx2 = stablehlo.multiply %s2b8e, %s2b8e : tensor<32x1536x14x14xf32>
    %s2b8gx3 = stablehlo.multiply %s2b8gx2, %s2b8e : tensor<32x1536x14x14xf32>
    %s2b8gck = stablehlo.constant dense<0.044715> : tensor<32x1536x14x14xf32>
    %s2b8gkx3 = stablehlo.multiply %s2b8gck, %s2b8gx3 : tensor<32x1536x14x14xf32>
    %s2b8ginn = stablehlo.add %s2b8e, %s2b8gkx3 : tensor<32x1536x14x14xf32>
    %s2b8gcs = stablehlo.constant dense<0.7978845608028654> : tensor<32x1536x14x14xf32>
    %s2b8gu = stablehlo.multiply %s2b8gcs, %s2b8ginn : tensor<32x1536x14x14xf32>
    %s2b8gt = stablehlo.tanh %s2b8gu : tensor<32x1536x14x14xf32>
    %s2b8gone = stablehlo.constant dense<1.0> : tensor<32x1536x14x14xf32>
    %s2b8gopt = stablehlo.add %s2b8gone, %s2b8gt : tensor<32x1536x14x14xf32>
    %s2b8ghalf = stablehlo.constant dense<0.5> : tensor<32x1536x14x14xf32>
    %s2b8ghx = stablehlo.multiply %s2b8ghalf, %s2b8e : tensor<32x1536x14x14xf32>
    %s2b8g = stablehlo.multiply %s2b8ghx, %s2b8gopt : tensor<32x1536x14x14xf32>
    %s2b8pc = stablehlo.convolution(%s2b8g, %s2b8pW)
      dim_numbers = [b, f, 0, 1]x[o, i, 0, 1]->[b, f, 0, 1],
      window = {stride = [1, 1], pad = [[0, 0], [0, 0]], lhs_dilate = [1, 1], rhs_dilate = [1, 1]}
      {batch_group_count = 1 : i64, feature_group_count = 1 : i64} : (tensor<32x1536x14x14xf32>, tensor<384x1536x1x1xf32>) -> tensor<32x384x14x14xf32>
    %s2b8pbb = stablehlo.broadcast_in_dim %s2b8pb, dims = [1] : (tensor<384xf32>) -> tensor<32x384x14x14xf32>
    %s2b8p = stablehlo.add %s2b8pc, %s2b8pbb : tensor<32x384x14x14xf32>
    %s2b8lsgb = stablehlo.broadcast_in_dim %s2b8lg, dims = [1] : (tensor<384xf32>) -> tensor<32x384x14x14xf32>
    %s2b8ls = stablehlo.multiply %s2b8p, %s2b8lsgb : tensor<32x384x14x14xf32>
    %s2b8o = stablehlo.add %s2b8ls, %s2b7o : tensor<32x384x14x14xf32>
    %d2nri = stablehlo.reshape %s2b8o : (tensor<32x384x14x14xf32>) -> tensor<32x75264xf32>
    %d2nnf = stablehlo.constant dense<75264.0> : tensor<32x75264xf32>
    %d2nep = stablehlo.constant dense<1.0e-6> : tensor<32x75264xf32>
    %d2nsmr = stablehlo.reduce(%d2nri init: %sc) applies stablehlo.add across dimensions = [1] : (tensor<32x75264xf32>, tensor<f32>) -> tensor<32xf32>
    %d2nsm = stablehlo.broadcast_in_dim %d2nsmr, dims = [0] : (tensor<32xf32>) -> tensor<32x75264xf32>
    %d2nmu = stablehlo.divide %d2nsm, %d2nnf : tensor<32x75264xf32>
    %d2nxc = stablehlo.subtract %d2nri, %d2nmu : tensor<32x75264xf32>
    %d2nsq = stablehlo.multiply %d2nxc, %d2nxc : tensor<32x75264xf32>
    %d2nvsr = stablehlo.reduce(%d2nsq init: %sc) applies stablehlo.add across dimensions = [1] : (tensor<32x75264xf32>, tensor<f32>) -> tensor<32xf32>
    %d2nvs = stablehlo.broadcast_in_dim %d2nvsr, dims = [0] : (tensor<32xf32>) -> tensor<32x75264xf32>
    %d2nvr = stablehlo.divide %d2nvs, %d2nnf : tensor<32x75264xf32>
    %d2nve = stablehlo.add %d2nvr, %d2nep : tensor<32x75264xf32>
    %d2nistd = stablehlo.rsqrt %d2nve : tensor<32x75264xf32>
    %d2nxh = stablehlo.multiply %d2nxc, %d2nistd : tensor<32x75264xf32>
    %d2ngb = stablehlo.broadcast_in_dim %d2ng, dims = [] : (tensor<f32>) -> tensor<32x75264xf32>
    %d2nbtb = stablehlo.broadcast_in_dim %d2nbt, dims = [] : (tensor<f32>) -> tensor<32x75264xf32>
    %d2ngx = stablehlo.multiply %d2nxh, %d2ngb : tensor<32x75264xf32>
    %d2nfl = stablehlo.add %d2ngx, %d2nbtb : tensor<32x75264xf32>
    %d2n = stablehlo.reshape %d2nfl : (tensor<32x75264xf32>) -> tensor<32x384x14x14xf32>
    %d2cc = stablehlo.convolution(%d2n, %d2W)
      dim_numbers = [b, f, 0, 1]x[o, i, 0, 1]->[b, f, 0, 1],
      window = {stride = [2, 2], pad = [[0, 0], [0, 0]], lhs_dilate = [1, 1], rhs_dilate = [1, 1]}
      {batch_group_count = 1 : i64, feature_group_count = 1 : i64} : (tensor<32x384x14x14xf32>, tensor<768x384x2x2xf32>) -> tensor<32x768x7x7xf32>
    %d2cbb = stablehlo.broadcast_in_dim %d2b, dims = [1] : (tensor<768xf32>) -> tensor<32x768x7x7xf32>
    %d2c = stablehlo.add %d2cc, %d2cbb : tensor<32x768x7x7xf32>
    %s3b0dc = stablehlo.convolution(%d2c, %s3b0dW)
      dim_numbers = [b, f, 0, 1]x[o, i, 0, 1]->[b, f, 0, 1],
      window = {stride = [1, 1], pad = [[3, 3], [3, 3]], lhs_dilate = [1, 1], rhs_dilate = [1, 1]}
      {batch_group_count = 1 : i64, feature_group_count = 768 : i64} : (tensor<32x768x7x7xf32>, tensor<768x1x7x7xf32>) -> tensor<32x768x7x7xf32>
    %s3b0dbb = stablehlo.broadcast_in_dim %s3b0db, dims = [1] : (tensor<768xf32>) -> tensor<32x768x7x7xf32>
    %s3b0d = stablehlo.add %s3b0dc, %s3b0dbb : tensor<32x768x7x7xf32>
    %s3b0nri = stablehlo.reshape %s3b0d : (tensor<32x768x7x7xf32>) -> tensor<32x37632xf32>
    %s3b0nnf = stablehlo.constant dense<37632.0> : tensor<32x37632xf32>
    %s3b0nep = stablehlo.constant dense<1.0e-6> : tensor<32x37632xf32>
    %s3b0nsmr = stablehlo.reduce(%s3b0nri init: %sc) applies stablehlo.add across dimensions = [1] : (tensor<32x37632xf32>, tensor<f32>) -> tensor<32xf32>
    %s3b0nsm = stablehlo.broadcast_in_dim %s3b0nsmr, dims = [0] : (tensor<32xf32>) -> tensor<32x37632xf32>
    %s3b0nmu = stablehlo.divide %s3b0nsm, %s3b0nnf : tensor<32x37632xf32>
    %s3b0nxc = stablehlo.subtract %s3b0nri, %s3b0nmu : tensor<32x37632xf32>
    %s3b0nsq = stablehlo.multiply %s3b0nxc, %s3b0nxc : tensor<32x37632xf32>
    %s3b0nvsr = stablehlo.reduce(%s3b0nsq init: %sc) applies stablehlo.add across dimensions = [1] : (tensor<32x37632xf32>, tensor<f32>) -> tensor<32xf32>
    %s3b0nvs = stablehlo.broadcast_in_dim %s3b0nvsr, dims = [0] : (tensor<32xf32>) -> tensor<32x37632xf32>
    %s3b0nvr = stablehlo.divide %s3b0nvs, %s3b0nnf : tensor<32x37632xf32>
    %s3b0nve = stablehlo.add %s3b0nvr, %s3b0nep : tensor<32x37632xf32>
    %s3b0nistd = stablehlo.rsqrt %s3b0nve : tensor<32x37632xf32>
    %s3b0nxh = stablehlo.multiply %s3b0nxc, %s3b0nistd : tensor<32x37632xf32>
    %s3b0ngb = stablehlo.broadcast_in_dim %s3b0ng, dims = [] : (tensor<f32>) -> tensor<32x37632xf32>
    %s3b0nbtb = stablehlo.broadcast_in_dim %s3b0nbt, dims = [] : (tensor<f32>) -> tensor<32x37632xf32>
    %s3b0ngx = stablehlo.multiply %s3b0nxh, %s3b0ngb : tensor<32x37632xf32>
    %s3b0nfl = stablehlo.add %s3b0ngx, %s3b0nbtb : tensor<32x37632xf32>
    %s3b0n = stablehlo.reshape %s3b0nfl : (tensor<32x37632xf32>) -> tensor<32x768x7x7xf32>
    %s3b0ec = stablehlo.convolution(%s3b0n, %s3b0eW)
      dim_numbers = [b, f, 0, 1]x[o, i, 0, 1]->[b, f, 0, 1],
      window = {stride = [1, 1], pad = [[0, 0], [0, 0]], lhs_dilate = [1, 1], rhs_dilate = [1, 1]}
      {batch_group_count = 1 : i64, feature_group_count = 1 : i64} : (tensor<32x768x7x7xf32>, tensor<3072x768x1x1xf32>) -> tensor<32x3072x7x7xf32>
    %s3b0ebb = stablehlo.broadcast_in_dim %s3b0eb, dims = [1] : (tensor<3072xf32>) -> tensor<32x3072x7x7xf32>
    %s3b0e = stablehlo.add %s3b0ec, %s3b0ebb : tensor<32x3072x7x7xf32>
    %s3b0gx2 = stablehlo.multiply %s3b0e, %s3b0e : tensor<32x3072x7x7xf32>
    %s3b0gx3 = stablehlo.multiply %s3b0gx2, %s3b0e : tensor<32x3072x7x7xf32>
    %s3b0gck = stablehlo.constant dense<0.044715> : tensor<32x3072x7x7xf32>
    %s3b0gkx3 = stablehlo.multiply %s3b0gck, %s3b0gx3 : tensor<32x3072x7x7xf32>
    %s3b0ginn = stablehlo.add %s3b0e, %s3b0gkx3 : tensor<32x3072x7x7xf32>
    %s3b0gcs = stablehlo.constant dense<0.7978845608028654> : tensor<32x3072x7x7xf32>
    %s3b0gu = stablehlo.multiply %s3b0gcs, %s3b0ginn : tensor<32x3072x7x7xf32>
    %s3b0gt = stablehlo.tanh %s3b0gu : tensor<32x3072x7x7xf32>
    %s3b0gone = stablehlo.constant dense<1.0> : tensor<32x3072x7x7xf32>
    %s3b0gopt = stablehlo.add %s3b0gone, %s3b0gt : tensor<32x3072x7x7xf32>
    %s3b0ghalf = stablehlo.constant dense<0.5> : tensor<32x3072x7x7xf32>
    %s3b0ghx = stablehlo.multiply %s3b0ghalf, %s3b0e : tensor<32x3072x7x7xf32>
    %s3b0g = stablehlo.multiply %s3b0ghx, %s3b0gopt : tensor<32x3072x7x7xf32>
    %s3b0pc = stablehlo.convolution(%s3b0g, %s3b0pW)
      dim_numbers = [b, f, 0, 1]x[o, i, 0, 1]->[b, f, 0, 1],
      window = {stride = [1, 1], pad = [[0, 0], [0, 0]], lhs_dilate = [1, 1], rhs_dilate = [1, 1]}
      {batch_group_count = 1 : i64, feature_group_count = 1 : i64} : (tensor<32x3072x7x7xf32>, tensor<768x3072x1x1xf32>) -> tensor<32x768x7x7xf32>
    %s3b0pbb = stablehlo.broadcast_in_dim %s3b0pb, dims = [1] : (tensor<768xf32>) -> tensor<32x768x7x7xf32>
    %s3b0p = stablehlo.add %s3b0pc, %s3b0pbb : tensor<32x768x7x7xf32>
    %s3b0lsgb = stablehlo.broadcast_in_dim %s3b0lg, dims = [1] : (tensor<768xf32>) -> tensor<32x768x7x7xf32>
    %s3b0ls = stablehlo.multiply %s3b0p, %s3b0lsgb : tensor<32x768x7x7xf32>
    %s3b0o = stablehlo.add %s3b0ls, %d2c : tensor<32x768x7x7xf32>
    %s3b1dc = stablehlo.convolution(%s3b0o, %s3b1dW)
      dim_numbers = [b, f, 0, 1]x[o, i, 0, 1]->[b, f, 0, 1],
      window = {stride = [1, 1], pad = [[3, 3], [3, 3]], lhs_dilate = [1, 1], rhs_dilate = [1, 1]}
      {batch_group_count = 1 : i64, feature_group_count = 768 : i64} : (tensor<32x768x7x7xf32>, tensor<768x1x7x7xf32>) -> tensor<32x768x7x7xf32>
    %s3b1dbb = stablehlo.broadcast_in_dim %s3b1db, dims = [1] : (tensor<768xf32>) -> tensor<32x768x7x7xf32>
    %s3b1d = stablehlo.add %s3b1dc, %s3b1dbb : tensor<32x768x7x7xf32>
    %s3b1nri = stablehlo.reshape %s3b1d : (tensor<32x768x7x7xf32>) -> tensor<32x37632xf32>
    %s3b1nnf = stablehlo.constant dense<37632.0> : tensor<32x37632xf32>
    %s3b1nep = stablehlo.constant dense<1.0e-6> : tensor<32x37632xf32>
    %s3b1nsmr = stablehlo.reduce(%s3b1nri init: %sc) applies stablehlo.add across dimensions = [1] : (tensor<32x37632xf32>, tensor<f32>) -> tensor<32xf32>
    %s3b1nsm = stablehlo.broadcast_in_dim %s3b1nsmr, dims = [0] : (tensor<32xf32>) -> tensor<32x37632xf32>
    %s3b1nmu = stablehlo.divide %s3b1nsm, %s3b1nnf : tensor<32x37632xf32>
    %s3b1nxc = stablehlo.subtract %s3b1nri, %s3b1nmu : tensor<32x37632xf32>
    %s3b1nsq = stablehlo.multiply %s3b1nxc, %s3b1nxc : tensor<32x37632xf32>
    %s3b1nvsr = stablehlo.reduce(%s3b1nsq init: %sc) applies stablehlo.add across dimensions = [1] : (tensor<32x37632xf32>, tensor<f32>) -> tensor<32xf32>
    %s3b1nvs = stablehlo.broadcast_in_dim %s3b1nvsr, dims = [0] : (tensor<32xf32>) -> tensor<32x37632xf32>
    %s3b1nvr = stablehlo.divide %s3b1nvs, %s3b1nnf : tensor<32x37632xf32>
    %s3b1nve = stablehlo.add %s3b1nvr, %s3b1nep : tensor<32x37632xf32>
    %s3b1nistd = stablehlo.rsqrt %s3b1nve : tensor<32x37632xf32>
    %s3b1nxh = stablehlo.multiply %s3b1nxc, %s3b1nistd : tensor<32x37632xf32>
    %s3b1ngb = stablehlo.broadcast_in_dim %s3b1ng, dims = [] : (tensor<f32>) -> tensor<32x37632xf32>
    %s3b1nbtb = stablehlo.broadcast_in_dim %s3b1nbt, dims = [] : (tensor<f32>) -> tensor<32x37632xf32>
    %s3b1ngx = stablehlo.multiply %s3b1nxh, %s3b1ngb : tensor<32x37632xf32>
    %s3b1nfl = stablehlo.add %s3b1ngx, %s3b1nbtb : tensor<32x37632xf32>
    %s3b1n = stablehlo.reshape %s3b1nfl : (tensor<32x37632xf32>) -> tensor<32x768x7x7xf32>
    %s3b1ec = stablehlo.convolution(%s3b1n, %s3b1eW)
      dim_numbers = [b, f, 0, 1]x[o, i, 0, 1]->[b, f, 0, 1],
      window = {stride = [1, 1], pad = [[0, 0], [0, 0]], lhs_dilate = [1, 1], rhs_dilate = [1, 1]}
      {batch_group_count = 1 : i64, feature_group_count = 1 : i64} : (tensor<32x768x7x7xf32>, tensor<3072x768x1x1xf32>) -> tensor<32x3072x7x7xf32>
    %s3b1ebb = stablehlo.broadcast_in_dim %s3b1eb, dims = [1] : (tensor<3072xf32>) -> tensor<32x3072x7x7xf32>
    %s3b1e = stablehlo.add %s3b1ec, %s3b1ebb : tensor<32x3072x7x7xf32>
    %s3b1gx2 = stablehlo.multiply %s3b1e, %s3b1e : tensor<32x3072x7x7xf32>
    %s3b1gx3 = stablehlo.multiply %s3b1gx2, %s3b1e : tensor<32x3072x7x7xf32>
    %s3b1gck = stablehlo.constant dense<0.044715> : tensor<32x3072x7x7xf32>
    %s3b1gkx3 = stablehlo.multiply %s3b1gck, %s3b1gx3 : tensor<32x3072x7x7xf32>
    %s3b1ginn = stablehlo.add %s3b1e, %s3b1gkx3 : tensor<32x3072x7x7xf32>
    %s3b1gcs = stablehlo.constant dense<0.7978845608028654> : tensor<32x3072x7x7xf32>
    %s3b1gu = stablehlo.multiply %s3b1gcs, %s3b1ginn : tensor<32x3072x7x7xf32>
    %s3b1gt = stablehlo.tanh %s3b1gu : tensor<32x3072x7x7xf32>
    %s3b1gone = stablehlo.constant dense<1.0> : tensor<32x3072x7x7xf32>
    %s3b1gopt = stablehlo.add %s3b1gone, %s3b1gt : tensor<32x3072x7x7xf32>
    %s3b1ghalf = stablehlo.constant dense<0.5> : tensor<32x3072x7x7xf32>
    %s3b1ghx = stablehlo.multiply %s3b1ghalf, %s3b1e : tensor<32x3072x7x7xf32>
    %s3b1g = stablehlo.multiply %s3b1ghx, %s3b1gopt : tensor<32x3072x7x7xf32>
    %s3b1pc = stablehlo.convolution(%s3b1g, %s3b1pW)
      dim_numbers = [b, f, 0, 1]x[o, i, 0, 1]->[b, f, 0, 1],
      window = {stride = [1, 1], pad = [[0, 0], [0, 0]], lhs_dilate = [1, 1], rhs_dilate = [1, 1]}
      {batch_group_count = 1 : i64, feature_group_count = 1 : i64} : (tensor<32x3072x7x7xf32>, tensor<768x3072x1x1xf32>) -> tensor<32x768x7x7xf32>
    %s3b1pbb = stablehlo.broadcast_in_dim %s3b1pb, dims = [1] : (tensor<768xf32>) -> tensor<32x768x7x7xf32>
    %s3b1p = stablehlo.add %s3b1pc, %s3b1pbb : tensor<32x768x7x7xf32>
    %s3b1lsgb = stablehlo.broadcast_in_dim %s3b1lg, dims = [1] : (tensor<768xf32>) -> tensor<32x768x7x7xf32>
    %s3b1ls = stablehlo.multiply %s3b1p, %s3b1lsgb : tensor<32x768x7x7xf32>
    %s3b1o = stablehlo.add %s3b1ls, %s3b0o : tensor<32x768x7x7xf32>
    %s3b2dc = stablehlo.convolution(%s3b1o, %s3b2dW)
      dim_numbers = [b, f, 0, 1]x[o, i, 0, 1]->[b, f, 0, 1],
      window = {stride = [1, 1], pad = [[3, 3], [3, 3]], lhs_dilate = [1, 1], rhs_dilate = [1, 1]}
      {batch_group_count = 1 : i64, feature_group_count = 768 : i64} : (tensor<32x768x7x7xf32>, tensor<768x1x7x7xf32>) -> tensor<32x768x7x7xf32>
    %s3b2dbb = stablehlo.broadcast_in_dim %s3b2db, dims = [1] : (tensor<768xf32>) -> tensor<32x768x7x7xf32>
    %s3b2d = stablehlo.add %s3b2dc, %s3b2dbb : tensor<32x768x7x7xf32>
    %s3b2nri = stablehlo.reshape %s3b2d : (tensor<32x768x7x7xf32>) -> tensor<32x37632xf32>
    %s3b2nnf = stablehlo.constant dense<37632.0> : tensor<32x37632xf32>
    %s3b2nep = stablehlo.constant dense<1.0e-6> : tensor<32x37632xf32>
    %s3b2nsmr = stablehlo.reduce(%s3b2nri init: %sc) applies stablehlo.add across dimensions = [1] : (tensor<32x37632xf32>, tensor<f32>) -> tensor<32xf32>
    %s3b2nsm = stablehlo.broadcast_in_dim %s3b2nsmr, dims = [0] : (tensor<32xf32>) -> tensor<32x37632xf32>
    %s3b2nmu = stablehlo.divide %s3b2nsm, %s3b2nnf : tensor<32x37632xf32>
    %s3b2nxc = stablehlo.subtract %s3b2nri, %s3b2nmu : tensor<32x37632xf32>
    %s3b2nsq = stablehlo.multiply %s3b2nxc, %s3b2nxc : tensor<32x37632xf32>
    %s3b2nvsr = stablehlo.reduce(%s3b2nsq init: %sc) applies stablehlo.add across dimensions = [1] : (tensor<32x37632xf32>, tensor<f32>) -> tensor<32xf32>
    %s3b2nvs = stablehlo.broadcast_in_dim %s3b2nvsr, dims = [0] : (tensor<32xf32>) -> tensor<32x37632xf32>
    %s3b2nvr = stablehlo.divide %s3b2nvs, %s3b2nnf : tensor<32x37632xf32>
    %s3b2nve = stablehlo.add %s3b2nvr, %s3b2nep : tensor<32x37632xf32>
    %s3b2nistd = stablehlo.rsqrt %s3b2nve : tensor<32x37632xf32>
    %s3b2nxh = stablehlo.multiply %s3b2nxc, %s3b2nistd : tensor<32x37632xf32>
    %s3b2ngb = stablehlo.broadcast_in_dim %s3b2ng, dims = [] : (tensor<f32>) -> tensor<32x37632xf32>
    %s3b2nbtb = stablehlo.broadcast_in_dim %s3b2nbt, dims = [] : (tensor<f32>) -> tensor<32x37632xf32>
    %s3b2ngx = stablehlo.multiply %s3b2nxh, %s3b2ngb : tensor<32x37632xf32>
    %s3b2nfl = stablehlo.add %s3b2ngx, %s3b2nbtb : tensor<32x37632xf32>
    %s3b2n = stablehlo.reshape %s3b2nfl : (tensor<32x37632xf32>) -> tensor<32x768x7x7xf32>
    %s3b2ec = stablehlo.convolution(%s3b2n, %s3b2eW)
      dim_numbers = [b, f, 0, 1]x[o, i, 0, 1]->[b, f, 0, 1],
      window = {stride = [1, 1], pad = [[0, 0], [0, 0]], lhs_dilate = [1, 1], rhs_dilate = [1, 1]}
      {batch_group_count = 1 : i64, feature_group_count = 1 : i64} : (tensor<32x768x7x7xf32>, tensor<3072x768x1x1xf32>) -> tensor<32x3072x7x7xf32>
    %s3b2ebb = stablehlo.broadcast_in_dim %s3b2eb, dims = [1] : (tensor<3072xf32>) -> tensor<32x3072x7x7xf32>
    %s3b2e = stablehlo.add %s3b2ec, %s3b2ebb : tensor<32x3072x7x7xf32>
    %s3b2gx2 = stablehlo.multiply %s3b2e, %s3b2e : tensor<32x3072x7x7xf32>
    %s3b2gx3 = stablehlo.multiply %s3b2gx2, %s3b2e : tensor<32x3072x7x7xf32>
    %s3b2gck = stablehlo.constant dense<0.044715> : tensor<32x3072x7x7xf32>
    %s3b2gkx3 = stablehlo.multiply %s3b2gck, %s3b2gx3 : tensor<32x3072x7x7xf32>
    %s3b2ginn = stablehlo.add %s3b2e, %s3b2gkx3 : tensor<32x3072x7x7xf32>
    %s3b2gcs = stablehlo.constant dense<0.7978845608028654> : tensor<32x3072x7x7xf32>
    %s3b2gu = stablehlo.multiply %s3b2gcs, %s3b2ginn : tensor<32x3072x7x7xf32>
    %s3b2gt = stablehlo.tanh %s3b2gu : tensor<32x3072x7x7xf32>
    %s3b2gone = stablehlo.constant dense<1.0> : tensor<32x3072x7x7xf32>
    %s3b2gopt = stablehlo.add %s3b2gone, %s3b2gt : tensor<32x3072x7x7xf32>
    %s3b2ghalf = stablehlo.constant dense<0.5> : tensor<32x3072x7x7xf32>
    %s3b2ghx = stablehlo.multiply %s3b2ghalf, %s3b2e : tensor<32x3072x7x7xf32>
    %s3b2g = stablehlo.multiply %s3b2ghx, %s3b2gopt : tensor<32x3072x7x7xf32>
    %s3b2pc = stablehlo.convolution(%s3b2g, %s3b2pW)
      dim_numbers = [b, f, 0, 1]x[o, i, 0, 1]->[b, f, 0, 1],
      window = {stride = [1, 1], pad = [[0, 0], [0, 0]], lhs_dilate = [1, 1], rhs_dilate = [1, 1]}
      {batch_group_count = 1 : i64, feature_group_count = 1 : i64} : (tensor<32x3072x7x7xf32>, tensor<768x3072x1x1xf32>) -> tensor<32x768x7x7xf32>
    %s3b2pbb = stablehlo.broadcast_in_dim %s3b2pb, dims = [1] : (tensor<768xf32>) -> tensor<32x768x7x7xf32>
    %s3b2p = stablehlo.add %s3b2pc, %s3b2pbb : tensor<32x768x7x7xf32>
    %s3b2lsgb = stablehlo.broadcast_in_dim %s3b2lg, dims = [1] : (tensor<768xf32>) -> tensor<32x768x7x7xf32>
    %s3b2ls = stablehlo.multiply %s3b2p, %s3b2lsgb : tensor<32x768x7x7xf32>
    %s3b2o = stablehlo.add %s3b2ls, %s3b1o : tensor<32x768x7x7xf32>
    %gaps = stablehlo.reduce(%s3b2o init: %sc) applies stablehlo.add across dimensions = [2, 3] : (tensor<32x768x7x7xf32>, tensor<f32>) -> tensor<32x768xf32>
    %gapnf = stablehlo.constant dense<49.0> : tensor<32x768xf32>
    %gap = stablehlo.divide %gaps, %gapnf : tensor<32x768xf32>
    %gapr = stablehlo.reshape %gap : (tensor<32x768xf32>) -> tensor<32x768x1x1xf32>
    %hnri = stablehlo.reshape %gapr : (tensor<32x768x1x1xf32>) -> tensor<32x768xf32>
    %hnnf = stablehlo.constant dense<768.0> : tensor<32x768xf32>
    %hnep = stablehlo.constant dense<1.0e-6> : tensor<32x768xf32>
    %hnsmr = stablehlo.reduce(%hnri init: %sc) applies stablehlo.add across dimensions = [1] : (tensor<32x768xf32>, tensor<f32>) -> tensor<32xf32>
    %hnsm = stablehlo.broadcast_in_dim %hnsmr, dims = [0] : (tensor<32xf32>) -> tensor<32x768xf32>
    %hnmu = stablehlo.divide %hnsm, %hnnf : tensor<32x768xf32>
    %hnxc = stablehlo.subtract %hnri, %hnmu : tensor<32x768xf32>
    %hnsq = stablehlo.multiply %hnxc, %hnxc : tensor<32x768xf32>
    %hnvsr = stablehlo.reduce(%hnsq init: %sc) applies stablehlo.add across dimensions = [1] : (tensor<32x768xf32>, tensor<f32>) -> tensor<32xf32>
    %hnvs = stablehlo.broadcast_in_dim %hnvsr, dims = [0] : (tensor<32xf32>) -> tensor<32x768xf32>
    %hnvr = stablehlo.divide %hnvs, %hnnf : tensor<32x768xf32>
    %hnve = stablehlo.add %hnvr, %hnep : tensor<32x768xf32>
    %hnistd = stablehlo.rsqrt %hnve : tensor<32x768xf32>
    %hnxh = stablehlo.multiply %hnxc, %hnistd : tensor<32x768xf32>
    %hngb = stablehlo.broadcast_in_dim %hng, dims = [] : (tensor<f32>) -> tensor<32x768xf32>
    %hnbtb = stablehlo.broadcast_in_dim %hnbt, dims = [] : (tensor<f32>) -> tensor<32x768xf32>
    %hngx = stablehlo.multiply %hnxh, %hngb : tensor<32x768xf32>
    %hnfl = stablehlo.add %hngx, %hnbtb : tensor<32x768xf32>
    %hn = stablehlo.reshape %hnfl : (tensor<32x768xf32>) -> tensor<32x768x1x1xf32>
    %hnf = stablehlo.reshape %hn : (tensor<32x768x1x1xf32>) -> tensor<32x768xf32>
    %ld = stablehlo.dot_general %hnf, %Wd, contracting_dims = [1] x [0], precision = [DEFAULT, DEFAULT] : (tensor<32x768xf32>, tensor<768x10xf32>) -> tensor<32x10xf32>
    %ldb = stablehlo.broadcast_in_dim %bd, dims = [1] : (tensor<10xf32>) -> tensor<32x10xf32>
    %logits = stablehlo.add %ld, %ldb : tensor<32x10xf32>
    %le = stablehlo.exponential %logits : tensor<32x10xf32>
    %lsum = stablehlo.reduce(%le init: %sc) applies stablehlo.add across dimensions = [1] : (tensor<32x10xf32>, tensor<f32>) -> tensor<32xf32>
    %lsb = stablehlo.broadcast_in_dim %lsum, dims = [0] : (tensor<32xf32>) -> tensor<32x10xf32>
    %lsm = stablehlo.divide %le, %lsb : tensor<32x10xf32>
    %dyr0 = stablehlo.subtract %lsm, %onehot : tensor<32x10xf32>
    %lsa = stablehlo.constant dense<0.100000> : tensor<32x10xf32>
    %lsaoh = stablehlo.multiply %lsa, %onehot : tensor<32x10xf32>
    %dyr1 = stablehlo.add %dyr0, %lsaoh : tensor<32x10xf32>
    %lsaik = stablehlo.constant dense<0.010000> : tensor<32x10xf32>
    %dyr = stablehlo.subtract %dyr1, %lsaik : tensor<32x10xf32>
    %bnc = stablehlo.constant dense<32.0> : tensor<32x10xf32>
    %dy = stablehlo.divide %dyr, %bnc : tensor<32x10xf32>
    %llog = stablehlo.log %lsm : tensor<32x10xf32>
    %ohll = stablehlo.multiply %onehot, %llog : tensor<32x10xf32>
    %t1s = stablehlo.reduce(%ohll init: %sc) applies stablehlo.add across dimensions = [1] : (tensor<32x10xf32>, tensor<f32>) -> tensor<32xf32>
    %lls = stablehlo.reduce(%llog init: %sc) applies stablehlo.add across dimensions = [1] : (tensor<32x10xf32>, tensor<f32>) -> tensor<32xf32>
    %omac = stablehlo.constant dense<0.900000> : tensor<32xf32>
    %aKc = stablehlo.constant dense<0.010000> : tensor<32xf32>
    %lt1 = stablehlo.multiply %omac, %t1s : tensor<32xf32>
    %lt2 = stablehlo.multiply %aKc, %lls : tensor<32xf32>
    %lpe = stablehlo.add %lt1, %lt2 : tensor<32xf32>
    %lsum2 = stablehlo.reduce(%lpe init: %sc) applies stablehlo.add across dimensions = [0] : (tensor<32xf32>, tensor<f32>) -> tensor<f32>
    %lbfc = stablehlo.constant dense<32.0> : tensor<f32>
    %lossm = stablehlo.divide %lsum2, %lbfc : tensor<f32>
    %loss = stablehlo.negate %lossm : tensor<f32>
    %dhnf = stablehlo.dot_general %dy, %Wd, contracting_dims = [1] x [1], precision = [DEFAULT, DEFAULT] : (tensor<32x10xf32>, tensor<768x10xf32>) -> tensor<32x768xf32>
    %dWd = stablehlo.dot_general %hnf, %dy, contracting_dims = [0] x [0], precision = [DEFAULT, DEFAULT] : (tensor<32x768xf32>, tensor<32x10xf32>) -> tensor<768x10xf32>
    %dbd = stablehlo.reduce(%dy init: %sc) applies stablehlo.add across dimensions = [0] : (tensor<32x10xf32>, tensor<f32>) -> tensor<10xf32>
    %dhnr = stablehlo.reshape %dhnf : (tensor<32x768xf32>) -> tensor<32x768x1x1xf32>
    %hdri = stablehlo.reshape %gapr : (tensor<32x768x1x1xf32>) -> tensor<32x768xf32>
    %hdrdy = stablehlo.reshape %dhnr : (tensor<32x768x1x1xf32>) -> tensor<32x768xf32>
    %hdnf = stablehlo.constant dense<768.0> : tensor<32x768xf32>
    %hdep = stablehlo.constant dense<1.0e-6> : tensor<32x768xf32>
    %hdsmr = stablehlo.reduce(%hdri init: %sc) applies stablehlo.add across dimensions = [1] : (tensor<32x768xf32>, tensor<f32>) -> tensor<32xf32>
    %hdsm = stablehlo.broadcast_in_dim %hdsmr, dims = [0] : (tensor<32xf32>) -> tensor<32x768xf32>
    %hdmu = stablehlo.divide %hdsm, %hdnf : tensor<32x768xf32>
    %hdxc = stablehlo.subtract %hdri, %hdmu : tensor<32x768xf32>
    %hdsq = stablehlo.multiply %hdxc, %hdxc : tensor<32x768xf32>
    %hdvsr = stablehlo.reduce(%hdsq init: %sc) applies stablehlo.add across dimensions = [1] : (tensor<32x768xf32>, tensor<f32>) -> tensor<32xf32>
    %hdvs = stablehlo.broadcast_in_dim %hdvsr, dims = [0] : (tensor<32xf32>) -> tensor<32x768xf32>
    %hdvr = stablehlo.divide %hdvs, %hdnf : tensor<32x768xf32>
    %hdve = stablehlo.add %hdvr, %hdep : tensor<32x768xf32>
    %hdistd = stablehlo.rsqrt %hdve : tensor<32x768xf32>
    %hdxh = stablehlo.multiply %hdxc, %hdistd : tensor<32x768xf32>
    %hdgb = stablehlo.broadcast_in_dim %hng, dims = [] : (tensor<f32>) -> tensor<32x768xf32>
    %hddxh = stablehlo.multiply %hdgb, %hdrdy : tensor<32x768xf32>
    %hdsdxr = stablehlo.reduce(%hddxh init: %sc) applies stablehlo.add across dimensions = [1] : (tensor<32x768xf32>, tensor<f32>) -> tensor<32xf32>
    %hdsdx = stablehlo.broadcast_in_dim %hdsdxr, dims = [0] : (tensor<32xf32>) -> tensor<32x768xf32>
    %hdxd = stablehlo.multiply %hdxh, %hddxh : tensor<32x768xf32>
    %hdsxdr = stablehlo.reduce(%hdxd init: %sc) applies stablehlo.add across dimensions = [1] : (tensor<32x768xf32>, tensor<f32>) -> tensor<32xf32>
    %hdsxd = stablehlo.broadcast_in_dim %hdsxdr, dims = [0] : (tensor<32xf32>) -> tensor<32x768xf32>
    %hdt1 = stablehlo.multiply %hddxh, %hdnf : tensor<32x768xf32>
    %hdi1 = stablehlo.subtract %hdt1, %hdsdx : tensor<32x768xf32>
    %hdxs = stablehlo.multiply %hdxh, %hdsxd : tensor<32x768xf32>
    %hdi2 = stablehlo.subtract %hdi1, %hdxs : tensor<32x768xf32>
    %hdsN = stablehlo.divide %hdistd, %hdnf : tensor<32x768xf32>
    %hdgin = stablehlo.multiply %hdsN, %hdi2 : tensor<32x768xf32>
    %hd = stablehlo.reshape %hdgin : (tensor<32x768xf32>) -> tensor<32x768x1x1xf32>
    %hddgp = stablehlo.multiply %hdrdy, %hdxh : tensor<32x768xf32>
    %hddg = stablehlo.reduce(%hddgp init: %sc) applies stablehlo.add across dimensions = [0, 1] : (tensor<32x768xf32>, tensor<f32>) -> tensor<f32>
    %hddb = stablehlo.reduce(%hdrdy init: %sc) applies stablehlo.add across dimensions = [0, 1] : (tensor<32x768xf32>, tensor<f32>) -> tensor<f32>
    %hdf = stablehlo.reshape %hd : (tensor<32x768x1x1xf32>) -> tensor<32x768xf32>
    %dgd = stablehlo.divide %hdf, %gapnf : tensor<32x768xf32>
    %dgap = stablehlo.broadcast_in_dim %dgd, dims = [0, 1] : (tensor<32x768xf32>) -> tensor<32x768x7x7xf32>
    %s3b2dlsgb = stablehlo.broadcast_in_dim %s3b2lg, dims = [1] : (tensor<768xf32>) -> tensor<32x768x7x7xf32>
    %s3b2dls = stablehlo.multiply %s3b2dlsgb, %dgap : tensor<32x768x7x7xf32>
    %s3b2dlsxdy = stablehlo.multiply %s3b2p, %dgap : tensor<32x768x7x7xf32>
    %s3b2dlsdg = stablehlo.reduce(%s3b2dlsxdy init: %sc) applies stablehlo.add across dimensions = [0, 2, 3] : (tensor<32x768x7x7xf32>, tensor<f32>) -> tensor<768xf32>
    %s3b2dpt = stablehlo.transpose %s3b2pW, dims = [1, 0, 2, 3] : (tensor<768x3072x1x1xf32>) -> tensor<3072x768x1x1xf32>
    %s3b2dp = stablehlo.convolution(%s3b2dls, %s3b2dpt)
      dim_numbers = [b, f, 0, 1]x[o, i, 0, 1]->[b, f, 0, 1],
      window = {stride = [1, 1], pad = [[0, 0], [0, 0]], lhs_dilate = [1, 1], rhs_dilate = [1, 1]}
      {batch_group_count = 1 : i64, feature_group_count = 1 : i64} : (tensor<32x768x7x7xf32>, tensor<3072x768x1x1xf32>) -> tensor<32x3072x7x7xf32>
    %s3b2dpWxt = stablehlo.transpose %s3b2g, dims = [1, 0, 2, 3] : (tensor<32x3072x7x7xf32>) -> tensor<3072x32x7x7xf32>
    %s3b2dpWdt = stablehlo.transpose %s3b2dls, dims = [1, 0, 2, 3] : (tensor<32x768x7x7xf32>) -> tensor<768x32x7x7xf32>
    %s3b2dpWraw = stablehlo.convolution(%s3b2dpWxt, %s3b2dpWdt)
      dim_numbers = [b, f, 0, 1]x[o, i, 0, 1]->[b, f, 0, 1],
      window = {stride = [1, 1], pad = [[0, 0], [0, 0]], lhs_dilate = [1, 1], rhs_dilate = [1, 1]}
      {batch_group_count = 1 : i64, feature_group_count = 1 : i64} : (tensor<3072x32x7x7xf32>, tensor<768x32x7x7xf32>) -> tensor<3072x768x1x1xf32>
    %s3b2dpW = stablehlo.transpose %s3b2dpWraw, dims = [1, 0, 2, 3] : (tensor<3072x768x1x1xf32>) -> tensor<768x3072x1x1xf32>
    %s3b2dpb = stablehlo.reduce(%s3b2dls init: %sc) applies stablehlo.add across dimensions = [0, 2, 3] : (tensor<32x768x7x7xf32>, tensor<f32>) -> tensor<768xf32>
    %s3b2dgx2 = stablehlo.multiply %s3b2e, %s3b2e : tensor<32x3072x7x7xf32>
    %s3b2dgx3 = stablehlo.multiply %s3b2dgx2, %s3b2e : tensor<32x3072x7x7xf32>
    %s3b2dgck = stablehlo.constant dense<0.044715> : tensor<32x3072x7x7xf32>
    %s3b2dgkx3 = stablehlo.multiply %s3b2dgck, %s3b2dgx3 : tensor<32x3072x7x7xf32>
    %s3b2dginn = stablehlo.add %s3b2e, %s3b2dgkx3 : tensor<32x3072x7x7xf32>
    %s3b2dgcs = stablehlo.constant dense<0.7978845608028654> : tensor<32x3072x7x7xf32>
    %s3b2dgu = stablehlo.multiply %s3b2dgcs, %s3b2dginn : tensor<32x3072x7x7xf32>
    %s3b2dgt = stablehlo.tanh %s3b2dgu : tensor<32x3072x7x7xf32>
    %s3b2dgone = stablehlo.constant dense<1.0> : tensor<32x3072x7x7xf32>
    %s3b2dgopt = stablehlo.add %s3b2dgone, %s3b2dgt : tensor<32x3072x7x7xf32>
    %s3b2dghalf = stablehlo.constant dense<0.5> : tensor<32x3072x7x7xf32>
    %s3b2dgterm1 = stablehlo.multiply %s3b2dghalf, %s3b2dgopt : tensor<32x3072x7x7xf32>
    %s3b2dgt2 = stablehlo.multiply %s3b2dgt, %s3b2dgt : tensor<32x3072x7x7xf32>
    %s3b2dgomt2 = stablehlo.subtract %s3b2dgone, %s3b2dgt2 : tensor<32x3072x7x7xf32>
    %s3b2dghx = stablehlo.multiply %s3b2dghalf, %s3b2e : tensor<32x3072x7x7xf32>
    %s3b2dghxo = stablehlo.multiply %s3b2dghx, %s3b2dgomt2 : tensor<32x3072x7x7xf32>
    %s3b2dgc3b = stablehlo.constant dense<0.134145> : tensor<32x3072x7x7xf32>
    %s3b2dga3x2 = stablehlo.multiply %s3b2dgc3b, %s3b2dgx2 : tensor<32x3072x7x7xf32>
    %s3b2dgin2 = stablehlo.add %s3b2dgone, %s3b2dga3x2 : tensor<32x3072x7x7xf32>
    %s3b2dgup = stablehlo.multiply %s3b2dgcs, %s3b2dgin2 : tensor<32x3072x7x7xf32>
    %s3b2dgterm2 = stablehlo.multiply %s3b2dghxo, %s3b2dgup : tensor<32x3072x7x7xf32>
    %s3b2dggp = stablehlo.add %s3b2dgterm1, %s3b2dgterm2 : tensor<32x3072x7x7xf32>
    %s3b2dg = stablehlo.multiply %s3b2dp, %s3b2dggp : tensor<32x3072x7x7xf32>
    %s3b2det = stablehlo.transpose %s3b2eW, dims = [1, 0, 2, 3] : (tensor<3072x768x1x1xf32>) -> tensor<768x3072x1x1xf32>
    %s3b2de = stablehlo.convolution(%s3b2dg, %s3b2det)
      dim_numbers = [b, f, 0, 1]x[o, i, 0, 1]->[b, f, 0, 1],
      window = {stride = [1, 1], pad = [[0, 0], [0, 0]], lhs_dilate = [1, 1], rhs_dilate = [1, 1]}
      {batch_group_count = 1 : i64, feature_group_count = 1 : i64} : (tensor<32x3072x7x7xf32>, tensor<768x3072x1x1xf32>) -> tensor<32x768x7x7xf32>
    %s3b2deWxt = stablehlo.transpose %s3b2n, dims = [1, 0, 2, 3] : (tensor<32x768x7x7xf32>) -> tensor<768x32x7x7xf32>
    %s3b2deWdt = stablehlo.transpose %s3b2dg, dims = [1, 0, 2, 3] : (tensor<32x3072x7x7xf32>) -> tensor<3072x32x7x7xf32>
    %s3b2deWraw = stablehlo.convolution(%s3b2deWxt, %s3b2deWdt)
      dim_numbers = [b, f, 0, 1]x[o, i, 0, 1]->[b, f, 0, 1],
      window = {stride = [1, 1], pad = [[0, 0], [0, 0]], lhs_dilate = [1, 1], rhs_dilate = [1, 1]}
      {batch_group_count = 1 : i64, feature_group_count = 1 : i64} : (tensor<768x32x7x7xf32>, tensor<3072x32x7x7xf32>) -> tensor<768x3072x1x1xf32>
    %s3b2deW = stablehlo.transpose %s3b2deWraw, dims = [1, 0, 2, 3] : (tensor<768x3072x1x1xf32>) -> tensor<3072x768x1x1xf32>
    %s3b2deb = stablehlo.reduce(%s3b2dg init: %sc) applies stablehlo.add across dimensions = [0, 2, 3] : (tensor<32x3072x7x7xf32>, tensor<f32>) -> tensor<3072xf32>
    %s3b2dnri = stablehlo.reshape %s3b2d : (tensor<32x768x7x7xf32>) -> tensor<32x37632xf32>
    %s3b2dnrdy = stablehlo.reshape %s3b2de : (tensor<32x768x7x7xf32>) -> tensor<32x37632xf32>
    %s3b2dnnf = stablehlo.constant dense<37632.0> : tensor<32x37632xf32>
    %s3b2dnep = stablehlo.constant dense<1.0e-6> : tensor<32x37632xf32>
    %s3b2dnsmr = stablehlo.reduce(%s3b2dnri init: %sc) applies stablehlo.add across dimensions = [1] : (tensor<32x37632xf32>, tensor<f32>) -> tensor<32xf32>
    %s3b2dnsm = stablehlo.broadcast_in_dim %s3b2dnsmr, dims = [0] : (tensor<32xf32>) -> tensor<32x37632xf32>
    %s3b2dnmu = stablehlo.divide %s3b2dnsm, %s3b2dnnf : tensor<32x37632xf32>
    %s3b2dnxc = stablehlo.subtract %s3b2dnri, %s3b2dnmu : tensor<32x37632xf32>
    %s3b2dnsq = stablehlo.multiply %s3b2dnxc, %s3b2dnxc : tensor<32x37632xf32>
    %s3b2dnvsr = stablehlo.reduce(%s3b2dnsq init: %sc) applies stablehlo.add across dimensions = [1] : (tensor<32x37632xf32>, tensor<f32>) -> tensor<32xf32>
    %s3b2dnvs = stablehlo.broadcast_in_dim %s3b2dnvsr, dims = [0] : (tensor<32xf32>) -> tensor<32x37632xf32>
    %s3b2dnvr = stablehlo.divide %s3b2dnvs, %s3b2dnnf : tensor<32x37632xf32>
    %s3b2dnve = stablehlo.add %s3b2dnvr, %s3b2dnep : tensor<32x37632xf32>
    %s3b2dnistd = stablehlo.rsqrt %s3b2dnve : tensor<32x37632xf32>
    %s3b2dnxh = stablehlo.multiply %s3b2dnxc, %s3b2dnistd : tensor<32x37632xf32>
    %s3b2dngb = stablehlo.broadcast_in_dim %s3b2ng, dims = [] : (tensor<f32>) -> tensor<32x37632xf32>
    %s3b2dndxh = stablehlo.multiply %s3b2dngb, %s3b2dnrdy : tensor<32x37632xf32>
    %s3b2dnsdxr = stablehlo.reduce(%s3b2dndxh init: %sc) applies stablehlo.add across dimensions = [1] : (tensor<32x37632xf32>, tensor<f32>) -> tensor<32xf32>
    %s3b2dnsdx = stablehlo.broadcast_in_dim %s3b2dnsdxr, dims = [0] : (tensor<32xf32>) -> tensor<32x37632xf32>
    %s3b2dnxd = stablehlo.multiply %s3b2dnxh, %s3b2dndxh : tensor<32x37632xf32>
    %s3b2dnsxdr = stablehlo.reduce(%s3b2dnxd init: %sc) applies stablehlo.add across dimensions = [1] : (tensor<32x37632xf32>, tensor<f32>) -> tensor<32xf32>
    %s3b2dnsxd = stablehlo.broadcast_in_dim %s3b2dnsxdr, dims = [0] : (tensor<32xf32>) -> tensor<32x37632xf32>
    %s3b2dnt1 = stablehlo.multiply %s3b2dndxh, %s3b2dnnf : tensor<32x37632xf32>
    %s3b2dni1 = stablehlo.subtract %s3b2dnt1, %s3b2dnsdx : tensor<32x37632xf32>
    %s3b2dnxs = stablehlo.multiply %s3b2dnxh, %s3b2dnsxd : tensor<32x37632xf32>
    %s3b2dni2 = stablehlo.subtract %s3b2dni1, %s3b2dnxs : tensor<32x37632xf32>
    %s3b2dnsN = stablehlo.divide %s3b2dnistd, %s3b2dnnf : tensor<32x37632xf32>
    %s3b2dngin = stablehlo.multiply %s3b2dnsN, %s3b2dni2 : tensor<32x37632xf32>
    %s3b2dn = stablehlo.reshape %s3b2dngin : (tensor<32x37632xf32>) -> tensor<32x768x7x7xf32>
    %s3b2dndgp = stablehlo.multiply %s3b2dnrdy, %s3b2dnxh : tensor<32x37632xf32>
    %s3b2dndg = stablehlo.reduce(%s3b2dndgp init: %sc) applies stablehlo.add across dimensions = [0, 1] : (tensor<32x37632xf32>, tensor<f32>) -> tensor<f32>
    %s3b2dndb = stablehlo.reduce(%s3b2dnrdy init: %sc) applies stablehlo.add across dimensions = [0, 1] : (tensor<32x37632xf32>, tensor<f32>) -> tensor<f32>
    %s3b2ddrev = stablehlo.reverse %s3b2dW, dims = [2, 3] : tensor<768x1x7x7xf32>
    %s3b2dd = stablehlo.convolution(%s3b2dn, %s3b2ddrev)
      dim_numbers = [b, f, 0, 1]x[o, i, 0, 1]->[b, f, 0, 1],
      window = {stride = [1, 1], pad = [[3, 3], [3, 3]], lhs_dilate = [1, 1], rhs_dilate = [1, 1]}
      {batch_group_count = 1 : i64, feature_group_count = 768 : i64} : (tensor<32x768x7x7xf32>, tensor<768x1x7x7xf32>) -> tensor<32x768x7x7xf32>
    %s3b2ddWxt = stablehlo.transpose %s3b1o, dims = [1, 0, 2, 3] : (tensor<32x768x7x7xf32>) -> tensor<768x32x7x7xf32>
    %s3b2ddWdt = stablehlo.transpose %s3b2dn, dims = [1, 0, 2, 3] : (tensor<32x768x7x7xf32>) -> tensor<768x32x7x7xf32>
    %s3b2ddWraw = stablehlo.convolution(%s3b2ddWxt, %s3b2ddWdt)
      dim_numbers = [b, f, 0, 1]x[o, i, 0, 1]->[b, f, 0, 1],
      window = {stride = [1, 1], pad = [[3, 3], [3, 3]], lhs_dilate = [1, 1], rhs_dilate = [1, 1]}
      {batch_group_count = 768 : i64, feature_group_count = 1 : i64} : (tensor<768x32x7x7xf32>, tensor<768x32x7x7xf32>) -> tensor<1x768x7x7xf32>
    %s3b2ddW = stablehlo.reshape %s3b2ddWraw : (tensor<1x768x7x7xf32>) -> tensor<768x1x7x7xf32>
    %s3b2ddb = stablehlo.reduce(%s3b2dn init: %sc) applies stablehlo.add across dimensions = [0, 2, 3] : (tensor<32x768x7x7xf32>, tensor<f32>) -> tensor<768xf32>
    %s3b2dx = stablehlo.add %s3b2dd, %dgap : tensor<32x768x7x7xf32>
    %s3b1dlsgb = stablehlo.broadcast_in_dim %s3b1lg, dims = [1] : (tensor<768xf32>) -> tensor<32x768x7x7xf32>
    %s3b1dls = stablehlo.multiply %s3b1dlsgb, %s3b2dx : tensor<32x768x7x7xf32>
    %s3b1dlsxdy = stablehlo.multiply %s3b1p, %s3b2dx : tensor<32x768x7x7xf32>
    %s3b1dlsdg = stablehlo.reduce(%s3b1dlsxdy init: %sc) applies stablehlo.add across dimensions = [0, 2, 3] : (tensor<32x768x7x7xf32>, tensor<f32>) -> tensor<768xf32>
    %s3b1dpt = stablehlo.transpose %s3b1pW, dims = [1, 0, 2, 3] : (tensor<768x3072x1x1xf32>) -> tensor<3072x768x1x1xf32>
    %s3b1dp = stablehlo.convolution(%s3b1dls, %s3b1dpt)
      dim_numbers = [b, f, 0, 1]x[o, i, 0, 1]->[b, f, 0, 1],
      window = {stride = [1, 1], pad = [[0, 0], [0, 0]], lhs_dilate = [1, 1], rhs_dilate = [1, 1]}
      {batch_group_count = 1 : i64, feature_group_count = 1 : i64} : (tensor<32x768x7x7xf32>, tensor<3072x768x1x1xf32>) -> tensor<32x3072x7x7xf32>
    %s3b1dpWxt = stablehlo.transpose %s3b1g, dims = [1, 0, 2, 3] : (tensor<32x3072x7x7xf32>) -> tensor<3072x32x7x7xf32>
    %s3b1dpWdt = stablehlo.transpose %s3b1dls, dims = [1, 0, 2, 3] : (tensor<32x768x7x7xf32>) -> tensor<768x32x7x7xf32>
    %s3b1dpWraw = stablehlo.convolution(%s3b1dpWxt, %s3b1dpWdt)
      dim_numbers = [b, f, 0, 1]x[o, i, 0, 1]->[b, f, 0, 1],
      window = {stride = [1, 1], pad = [[0, 0], [0, 0]], lhs_dilate = [1, 1], rhs_dilate = [1, 1]}
      {batch_group_count = 1 : i64, feature_group_count = 1 : i64} : (tensor<3072x32x7x7xf32>, tensor<768x32x7x7xf32>) -> tensor<3072x768x1x1xf32>
    %s3b1dpW = stablehlo.transpose %s3b1dpWraw, dims = [1, 0, 2, 3] : (tensor<3072x768x1x1xf32>) -> tensor<768x3072x1x1xf32>
    %s3b1dpb = stablehlo.reduce(%s3b1dls init: %sc) applies stablehlo.add across dimensions = [0, 2, 3] : (tensor<32x768x7x7xf32>, tensor<f32>) -> tensor<768xf32>
    %s3b1dgx2 = stablehlo.multiply %s3b1e, %s3b1e : tensor<32x3072x7x7xf32>
    %s3b1dgx3 = stablehlo.multiply %s3b1dgx2, %s3b1e : tensor<32x3072x7x7xf32>
    %s3b1dgck = stablehlo.constant dense<0.044715> : tensor<32x3072x7x7xf32>
    %s3b1dgkx3 = stablehlo.multiply %s3b1dgck, %s3b1dgx3 : tensor<32x3072x7x7xf32>
    %s3b1dginn = stablehlo.add %s3b1e, %s3b1dgkx3 : tensor<32x3072x7x7xf32>
    %s3b1dgcs = stablehlo.constant dense<0.7978845608028654> : tensor<32x3072x7x7xf32>
    %s3b1dgu = stablehlo.multiply %s3b1dgcs, %s3b1dginn : tensor<32x3072x7x7xf32>
    %s3b1dgt = stablehlo.tanh %s3b1dgu : tensor<32x3072x7x7xf32>
    %s3b1dgone = stablehlo.constant dense<1.0> : tensor<32x3072x7x7xf32>
    %s3b1dgopt = stablehlo.add %s3b1dgone, %s3b1dgt : tensor<32x3072x7x7xf32>
    %s3b1dghalf = stablehlo.constant dense<0.5> : tensor<32x3072x7x7xf32>
    %s3b1dgterm1 = stablehlo.multiply %s3b1dghalf, %s3b1dgopt : tensor<32x3072x7x7xf32>
    %s3b1dgt2 = stablehlo.multiply %s3b1dgt, %s3b1dgt : tensor<32x3072x7x7xf32>
    %s3b1dgomt2 = stablehlo.subtract %s3b1dgone, %s3b1dgt2 : tensor<32x3072x7x7xf32>
    %s3b1dghx = stablehlo.multiply %s3b1dghalf, %s3b1e : tensor<32x3072x7x7xf32>
    %s3b1dghxo = stablehlo.multiply %s3b1dghx, %s3b1dgomt2 : tensor<32x3072x7x7xf32>
    %s3b1dgc3b = stablehlo.constant dense<0.134145> : tensor<32x3072x7x7xf32>
    %s3b1dga3x2 = stablehlo.multiply %s3b1dgc3b, %s3b1dgx2 : tensor<32x3072x7x7xf32>
    %s3b1dgin2 = stablehlo.add %s3b1dgone, %s3b1dga3x2 : tensor<32x3072x7x7xf32>
    %s3b1dgup = stablehlo.multiply %s3b1dgcs, %s3b1dgin2 : tensor<32x3072x7x7xf32>
    %s3b1dgterm2 = stablehlo.multiply %s3b1dghxo, %s3b1dgup : tensor<32x3072x7x7xf32>
    %s3b1dggp = stablehlo.add %s3b1dgterm1, %s3b1dgterm2 : tensor<32x3072x7x7xf32>
    %s3b1dg = stablehlo.multiply %s3b1dp, %s3b1dggp : tensor<32x3072x7x7xf32>
    %s3b1det = stablehlo.transpose %s3b1eW, dims = [1, 0, 2, 3] : (tensor<3072x768x1x1xf32>) -> tensor<768x3072x1x1xf32>
    %s3b1de = stablehlo.convolution(%s3b1dg, %s3b1det)
      dim_numbers = [b, f, 0, 1]x[o, i, 0, 1]->[b, f, 0, 1],
      window = {stride = [1, 1], pad = [[0, 0], [0, 0]], lhs_dilate = [1, 1], rhs_dilate = [1, 1]}
      {batch_group_count = 1 : i64, feature_group_count = 1 : i64} : (tensor<32x3072x7x7xf32>, tensor<768x3072x1x1xf32>) -> tensor<32x768x7x7xf32>
    %s3b1deWxt = stablehlo.transpose %s3b1n, dims = [1, 0, 2, 3] : (tensor<32x768x7x7xf32>) -> tensor<768x32x7x7xf32>
    %s3b1deWdt = stablehlo.transpose %s3b1dg, dims = [1, 0, 2, 3] : (tensor<32x3072x7x7xf32>) -> tensor<3072x32x7x7xf32>
    %s3b1deWraw = stablehlo.convolution(%s3b1deWxt, %s3b1deWdt)
      dim_numbers = [b, f, 0, 1]x[o, i, 0, 1]->[b, f, 0, 1],
      window = {stride = [1, 1], pad = [[0, 0], [0, 0]], lhs_dilate = [1, 1], rhs_dilate = [1, 1]}
      {batch_group_count = 1 : i64, feature_group_count = 1 : i64} : (tensor<768x32x7x7xf32>, tensor<3072x32x7x7xf32>) -> tensor<768x3072x1x1xf32>
    %s3b1deW = stablehlo.transpose %s3b1deWraw, dims = [1, 0, 2, 3] : (tensor<768x3072x1x1xf32>) -> tensor<3072x768x1x1xf32>
    %s3b1deb = stablehlo.reduce(%s3b1dg init: %sc) applies stablehlo.add across dimensions = [0, 2, 3] : (tensor<32x3072x7x7xf32>, tensor<f32>) -> tensor<3072xf32>
    %s3b1dnri = stablehlo.reshape %s3b1d : (tensor<32x768x7x7xf32>) -> tensor<32x37632xf32>
    %s3b1dnrdy = stablehlo.reshape %s3b1de : (tensor<32x768x7x7xf32>) -> tensor<32x37632xf32>
    %s3b1dnnf = stablehlo.constant dense<37632.0> : tensor<32x37632xf32>
    %s3b1dnep = stablehlo.constant dense<1.0e-6> : tensor<32x37632xf32>
    %s3b1dnsmr = stablehlo.reduce(%s3b1dnri init: %sc) applies stablehlo.add across dimensions = [1] : (tensor<32x37632xf32>, tensor<f32>) -> tensor<32xf32>
    %s3b1dnsm = stablehlo.broadcast_in_dim %s3b1dnsmr, dims = [0] : (tensor<32xf32>) -> tensor<32x37632xf32>
    %s3b1dnmu = stablehlo.divide %s3b1dnsm, %s3b1dnnf : tensor<32x37632xf32>
    %s3b1dnxc = stablehlo.subtract %s3b1dnri, %s3b1dnmu : tensor<32x37632xf32>
    %s3b1dnsq = stablehlo.multiply %s3b1dnxc, %s3b1dnxc : tensor<32x37632xf32>
    %s3b1dnvsr = stablehlo.reduce(%s3b1dnsq init: %sc) applies stablehlo.add across dimensions = [1] : (tensor<32x37632xf32>, tensor<f32>) -> tensor<32xf32>
    %s3b1dnvs = stablehlo.broadcast_in_dim %s3b1dnvsr, dims = [0] : (tensor<32xf32>) -> tensor<32x37632xf32>
    %s3b1dnvr = stablehlo.divide %s3b1dnvs, %s3b1dnnf : tensor<32x37632xf32>
    %s3b1dnve = stablehlo.add %s3b1dnvr, %s3b1dnep : tensor<32x37632xf32>
    %s3b1dnistd = stablehlo.rsqrt %s3b1dnve : tensor<32x37632xf32>
    %s3b1dnxh = stablehlo.multiply %s3b1dnxc, %s3b1dnistd : tensor<32x37632xf32>
    %s3b1dngb = stablehlo.broadcast_in_dim %s3b1ng, dims = [] : (tensor<f32>) -> tensor<32x37632xf32>
    %s3b1dndxh = stablehlo.multiply %s3b1dngb, %s3b1dnrdy : tensor<32x37632xf32>
    %s3b1dnsdxr = stablehlo.reduce(%s3b1dndxh init: %sc) applies stablehlo.add across dimensions = [1] : (tensor<32x37632xf32>, tensor<f32>) -> tensor<32xf32>
    %s3b1dnsdx = stablehlo.broadcast_in_dim %s3b1dnsdxr, dims = [0] : (tensor<32xf32>) -> tensor<32x37632xf32>
    %s3b1dnxd = stablehlo.multiply %s3b1dnxh, %s3b1dndxh : tensor<32x37632xf32>
    %s3b1dnsxdr = stablehlo.reduce(%s3b1dnxd init: %sc) applies stablehlo.add across dimensions = [1] : (tensor<32x37632xf32>, tensor<f32>) -> tensor<32xf32>
    %s3b1dnsxd = stablehlo.broadcast_in_dim %s3b1dnsxdr, dims = [0] : (tensor<32xf32>) -> tensor<32x37632xf32>
    %s3b1dnt1 = stablehlo.multiply %s3b1dndxh, %s3b1dnnf : tensor<32x37632xf32>
    %s3b1dni1 = stablehlo.subtract %s3b1dnt1, %s3b1dnsdx : tensor<32x37632xf32>
    %s3b1dnxs = stablehlo.multiply %s3b1dnxh, %s3b1dnsxd : tensor<32x37632xf32>
    %s3b1dni2 = stablehlo.subtract %s3b1dni1, %s3b1dnxs : tensor<32x37632xf32>
    %s3b1dnsN = stablehlo.divide %s3b1dnistd, %s3b1dnnf : tensor<32x37632xf32>
    %s3b1dngin = stablehlo.multiply %s3b1dnsN, %s3b1dni2 : tensor<32x37632xf32>
    %s3b1dn = stablehlo.reshape %s3b1dngin : (tensor<32x37632xf32>) -> tensor<32x768x7x7xf32>
    %s3b1dndgp = stablehlo.multiply %s3b1dnrdy, %s3b1dnxh : tensor<32x37632xf32>
    %s3b1dndg = stablehlo.reduce(%s3b1dndgp init: %sc) applies stablehlo.add across dimensions = [0, 1] : (tensor<32x37632xf32>, tensor<f32>) -> tensor<f32>
    %s3b1dndb = stablehlo.reduce(%s3b1dnrdy init: %sc) applies stablehlo.add across dimensions = [0, 1] : (tensor<32x37632xf32>, tensor<f32>) -> tensor<f32>
    %s3b1ddrev = stablehlo.reverse %s3b1dW, dims = [2, 3] : tensor<768x1x7x7xf32>
    %s3b1dd = stablehlo.convolution(%s3b1dn, %s3b1ddrev)
      dim_numbers = [b, f, 0, 1]x[o, i, 0, 1]->[b, f, 0, 1],
      window = {stride = [1, 1], pad = [[3, 3], [3, 3]], lhs_dilate = [1, 1], rhs_dilate = [1, 1]}
      {batch_group_count = 1 : i64, feature_group_count = 768 : i64} : (tensor<32x768x7x7xf32>, tensor<768x1x7x7xf32>) -> tensor<32x768x7x7xf32>
    %s3b1ddWxt = stablehlo.transpose %s3b0o, dims = [1, 0, 2, 3] : (tensor<32x768x7x7xf32>) -> tensor<768x32x7x7xf32>
    %s3b1ddWdt = stablehlo.transpose %s3b1dn, dims = [1, 0, 2, 3] : (tensor<32x768x7x7xf32>) -> tensor<768x32x7x7xf32>
    %s3b1ddWraw = stablehlo.convolution(%s3b1ddWxt, %s3b1ddWdt)
      dim_numbers = [b, f, 0, 1]x[o, i, 0, 1]->[b, f, 0, 1],
      window = {stride = [1, 1], pad = [[3, 3], [3, 3]], lhs_dilate = [1, 1], rhs_dilate = [1, 1]}
      {batch_group_count = 768 : i64, feature_group_count = 1 : i64} : (tensor<768x32x7x7xf32>, tensor<768x32x7x7xf32>) -> tensor<1x768x7x7xf32>
    %s3b1ddW = stablehlo.reshape %s3b1ddWraw : (tensor<1x768x7x7xf32>) -> tensor<768x1x7x7xf32>
    %s3b1ddb = stablehlo.reduce(%s3b1dn init: %sc) applies stablehlo.add across dimensions = [0, 2, 3] : (tensor<32x768x7x7xf32>, tensor<f32>) -> tensor<768xf32>
    %s3b1dx = stablehlo.add %s3b1dd, %s3b2dx : tensor<32x768x7x7xf32>
    %s3b0dlsgb = stablehlo.broadcast_in_dim %s3b0lg, dims = [1] : (tensor<768xf32>) -> tensor<32x768x7x7xf32>
    %s3b0dls = stablehlo.multiply %s3b0dlsgb, %s3b1dx : tensor<32x768x7x7xf32>
    %s3b0dlsxdy = stablehlo.multiply %s3b0p, %s3b1dx : tensor<32x768x7x7xf32>
    %s3b0dlsdg = stablehlo.reduce(%s3b0dlsxdy init: %sc) applies stablehlo.add across dimensions = [0, 2, 3] : (tensor<32x768x7x7xf32>, tensor<f32>) -> tensor<768xf32>
    %s3b0dpt = stablehlo.transpose %s3b0pW, dims = [1, 0, 2, 3] : (tensor<768x3072x1x1xf32>) -> tensor<3072x768x1x1xf32>
    %s3b0dp = stablehlo.convolution(%s3b0dls, %s3b0dpt)
      dim_numbers = [b, f, 0, 1]x[o, i, 0, 1]->[b, f, 0, 1],
      window = {stride = [1, 1], pad = [[0, 0], [0, 0]], lhs_dilate = [1, 1], rhs_dilate = [1, 1]}
      {batch_group_count = 1 : i64, feature_group_count = 1 : i64} : (tensor<32x768x7x7xf32>, tensor<3072x768x1x1xf32>) -> tensor<32x3072x7x7xf32>
    %s3b0dpWxt = stablehlo.transpose %s3b0g, dims = [1, 0, 2, 3] : (tensor<32x3072x7x7xf32>) -> tensor<3072x32x7x7xf32>
    %s3b0dpWdt = stablehlo.transpose %s3b0dls, dims = [1, 0, 2, 3] : (tensor<32x768x7x7xf32>) -> tensor<768x32x7x7xf32>
    %s3b0dpWraw = stablehlo.convolution(%s3b0dpWxt, %s3b0dpWdt)
      dim_numbers = [b, f, 0, 1]x[o, i, 0, 1]->[b, f, 0, 1],
      window = {stride = [1, 1], pad = [[0, 0], [0, 0]], lhs_dilate = [1, 1], rhs_dilate = [1, 1]}
      {batch_group_count = 1 : i64, feature_group_count = 1 : i64} : (tensor<3072x32x7x7xf32>, tensor<768x32x7x7xf32>) -> tensor<3072x768x1x1xf32>
    %s3b0dpW = stablehlo.transpose %s3b0dpWraw, dims = [1, 0, 2, 3] : (tensor<3072x768x1x1xf32>) -> tensor<768x3072x1x1xf32>
    %s3b0dpb = stablehlo.reduce(%s3b0dls init: %sc) applies stablehlo.add across dimensions = [0, 2, 3] : (tensor<32x768x7x7xf32>, tensor<f32>) -> tensor<768xf32>
    %s3b0dgx2 = stablehlo.multiply %s3b0e, %s3b0e : tensor<32x3072x7x7xf32>
    %s3b0dgx3 = stablehlo.multiply %s3b0dgx2, %s3b0e : tensor<32x3072x7x7xf32>
    %s3b0dgck = stablehlo.constant dense<0.044715> : tensor<32x3072x7x7xf32>
    %s3b0dgkx3 = stablehlo.multiply %s3b0dgck, %s3b0dgx3 : tensor<32x3072x7x7xf32>
    %s3b0dginn = stablehlo.add %s3b0e, %s3b0dgkx3 : tensor<32x3072x7x7xf32>
    %s3b0dgcs = stablehlo.constant dense<0.7978845608028654> : tensor<32x3072x7x7xf32>
    %s3b0dgu = stablehlo.multiply %s3b0dgcs, %s3b0dginn : tensor<32x3072x7x7xf32>
    %s3b0dgt = stablehlo.tanh %s3b0dgu : tensor<32x3072x7x7xf32>
    %s3b0dgone = stablehlo.constant dense<1.0> : tensor<32x3072x7x7xf32>
    %s3b0dgopt = stablehlo.add %s3b0dgone, %s3b0dgt : tensor<32x3072x7x7xf32>
    %s3b0dghalf = stablehlo.constant dense<0.5> : tensor<32x3072x7x7xf32>
    %s3b0dgterm1 = stablehlo.multiply %s3b0dghalf, %s3b0dgopt : tensor<32x3072x7x7xf32>
    %s3b0dgt2 = stablehlo.multiply %s3b0dgt, %s3b0dgt : tensor<32x3072x7x7xf32>
    %s3b0dgomt2 = stablehlo.subtract %s3b0dgone, %s3b0dgt2 : tensor<32x3072x7x7xf32>
    %s3b0dghx = stablehlo.multiply %s3b0dghalf, %s3b0e : tensor<32x3072x7x7xf32>
    %s3b0dghxo = stablehlo.multiply %s3b0dghx, %s3b0dgomt2 : tensor<32x3072x7x7xf32>
    %s3b0dgc3b = stablehlo.constant dense<0.134145> : tensor<32x3072x7x7xf32>
    %s3b0dga3x2 = stablehlo.multiply %s3b0dgc3b, %s3b0dgx2 : tensor<32x3072x7x7xf32>
    %s3b0dgin2 = stablehlo.add %s3b0dgone, %s3b0dga3x2 : tensor<32x3072x7x7xf32>
    %s3b0dgup = stablehlo.multiply %s3b0dgcs, %s3b0dgin2 : tensor<32x3072x7x7xf32>
    %s3b0dgterm2 = stablehlo.multiply %s3b0dghxo, %s3b0dgup : tensor<32x3072x7x7xf32>
    %s3b0dggp = stablehlo.add %s3b0dgterm1, %s3b0dgterm2 : tensor<32x3072x7x7xf32>
    %s3b0dg = stablehlo.multiply %s3b0dp, %s3b0dggp : tensor<32x3072x7x7xf32>
    %s3b0det = stablehlo.transpose %s3b0eW, dims = [1, 0, 2, 3] : (tensor<3072x768x1x1xf32>) -> tensor<768x3072x1x1xf32>
    %s3b0de = stablehlo.convolution(%s3b0dg, %s3b0det)
      dim_numbers = [b, f, 0, 1]x[o, i, 0, 1]->[b, f, 0, 1],
      window = {stride = [1, 1], pad = [[0, 0], [0, 0]], lhs_dilate = [1, 1], rhs_dilate = [1, 1]}
      {batch_group_count = 1 : i64, feature_group_count = 1 : i64} : (tensor<32x3072x7x7xf32>, tensor<768x3072x1x1xf32>) -> tensor<32x768x7x7xf32>
    %s3b0deWxt = stablehlo.transpose %s3b0n, dims = [1, 0, 2, 3] : (tensor<32x768x7x7xf32>) -> tensor<768x32x7x7xf32>
    %s3b0deWdt = stablehlo.transpose %s3b0dg, dims = [1, 0, 2, 3] : (tensor<32x3072x7x7xf32>) -> tensor<3072x32x7x7xf32>
    %s3b0deWraw = stablehlo.convolution(%s3b0deWxt, %s3b0deWdt)
      dim_numbers = [b, f, 0, 1]x[o, i, 0, 1]->[b, f, 0, 1],
      window = {stride = [1, 1], pad = [[0, 0], [0, 0]], lhs_dilate = [1, 1], rhs_dilate = [1, 1]}
      {batch_group_count = 1 : i64, feature_group_count = 1 : i64} : (tensor<768x32x7x7xf32>, tensor<3072x32x7x7xf32>) -> tensor<768x3072x1x1xf32>
    %s3b0deW = stablehlo.transpose %s3b0deWraw, dims = [1, 0, 2, 3] : (tensor<768x3072x1x1xf32>) -> tensor<3072x768x1x1xf32>
    %s3b0deb = stablehlo.reduce(%s3b0dg init: %sc) applies stablehlo.add across dimensions = [0, 2, 3] : (tensor<32x3072x7x7xf32>, tensor<f32>) -> tensor<3072xf32>
    %s3b0dnri = stablehlo.reshape %s3b0d : (tensor<32x768x7x7xf32>) -> tensor<32x37632xf32>
    %s3b0dnrdy = stablehlo.reshape %s3b0de : (tensor<32x768x7x7xf32>) -> tensor<32x37632xf32>
    %s3b0dnnf = stablehlo.constant dense<37632.0> : tensor<32x37632xf32>
    %s3b0dnep = stablehlo.constant dense<1.0e-6> : tensor<32x37632xf32>
    %s3b0dnsmr = stablehlo.reduce(%s3b0dnri init: %sc) applies stablehlo.add across dimensions = [1] : (tensor<32x37632xf32>, tensor<f32>) -> tensor<32xf32>
    %s3b0dnsm = stablehlo.broadcast_in_dim %s3b0dnsmr, dims = [0] : (tensor<32xf32>) -> tensor<32x37632xf32>
    %s3b0dnmu = stablehlo.divide %s3b0dnsm, %s3b0dnnf : tensor<32x37632xf32>
    %s3b0dnxc = stablehlo.subtract %s3b0dnri, %s3b0dnmu : tensor<32x37632xf32>
    %s3b0dnsq = stablehlo.multiply %s3b0dnxc, %s3b0dnxc : tensor<32x37632xf32>
    %s3b0dnvsr = stablehlo.reduce(%s3b0dnsq init: %sc) applies stablehlo.add across dimensions = [1] : (tensor<32x37632xf32>, tensor<f32>) -> tensor<32xf32>
    %s3b0dnvs = stablehlo.broadcast_in_dim %s3b0dnvsr, dims = [0] : (tensor<32xf32>) -> tensor<32x37632xf32>
    %s3b0dnvr = stablehlo.divide %s3b0dnvs, %s3b0dnnf : tensor<32x37632xf32>
    %s3b0dnve = stablehlo.add %s3b0dnvr, %s3b0dnep : tensor<32x37632xf32>
    %s3b0dnistd = stablehlo.rsqrt %s3b0dnve : tensor<32x37632xf32>
    %s3b0dnxh = stablehlo.multiply %s3b0dnxc, %s3b0dnistd : tensor<32x37632xf32>
    %s3b0dngb = stablehlo.broadcast_in_dim %s3b0ng, dims = [] : (tensor<f32>) -> tensor<32x37632xf32>
    %s3b0dndxh = stablehlo.multiply %s3b0dngb, %s3b0dnrdy : tensor<32x37632xf32>
    %s3b0dnsdxr = stablehlo.reduce(%s3b0dndxh init: %sc) applies stablehlo.add across dimensions = [1] : (tensor<32x37632xf32>, tensor<f32>) -> tensor<32xf32>
    %s3b0dnsdx = stablehlo.broadcast_in_dim %s3b0dnsdxr, dims = [0] : (tensor<32xf32>) -> tensor<32x37632xf32>
    %s3b0dnxd = stablehlo.multiply %s3b0dnxh, %s3b0dndxh : tensor<32x37632xf32>
    %s3b0dnsxdr = stablehlo.reduce(%s3b0dnxd init: %sc) applies stablehlo.add across dimensions = [1] : (tensor<32x37632xf32>, tensor<f32>) -> tensor<32xf32>
    %s3b0dnsxd = stablehlo.broadcast_in_dim %s3b0dnsxdr, dims = [0] : (tensor<32xf32>) -> tensor<32x37632xf32>
    %s3b0dnt1 = stablehlo.multiply %s3b0dndxh, %s3b0dnnf : tensor<32x37632xf32>
    %s3b0dni1 = stablehlo.subtract %s3b0dnt1, %s3b0dnsdx : tensor<32x37632xf32>
    %s3b0dnxs = stablehlo.multiply %s3b0dnxh, %s3b0dnsxd : tensor<32x37632xf32>
…
    %adsts3b1pW = stablehlo.multiply %adlrs3b1pW, %adrats3b1pW : tensor<768x3072x1x1xf32>
    %adsubs3b1pW = stablehlo.subtract %s3b1pW, %adsts3b1pW : tensor<768x3072x1x1xf32>
    %adwds3b1pW = stablehlo.broadcast_in_dim %wd, dims = [] : (tensor<f32>) -> tensor<768x3072x1x1xf32>
    %adwdlrs3b1pW = stablehlo.multiply %adwds3b1pW, %adlrs3b1pW : tensor<768x3072x1x1xf32>
    %adwdps3b1pW = stablehlo.multiply %adwdlrs3b1pW, %s3b1pW : tensor<768x3072x1x1xf32>
    %adnews3b1pW = stablehlo.subtract %adsubs3b1pW, %adwdps3b1pW : tensor<768x3072x1x1xf32>
    %adb1s3b1pb = stablehlo.broadcast_in_dim %b1, dims = [] : (tensor<f32>) -> tensor<768xf32>
    %adob1s3b1pb = stablehlo.broadcast_in_dim %ob1, dims = [] : (tensor<f32>) -> tensor<768xf32>
    %admss3b1pb = stablehlo.multiply %adb1s3b1pb, %s3b1pbm : tensor<768xf32>
    %admgs3b1pb = stablehlo.multiply %adob1s3b1pb, %s3b1dpb : tensor<768xf32>
    %admns3b1pb = stablehlo.add %admss3b1pb, %admgs3b1pb : tensor<768xf32>
    %adb2s3b1pb = stablehlo.broadcast_in_dim %b2, dims = [] : (tensor<f32>) -> tensor<768xf32>
    %adob2s3b1pb = stablehlo.broadcast_in_dim %ob2, dims = [] : (tensor<f32>) -> tensor<768xf32>
    %advss3b1pb = stablehlo.multiply %adb2s3b1pb, %s3b1pbv : tensor<768xf32>
    %adg2s3b1pb = stablehlo.multiply %s3b1dpb, %s3b1dpb : tensor<768xf32>
    %advgs3b1pb = stablehlo.multiply %adob2s3b1pb, %adg2s3b1pb : tensor<768xf32>
    %advns3b1pb = stablehlo.add %advss3b1pb, %advgs3b1pb : tensor<768xf32>
    %adbc1s3b1pb = stablehlo.broadcast_in_dim %bc1, dims = [] : (tensor<f32>) -> tensor<768xf32>
    %adbc2s3b1pb = stablehlo.broadcast_in_dim %bc2, dims = [] : (tensor<f32>) -> tensor<768xf32>
    %admhs3b1pb = stablehlo.divide %admns3b1pb, %adbc1s3b1pb : tensor<768xf32>
    %advhs3b1pb = stablehlo.divide %advns3b1pb, %adbc2s3b1pb : tensor<768xf32>
    %adlrs3b1pb = stablehlo.broadcast_in_dim %lr, dims = [] : (tensor<f32>) -> tensor<768xf32>
    %adepss3b1pb = stablehlo.broadcast_in_dim %eps, dims = [] : (tensor<f32>) -> tensor<768xf32>
    %adsqs3b1pb = stablehlo.sqrt %advhs3b1pb : tensor<768xf32>
    %addens3b1pb = stablehlo.add %adsqs3b1pb, %adepss3b1pb : tensor<768xf32>
    %adrats3b1pb = stablehlo.divide %admhs3b1pb, %addens3b1pb : tensor<768xf32>
    %adsts3b1pb = stablehlo.multiply %adlrs3b1pb, %adrats3b1pb : tensor<768xf32>
    %adsubs3b1pb = stablehlo.subtract %s3b1pb, %adsts3b1pb : tensor<768xf32>
    %adwds3b1pb = stablehlo.broadcast_in_dim %wd, dims = [] : (tensor<f32>) -> tensor<768xf32>
    %adwdlrs3b1pb = stablehlo.multiply %adwds3b1pb, %adlrs3b1pb : tensor<768xf32>
    %adwdps3b1pb = stablehlo.multiply %adwdlrs3b1pb, %s3b1pb : tensor<768xf32>
    %adnews3b1pb = stablehlo.subtract %adsubs3b1pb, %adwdps3b1pb : tensor<768xf32>
    %adb1s3b1lg = stablehlo.broadcast_in_dim %b1, dims = [] : (tensor<f32>) -> tensor<768xf32>
    %adob1s3b1lg = stablehlo.broadcast_in_dim %ob1, dims = [] : (tensor<f32>) -> tensor<768xf32>
    %admss3b1lg = stablehlo.multiply %adb1s3b1lg, %s3b1lgm : tensor<768xf32>
    %admgs3b1lg = stablehlo.multiply %adob1s3b1lg, %s3b1dlsdg : tensor<768xf32>
    %admns3b1lg = stablehlo.add %admss3b1lg, %admgs3b1lg : tensor<768xf32>
    %adb2s3b1lg = stablehlo.broadcast_in_dim %b2, dims = [] : (tensor<f32>) -> tensor<768xf32>
    %adob2s3b1lg = stablehlo.broadcast_in_dim %ob2, dims = [] : (tensor<f32>) -> tensor<768xf32>
    %advss3b1lg = stablehlo.multiply %adb2s3b1lg, %s3b1lgv : tensor<768xf32>
    %adg2s3b1lg = stablehlo.multiply %s3b1dlsdg, %s3b1dlsdg : tensor<768xf32>
    %advgs3b1lg = stablehlo.multiply %adob2s3b1lg, %adg2s3b1lg : tensor<768xf32>
    %advns3b1lg = stablehlo.add %advss3b1lg, %advgs3b1lg : tensor<768xf32>
    %adbc1s3b1lg = stablehlo.broadcast_in_dim %bc1, dims = [] : (tensor<f32>) -> tensor<768xf32>
    %adbc2s3b1lg = stablehlo.broadcast_in_dim %bc2, dims = [] : (tensor<f32>) -> tensor<768xf32>
    %admhs3b1lg = stablehlo.divide %admns3b1lg, %adbc1s3b1lg : tensor<768xf32>
    %advhs3b1lg = stablehlo.divide %advns3b1lg, %adbc2s3b1lg : tensor<768xf32>
    %adlrs3b1lg = stablehlo.broadcast_in_dim %lr, dims = [] : (tensor<f32>) -> tensor<768xf32>
    %adepss3b1lg = stablehlo.broadcast_in_dim %eps, dims = [] : (tensor<f32>) -> tensor<768xf32>
    %adsqs3b1lg = stablehlo.sqrt %advhs3b1lg : tensor<768xf32>
    %addens3b1lg = stablehlo.add %adsqs3b1lg, %adepss3b1lg : tensor<768xf32>
    %adrats3b1lg = stablehlo.divide %admhs3b1lg, %addens3b1lg : tensor<768xf32>
    %adsts3b1lg = stablehlo.multiply %adlrs3b1lg, %adrats3b1lg : tensor<768xf32>
    %adsubs3b1lg = stablehlo.subtract %s3b1lg, %adsts3b1lg : tensor<768xf32>
    %adwds3b1lg = stablehlo.broadcast_in_dim %wd, dims = [] : (tensor<f32>) -> tensor<768xf32>
    %adwdlrs3b1lg = stablehlo.multiply %adwds3b1lg, %adlrs3b1lg : tensor<768xf32>
    %adwdps3b1lg = stablehlo.multiply %adwdlrs3b1lg, %s3b1lg : tensor<768xf32>
    %adnews3b1lg = stablehlo.subtract %adsubs3b1lg, %adwdps3b1lg : tensor<768xf32>
    %adb1s3b2dW = stablehlo.broadcast_in_dim %b1, dims = [] : (tensor<f32>) -> tensor<768x1x7x7xf32>
    %adob1s3b2dW = stablehlo.broadcast_in_dim %ob1, dims = [] : (tensor<f32>) -> tensor<768x1x7x7xf32>
    %admss3b2dW = stablehlo.multiply %adb1s3b2dW, %s3b2dWm : tensor<768x1x7x7xf32>
    %admgs3b2dW = stablehlo.multiply %adob1s3b2dW, %s3b2ddW : tensor<768x1x7x7xf32>
    %admns3b2dW = stablehlo.add %admss3b2dW, %admgs3b2dW : tensor<768x1x7x7xf32>
    %adb2s3b2dW = stablehlo.broadcast_in_dim %b2, dims = [] : (tensor<f32>) -> tensor<768x1x7x7xf32>
    %adob2s3b2dW = stablehlo.broadcast_in_dim %ob2, dims = [] : (tensor<f32>) -> tensor<768x1x7x7xf32>
    %advss3b2dW = stablehlo.multiply %adb2s3b2dW, %s3b2dWv : tensor<768x1x7x7xf32>
    %adg2s3b2dW = stablehlo.multiply %s3b2ddW, %s3b2ddW : tensor<768x1x7x7xf32>
    %advgs3b2dW = stablehlo.multiply %adob2s3b2dW, %adg2s3b2dW : tensor<768x1x7x7xf32>
    %advns3b2dW = stablehlo.add %advss3b2dW, %advgs3b2dW : tensor<768x1x7x7xf32>
    %adbc1s3b2dW = stablehlo.broadcast_in_dim %bc1, dims = [] : (tensor<f32>) -> tensor<768x1x7x7xf32>
    %adbc2s3b2dW = stablehlo.broadcast_in_dim %bc2, dims = [] : (tensor<f32>) -> tensor<768x1x7x7xf32>
    %admhs3b2dW = stablehlo.divide %admns3b2dW, %adbc1s3b2dW : tensor<768x1x7x7xf32>
    %advhs3b2dW = stablehlo.divide %advns3b2dW, %adbc2s3b2dW : tensor<768x1x7x7xf32>
    %adlrs3b2dW = stablehlo.broadcast_in_dim %lr, dims = [] : (tensor<f32>) -> tensor<768x1x7x7xf32>
    %adepss3b2dW = stablehlo.broadcast_in_dim %eps, dims = [] : (tensor<f32>) -> tensor<768x1x7x7xf32>
    %adsqs3b2dW = stablehlo.sqrt %advhs3b2dW : tensor<768x1x7x7xf32>
    %addens3b2dW = stablehlo.add %adsqs3b2dW, %adepss3b2dW : tensor<768x1x7x7xf32>
    %adrats3b2dW = stablehlo.divide %admhs3b2dW, %addens3b2dW : tensor<768x1x7x7xf32>
    %adsts3b2dW = stablehlo.multiply %adlrs3b2dW, %adrats3b2dW : tensor<768x1x7x7xf32>
    %adsubs3b2dW = stablehlo.subtract %s3b2dW, %adsts3b2dW : tensor<768x1x7x7xf32>
    %adwds3b2dW = stablehlo.broadcast_in_dim %wd, dims = [] : (tensor<f32>) -> tensor<768x1x7x7xf32>
    %adwdlrs3b2dW = stablehlo.multiply %adwds3b2dW, %adlrs3b2dW : tensor<768x1x7x7xf32>
    %adwdps3b2dW = stablehlo.multiply %adwdlrs3b2dW, %s3b2dW : tensor<768x1x7x7xf32>
    %adnews3b2dW = stablehlo.subtract %adsubs3b2dW, %adwdps3b2dW : tensor<768x1x7x7xf32>
    %adb1s3b2db = stablehlo.broadcast_in_dim %b1, dims = [] : (tensor<f32>) -> tensor<768xf32>
    %adob1s3b2db = stablehlo.broadcast_in_dim %ob1, dims = [] : (tensor<f32>) -> tensor<768xf32>
    %admss3b2db = stablehlo.multiply %adb1s3b2db, %s3b2dbm : tensor<768xf32>
    %admgs3b2db = stablehlo.multiply %adob1s3b2db, %s3b2ddb : tensor<768xf32>
    %admns3b2db = stablehlo.add %admss3b2db, %admgs3b2db : tensor<768xf32>
    %adb2s3b2db = stablehlo.broadcast_in_dim %b2, dims = [] : (tensor<f32>) -> tensor<768xf32>
    %adob2s3b2db = stablehlo.broadcast_in_dim %ob2, dims = [] : (tensor<f32>) -> tensor<768xf32>
    %advss3b2db = stablehlo.multiply %adb2s3b2db, %s3b2dbv : tensor<768xf32>
    %adg2s3b2db = stablehlo.multiply %s3b2ddb, %s3b2ddb : tensor<768xf32>
    %advgs3b2db = stablehlo.multiply %adob2s3b2db, %adg2s3b2db : tensor<768xf32>
    %advns3b2db = stablehlo.add %advss3b2db, %advgs3b2db : tensor<768xf32>
    %adbc1s3b2db = stablehlo.broadcast_in_dim %bc1, dims = [] : (tensor<f32>) -> tensor<768xf32>
    %adbc2s3b2db = stablehlo.broadcast_in_dim %bc2, dims = [] : (tensor<f32>) -> tensor<768xf32>
    %admhs3b2db = stablehlo.divide %admns3b2db, %adbc1s3b2db : tensor<768xf32>
    %advhs3b2db = stablehlo.divide %advns3b2db, %adbc2s3b2db : tensor<768xf32>
    %adlrs3b2db = stablehlo.broadcast_in_dim %lr, dims = [] : (tensor<f32>) -> tensor<768xf32>
    %adepss3b2db = stablehlo.broadcast_in_dim %eps, dims = [] : (tensor<f32>) -> tensor<768xf32>
    %adsqs3b2db = stablehlo.sqrt %advhs3b2db : tensor<768xf32>
    %addens3b2db = stablehlo.add %adsqs3b2db, %adepss3b2db : tensor<768xf32>
    %adrats3b2db = stablehlo.divide %admhs3b2db, %addens3b2db : tensor<768xf32>
    %adsts3b2db = stablehlo.multiply %adlrs3b2db, %adrats3b2db : tensor<768xf32>
    %adsubs3b2db = stablehlo.subtract %s3b2db, %adsts3b2db : tensor<768xf32>
    %adwds3b2db = stablehlo.broadcast_in_dim %wd, dims = [] : (tensor<f32>) -> tensor<768xf32>
    %adwdlrs3b2db = stablehlo.multiply %adwds3b2db, %adlrs3b2db : tensor<768xf32>
    %adwdps3b2db = stablehlo.multiply %adwdlrs3b2db, %s3b2db : tensor<768xf32>
    %adnews3b2db = stablehlo.subtract %adsubs3b2db, %adwdps3b2db : tensor<768xf32>
    %adb1s3b2ng = stablehlo.broadcast_in_dim %b1, dims = [] : (tensor<f32>) -> tensor<f32>
    %adob1s3b2ng = stablehlo.broadcast_in_dim %ob1, dims = [] : (tensor<f32>) -> tensor<f32>
    %admss3b2ng = stablehlo.multiply %adb1s3b2ng, %s3b2ngm : tensor<f32>
    %admgs3b2ng = stablehlo.multiply %adob1s3b2ng, %s3b2dndg : tensor<f32>
    %admns3b2ng = stablehlo.add %admss3b2ng, %admgs3b2ng : tensor<f32>
    %adb2s3b2ng = stablehlo.broadcast_in_dim %b2, dims = [] : (tensor<f32>) -> tensor<f32>
    %adob2s3b2ng = stablehlo.broadcast_in_dim %ob2, dims = [] : (tensor<f32>) -> tensor<f32>
    %advss3b2ng = stablehlo.multiply %adb2s3b2ng, %s3b2ngv : tensor<f32>
    %adg2s3b2ng = stablehlo.multiply %s3b2dndg, %s3b2dndg : tensor<f32>
    %advgs3b2ng = stablehlo.multiply %adob2s3b2ng, %adg2s3b2ng : tensor<f32>
    %advns3b2ng = stablehlo.add %advss3b2ng, %advgs3b2ng : tensor<f32>
    %adbc1s3b2ng = stablehlo.broadcast_in_dim %bc1, dims = [] : (tensor<f32>) -> tensor<f32>
    %adbc2s3b2ng = stablehlo.broadcast_in_dim %bc2, dims = [] : (tensor<f32>) -> tensor<f32>
    %admhs3b2ng = stablehlo.divide %admns3b2ng, %adbc1s3b2ng : tensor<f32>
    %advhs3b2ng = stablehlo.divide %advns3b2ng, %adbc2s3b2ng : tensor<f32>
    %adlrs3b2ng = stablehlo.broadcast_in_dim %lr, dims = [] : (tensor<f32>) -> tensor<f32>
    %adepss3b2ng = stablehlo.broadcast_in_dim %eps, dims = [] : (tensor<f32>) -> tensor<f32>
    %adsqs3b2ng = stablehlo.sqrt %advhs3b2ng : tensor<f32>
    %addens3b2ng = stablehlo.add %adsqs3b2ng, %adepss3b2ng : tensor<f32>
    %adrats3b2ng = stablehlo.divide %admhs3b2ng, %addens3b2ng : tensor<f32>
    %adsts3b2ng = stablehlo.multiply %adlrs3b2ng, %adrats3b2ng : tensor<f32>
    %adsubs3b2ng = stablehlo.subtract %s3b2ng, %adsts3b2ng : tensor<f32>
    %adwds3b2ng = stablehlo.broadcast_in_dim %wd, dims = [] : (tensor<f32>) -> tensor<f32>
    %adwdlrs3b2ng = stablehlo.multiply %adwds3b2ng, %adlrs3b2ng : tensor<f32>
    %adwdps3b2ng = stablehlo.multiply %adwdlrs3b2ng, %s3b2ng : tensor<f32>
    %adnews3b2ng = stablehlo.subtract %adsubs3b2ng, %adwdps3b2ng : tensor<f32>
    %adb1s3b2nbt = stablehlo.broadcast_in_dim %b1, dims = [] : (tensor<f32>) -> tensor<f32>
    %adob1s3b2nbt = stablehlo.broadcast_in_dim %ob1, dims = [] : (tensor<f32>) -> tensor<f32>
    %admss3b2nbt = stablehlo.multiply %adb1s3b2nbt, %s3b2nbtm : tensor<f32>
    %admgs3b2nbt = stablehlo.multiply %adob1s3b2nbt, %s3b2dndb : tensor<f32>
    %admns3b2nbt = stablehlo.add %admss3b2nbt, %admgs3b2nbt : tensor<f32>
    %adb2s3b2nbt = stablehlo.broadcast_in_dim %b2, dims = [] : (tensor<f32>) -> tensor<f32>
    %adob2s3b2nbt = stablehlo.broadcast_in_dim %ob2, dims = [] : (tensor<f32>) -> tensor<f32>
    %advss3b2nbt = stablehlo.multiply %adb2s3b2nbt, %s3b2nbtv : tensor<f32>
    %adg2s3b2nbt = stablehlo.multiply %s3b2dndb, %s3b2dndb : tensor<f32>
    %advgs3b2nbt = stablehlo.multiply %adob2s3b2nbt, %adg2s3b2nbt : tensor<f32>
    %advns3b2nbt = stablehlo.add %advss3b2nbt, %advgs3b2nbt : tensor<f32>
    %adbc1s3b2nbt = stablehlo.broadcast_in_dim %bc1, dims = [] : (tensor<f32>) -> tensor<f32>
    %adbc2s3b2nbt = stablehlo.broadcast_in_dim %bc2, dims = [] : (tensor<f32>) -> tensor<f32>
    %admhs3b2nbt = stablehlo.divide %admns3b2nbt, %adbc1s3b2nbt : tensor<f32>
    %advhs3b2nbt = stablehlo.divide %advns3b2nbt, %adbc2s3b2nbt : tensor<f32>
    %adlrs3b2nbt = stablehlo.broadcast_in_dim %lr, dims = [] : (tensor<f32>) -> tensor<f32>
    %adepss3b2nbt = stablehlo.broadcast_in_dim %eps, dims = [] : (tensor<f32>) -> tensor<f32>
    %adsqs3b2nbt = stablehlo.sqrt %advhs3b2nbt : tensor<f32>
    %addens3b2nbt = stablehlo.add %adsqs3b2nbt, %adepss3b2nbt : tensor<f32>
    %adrats3b2nbt = stablehlo.divide %admhs3b2nbt, %addens3b2nbt : tensor<f32>
    %adsts3b2nbt = stablehlo.multiply %adlrs3b2nbt, %adrats3b2nbt : tensor<f32>
    %adsubs3b2nbt = stablehlo.subtract %s3b2nbt, %adsts3b2nbt : tensor<f32>
    %adwds3b2nbt = stablehlo.broadcast_in_dim %wd, dims = [] : (tensor<f32>) -> tensor<f32>
    %adwdlrs3b2nbt = stablehlo.multiply %adwds3b2nbt, %adlrs3b2nbt : tensor<f32>
    %adwdps3b2nbt = stablehlo.multiply %adwdlrs3b2nbt, %s3b2nbt : tensor<f32>
    %adnews3b2nbt = stablehlo.subtract %adsubs3b2nbt, %adwdps3b2nbt : tensor<f32>
    %adb1s3b2eW = stablehlo.broadcast_in_dim %b1, dims = [] : (tensor<f32>) -> tensor<3072x768x1x1xf32>
    %adob1s3b2eW = stablehlo.broadcast_in_dim %ob1, dims = [] : (tensor<f32>) -> tensor<3072x768x1x1xf32>
    %admss3b2eW = stablehlo.multiply %adb1s3b2eW, %s3b2eWm : tensor<3072x768x1x1xf32>
    %admgs3b2eW = stablehlo.multiply %adob1s3b2eW, %s3b2deW : tensor<3072x768x1x1xf32>
    %admns3b2eW = stablehlo.add %admss3b2eW, %admgs3b2eW : tensor<3072x768x1x1xf32>
    %adb2s3b2eW = stablehlo.broadcast_in_dim %b2, dims = [] : (tensor<f32>) -> tensor<3072x768x1x1xf32>
    %adob2s3b2eW = stablehlo.broadcast_in_dim %ob2, dims = [] : (tensor<f32>) -> tensor<3072x768x1x1xf32>
    %advss3b2eW = stablehlo.multiply %adb2s3b2eW, %s3b2eWv : tensor<3072x768x1x1xf32>
    %adg2s3b2eW = stablehlo.multiply %s3b2deW, %s3b2deW : tensor<3072x768x1x1xf32>
    %advgs3b2eW = stablehlo.multiply %adob2s3b2eW, %adg2s3b2eW : tensor<3072x768x1x1xf32>
    %advns3b2eW = stablehlo.add %advss3b2eW, %advgs3b2eW : tensor<3072x768x1x1xf32>
    %adbc1s3b2eW = stablehlo.broadcast_in_dim %bc1, dims = [] : (tensor<f32>) -> tensor<3072x768x1x1xf32>
    %adbc2s3b2eW = stablehlo.broadcast_in_dim %bc2, dims = [] : (tensor<f32>) -> tensor<3072x768x1x1xf32>
    %admhs3b2eW = stablehlo.divide %admns3b2eW, %adbc1s3b2eW : tensor<3072x768x1x1xf32>
    %advhs3b2eW = stablehlo.divide %advns3b2eW, %adbc2s3b2eW : tensor<3072x768x1x1xf32>
    %adlrs3b2eW = stablehlo.broadcast_in_dim %lr, dims = [] : (tensor<f32>) -> tensor<3072x768x1x1xf32>
    %adepss3b2eW = stablehlo.broadcast_in_dim %eps, dims = [] : (tensor<f32>) -> tensor<3072x768x1x1xf32>
    %adsqs3b2eW = stablehlo.sqrt %advhs3b2eW : tensor<3072x768x1x1xf32>
    %addens3b2eW = stablehlo.add %adsqs3b2eW, %adepss3b2eW : tensor<3072x768x1x1xf32>
    %adrats3b2eW = stablehlo.divide %admhs3b2eW, %addens3b2eW : tensor<3072x768x1x1xf32>
    %adsts3b2eW = stablehlo.multiply %adlrs3b2eW, %adrats3b2eW : tensor<3072x768x1x1xf32>
    %adsubs3b2eW = stablehlo.subtract %s3b2eW, %adsts3b2eW : tensor<3072x768x1x1xf32>
    %adwds3b2eW = stablehlo.broadcast_in_dim %wd, dims = [] : (tensor<f32>) -> tensor<3072x768x1x1xf32>
    %adwdlrs3b2eW = stablehlo.multiply %adwds3b2eW, %adlrs3b2eW : tensor<3072x768x1x1xf32>
    %adwdps3b2eW = stablehlo.multiply %adwdlrs3b2eW, %s3b2eW : tensor<3072x768x1x1xf32>
    %adnews3b2eW = stablehlo.subtract %adsubs3b2eW, %adwdps3b2eW : tensor<3072x768x1x1xf32>
    %adb1s3b2eb = stablehlo.broadcast_in_dim %b1, dims = [] : (tensor<f32>) -> tensor<3072xf32>
    %adob1s3b2eb = stablehlo.broadcast_in_dim %ob1, dims = [] : (tensor<f32>) -> tensor<3072xf32>
    %admss3b2eb = stablehlo.multiply %adb1s3b2eb, %s3b2ebm : tensor<3072xf32>
    %admgs3b2eb = stablehlo.multiply %adob1s3b2eb, %s3b2deb : tensor<3072xf32>
    %admns3b2eb = stablehlo.add %admss3b2eb, %admgs3b2eb : tensor<3072xf32>
    %adb2s3b2eb = stablehlo.broadcast_in_dim %b2, dims = [] : (tensor<f32>) -> tensor<3072xf32>
    %adob2s3b2eb = stablehlo.broadcast_in_dim %ob2, dims = [] : (tensor<f32>) -> tensor<3072xf32>
    %advss3b2eb = stablehlo.multiply %adb2s3b2eb, %s3b2ebv : tensor<3072xf32>
    %adg2s3b2eb = stablehlo.multiply %s3b2deb, %s3b2deb : tensor<3072xf32>
    %advgs3b2eb = stablehlo.multiply %adob2s3b2eb, %adg2s3b2eb : tensor<3072xf32>
    %advns3b2eb = stablehlo.add %advss3b2eb, %advgs3b2eb : tensor<3072xf32>
    %adbc1s3b2eb = stablehlo.broadcast_in_dim %bc1, dims = [] : (tensor<f32>) -> tensor<3072xf32>
    %adbc2s3b2eb = stablehlo.broadcast_in_dim %bc2, dims = [] : (tensor<f32>) -> tensor<3072xf32>
    %admhs3b2eb = stablehlo.divide %admns3b2eb, %adbc1s3b2eb : tensor<3072xf32>
    %advhs3b2eb = stablehlo.divide %advns3b2eb, %adbc2s3b2eb : tensor<3072xf32>
    %adlrs3b2eb = stablehlo.broadcast_in_dim %lr, dims = [] : (tensor<f32>) -> tensor<3072xf32>
    %adepss3b2eb = stablehlo.broadcast_in_dim %eps, dims = [] : (tensor<f32>) -> tensor<3072xf32>
    %adsqs3b2eb = stablehlo.sqrt %advhs3b2eb : tensor<3072xf32>
    %addens3b2eb = stablehlo.add %adsqs3b2eb, %adepss3b2eb : tensor<3072xf32>
    %adrats3b2eb = stablehlo.divide %admhs3b2eb, %addens3b2eb : tensor<3072xf32>
    %adsts3b2eb = stablehlo.multiply %adlrs3b2eb, %adrats3b2eb : tensor<3072xf32>
    %adsubs3b2eb = stablehlo.subtract %s3b2eb, %adsts3b2eb : tensor<3072xf32>
    %adwds3b2eb = stablehlo.broadcast_in_dim %wd, dims = [] : (tensor<f32>) -> tensor<3072xf32>
    %adwdlrs3b2eb = stablehlo.multiply %adwds3b2eb, %adlrs3b2eb : tensor<3072xf32>
    %adwdps3b2eb = stablehlo.multiply %adwdlrs3b2eb, %s3b2eb : tensor<3072xf32>
    %adnews3b2eb = stablehlo.subtract %adsubs3b2eb, %adwdps3b2eb : tensor<3072xf32>
    %adb1s3b2pW = stablehlo.broadcast_in_dim %b1, dims = [] : (tensor<f32>) -> tensor<768x3072x1x1xf32>
    %adob1s3b2pW = stablehlo.broadcast_in_dim %ob1, dims = [] : (tensor<f32>) -> tensor<768x3072x1x1xf32>
    %admss3b2pW = stablehlo.multiply %adb1s3b2pW, %s3b2pWm : tensor<768x3072x1x1xf32>
    %admgs3b2pW = stablehlo.multiply %adob1s3b2pW, %s3b2dpW : tensor<768x3072x1x1xf32>
    %admns3b2pW = stablehlo.add %admss3b2pW, %admgs3b2pW : tensor<768x3072x1x1xf32>
    %adb2s3b2pW = stablehlo.broadcast_in_dim %b2, dims = [] : (tensor<f32>) -> tensor<768x3072x1x1xf32>
    %adob2s3b2pW = stablehlo.broadcast_in_dim %ob2, dims = [] : (tensor<f32>) -> tensor<768x3072x1x1xf32>
    %advss3b2pW = stablehlo.multiply %adb2s3b2pW, %s3b2pWv : tensor<768x3072x1x1xf32>
    %adg2s3b2pW = stablehlo.multiply %s3b2dpW, %s3b2dpW : tensor<768x3072x1x1xf32>
    %advgs3b2pW = stablehlo.multiply %adob2s3b2pW, %adg2s3b2pW : tensor<768x3072x1x1xf32>
    %advns3b2pW = stablehlo.add %advss3b2pW, %advgs3b2pW : tensor<768x3072x1x1xf32>
    %adbc1s3b2pW = stablehlo.broadcast_in_dim %bc1, dims = [] : (tensor<f32>) -> tensor<768x3072x1x1xf32>
    %adbc2s3b2pW = stablehlo.broadcast_in_dim %bc2, dims = [] : (tensor<f32>) -> tensor<768x3072x1x1xf32>
    %admhs3b2pW = stablehlo.divide %admns3b2pW, %adbc1s3b2pW : tensor<768x3072x1x1xf32>
    %advhs3b2pW = stablehlo.divide %advns3b2pW, %adbc2s3b2pW : tensor<768x3072x1x1xf32>
    %adlrs3b2pW = stablehlo.broadcast_in_dim %lr, dims = [] : (tensor<f32>) -> tensor<768x3072x1x1xf32>
    %adepss3b2pW = stablehlo.broadcast_in_dim %eps, dims = [] : (tensor<f32>) -> tensor<768x3072x1x1xf32>
    %adsqs3b2pW = stablehlo.sqrt %advhs3b2pW : tensor<768x3072x1x1xf32>
    %addens3b2pW = stablehlo.add %adsqs3b2pW, %adepss3b2pW : tensor<768x3072x1x1xf32>
    %adrats3b2pW = stablehlo.divide %admhs3b2pW, %addens3b2pW : tensor<768x3072x1x1xf32>
    %adsts3b2pW = stablehlo.multiply %adlrs3b2pW, %adrats3b2pW : tensor<768x3072x1x1xf32>
    %adsubs3b2pW = stablehlo.subtract %s3b2pW, %adsts3b2pW : tensor<768x3072x1x1xf32>
    %adwds3b2pW = stablehlo.broadcast_in_dim %wd, dims = [] : (tensor<f32>) -> tensor<768x3072x1x1xf32>
    %adwdlrs3b2pW = stablehlo.multiply %adwds3b2pW, %adlrs3b2pW : tensor<768x3072x1x1xf32>
    %adwdps3b2pW = stablehlo.multiply %adwdlrs3b2pW, %s3b2pW : tensor<768x3072x1x1xf32>
    %adnews3b2pW = stablehlo.subtract %adsubs3b2pW, %adwdps3b2pW : tensor<768x3072x1x1xf32>
    %adb1s3b2pb = stablehlo.broadcast_in_dim %b1, dims = [] : (tensor<f32>) -> tensor<768xf32>
    %adob1s3b2pb = stablehlo.broadcast_in_dim %ob1, dims = [] : (tensor<f32>) -> tensor<768xf32>
    %admss3b2pb = stablehlo.multiply %adb1s3b2pb, %s3b2pbm : tensor<768xf32>
    %admgs3b2pb = stablehlo.multiply %adob1s3b2pb, %s3b2dpb : tensor<768xf32>
    %admns3b2pb = stablehlo.add %admss3b2pb, %admgs3b2pb : tensor<768xf32>
    %adb2s3b2pb = stablehlo.broadcast_in_dim %b2, dims = [] : (tensor<f32>) -> tensor<768xf32>
    %adob2s3b2pb = stablehlo.broadcast_in_dim %ob2, dims = [] : (tensor<f32>) -> tensor<768xf32>
    %advss3b2pb = stablehlo.multiply %adb2s3b2pb, %s3b2pbv : tensor<768xf32>
    %adg2s3b2pb = stablehlo.multiply %s3b2dpb, %s3b2dpb : tensor<768xf32>
    %advgs3b2pb = stablehlo.multiply %adob2s3b2pb, %adg2s3b2pb : tensor<768xf32>
    %advns3b2pb = stablehlo.add %advss3b2pb, %advgs3b2pb : tensor<768xf32>
    %adbc1s3b2pb = stablehlo.broadcast_in_dim %bc1, dims = [] : (tensor<f32>) -> tensor<768xf32>
    %adbc2s3b2pb = stablehlo.broadcast_in_dim %bc2, dims = [] : (tensor<f32>) -> tensor<768xf32>
    %admhs3b2pb = stablehlo.divide %admns3b2pb, %adbc1s3b2pb : tensor<768xf32>
    %advhs3b2pb = stablehlo.divide %advns3b2pb, %adbc2s3b2pb : tensor<768xf32>
    %adlrs3b2pb = stablehlo.broadcast_in_dim %lr, dims = [] : (tensor<f32>) -> tensor<768xf32>
    %adepss3b2pb = stablehlo.broadcast_in_dim %eps, dims = [] : (tensor<f32>) -> tensor<768xf32>
    %adsqs3b2pb = stablehlo.sqrt %advhs3b2pb : tensor<768xf32>
    %addens3b2pb = stablehlo.add %adsqs3b2pb, %adepss3b2pb : tensor<768xf32>
    %adrats3b2pb = stablehlo.divide %admhs3b2pb, %addens3b2pb : tensor<768xf32>
    %adsts3b2pb = stablehlo.multiply %adlrs3b2pb, %adrats3b2pb : tensor<768xf32>
    %adsubs3b2pb = stablehlo.subtract %s3b2pb, %adsts3b2pb : tensor<768xf32>
    %adwds3b2pb = stablehlo.broadcast_in_dim %wd, dims = [] : (tensor<f32>) -> tensor<768xf32>
    %adwdlrs3b2pb = stablehlo.multiply %adwds3b2pb, %adlrs3b2pb : tensor<768xf32>
    %adwdps3b2pb = stablehlo.multiply %adwdlrs3b2pb, %s3b2pb : tensor<768xf32>
    %adnews3b2pb = stablehlo.subtract %adsubs3b2pb, %adwdps3b2pb : tensor<768xf32>
    %adb1s3b2lg = stablehlo.broadcast_in_dim %b1, dims = [] : (tensor<f32>) -> tensor<768xf32>
    %adob1s3b2lg = stablehlo.broadcast_in_dim %ob1, dims = [] : (tensor<f32>) -> tensor<768xf32>
    %admss3b2lg = stablehlo.multiply %adb1s3b2lg, %s3b2lgm : tensor<768xf32>
    %admgs3b2lg = stablehlo.multiply %adob1s3b2lg, %s3b2dlsdg : tensor<768xf32>
    %admns3b2lg = stablehlo.add %admss3b2lg, %admgs3b2lg : tensor<768xf32>
    %adb2s3b2lg = stablehlo.broadcast_in_dim %b2, dims = [] : (tensor<f32>) -> tensor<768xf32>
    %adob2s3b2lg = stablehlo.broadcast_in_dim %ob2, dims = [] : (tensor<f32>) -> tensor<768xf32>
    %advss3b2lg = stablehlo.multiply %adb2s3b2lg, %s3b2lgv : tensor<768xf32>
    %adg2s3b2lg = stablehlo.multiply %s3b2dlsdg, %s3b2dlsdg : tensor<768xf32>
    %advgs3b2lg = stablehlo.multiply %adob2s3b2lg, %adg2s3b2lg : tensor<768xf32>
    %advns3b2lg = stablehlo.add %advss3b2lg, %advgs3b2lg : tensor<768xf32>
    %adbc1s3b2lg = stablehlo.broadcast_in_dim %bc1, dims = [] : (tensor<f32>) -> tensor<768xf32>
    %adbc2s3b2lg = stablehlo.broadcast_in_dim %bc2, dims = [] : (tensor<f32>) -> tensor<768xf32>
    %admhs3b2lg = stablehlo.divide %admns3b2lg, %adbc1s3b2lg : tensor<768xf32>
    %advhs3b2lg = stablehlo.divide %advns3b2lg, %adbc2s3b2lg : tensor<768xf32>
    %adlrs3b2lg = stablehlo.broadcast_in_dim %lr, dims = [] : (tensor<f32>) -> tensor<768xf32>
    %adepss3b2lg = stablehlo.broadcast_in_dim %eps, dims = [] : (tensor<f32>) -> tensor<768xf32>
    %adsqs3b2lg = stablehlo.sqrt %advhs3b2lg : tensor<768xf32>
    %addens3b2lg = stablehlo.add %adsqs3b2lg, %adepss3b2lg : tensor<768xf32>
    %adrats3b2lg = stablehlo.divide %admhs3b2lg, %addens3b2lg : tensor<768xf32>
    %adsts3b2lg = stablehlo.multiply %adlrs3b2lg, %adrats3b2lg : tensor<768xf32>
    %adsubs3b2lg = stablehlo.subtract %s3b2lg, %adsts3b2lg : tensor<768xf32>
    %adwds3b2lg = stablehlo.broadcast_in_dim %wd, dims = [] : (tensor<f32>) -> tensor<768xf32>
    %adwdlrs3b2lg = stablehlo.multiply %adwds3b2lg, %adlrs3b2lg : tensor<768xf32>
    %adwdps3b2lg = stablehlo.multiply %adwdlrs3b2lg, %s3b2lg : tensor<768xf32>
    %adnews3b2lg = stablehlo.subtract %adsubs3b2lg, %adwdps3b2lg : tensor<768xf32>
    %adb1hng = stablehlo.broadcast_in_dim %b1, dims = [] : (tensor<f32>) -> tensor<f32>
    %adob1hng = stablehlo.broadcast_in_dim %ob1, dims = [] : (tensor<f32>) -> tensor<f32>
    %admshng = stablehlo.multiply %adb1hng, %hngm : tensor<f32>
    %admghng = stablehlo.multiply %adob1hng, %hddg : tensor<f32>
    %admnhng = stablehlo.add %admshng, %admghng : tensor<f32>
    %adb2hng = stablehlo.broadcast_in_dim %b2, dims = [] : (tensor<f32>) -> tensor<f32>
    %adob2hng = stablehlo.broadcast_in_dim %ob2, dims = [] : (tensor<f32>) -> tensor<f32>
    %advshng = stablehlo.multiply %adb2hng, %hngv : tensor<f32>
    %adg2hng = stablehlo.multiply %hddg, %hddg : tensor<f32>
    %advghng = stablehlo.multiply %adob2hng, %adg2hng : tensor<f32>
    %advnhng = stablehlo.add %advshng, %advghng : tensor<f32>
    %adbc1hng = stablehlo.broadcast_in_dim %bc1, dims = [] : (tensor<f32>) -> tensor<f32>
    %adbc2hng = stablehlo.broadcast_in_dim %bc2, dims = [] : (tensor<f32>) -> tensor<f32>
    %admhhng = stablehlo.divide %admnhng, %adbc1hng : tensor<f32>
    %advhhng = stablehlo.divide %advnhng, %adbc2hng : tensor<f32>
    %adlrhng = stablehlo.broadcast_in_dim %lr, dims = [] : (tensor<f32>) -> tensor<f32>
    %adepshng = stablehlo.broadcast_in_dim %eps, dims = [] : (tensor<f32>) -> tensor<f32>
    %adsqhng = stablehlo.sqrt %advhhng : tensor<f32>
    %addenhng = stablehlo.add %adsqhng, %adepshng : tensor<f32>
    %adrathng = stablehlo.divide %admhhng, %addenhng : tensor<f32>
    %adsthng = stablehlo.multiply %adlrhng, %adrathng : tensor<f32>
    %adsubhng = stablehlo.subtract %hng, %adsthng : tensor<f32>
    %adwdhng = stablehlo.broadcast_in_dim %wd, dims = [] : (tensor<f32>) -> tensor<f32>
    %adwdlrhng = stablehlo.multiply %adwdhng, %adlrhng : tensor<f32>
    %adwdphng = stablehlo.multiply %adwdlrhng, %hng : tensor<f32>
    %adnewhng = stablehlo.subtract %adsubhng, %adwdphng : tensor<f32>
    %adb1hnbt = stablehlo.broadcast_in_dim %b1, dims = [] : (tensor<f32>) -> tensor<f32>
    %adob1hnbt = stablehlo.broadcast_in_dim %ob1, dims = [] : (tensor<f32>) -> tensor<f32>
    %admshnbt = stablehlo.multiply %adb1hnbt, %hnbtm : tensor<f32>
    %admghnbt = stablehlo.multiply %adob1hnbt, %hddb : tensor<f32>
    %admnhnbt = stablehlo.add %admshnbt, %admghnbt : tensor<f32>
    %adb2hnbt = stablehlo.broadcast_in_dim %b2, dims = [] : (tensor<f32>) -> tensor<f32>
    %adob2hnbt = stablehlo.broadcast_in_dim %ob2, dims = [] : (tensor<f32>) -> tensor<f32>
    %advshnbt = stablehlo.multiply %adb2hnbt, %hnbtv : tensor<f32>
    %adg2hnbt = stablehlo.multiply %hddb, %hddb : tensor<f32>
    %advghnbt = stablehlo.multiply %adob2hnbt, %adg2hnbt : tensor<f32>
    %advnhnbt = stablehlo.add %advshnbt, %advghnbt : tensor<f32>
    %adbc1hnbt = stablehlo.broadcast_in_dim %bc1, dims = [] : (tensor<f32>) -> tensor<f32>
    %adbc2hnbt = stablehlo.broadcast_in_dim %bc2, dims = [] : (tensor<f32>) -> tensor<f32>
    %admhhnbt = stablehlo.divide %admnhnbt, %adbc1hnbt : tensor<f32>
    %advhhnbt = stablehlo.divide %advnhnbt, %adbc2hnbt : tensor<f32>
    %adlrhnbt = stablehlo.broadcast_in_dim %lr, dims = [] : (tensor<f32>) -> tensor<f32>
    %adepshnbt = stablehlo.broadcast_in_dim %eps, dims = [] : (tensor<f32>) -> tensor<f32>
    %adsqhnbt = stablehlo.sqrt %advhhnbt : tensor<f32>
    %addenhnbt = stablehlo.add %adsqhnbt, %adepshnbt : tensor<f32>
    %adrathnbt = stablehlo.divide %admhhnbt, %addenhnbt : tensor<f32>
    %adsthnbt = stablehlo.multiply %adlrhnbt, %adrathnbt : tensor<f32>
    %adsubhnbt = stablehlo.subtract %hnbt, %adsthnbt : tensor<f32>
    %adwdhnbt = stablehlo.broadcast_in_dim %wd, dims = [] : (tensor<f32>) -> tensor<f32>
    %adwdlrhnbt = stablehlo.multiply %adwdhnbt, %adlrhnbt : tensor<f32>
    %adwdphnbt = stablehlo.multiply %adwdlrhnbt, %hnbt : tensor<f32>
    %adnewhnbt = stablehlo.subtract %adsubhnbt, %adwdphnbt : tensor<f32>
    %adb1Wd = stablehlo.broadcast_in_dim %b1, dims = [] : (tensor<f32>) -> tensor<768x10xf32>
    %adob1Wd = stablehlo.broadcast_in_dim %ob1, dims = [] : (tensor<f32>) -> tensor<768x10xf32>
    %admsWd = stablehlo.multiply %adb1Wd, %Wdm : tensor<768x10xf32>
    %admgWd = stablehlo.multiply %adob1Wd, %dWd : tensor<768x10xf32>
    %admnWd = stablehlo.add %admsWd, %admgWd : tensor<768x10xf32>
    %adb2Wd = stablehlo.broadcast_in_dim %b2, dims = [] : (tensor<f32>) -> tensor<768x10xf32>
    %adob2Wd = stablehlo.broadcast_in_dim %ob2, dims = [] : (tensor<f32>) -> tensor<768x10xf32>
    %advsWd = stablehlo.multiply %adb2Wd, %Wdv : tensor<768x10xf32>
    %adg2Wd = stablehlo.multiply %dWd, %dWd : tensor<768x10xf32>
    %advgWd = stablehlo.multiply %adob2Wd, %adg2Wd : tensor<768x10xf32>
    %advnWd = stablehlo.add %advsWd, %advgWd : tensor<768x10xf32>
    %adbc1Wd = stablehlo.broadcast_in_dim %bc1, dims = [] : (tensor<f32>) -> tensor<768x10xf32>
    %adbc2Wd = stablehlo.broadcast_in_dim %bc2, dims = [] : (tensor<f32>) -> tensor<768x10xf32>
    %admhWd = stablehlo.divide %admnWd, %adbc1Wd : tensor<768x10xf32>
    %advhWd = stablehlo.divide %advnWd, %adbc2Wd : tensor<768x10xf32>
    %adlrWd = stablehlo.broadcast_in_dim %lr, dims = [] : (tensor<f32>) -> tensor<768x10xf32>
    %adepsWd = stablehlo.broadcast_in_dim %eps, dims = [] : (tensor<f32>) -> tensor<768x10xf32>
    %adsqWd = stablehlo.sqrt %advhWd : tensor<768x10xf32>
    %addenWd = stablehlo.add %adsqWd, %adepsWd : tensor<768x10xf32>
    %adratWd = stablehlo.divide %admhWd, %addenWd : tensor<768x10xf32>
    %adstWd = stablehlo.multiply %adlrWd, %adratWd : tensor<768x10xf32>
    %adsubWd = stablehlo.subtract %Wd, %adstWd : tensor<768x10xf32>
    %adwdWd = stablehlo.broadcast_in_dim %wd, dims = [] : (tensor<f32>) -> tensor<768x10xf32>
    %adwdlrWd = stablehlo.multiply %adwdWd, %adlrWd : tensor<768x10xf32>
    %adwdpWd = stablehlo.multiply %adwdlrWd, %Wd : tensor<768x10xf32>
    %adnewWd = stablehlo.subtract %adsubWd, %adwdpWd : tensor<768x10xf32>
    %adb1bd = stablehlo.broadcast_in_dim %b1, dims = [] : (tensor<f32>) -> tensor<10xf32>
    %adob1bd = stablehlo.broadcast_in_dim %ob1, dims = [] : (tensor<f32>) -> tensor<10xf32>
    %admsbd = stablehlo.multiply %adb1bd, %bdm : tensor<10xf32>
    %admgbd = stablehlo.multiply %adob1bd, %dbd : tensor<10xf32>
    %admnbd = stablehlo.add %admsbd, %admgbd : tensor<10xf32>
    %adb2bd = stablehlo.broadcast_in_dim %b2, dims = [] : (tensor<f32>) -> tensor<10xf32>
    %adob2bd = stablehlo.broadcast_in_dim %ob2, dims = [] : (tensor<f32>) -> tensor<10xf32>
    %advsbd = stablehlo.multiply %adb2bd, %bdv : tensor<10xf32>
    %adg2bd = stablehlo.multiply %dbd, %dbd : tensor<10xf32>
    %advgbd = stablehlo.multiply %adob2bd, %adg2bd : tensor<10xf32>
    %advnbd = stablehlo.add %advsbd, %advgbd : tensor<10xf32>
    %adbc1bd = stablehlo.broadcast_in_dim %bc1, dims = [] : (tensor<f32>) -> tensor<10xf32>
    %adbc2bd = stablehlo.broadcast_in_dim %bc2, dims = [] : (tensor<f32>) -> tensor<10xf32>
    %admhbd = stablehlo.divide %admnbd, %adbc1bd : tensor<10xf32>
    %advhbd = stablehlo.divide %advnbd, %adbc2bd : tensor<10xf32>
    %adlrbd = stablehlo.broadcast_in_dim %lr, dims = [] : (tensor<f32>) -> tensor<10xf32>
    %adepsbd = stablehlo.broadcast_in_dim %eps, dims = [] : (tensor<f32>) -> tensor<10xf32>
    %adsqbd = stablehlo.sqrt %advhbd : tensor<10xf32>
    %addenbd = stablehlo.add %adsqbd, %adepsbd : tensor<10xf32>
    %adratbd = stablehlo.divide %admhbd, %addenbd : tensor<10xf32>
    %adstbd = stablehlo.multiply %adlrbd, %adratbd : tensor<10xf32>
    %adsubbd = stablehlo.subtract %bd, %adstbd : tensor<10xf32>
    %adwdbd = stablehlo.broadcast_in_dim %wd, dims = [] : (tensor<f32>) -> tensor<10xf32>
    %adwdlrbd = stablehlo.multiply %adwdbd, %adlrbd : tensor<10xf32>
    %adwdpbd = stablehlo.multiply %adwdlrbd, %bd : tensor<10xf32>
    %adnewbd = stablehlo.subtract %adsubbd, %adwdpbd : tensor<10xf32>
    return %adnewpsW, %adnewpsb, %adnews0b0dW, %adnews0b0db, %adnews0b0ng, %adnews0b0nbt, %adnews0b0eW, %adnews0b0eb, %adnews0b0pW, %adnews0b0pb, %adnews0b0lg, %adnews0b1dW, %adnews0b1db, %adnews0b1ng, %adnews0b1nbt, %adnews0b1eW, %adnews0b1eb, %adnews0b1pW, %adnews0b1pb, %adnews0b1lg, %adnews0b2dW, %adnews0b2db, %adnews0b2ng, %adnews0b2nbt, %adnews0b2eW, %adnews0b2eb, %adnews0b2pW, %adnews0b2pb, %adnews0b2lg, %adnewd0ng, %adnewd0nbt, %adnewd0W, %adnewd0b, %adnews1b0dW, %adnews1b0db, %adnews1b0ng, %adnews1b0nbt, %adnews1b0eW, %adnews1b0eb, %adnews1b0pW, %adnews1b0pb, %adnews1b0lg, %adnews1b1dW, %adnews1b1db, %adnews1b1ng, %adnews1b1nbt, %adnews1b1eW, %adnews1b1eb, %adnews1b1pW, %adnews1b1pb, %adnews1b1lg, %adnews1b2dW, %adnews1b2db, %adnews1b2ng, %adnews1b2nbt, %adnews1b2eW, %adnews1b2eb, %adnews1b2pW, %adnews1b2pb, %adnews1b2lg, %adnewd1ng, %adnewd1nbt, %adnewd1W, %adnewd1b, %adnews2b0dW, %adnews2b0db, %adnews2b0ng, %adnews2b0nbt, %adnews2b0eW, %adnews2b0eb, %adnews2b0pW, %adnews2b0pb, %adnews2b0lg, %adnews2b1dW, %adnews2b1db, %adnews2b1ng, %adnews2b1nbt, %adnews2b1eW, %adnews2b1eb, %adnews2b1pW, %adnews2b1pb, %adnews2b1lg, %adnews2b2dW, %adnews2b2db, %adnews2b2ng, %adnews2b2nbt, %adnews2b2eW, %adnews2b2eb, %adnews2b2pW, %adnews2b2pb, %adnews2b2lg, %adnews2b3dW, %adnews2b3db, %adnews2b3ng, %adnews2b3nbt, %adnews2b3eW, %adnews2b3eb, %adnews2b3pW, %adnews2b3pb, %adnews2b3lg, %adnews2b4dW, %adnews2b4db, %adnews2b4ng, %adnews2b4nbt, %adnews2b4eW, %adnews2b4eb, %adnews2b4pW, %adnews2b4pb, %adnews2b4lg, %adnews2b5dW, %adnews2b5db, %adnews2b5ng, %adnews2b5nbt, %adnews2b5eW, %adnews2b5eb, %adnews2b5pW, %adnews2b5pb, %adnews2b5lg, %adnews2b6dW, %adnews2b6db, %adnews2b6ng, %adnews2b6nbt, %adnews2b6eW, %adnews2b6eb, %adnews2b6pW, %adnews2b6pb, %adnews2b6lg, %adnews2b7dW, %adnews2b7db, %adnews2b7ng, %adnews2b7nbt, %adnews2b7eW, %adnews2b7eb, %adnews2b7pW, %adnews2b7pb, %adnews2b7lg, %adnews2b8dW, %adnews2b8db, %adnews2b8ng, %adnews2b8nbt, %adnews2b8eW, %adnews2b8eb, %adnews2b8pW, %adnews2b8pb, %adnews2b8lg, %adnewd2ng, %adnewd2nbt, %adnewd2W, %adnewd2b, %adnews3b0dW, %adnews3b0db, %adnews3b0ng, %adnews3b0nbt, %adnews3b0eW, %adnews3b0eb, %adnews3b0pW, %adnews3b0pb, %adnews3b0lg, %adnews3b1dW, %adnews3b1db, %adnews3b1ng, %adnews3b1nbt, %adnews3b1eW, %adnews3b1eb, %adnews3b1pW, %adnews3b1pb, %adnews3b1lg, %adnews3b2dW, %adnews3b2db, %adnews3b2ng, %adnews3b2nbt, %adnews3b2eW, %adnews3b2eb, %adnews3b2pW, %adnews3b2pb, %adnews3b2lg, %adnewhng, %adnewhnbt, %adnewWd, %adnewbd, %admnpsW, %admnpsb, %admns0b0dW, %admns0b0db, %admns0b0ng, %admns0b0nbt, %admns0b0eW, %admns0b0eb, %admns0b0pW, %admns0b0pb, %admns0b0lg, %admns0b1dW, %admns0b1db, %admns0b1ng, %admns0b1nbt, %admns0b1eW, %admns0b1eb, %admns0b1pW, %admns0b1pb, %admns0b1lg, %admns0b2dW, %admns0b2db, %admns0b2ng, %admns0b2nbt, %admns0b2eW, %admns0b2eb, %admns0b2pW, %admns0b2pb, %admns0b2lg, %admnd0ng, %admnd0nbt, %admnd0W, %admnd0b, %admns1b0dW, %admns1b0db, %admns1b0ng, %admns1b0nbt, %admns1b0eW, %admns1b0eb, %admns1b0pW, %admns1b0pb, %admns1b0lg, %admns1b1dW, %admns1b1db, %admns1b1ng, %admns1b1nbt, %admns1b1eW, %admns1b1eb, %admns1b1pW, %admns1b1pb, %admns1b1lg, %admns1b2dW, %admns1b2db, %admns1b2ng, %admns1b2nbt, %admns1b2eW, %admns1b2eb, %admns1b2pW, %admns1b2pb, %admns1b2lg, %admnd1ng, %admnd1nbt, %admnd1W, %admnd1b, %admns2b0dW, %admns2b0db, %admns2b0ng, %admns2b0nbt, %admns2b0eW, %admns2b0eb, %admns2b0pW, %admns2b0pb, %admns2b0lg, %admns2b1dW, %admns2b1db, %admns2b1ng, %admns2b1nbt, %admns2b1eW, %admns2b1eb, %admns2b1pW, %admns2b1pb, %admns2b1lg, %admns2b2dW, %admns2b2db, %admns2b2ng, %admns2b2nbt, %admns2b2eW, %admns2b2eb, %admns2b2pW, %admns2b2pb, %admns2b2lg, %admns2b3dW, %admns2b3db, %admns2b3ng, %admns2b3nbt, %admns2b3eW, %admns2b3eb, %admns2b3pW, %admns2b3pb, %admns2b3lg, %admns2b4dW, %admns2b4db, %admns2b4ng, %admns2b4nbt, %admns2b4eW, %admns2b4eb, %admns2b4pW, %admns2b4pb, %admns2b4lg, %admns2b5dW, %admns2b5db, %admns2b5ng, %admns2b5nbt, %admns2b5eW, %admns2b5eb, %admns2b5pW, %admns2b5pb, %admns2b5lg, %admns2b6dW, %admns2b6db, %admns2b6ng, %admns2b6nbt, %admns2b6eW, %admns2b6eb, %admns2b6pW, %admns2b6pb, %admns2b6lg, %admns2b7dW, %admns2b7db, %admns2b7ng, %admns2b7nbt, %admns2b7eW, %admns2b7eb, %admns2b7pW, %admns2b7pb, %admns2b7lg, %admns2b8dW, %admns2b8db, %admns2b8ng, %admns2b8nbt, %admns2b8eW, %admns2b8eb, %admns2b8pW, %admns2b8pb, %admns2b8lg, %admnd2ng, %admnd2nbt, %admnd2W, %admnd2b, %admns3b0dW, %admns3b0db, %admns3b0ng, %admns3b0nbt, %admns3b0eW, %admns3b0eb, %admns3b0pW, %admns3b0pb, %admns3b0lg, %admns3b1dW, %admns3b1db, %admns3b1ng, %admns3b1nbt, %admns3b1eW, %admns3b1eb, %admns3b1pW, %admns3b1pb, %admns3b1lg, %admns3b2dW, %admns3b2db, %admns3b2ng, %admns3b2nbt, %admns3b2eW, %admns3b2eb, %admns3b2pW, %admns3b2pb, %admns3b2lg, %admnhng, %admnhnbt, %admnWd, %admnbd, %advnpsW, %advnpsb, %advns0b0dW, %advns0b0db, %advns0b0ng, %advns0b0nbt, %advns0b0eW, %advns0b0eb, %advns0b0pW, %advns0b0pb, %advns0b0lg, %advns0b1dW, %advns0b1db, %advns0b1ng, %advns0b1nbt, %advns0b1eW, %advns0b1eb, %advns0b1pW, %advns0b1pb, %advns0b1lg, %advns0b2dW, %advns0b2db, %advns0b2ng, %advns0b2nbt, %advns0b2eW, %advns0b2eb, %advns0b2pW, %advns0b2pb, %advns0b2lg, %advnd0ng, %advnd0nbt, %advnd0W, %advnd0b, %advns1b0dW, %advns1b0db, %advns1b0ng, %advns1b0nbt, %advns1b0eW, %advns1b0eb, %advns1b0pW, %advns1b0pb, %advns1b0lg, %advns1b1dW, %advns1b1db, %advns1b1ng, %advns1b1nbt, %advns1b1eW, %advns1b1eb, %advns1b1pW, %advns1b1pb, %advns1b1lg, %advns1b2dW, %advns1b2db, %advns1b2ng, %advns1b2nbt, %advns1b2eW, %advns1b2eb, %advns1b2pW, %advns1b2pb, %advns1b2lg, %advnd1ng, %advnd1nbt, %advnd1W, %advnd1b, %advns2b0dW, %advns2b0db, %advns2b0ng, %advns2b0nbt, %advns2b0eW, %advns2b0eb, %advns2b0pW, %advns2b0pb, %advns2b0lg, %advns2b1dW, %advns2b1db, %advns2b1ng, %advns2b1nbt, %advns2b1eW, %advns2b1eb, %advns2b1pW, %advns2b1pb, %advns2b1lg, %advns2b2dW, %advns2b2db, %advns2b2ng, %advns2b2nbt, %advns2b2eW, %advns2b2eb, %advns2b2pW, %advns2b2pb, %advns2b2lg, %advns2b3dW, %advns2b3db, %advns2b3ng, %advns2b3nbt, %advns2b3eW, %advns2b3eb, %advns2b3pW, %advns2b3pb, %advns2b3lg, %advns2b4dW, %advns2b4db, %advns2b4ng, %advns2b4nbt, %advns2b4eW, %advns2b4eb, %advns2b4pW, %advns2b4pb, %advns2b4lg, %advns2b5dW, %advns2b5db, %advns2b5ng, %advns2b5nbt, %advns2b5eW, %advns2b5eb, %advns2b5pW, %advns2b5pb, %advns2b5lg, %advns2b6dW, %advns2b6db, %advns2b6ng, %advns2b6nbt, %advns2b6eW, %advns2b6eb, %advns2b6pW, %advns2b6pb, %advns2b6lg, %advns2b7dW, %advns2b7db, %advns2b7ng, %advns2b7nbt, %advns2b7eW, %advns2b7eb, %advns2b7pW, %advns2b7pb, %advns2b7lg, %advns2b8dW, %advns2b8db, %advns2b8ng, %advns2b8nbt, %advns2b8eW, %advns2b8eb, %advns2b8pW, %advns2b8pb, %advns2b8lg, %advnd2ng, %advnd2nbt, %advnd2W, %advnd2b, %advns3b0dW, %advns3b0db, %advns3b0ng, %advns3b0nbt, %advns3b0eW, %advns3b0eb, %advns3b0pW, %advns3b0pb, %advns3b0lg, %advns3b1dW, %advns3b1db, %advns3b1ng, %advns3b1nbt, %advns3b1eW, %advns3b1eb, %advns3b1pW, %advns3b1pb, %advns3b1lg, %advns3b2dW, %advns3b2db, %advns3b2ng, %advns3b2nbt, %advns3b2eW, %advns3b2eb, %advns3b2pW, %advns3b2pb, %advns3b2lg, %advnhng, %advnhnbt, %advnWd, %advnbd, %loss, %bc1, %bc2 : tensor<96x3x4x4xf32>, tensor<96xf32>, tensor<96x1x7x7xf32>, tensor<96xf32>, tensor<f32>, tensor<f32>, tensor<384x96x1x1xf32>, tensor<384xf32>, tensor<96x384x1x1xf32>, tensor<96xf32>, tensor<96xf32>, tensor<96x1x7x7xf32>, tensor<96xf32>, tensor<f32>, tensor<f32>, tensor<384x96x1x1xf32>, tensor<384xf32>, tensor<96x384x1x1xf32>, tensor<96xf32>, tensor<96xf32>, tensor<96x1x7x7xf32>, tensor<96xf32>, tensor<f32>, tensor<f32>, tensor<384x96x1x1xf32>, tensor<384xf32>, tensor<96x384x1x1xf32>, tensor<96xf32>, tensor<96xf32>, tensor<f32>, tensor<f32>, tensor<192x96x2x2xf32>, tensor<192xf32>, tensor<192x1x7x7xf32>, tensor<192xf32>, tensor<f32>, tensor<f32>, tensor<768x192x1x1xf32>, tensor<768xf32>, tensor<192x768x1x1xf32>, tensor<192xf32>, tensor<192xf32>, tensor<192x1x7x7xf32>, tensor<192xf32>, tensor<f32>, tensor<f32>, tensor<768x192x1x1xf32>, tensor<768xf32>, tensor<192x768x1x1xf32>, tensor<192xf32>, tensor<192xf32>, tensor<192x1x7x7xf32>, tensor<192xf32>, tensor<f32>, tensor<f32>, tensor<768x192x1x1xf32>, tensor<768xf32>, tensor<192x768x1x1xf32>, tensor<192xf32>, tensor<192xf32>, tensor<f32>, tensor<f32>, tensor<384x192x2x2xf32>, tensor<384xf32>, tensor<384x1x7x7xf32>, tensor<384xf32>, tensor<f32>, tensor<f32>, tensor<1536x384x1x1xf32>, tensor<1536xf32>, tensor<384x1536x1x1xf32>, tensor<384xf32>, tensor<384xf32>, tensor<384x1x7x7xf32>, tensor<384xf32>, tensor<f32>, tensor<f32>, tensor<1536x384x1x1xf32>, tensor<1536xf32>, tensor<384x1536x1x1xf32>, tensor<384xf32>, tensor<384xf32>, tensor<384x1x7x7xf32>, tensor<384xf32>, tensor<f32>, tensor<f32>, tensor<1536x384x1x1xf32>, tensor<1536xf32>, tensor<384x1536x1x1xf32>, tensor<384xf32>, tensor<384xf32>, tensor<384x1x7x7xf32>, tensor<384xf32>, tensor<f32>, tensor<f32>, tensor<1536x384x1x1xf32>, tensor<1536xf32>, tensor<384x1536x1x1xf32>, tensor<384xf32>, tensor<384xf32>, tensor<384x1x7x7xf32>, tensor<384xf32>, tensor<f32>, tensor<f32>, tensor<1536x384x1x1xf32>, tensor<1536xf32>, tensor<384x1536x1x1xf32>, tensor<384xf32>, tensor<384xf32>, tensor<384x1x7x7xf32>, tensor<384xf32>, tensor<f32>, tensor<f32>, tensor<1536x384x1x1xf32>, tensor<1536xf32>, tensor<384x1536x1x1xf32>, tensor<384xf32>, tensor<384xf32>, tensor<384x1x7x7xf32>, tensor<384xf32>, tensor<f32>, tensor<f32>, tensor<1536x384x1x1xf32>, tensor<1536xf32>, tensor<384x1536x1x1xf32>, tensor<384xf32>, tensor<384xf32>, tensor<384x1x7x7xf32>, tensor<384xf32>, tensor<f32>, tensor<f32>, tensor<1536x384x1x1xf32>, tensor<1536xf32>, tensor<384x1536x1x1xf32>, tensor<384xf32>, tensor<384xf32>, tensor<384x1x7x7xf32>, tensor<384xf32>, tensor<f32>, tensor<f32>, tensor<1536x384x1x1xf32>, tensor<1536xf32>, tensor<384x1536x1x1xf32>, tensor<384xf32>, tensor<384xf32>, tensor<f32>, tensor<f32>, tensor<768x384x2x2xf32>, tensor<768xf32>, tensor<768x1x7x7xf32>, tensor<768xf32>, tensor<f32>, tensor<f32>, tensor<3072x768x1x1xf32>, tensor<3072xf32>, tensor<768x3072x1x1xf32>, tensor<768xf32>, tensor<768xf32>, tensor<768x1x7x7xf32>, tensor<768xf32>, tensor<f32>, tensor<f32>, tensor<3072x768x1x1xf32>, tensor<3072xf32>, tensor<768x3072x1x1xf32>, tensor<768xf32>, tensor<768xf32>, tensor<768x1x7x7xf32>, tensor<768xf32>, tensor<f32>, tensor<f32>, tensor<3072x768x1x1xf32>, tensor<3072xf32>, tensor<768x3072x1x1xf32>, tensor<768xf32>, tensor<768xf32>, tensor<f32>, tensor<f32>, tensor<768x10xf32>, tensor<10xf32>, tensor<96x3x4x4xf32>, tensor<96xf32>, tensor<96x1x7x7xf32>, tensor<96xf32>, tensor<f32>, tensor<f32>, tensor<384x96x1x1xf32>, tensor<384xf32>, tensor<96x384x1x1xf32>, tensor<96xf32>, tensor<96xf32>, tensor<96x1x7x7xf32>, tensor<96xf32>, tensor<f32>, tensor<f32>, tensor<384x96x1x1xf32>, tensor<384xf32>, tensor<96x384x1x1xf32>, tensor<96xf32>, tensor<96xf32>, tensor<96x1x7x7xf32>, tensor<96xf32>, tensor<f32>, tensor<f32>, tensor<384x96x1x1xf32>, tensor<384xf32>, tensor<96x384x1x1xf32>, tensor<96xf32>, tensor<96xf32>, tensor<f32>, tensor<f32>, tensor<192x96x2x2xf32>, tensor<192xf32>, tensor<192x1x7x7xf32>, tensor<192xf32>, tensor<f32>, tensor<f32>, tensor<768x192x1x1xf32>, tensor<768xf32>, tensor<192x768x1x1xf32>, tensor<192xf32>, tensor<192xf32>, tensor<192x1x7x7xf32>, tensor<192xf32>, tensor<f32>, tensor<f32>, tensor<768x192x1x1xf32>, tensor<768xf32>, tensor<192x768x1x1xf32>, tensor<192xf32>, tensor<192xf32>, tensor<192x1x7x7xf32>, tensor<192xf32>, tensor<f32>, tensor<f32>, tensor<768x192x1x1xf32>, tensor<768xf32>, tensor<192x768x1x1xf32>, tensor<192xf32>, tensor<192xf32>, tensor<f32>, tensor<f32>, tensor<384x192x2x2xf32>, tensor<384xf32>, tensor<384x1x7x7xf32>, tensor<384xf32>, tensor<f32>, tensor<f32>, tensor<1536x384x1x1xf32>, tensor<1536xf32>, tensor<384x1536x1x1xf32>, tensor<384xf32>, tensor<384xf32>, tensor<384x1x7x7xf32>, tensor<384xf32>, tensor<f32>, tensor<f32>, tensor<1536x384x1x1xf32>, tensor<1536xf32>, tensor<384x1536x1x1xf32>, tensor<384xf32>, tensor<384xf32>, tensor<384x1x7x7xf32>, tensor<384xf32>, tensor<f32>, tensor<f32>, tensor<1536x384x1x1xf32>, tensor<1536xf32>, tensor<384x1536x1x1xf32>, tensor<384xf32>, tensor<384xf32>, tensor<384x1x7x7xf32>, tensor<384xf32>, tensor<f32>, tensor<f32>, tensor<1536x384x1x1xf32>, tensor<1536xf32>, tensor<384x1536x1x1xf32>, tensor<384xf32>, tensor<384xf32>, tensor<384x1x7x7xf32>, tensor<384xf32>, tensor<f32>, tensor<f32>, tensor<1536x384x1x1xf32>, tensor<1536xf32>, tensor<384x1536x1x1xf32>, tensor<384xf32>, tensor<384xf32>, tensor<384x1x7x7xf32>, tensor<384xf32>, tensor<f32>, tensor<f32>, tensor<1536x384x1x1xf32>, tensor<1536xf32>, tensor<384x1536x1x1xf32>, tensor<384xf32>, tensor<384xf32>, tensor<384x1x7x7xf32>, tensor<384xf32>, tensor<f32>, tensor<f32>, tensor<1536x384x1x1xf32>, tensor<1536xf32>, tensor<384x1536x1x1xf32>, tensor<384xf32>, tensor<384xf32>, tensor<384x1x7x7xf32>, tensor<384xf32>, tensor<f32>, tensor<f32>, tensor<1536x384x1x1xf32>, tensor<1536xf32>, tensor<384x1536x1x1xf32>, tensor<384xf32>, tensor<384xf32>, tensor<384x1x7x7xf32>, tensor<384xf32>, tensor<f32>, tensor<f32>, tensor<1536x384x1x1xf32>, tensor<1536xf32>, tensor<384x1536x1x1xf32>, tensor<384xf32>, tensor<384xf32>, tensor<f32>, tensor<f32>, tensor<768x384x2x2xf32>, tensor<768xf32>, tensor<768x1x7x7xf32>, tensor<768xf32>, tensor<f32>, tensor<f32>, tensor<3072x768x1x1xf32>, tensor<3072xf32>, tensor<768x3072x1x1xf32>, tensor<768xf32>, tensor<768xf32>, tensor<768x1x7x7xf32>, tensor<768xf32>, tensor<f32>, tensor<f32>, tensor<3072x768x1x1xf32>, tensor<3072xf32>, tensor<768x3072x1x1xf32>, tensor<768xf32>, tensor<768xf32>, tensor<768x1x7x7xf32>, tensor<768xf32>, tensor<f32>, tensor<f32>, tensor<3072x768x1x1xf32>, tensor<3072xf32>, tensor<768x3072x1x1xf32>, tensor<768xf32>, tensor<768xf32>, tensor<f32>, tensor<f32>, tensor<768x10xf32>, tensor<10xf32>, tensor<96x3x4x4xf32>, tensor<96xf32>, tensor<96x1x7x7xf32>, tensor<96xf32>, tensor<f32>, tensor<f32>, tensor<384x96x1x1xf32>, tensor<384xf32>, tensor<96x384x1x1xf32>, tensor<96xf32>, tensor<96xf32>, tensor<96x1x7x7xf32>, tensor<96xf32>, tensor<f32>, tensor<f32>, tensor<384x96x1x1xf32>, tensor<384xf32>, tensor<96x384x1x1xf32>, tensor<96xf32>, tensor<96xf32>, tensor<96x1x7x7xf32>, tensor<96xf32>, tensor<f32>, tensor<f32>, tensor<384x96x1x1xf32>, tensor<384xf32>, tensor<96x384x1x1xf32>, tensor<96xf32>, tensor<96xf32>, tensor<f32>, tensor<f32>, tensor<192x96x2x2xf32>, tensor<192xf32>, tensor<192x1x7x7xf32>, tensor<192xf32>, tensor<f32>, tensor<f32>, tensor<768x192x1x1xf32>, tensor<768xf32>, tensor<192x768x1x1xf32>, tensor<192xf32>, tensor<192xf32>, tensor<192x1x7x7xf32>, tensor<192xf32>, tensor<f32>, tensor<f32>, tensor<768x192x1x1xf32>, tensor<768xf32>, tensor<192x768x1x1xf32>, tensor<192xf32>, tensor<192xf32>, tensor<192x1x7x7xf32>, tensor<192xf32>, tensor<f32>, tensor<f32>, tensor<768x192x1x1xf32>, tensor<768xf32>, tensor<192x768x1x1xf32>, tensor<192xf32>, tensor<192xf32>, tensor<f32>, tensor<f32>, tensor<384x192x2x2xf32>, tensor<384xf32>, tensor<384x1x7x7xf32>, tensor<384xf32>, tensor<f32>, tensor<f32>, tensor<1536x384x1x1xf32>, tensor<1536xf32>, tensor<384x1536x1x1xf32>, tensor<384xf32>, tensor<384xf32>, tensor<384x1x7x7xf32>, tensor<384xf32>, tensor<f32>, tensor<f32>, tensor<1536x384x1x1xf32>, tensor<1536xf32>, tensor<384x1536x1x1xf32>, tensor<384xf32>, tensor<384xf32>, tensor<384x1x7x7xf32>, tensor<384xf32>, tensor<f32>, tensor<f32>, tensor<1536x384x1x1xf32>, tensor<1536xf32>, tensor<384x1536x1x1xf32>, tensor<384xf32>, tensor<384xf32>, tensor<384x1x7x7xf32>, tensor<384xf32>, tensor<f32>, tensor<f32>, tensor<1536x384x1x1xf32>, tensor<1536xf32>, tensor<384x1536x1x1xf32>, tensor<384xf32>, tensor<384xf32>, tensor<384x1x7x7xf32>, tensor<384xf32>, tensor<f32>, tensor<f32>, tensor<1536x384x1x1xf32>, tensor<1536xf32>, tensor<384x1536x1x1xf32>, tensor<384xf32>, tensor<384xf32>, tensor<384x1x7x7xf32>, tensor<384xf32>, tensor<f32>, tensor<f32>, tensor<1536x384x1x1xf32>, tensor<1536xf32>, tensor<384x1536x1x1xf32>, tensor<384xf32>, tensor<384xf32>, tensor<384x1x7x7xf32>, tensor<384xf32>, tensor<f32>, tensor<f32>, tensor<1536x384x1x1xf32>, tensor<1536xf32>, tensor<384x1536x1x1xf32>, tensor<384xf32>, tensor<384xf32>, tensor<384x1x7x7xf32>, tensor<384xf32>, tensor<f32>, tensor<f32>, tensor<1536x384x1x1xf32>, tensor<1536xf32>, tensor<384x1536x1x1xf32>, tensor<384xf32>, tensor<384xf32>, tensor<384x1x7x7xf32>, tensor<384xf32>, tensor<f32>, tensor<f32>, tensor<1536x384x1x1xf32>, tensor<1536xf32>, tensor<384x1536x1x1xf32>, tensor<384xf32>, tensor<384xf32>, tensor<f32>, tensor<f32>, tensor<768x384x2x2xf32>, tensor<768xf32>, tensor<768x1x7x7xf32>, tensor<768xf32>, tensor<f32>, tensor<f32>, tensor<3072x768x1x1xf32>, tensor<3072xf32>, tensor<768x3072x1x1xf32>, tensor<768xf32>, tensor<768xf32>, tensor<768x1x7x7xf32>, tensor<768xf32>, tensor<f32>, tensor<f32>, tensor<3072x768x1x1xf32>, tensor<3072xf32>, tensor<768x3072x1x1xf32>, tensor<768xf32>, tensor<768xf32>, tensor<768x1x7x7xf32>, tensor<768xf32>, tensor<f32>, tensor<f32>, tensor<3072x768x1x1xf32>, tensor<3072xf32>, tensor<768x3072x1x1xf32>, tensor<768xf32>, tensor<768xf32>, tensor<f32>, tensor<f32>, tensor<768x10xf32>, tensor<10xf32>, tensor<f32>, tensor<f32>, tensor<f32>
  }
}
