module @m {
  func.func @efficientnet_adam_train_step(%x: tensor<32x150528xf32>, %sW: tensor<32x3x3x3xf32>, %sb: tensor<32xf32>, %sg: tensor<32xf32>, %sbt: tensor<32xf32>, %b1dW: tensor<32x1x3x3xf32>, %b1db: tensor<32xf32>, %b1dg: tensor<32xf32>, %b1dbt: tensor<32xf32>, %b1zW1: tensor<32x8xf32>, %b1zb1: tensor<8xf32>, %b1zW2: tensor<8x32xf32>, %b1zb2: tensor<32xf32>, %b1pW: tensor<16x32x1x1xf32>, %b1pb: tensor<16xf32>, %b1pg: tensor<16xf32>, %b1pbt: tensor<16xf32>, %b2eW: tensor<96x16x1x1xf32>, %b2eb: tensor<96xf32>, %b2eg: tensor<96xf32>, %b2ebt: tensor<96xf32>, %b2dW: tensor<96x1x3x3xf32>, %b2db: tensor<96xf32>, %b2dg: tensor<96xf32>, %b2dbt: tensor<96xf32>, %b2zW1: tensor<96x4xf32>, %b2zb1: tensor<4xf32>, %b2zW2: tensor<4x96xf32>, %b2zb2: tensor<96xf32>, %b2pW: tensor<24x96x1x1xf32>, %b2pb: tensor<24xf32>, %b2pg: tensor<24xf32>, %b2pbt: tensor<24xf32>, %b3eW: tensor<144x24x1x1xf32>, %b3eb: tensor<144xf32>, %b3eg: tensor<144xf32>, %b3ebt: tensor<144xf32>, %b3dW: tensor<144x1x3x3xf32>, %b3db: tensor<144xf32>, %b3dg: tensor<144xf32>, %b3dbt: tensor<144xf32>, %b3zW1: tensor<144x6xf32>, %b3zb1: tensor<6xf32>, %b3zW2: tensor<6x144xf32>, %b3zb2: tensor<144xf32>, %b3pW: tensor<24x144x1x1xf32>, %b3pb: tensor<24xf32>, %b3pg: tensor<24xf32>, %b3pbt: tensor<24xf32>, %b4eW: tensor<144x24x1x1xf32>, %b4eb: tensor<144xf32>, %b4eg: tensor<144xf32>, %b4ebt: tensor<144xf32>, %b4dW: tensor<144x1x5x5xf32>, %b4db: tensor<144xf32>, %b4dg: tensor<144xf32>, %b4dbt: tensor<144xf32>, %b4zW1: tensor<144x6xf32>, %b4zb1: tensor<6xf32>, %b4zW2: tensor<6x144xf32>, %b4zb2: tensor<144xf32>, %b4pW: tensor<40x144x1x1xf32>, %b4pb: tensor<40xf32>, %b4pg: tensor<40xf32>, %b4pbt: tensor<40xf32>, %b5eW: tensor<240x40x1x1xf32>, %b5eb: tensor<240xf32>, %b5eg: tensor<240xf32>, %b5ebt: tensor<240xf32>, %b5dW: tensor<240x1x5x5xf32>, %b5db: tensor<240xf32>, %b5dg: tensor<240xf32>, %b5dbt: tensor<240xf32>, %b5zW1: tensor<240x10xf32>, %b5zb1: tensor<10xf32>, %b5zW2: tensor<10x240xf32>, %b5zb2: tensor<240xf32>, %b5pW: tensor<40x240x1x1xf32>, %b5pb: tensor<40xf32>, %b5pg: tensor<40xf32>, %b5pbt: tensor<40xf32>, %b6eW: tensor<240x40x1x1xf32>, %b6eb: tensor<240xf32>, %b6eg: tensor<240xf32>, %b6ebt: tensor<240xf32>, %b6dW: tensor<240x1x3x3xf32>, %b6db: tensor<240xf32>, %b6dg: tensor<240xf32>, %b6dbt: tensor<240xf32>, %b6zW1: tensor<240x10xf32>, %b6zb1: tensor<10xf32>, %b6zW2: tensor<10x240xf32>, %b6zb2: tensor<240xf32>, %b6pW: tensor<80x240x1x1xf32>, %b6pb: tensor<80xf32>, %b6pg: tensor<80xf32>, %b6pbt: tensor<80xf32>, %b7eW: tensor<480x80x1x1xf32>, %b7eb: tensor<480xf32>, %b7eg: tensor<480xf32>, %b7ebt: tensor<480xf32>, %b7dW: tensor<480x1x3x3xf32>, %b7db: tensor<480xf32>, %b7dg: tensor<480xf32>, %b7dbt: tensor<480xf32>, %b7zW1: tensor<480x20xf32>, %b7zb1: tensor<20xf32>, %b7zW2: tensor<20x480xf32>, %b7zb2: tensor<480xf32>, %b7pW: tensor<80x480x1x1xf32>, %b7pb: tensor<80xf32>, %b7pg: tensor<80xf32>, %b7pbt: tensor<80xf32>, %b8eW: tensor<480x80x1x1xf32>, %b8eb: tensor<480xf32>, %b8eg: tensor<480xf32>, %b8ebt: tensor<480xf32>, %b8dW: tensor<480x1x3x3xf32>, %b8db: tensor<480xf32>, %b8dg: tensor<480xf32>, %b8dbt: tensor<480xf32>, %b8zW1: tensor<480x20xf32>, %b8zb1: tensor<20xf32>, %b8zW2: tensor<20x480xf32>, %b8zb2: tensor<480xf32>, %b8pW: tensor<80x480x1x1xf32>, %b8pb: tensor<80xf32>, %b8pg: tensor<80xf32>, %b8pbt: tensor<80xf32>, %b9eW: tensor<480x80x1x1xf32>, %b9eb: tensor<480xf32>, %b9eg: tensor<480xf32>, %b9ebt: tensor<480xf32>, %b9dW: tensor<480x1x5x5xf32>, %b9db: tensor<480xf32>, %b9dg: tensor<480xf32>, %b9dbt: tensor<480xf32>, %b9zW1: tensor<480x20xf32>, %b9zb1: tensor<20xf32>, %b9zW2: tensor<20x480xf32>, %b9zb2: tensor<480xf32>, %b9pW: tensor<112x480x1x1xf32>, %b9pb: tensor<112xf32>, %b9pg: tensor<112xf32>, %b9pbt: tensor<112xf32>, %b10eW: tensor<672x112x1x1xf32>, %b10eb: tensor<672xf32>, %b10eg: tensor<672xf32>, %b10ebt: tensor<672xf32>, %b10dW: tensor<672x1x5x5xf32>, %b10db: tensor<672xf32>, %b10dg: tensor<672xf32>, %b10dbt: tensor<672xf32>, %b10zW1: tensor<672x28xf32>, %b10zb1: tensor<28xf32>, %b10zW2: tensor<28x672xf32>, %b10zb2: tensor<672xf32>, %b10pW: tensor<112x672x1x1xf32>, %b10pb: tensor<112xf32>, %b10pg: tensor<112xf32>, %b10pbt: tensor<112xf32>, %b11eW: tensor<672x112x1x1xf32>, %b11eb: tensor<672xf32>, %b11eg: tensor<672xf32>, %b11ebt: tensor<672xf32>, %b11dW: tensor<672x1x5x5xf32>, %b11db: tensor<672xf32>, %b11dg: tensor<672xf32>, %b11dbt: tensor<672xf32>, %b11zW1: tensor<672x28xf32>, %b11zb1: tensor<28xf32>, %b11zW2: tensor<28x672xf32>, %b11zb2: tensor<672xf32>, %b11pW: tensor<112x672x1x1xf32>, %b11pb: tensor<112xf32>, %b11pg: tensor<112xf32>, %b11pbt: tensor<112xf32>, %b12eW: tensor<672x112x1x1xf32>, %b12eb: tensor<672xf32>, %b12eg: tensor<672xf32>, %b12ebt: tensor<672xf32>, %b12dW: tensor<672x1x5x5xf32>, %b12db: tensor<672xf32>, %b12dg: tensor<672xf32>, %b12dbt: tensor<672xf32>, %b12zW1: tensor<672x28xf32>, %b12zb1: tensor<28xf32>, %b12zW2: tensor<28x672xf32>, %b12zb2: tensor<672xf32>, %b12pW: tensor<192x672x1x1xf32>, %b12pb: tensor<192xf32>, %b12pg: tensor<192xf32>, %b12pbt: tensor<192xf32>, %b13eW: tensor<1152x192x1x1xf32>, %b13eb: tensor<1152xf32>, %b13eg: tensor<1152xf32>, %b13ebt: tensor<1152xf32>, %b13dW: tensor<1152x1x5x5xf32>, %b13db: tensor<1152xf32>, %b13dg: tensor<1152xf32>, %b13dbt: tensor<1152xf32>, %b13zW1: tensor<1152x48xf32>, %b13zb1: tensor<48xf32>, %b13zW2: tensor<48x1152xf32>, %b13zb2: tensor<1152xf32>, %b13pW: tensor<192x1152x1x1xf32>, %b13pb: tensor<192xf32>, %b13pg: tensor<192xf32>, %b13pbt: tensor<192xf32>, %b14eW: tensor<1152x192x1x1xf32>, %b14eb: tensor<1152xf32>, %b14eg: tensor<1152xf32>, %b14ebt: tensor<1152xf32>, %b14dW: tensor<1152x1x5x5xf32>, %b14db: tensor<1152xf32>, %b14dg: tensor<1152xf32>, %b14dbt: tensor<1152xf32>, %b14zW1: tensor<1152x48xf32>, %b14zb1: tensor<48xf32>, %b14zW2: tensor<48x1152xf32>, %b14zb2: tensor<1152xf32>, %b14pW: tensor<192x1152x1x1xf32>, %b14pb: tensor<192xf32>, %b14pg: tensor<192xf32>, %b14pbt: tensor<192xf32>, %b15eW: tensor<1152x192x1x1xf32>, %b15eb: tensor<1152xf32>, %b15eg: tensor<1152xf32>, %b15ebt: tensor<1152xf32>, %b15dW: tensor<1152x1x5x5xf32>, %b15db: tensor<1152xf32>, %b15dg: tensor<1152xf32>, %b15dbt: tensor<1152xf32>, %b15zW1: tensor<1152x48xf32>, %b15zb1: tensor<48xf32>, %b15zW2: tensor<48x1152xf32>, %b15zb2: tensor<1152xf32>, %b15pW: tensor<192x1152x1x1xf32>, %b15pb: tensor<192xf32>, %b15pg: tensor<192xf32>, %b15pbt: tensor<192xf32>, %b16eW: tensor<1152x192x1x1xf32>, %b16eb: tensor<1152xf32>, %b16eg: tensor<1152xf32>, %b16ebt: tensor<1152xf32>, %b16dW: tensor<1152x1x3x3xf32>, %b16db: tensor<1152xf32>, %b16dg: tensor<1152xf32>, %b16dbt: tensor<1152xf32>, %b16zW1: tensor<1152x48xf32>, %b16zb1: tensor<48xf32>, %b16zW2: tensor<48x1152xf32>, %b16zb2: tensor<1152xf32>, %b16pW: tensor<320x1152x1x1xf32>, %b16pb: tensor<320xf32>, %b16pg: tensor<320xf32>, %b16pbt: tensor<320xf32>, %hW: tensor<1280x320x1x1xf32>, %hb: tensor<1280xf32>, %hg: tensor<1280xf32>, %hbt: tensor<1280xf32>, %Wd: tensor<1280x10xf32>, %bd: tensor<10xf32>, %sWm: tensor<32x3x3x3xf32>, %sbm: tensor<32xf32>, %sgm: tensor<32xf32>, %sbtm: tensor<32xf32>, %b1dWm: tensor<32x1x3x3xf32>, %b1dbm: tensor<32xf32>, %b1dgm: tensor<32xf32>, %b1dbtm: tensor<32xf32>, %b1zW1m: tensor<32x8xf32>, %b1zb1m: tensor<8xf32>, %b1zW2m: tensor<8x32xf32>, %b1zb2m: tensor<32xf32>, %b1pWm: tensor<16x32x1x1xf32>, %b1pbm: tensor<16xf32>, %b1pgm: tensor<16xf32>, %b1pbtm: tensor<16xf32>, %b2eWm: tensor<96x16x1x1xf32>, %b2ebm: tensor<96xf32>, %b2egm: tensor<96xf32>, %b2ebtm: tensor<96xf32>, %b2dWm: tensor<96x1x3x3xf32>, %b2dbm: tensor<96xf32>, %b2dgm: tensor<96xf32>, %b2dbtm: tensor<96xf32>, %b2zW1m: tensor<96x4xf32>, %b2zb1m: tensor<4xf32>, %b2zW2m: tensor<4x96xf32>, %b2zb2m: tensor<96xf32>, %b2pWm: tensor<24x96x1x1xf32>, %b2pbm: tensor<24xf32>, %b2pgm: tensor<24xf32>, %b2pbtm: tensor<24xf32>, %b3eWm: tensor<144x24x1x1xf32>, %b3ebm: tensor<144xf32>, %b3egm: tensor<144xf32>, %b3ebtm: tensor<144xf32>, %b3dWm: tensor<144x1x3x3xf32>, %b3dbm: tensor<144xf32>, %b3dgm: tensor<144xf32>, %b3dbtm: tensor<144xf32>, %b3zW1m: tensor<144x6xf32>, %b3zb1m: tensor<6xf32>, %b3zW2m: tensor<6x144xf32>, %b3zb2m: tensor<144xf32>, %b3pWm: tensor<24x144x1x1xf32>, %b3pbm: tensor<24xf32>, %b3pgm: tensor<24xf32>, %b3pbtm: tensor<24xf32>, %b4eWm: tensor<144x24x1x1xf32>, %b4ebm: tensor<144xf32>, %b4egm: tensor<144xf32>, %b4ebtm: tensor<144xf32>, %b4dWm: tensor<144x1x5x5xf32>, %b4dbm: tensor<144xf32>, %b4dgm: tensor<144xf32>, %b4dbtm: tensor<144xf32>, %b4zW1m: tensor<144x6xf32>, %b4zb1m: tensor<6xf32>, %b4zW2m: tensor<6x144xf32>, %b4zb2m: tensor<144xf32>, %b4pWm: tensor<40x144x1x1xf32>, %b4pbm: tensor<40xf32>, %b4pgm: tensor<40xf32>, %b4pbtm: tensor<40xf32>, %b5eWm: tensor<240x40x1x1xf32>, %b5ebm: tensor<240xf32>, %b5egm: tensor<240xf32>, %b5ebtm: tensor<240xf32>, %b5dWm: tensor<240x1x5x5xf32>, %b5dbm: tensor<240xf32>, %b5dgm: tensor<240xf32>, %b5dbtm: tensor<240xf32>, %b5zW1m: tensor<240x10xf32>, %b5zb1m: tensor<10xf32>, %b5zW2m: tensor<10x240xf32>, %b5zb2m: tensor<240xf32>, %b5pWm: tensor<40x240x1x1xf32>, %b5pbm: tensor<40xf32>, %b5pgm: tensor<40xf32>, %b5pbtm: tensor<40xf32>, %b6eWm: tensor<240x40x1x1xf32>, %b6ebm: tensor<240xf32>, %b6egm: tensor<240xf32>, %b6ebtm: tensor<240xf32>, %b6dWm: tensor<240x1x3x3xf32>, %b6dbm: tensor<240xf32>, %b6dgm: tensor<240xf32>, %b6dbtm: tensor<240xf32>, %b6zW1m: tensor<240x10xf32>, %b6zb1m: tensor<10xf32>, %b6zW2m: tensor<10x240xf32>, %b6zb2m: tensor<240xf32>, %b6pWm: tensor<80x240x1x1xf32>, %b6pbm: tensor<80xf32>, %b6pgm: tensor<80xf32>, %b6pbtm: tensor<80xf32>, %b7eWm: tensor<480x80x1x1xf32>, %b7ebm: tensor<480xf32>, %b7egm: tensor<480xf32>, %b7ebtm: tensor<480xf32>, %b7dWm: tensor<480x1x3x3xf32>, %b7dbm: tensor<480xf32>, %b7dgm: tensor<480xf32>, %b7dbtm: tensor<480xf32>, %b7zW1m: tensor<480x20xf32>, %b7zb1m: tensor<20xf32>, %b7zW2m: tensor<20x480xf32>, %b7zb2m: tensor<480xf32>, %b7pWm: tensor<80x480x1x1xf32>, %b7pbm: tensor<80xf32>, %b7pgm: tensor<80xf32>, %b7pbtm: tensor<80xf32>, %b8eWm: tensor<480x80x1x1xf32>, %b8ebm: tensor<480xf32>, %b8egm: tensor<480xf32>, %b8ebtm: tensor<480xf32>, %b8dWm: tensor<480x1x3x3xf32>, %b8dbm: tensor<480xf32>, %b8dgm: tensor<480xf32>, %b8dbtm: tensor<480xf32>, %b8zW1m: tensor<480x20xf32>, %b8zb1m: tensor<20xf32>, %b8zW2m: tensor<20x480xf32>, %b8zb2m: tensor<480xf32>, %b8pWm: tensor<80x480x1x1xf32>, %b8pbm: tensor<80xf32>, %b8pgm: tensor<80xf32>, %b8pbtm: tensor<80xf32>, %b9eWm: tensor<480x80x1x1xf32>, %b9ebm: tensor<480xf32>, %b9egm: tensor<480xf32>, %b9ebtm: tensor<480xf32>, %b9dWm: tensor<480x1x5x5xf32>, %b9dbm: tensor<480xf32>, %b9dgm: tensor<480xf32>, %b9dbtm: tensor<480xf32>, %b9zW1m: tensor<480x20xf32>, %b9zb1m: tensor<20xf32>, %b9zW2m: tensor<20x480xf32>, %b9zb2m: tensor<480xf32>, %b9pWm: tensor<112x480x1x1xf32>, %b9pbm: tensor<112xf32>, %b9pgm: tensor<112xf32>, %b9pbtm: tensor<112xf32>, %b10eWm: tensor<672x112x1x1xf32>, %b10ebm: tensor<672xf32>, %b10egm: tensor<672xf32>, %b10ebtm: tensor<672xf32>, %b10dWm: tensor<672x1x5x5xf32>, %b10dbm: tensor<672xf32>, %b10dgm: tensor<672xf32>, %b10dbtm: tensor<672xf32>, %b10zW1m: tensor<672x28xf32>, %b10zb1m: tensor<28xf32>, %b10zW2m: tensor<28x672xf32>, %b10zb2m: tensor<672xf32>, %b10pWm: tensor<112x672x1x1xf32>, %b10pbm: tensor<112xf32>, %b10pgm: tensor<112xf32>, %b10pbtm: tensor<112xf32>, %b11eWm: tensor<672x112x1x1xf32>, %b11ebm: tensor<672xf32>, %b11egm: tensor<672xf32>, %b11ebtm: tensor<672xf32>, %b11dWm: tensor<672x1x5x5xf32>, %b11dbm: tensor<672xf32>, %b11dgm: tensor<672xf32>, %b11dbtm: tensor<672xf32>, %b11zW1m: tensor<672x28xf32>, %b11zb1m: tensor<28xf32>, %b11zW2m: tensor<28x672xf32>, %b11zb2m: tensor<672xf32>, %b11pWm: tensor<112x672x1x1xf32>, %b11pbm: tensor<112xf32>, %b11pgm: tensor<112xf32>, %b11pbtm: tensor<112xf32>, %b12eWm: tensor<672x112x1x1xf32>, %b12ebm: tensor<672xf32>, %b12egm: tensor<672xf32>, %b12ebtm: tensor<672xf32>, %b12dWm: tensor<672x1x5x5xf32>, %b12dbm: tensor<672xf32>, %b12dgm: tensor<672xf32>, %b12dbtm: tensor<672xf32>, %b12zW1m: tensor<672x28xf32>, %b12zb1m: tensor<28xf32>, %b12zW2m: tensor<28x672xf32>, %b12zb2m: tensor<672xf32>, %b12pWm: tensor<192x672x1x1xf32>, %b12pbm: tensor<192xf32>, %b12pgm: tensor<192xf32>, %b12pbtm: tensor<192xf32>, %b13eWm: tensor<1152x192x1x1xf32>, %b13ebm: tensor<1152xf32>, %b13egm: tensor<1152xf32>, %b13ebtm: tensor<1152xf32>, %b13dWm: tensor<1152x1x5x5xf32>, %b13dbm: tensor<1152xf32>, %b13dgm: tensor<1152xf32>, %b13dbtm: tensor<1152xf32>, %b13zW1m: tensor<1152x48xf32>, %b13zb1m: tensor<48xf32>, %b13zW2m: tensor<48x1152xf32>, %b13zb2m: tensor<1152xf32>, %b13pWm: tensor<192x1152x1x1xf32>, %b13pbm: tensor<192xf32>, %b13pgm: tensor<192xf32>, %b13pbtm: tensor<192xf32>, %b14eWm: tensor<1152x192x1x1xf32>, %b14ebm: tensor<1152xf32>, %b14egm: tensor<1152xf32>, %b14ebtm: tensor<1152xf32>, %b14dWm: tensor<1152x1x5x5xf32>, %b14dbm: tensor<1152xf32>, %b14dgm: tensor<1152xf32>, %b14dbtm: tensor<1152xf32>, %b14zW1m: tensor<1152x48xf32>, %b14zb1m: tensor<48xf32>, %b14zW2m: tensor<48x1152xf32>, %b14zb2m: tensor<1152xf32>, %b14pWm: tensor<192x1152x1x1xf32>, %b14pbm: tensor<192xf32>, %b14pgm: tensor<192xf32>, %b14pbtm: tensor<192xf32>, %b15eWm: tensor<1152x192x1x1xf32>, %b15ebm: tensor<1152xf32>, %b15egm: tensor<1152xf32>, %b15ebtm: tensor<1152xf32>, %b15dWm: tensor<1152x1x5x5xf32>, %b15dbm: tensor<1152xf32>, %b15dgm: tensor<1152xf32>, %b15dbtm: tensor<1152xf32>, %b15zW1m: tensor<1152x48xf32>, %b15zb1m: tensor<48xf32>, %b15zW2m: tensor<48x1152xf32>, %b15zb2m: tensor<1152xf32>, %b15pWm: tensor<192x1152x1x1xf32>, %b15pbm: tensor<192xf32>, %b15pgm: tensor<192xf32>, %b15pbtm: tensor<192xf32>, %b16eWm: tensor<1152x192x1x1xf32>, %b16ebm: tensor<1152xf32>, %b16egm: tensor<1152xf32>, %b16ebtm: tensor<1152xf32>, %b16dWm: tensor<1152x1x3x3xf32>, %b16dbm: tensor<1152xf32>, %b16dgm: tensor<1152xf32>, %b16dbtm: tensor<1152xf32>, %b16zW1m: tensor<1152x48xf32>, %b16zb1m: tensor<48xf32>, %b16zW2m: tensor<48x1152xf32>, %b16zb2m: tensor<1152xf32>, %b16pWm: tensor<320x1152x1x1xf32>, %b16pbm: tensor<320xf32>, %b16pgm: tensor<320xf32>, %b16pbtm: tensor<320xf32>, %hWm: tensor<1280x320x1x1xf32>, %hbm: tensor<1280xf32>, %hgm: tensor<1280xf32>, %hbtm: tensor<1280xf32>, %Wdm: tensor<1280x10xf32>, %bdm: tensor<10xf32>, %sWv: tensor<32x3x3x3xf32>, %sbv: tensor<32xf32>, %sgv: tensor<32xf32>, %sbtv: tensor<32xf32>, %b1dWv: tensor<32x1x3x3xf32>, %b1dbv: tensor<32xf32>, %b1dgv: tensor<32xf32>, %b1dbtv: tensor<32xf32>, %b1zW1v: tensor<32x8xf32>, %b1zb1v: tensor<8xf32>, %b1zW2v: tensor<8x32xf32>, %b1zb2v: tensor<32xf32>, %b1pWv: tensor<16x32x1x1xf32>, %b1pbv: tensor<16xf32>, %b1pgv: tensor<16xf32>, %b1pbtv: tensor<16xf32>, %b2eWv: tensor<96x16x1x1xf32>, %b2ebv: tensor<96xf32>, %b2egv: tensor<96xf32>, %b2ebtv: tensor<96xf32>, %b2dWv: tensor<96x1x3x3xf32>, %b2dbv: tensor<96xf32>, %b2dgv: tensor<96xf32>, %b2dbtv: tensor<96xf32>, %b2zW1v: tensor<96x4xf32>, %b2zb1v: tensor<4xf32>, %b2zW2v: tensor<4x96xf32>, %b2zb2v: tensor<96xf32>, %b2pWv: tensor<24x96x1x1xf32>, %b2pbv: tensor<24xf32>, %b2pgv: tensor<24xf32>, %b2pbtv: tensor<24xf32>, %b3eWv: tensor<144x24x1x1xf32>, %b3ebv: tensor<144xf32>, %b3egv: tensor<144xf32>, %b3ebtv: tensor<144xf32>, %b3dWv: tensor<144x1x3x3xf32>, %b3dbv: tensor<144xf32>, %b3dgv: tensor<144xf32>, %b3dbtv: tensor<144xf32>, %b3zW1v: tensor<144x6xf32>, %b3zb1v: tensor<6xf32>, %b3zW2v: tensor<6x144xf32>, %b3zb2v: tensor<144xf32>, %b3pWv: tensor<24x144x1x1xf32>, %b3pbv: tensor<24xf32>, %b3pgv: tensor<24xf32>, %b3pbtv: tensor<24xf32>, %b4eWv: tensor<144x24x1x1xf32>, %b4ebv: tensor<144xf32>, %b4egv: tensor<144xf32>, %b4ebtv: tensor<144xf32>, %b4dWv: tensor<144x1x5x5xf32>, %b4dbv: tensor<144xf32>, %b4dgv: tensor<144xf32>, %b4dbtv: tensor<144xf32>, %b4zW1v: tensor<144x6xf32>, %b4zb1v: tensor<6xf32>, %b4zW2v: tensor<6x144xf32>, %b4zb2v: tensor<144xf32>, %b4pWv: tensor<40x144x1x1xf32>, %b4pbv: tensor<40xf32>, %b4pgv: tensor<40xf32>, %b4pbtv: tensor<40xf32>, %b5eWv: tensor<240x40x1x1xf32>, %b5ebv: tensor<240xf32>, %b5egv: tensor<240xf32>, %b5ebtv: tensor<240xf32>, %b5dWv: tensor<240x1x5x5xf32>, %b5dbv: tensor<240xf32>, %b5dgv: tensor<240xf32>, %b5dbtv: tensor<240xf32>, %b5zW1v: tensor<240x10xf32>, %b5zb1v: tensor<10xf32>, %b5zW2v: tensor<10x240xf32>, %b5zb2v: tensor<240xf32>, %b5pWv: tensor<40x240x1x1xf32>, %b5pbv: tensor<40xf32>, %b5pgv: tensor<40xf32>, %b5pbtv: tensor<40xf32>, %b6eWv: tensor<240x40x1x1xf32>, %b6ebv: tensor<240xf32>, %b6egv: tensor<240xf32>, %b6ebtv: tensor<240xf32>, %b6dWv: tensor<240x1x3x3xf32>, %b6dbv: tensor<240xf32>, %b6dgv: tensor<240xf32>, %b6dbtv: tensor<240xf32>, %b6zW1v: tensor<240x10xf32>, %b6zb1v: tensor<10xf32>, %b6zW2v: tensor<10x240xf32>, %b6zb2v: tensor<240xf32>, %b6pWv: tensor<80x240x1x1xf32>, %b6pbv: tensor<80xf32>, %b6pgv: tensor<80xf32>, %b6pbtv: tensor<80xf32>, %b7eWv: tensor<480x80x1x1xf32>, %b7ebv: tensor<480xf32>, %b7egv: tensor<480xf32>, %b7ebtv: tensor<480xf32>, %b7dWv: tensor<480x1x3x3xf32>, %b7dbv: tensor<480xf32>, %b7dgv: tensor<480xf32>, %b7dbtv: tensor<480xf32>, %b7zW1v: tensor<480x20xf32>, %b7zb1v: tensor<20xf32>, %b7zW2v: tensor<20x480xf32>, %b7zb2v: tensor<480xf32>, %b7pWv: tensor<80x480x1x1xf32>, %b7pbv: tensor<80xf32>, %b7pgv: tensor<80xf32>, %b7pbtv: tensor<80xf32>, %b8eWv: tensor<480x80x1x1xf32>, %b8ebv: tensor<480xf32>, %b8egv: tensor<480xf32>, %b8ebtv: tensor<480xf32>, %b8dWv: tensor<480x1x3x3xf32>, %b8dbv: tensor<480xf32>, %b8dgv: tensor<480xf32>, %b8dbtv: tensor<480xf32>, %b8zW1v: tensor<480x20xf32>, %b8zb1v: tensor<20xf32>, %b8zW2v: tensor<20x480xf32>, %b8zb2v: tensor<480xf32>, %b8pWv: tensor<80x480x1x1xf32>, %b8pbv: tensor<80xf32>, %b8pgv: tensor<80xf32>, %b8pbtv: tensor<80xf32>, %b9eWv: tensor<480x80x1x1xf32>, %b9ebv: tensor<480xf32>, %b9egv: tensor<480xf32>, %b9ebtv: tensor<480xf32>, %b9dWv: tensor<480x1x5x5xf32>, %b9dbv: tensor<480xf32>, %b9dgv: tensor<480xf32>, %b9dbtv: tensor<480xf32>, %b9zW1v: tensor<480x20xf32>, %b9zb1v: tensor<20xf32>, %b9zW2v: tensor<20x480xf32>, %b9zb2v: tensor<480xf32>, %b9pWv: tensor<112x480x1x1xf32>, %b9pbv: tensor<112xf32>, %b9pgv: tensor<112xf32>, %b9pbtv: tensor<112xf32>, %b10eWv: tensor<672x112x1x1xf32>, %b10ebv: tensor<672xf32>, %b10egv: tensor<672xf32>, %b10ebtv: tensor<672xf32>, %b10dWv: tensor<672x1x5x5xf32>, %b10dbv: tensor<672xf32>, %b10dgv: tensor<672xf32>, %b10dbtv: tensor<672xf32>, %b10zW1v: tensor<672x28xf32>, %b10zb1v: tensor<28xf32>, %b10zW2v: tensor<28x672xf32>, %b10zb2v: tensor<672xf32>, %b10pWv: tensor<112x672x1x1xf32>, %b10pbv: tensor<112xf32>, %b10pgv: tensor<112xf32>, %b10pbtv: tensor<112xf32>, %b11eWv: tensor<672x112x1x1xf32>, %b11ebv: tensor<672xf32>, %b11egv: tensor<672xf32>, %b11ebtv: tensor<672xf32>, %b11dWv: tensor<672x1x5x5xf32>, %b11dbv: tensor<672xf32>, %b11dgv: tensor<672xf32>, %b11dbtv: tensor<672xf32>, %b11zW1v: tensor<672x28xf32>, %b11zb1v: tensor<28xf32>, %b11zW2v: tensor<28x672xf32>, %b11zb2v: tensor<672xf32>, %b11pWv: tensor<112x672x1x1xf32>, %b11pbv: tensor<112xf32>, %b11pgv: tensor<112xf32>, %b11pbtv: tensor<112xf32>, %b12eWv: tensor<672x112x1x1xf32>, %b12ebv: tensor<672xf32>, %b12egv: tensor<672xf32>, %b12ebtv: tensor<672xf32>, %b12dWv: tensor<672x1x5x5xf32>, %b12dbv: tensor<672xf32>, %b12dgv: tensor<672xf32>, %b12dbtv: tensor<672xf32>, %b12zW1v: tensor<672x28xf32>, %b12zb1v: tensor<28xf32>, %b12zW2v: tensor<28x672xf32>, %b12zb2v: tensor<672xf32>, %b12pWv: tensor<192x672x1x1xf32>, %b12pbv: tensor<192xf32>, %b12pgv: tensor<192xf32>, %b12pbtv: tensor<192xf32>, %b13eWv: tensor<1152x192x1x1xf32>, %b13ebv: tensor<1152xf32>, %b13egv: tensor<1152xf32>, %b13ebtv: tensor<1152xf32>, %b13dWv: tensor<1152x1x5x5xf32>, %b13dbv: tensor<1152xf32>, %b13dgv: tensor<1152xf32>, %b13dbtv: tensor<1152xf32>, %b13zW1v: tensor<1152x48xf32>, %b13zb1v: tensor<48xf32>, %b13zW2v: tensor<48x1152xf32>, %b13zb2v: tensor<1152xf32>, %b13pWv: tensor<192x1152x1x1xf32>, %b13pbv: tensor<192xf32>, %b13pgv: tensor<192xf32>, %b13pbtv: tensor<192xf32>, %b14eWv: tensor<1152x192x1x1xf32>, %b14ebv: tensor<1152xf32>, %b14egv: tensor<1152xf32>, %b14ebtv: tensor<1152xf32>, %b14dWv: tensor<1152x1x5x5xf32>, %b14dbv: tensor<1152xf32>, %b14dgv: tensor<1152xf32>, %b14dbtv: tensor<1152xf32>, %b14zW1v: tensor<1152x48xf32>, %b14zb1v: tensor<48xf32>, %b14zW2v: tensor<48x1152xf32>, %b14zb2v: tensor<1152xf32>, %b14pWv: tensor<192x1152x1x1xf32>, %b14pbv: tensor<192xf32>, %b14pgv: tensor<192xf32>, %b14pbtv: tensor<192xf32>, %b15eWv: tensor<1152x192x1x1xf32>, %b15ebv: tensor<1152xf32>, %b15egv: tensor<1152xf32>, %b15ebtv: tensor<1152xf32>, %b15dWv: tensor<1152x1x5x5xf32>, %b15dbv: tensor<1152xf32>, %b15dgv: tensor<1152xf32>, %b15dbtv: tensor<1152xf32>, %b15zW1v: tensor<1152x48xf32>, %b15zb1v: tensor<48xf32>, %b15zW2v: tensor<48x1152xf32>, %b15zb2v: tensor<1152xf32>, %b15pWv: tensor<192x1152x1x1xf32>, %b15pbv: tensor<192xf32>, %b15pgv: tensor<192xf32>, %b15pbtv: tensor<192xf32>, %b16eWv: tensor<1152x192x1x1xf32>, %b16ebv: tensor<1152xf32>, %b16egv: tensor<1152xf32>, %b16ebtv: tensor<1152xf32>, %b16dWv: tensor<1152x1x3x3xf32>, %b16dbv: tensor<1152xf32>, %b16dgv: tensor<1152xf32>, %b16dbtv: tensor<1152xf32>, %b16zW1v: tensor<1152x48xf32>, %b16zb1v: tensor<48xf32>, %b16zW2v: tensor<48x1152xf32>, %b16zb2v: tensor<1152xf32>, %b16pWv: tensor<320x1152x1x1xf32>, %b16pbv: tensor<320xf32>, %b16pgv: tensor<320xf32>, %b16pbtv: tensor<320xf32>, %hWv: tensor<1280x320x1x1xf32>, %hbv: tensor<1280xf32>, %hgv: tensor<1280xf32>, %hbtv: tensor<1280xf32>, %Wdv: tensor<1280x10xf32>, %bdv: tensor<10xf32>, %lr: tensor<f32>, %bc1: tensor<f32>, %bc2: tensor<f32>, %stnmui: tensor<32xf32>, %stnvari: tensor<32xf32>, %b1dnmui: tensor<32xf32>, %b1dnvari: tensor<32xf32>, %b1pnmui: tensor<16xf32>, %b1pnvari: tensor<16xf32>, %b2enmui: tensor<96xf32>, %b2envari: tensor<96xf32>, %b2dnmui: tensor<96xf32>, %b2dnvari: tensor<96xf32>, %b2pnmui: tensor<24xf32>, %b2pnvari: tensor<24xf32>, %b3enmui: tensor<144xf32>, %b3envari: tensor<144xf32>, %b3dnmui: tensor<144xf32>, %b3dnvari: tensor<144xf32>, %b3pnmui: tensor<24xf32>, %b3pnvari: tensor<24xf32>, %b4enmui: tensor<144xf32>, %b4envari: tensor<144xf32>, %b4dnmui: tensor<144xf32>, %b4dnvari: tensor<144xf32>, %b4pnmui: tensor<40xf32>, %b4pnvari: tensor<40xf32>, %b5enmui: tensor<240xf32>, %b5envari: tensor<240xf32>, %b5dnmui: tensor<240xf32>, %b5dnvari: tensor<240xf32>, %b5pnmui: tensor<40xf32>, %b5pnvari: tensor<40xf32>, %b6enmui: tensor<240xf32>, %b6envari: tensor<240xf32>, %b6dnmui: tensor<240xf32>, %b6dnvari: tensor<240xf32>, %b6pnmui: tensor<80xf32>, %b6pnvari: tensor<80xf32>, %b7enmui: tensor<480xf32>, %b7envari: tensor<480xf32>, %b7dnmui: tensor<480xf32>, %b7dnvari: tensor<480xf32>, %b7pnmui: tensor<80xf32>, %b7pnvari: tensor<80xf32>, %b8enmui: tensor<480xf32>, %b8envari: tensor<480xf32>, %b8dnmui: tensor<480xf32>, %b8dnvari: tensor<480xf32>, %b8pnmui: tensor<80xf32>, %b8pnvari: tensor<80xf32>, %b9enmui: tensor<480xf32>, %b9envari: tensor<480xf32>, %b9dnmui: tensor<480xf32>, %b9dnvari: tensor<480xf32>, %b9pnmui: tensor<112xf32>, %b9pnvari: tensor<112xf32>, %b10enmui: tensor<672xf32>, %b10envari: tensor<672xf32>, %b10dnmui: tensor<672xf32>, %b10dnvari: tensor<672xf32>, %b10pnmui: tensor<112xf32>, %b10pnvari: tensor<112xf32>, %b11enmui: tensor<672xf32>, %b11envari: tensor<672xf32>, %b11dnmui: tensor<672xf32>, %b11dnvari: tensor<672xf32>, %b11pnmui: tensor<112xf32>, %b11pnvari: tensor<112xf32>, %b12enmui: tensor<672xf32>, %b12envari: tensor<672xf32>, %b12dnmui: tensor<672xf32>, %b12dnvari: tensor<672xf32>, %b12pnmui: tensor<192xf32>, %b12pnvari: tensor<192xf32>, %b13enmui: tensor<1152xf32>, %b13envari: tensor<1152xf32>, %b13dnmui: tensor<1152xf32>, %b13dnvari: tensor<1152xf32>, %b13pnmui: tensor<192xf32>, %b13pnvari: tensor<192xf32>, %b14enmui: tensor<1152xf32>, %b14envari: tensor<1152xf32>, %b14dnmui: tensor<1152xf32>, %b14dnvari: tensor<1152xf32>, %b14pnmui: tensor<192xf32>, %b14pnvari: tensor<192xf32>, %b15enmui: tensor<1152xf32>, %b15envari: tensor<1152xf32>, %b15dnmui: tensor<1152xf32>, %b15dnvari: tensor<1152xf32>, %b15pnmui: tensor<192xf32>, %b15pnvari: tensor<192xf32>, %b16enmui: tensor<1152xf32>, %b16envari: tensor<1152xf32>, %b16dnmui: tensor<1152xf32>, %b16dnvari: tensor<1152xf32>, %b16pnmui: tensor<320xf32>, %b16pnvari: tensor<320xf32>, %hnmui: tensor<1280xf32>, %hnvari: tensor<1280xf32>, %onehot: tensor<32x10xf32>) -> (tensor<32x3x3x3xf32>, tensor<32xf32>, tensor<32xf32>, tensor<32xf32>, tensor<32x1x3x3xf32>, tensor<32xf32>, tensor<32xf32>, tensor<32xf32>, tensor<32x8xf32>, tensor<8xf32>, tensor<8x32xf32>, tensor<32xf32>, tensor<16x32x1x1xf32>, tensor<16xf32>, tensor<16xf32>, tensor<16xf32>, tensor<96x16x1x1xf32>, tensor<96xf32>, tensor<96xf32>, tensor<96xf32>, tensor<96x1x3x3xf32>, tensor<96xf32>, tensor<96xf32>, tensor<96xf32>, tensor<96x4xf32>, tensor<4xf32>, tensor<4x96xf32>, tensor<96xf32>, tensor<24x96x1x1xf32>, tensor<24xf32>, tensor<24xf32>, tensor<24xf32>, tensor<144x24x1x1xf32>, tensor<144xf32>, tensor<144xf32>, tensor<144xf32>, tensor<144x1x3x3xf32>, tensor<144xf32>, tensor<144xf32>, tensor<144xf32>, tensor<144x6xf32>, tensor<6xf32>, tensor<6x144xf32>, tensor<144xf32>, tensor<24x144x1x1xf32>, tensor<24xf32>, tensor<24xf32>, tensor<24xf32>, tensor<144x24x1x1xf32>, tensor<144xf32>, tensor<144xf32>, tensor<144xf32>, tensor<144x1x5x5xf32>, tensor<144xf32>, tensor<144xf32>, tensor<144xf32>, tensor<144x6xf32>, tensor<6xf32>, tensor<6x144xf32>, tensor<144xf32>, tensor<40x144x1x1xf32>, tensor<40xf32>, tensor<40xf32>, tensor<40xf32>, tensor<240x40x1x1xf32>, tensor<240xf32>, tensor<240xf32>, tensor<240xf32>, tensor<240x1x5x5xf32>, tensor<240xf32>, tensor<240xf32>, tensor<240xf32>, tensor<240x10xf32>, tensor<10xf32>, tensor<10x240xf32>, tensor<240xf32>, tensor<40x240x1x1xf32>, tensor<40xf32>, tensor<40xf32>, tensor<40xf32>, tensor<240x40x1x1xf32>, tensor<240xf32>, tensor<240xf32>, tensor<240xf32>, tensor<240x1x3x3xf32>, tensor<240xf32>, tensor<240xf32>, tensor<240xf32>, tensor<240x10xf32>, tensor<10xf32>, tensor<10x240xf32>, tensor<240xf32>, tensor<80x240x1x1xf32>, tensor<80xf32>, tensor<80xf32>, tensor<80xf32>, tensor<480x80x1x1xf32>, tensor<480xf32>, tensor<480xf32>, tensor<480xf32>, tensor<480x1x3x3xf32>, tensor<480xf32>, tensor<480xf32>, tensor<480xf32>, tensor<480x20xf32>, tensor<20xf32>, tensor<20x480xf32>, tensor<480xf32>, tensor<80x480x1x1xf32>, tensor<80xf32>, tensor<80xf32>, tensor<80xf32>, tensor<480x80x1x1xf32>, tensor<480xf32>, tensor<480xf32>, tensor<480xf32>, tensor<480x1x3x3xf32>, tensor<480xf32>, tensor<480xf32>, tensor<480xf32>, tensor<480x20xf32>, tensor<20xf32>, tensor<20x480xf32>, tensor<480xf32>, tensor<80x480x1x1xf32>, tensor<80xf32>, tensor<80xf32>, tensor<80xf32>, tensor<480x80x1x1xf32>, tensor<480xf32>, tensor<480xf32>, tensor<480xf32>, tensor<480x1x5x5xf32>, tensor<480xf32>, tensor<480xf32>, tensor<480xf32>, tensor<480x20xf32>, tensor<20xf32>, tensor<20x480xf32>, tensor<480xf32>, tensor<112x480x1x1xf32>, tensor<112xf32>, tensor<112xf32>, tensor<112xf32>, tensor<672x112x1x1xf32>, tensor<672xf32>, tensor<672xf32>, tensor<672xf32>, tensor<672x1x5x5xf32>, tensor<672xf32>, tensor<672xf32>, tensor<672xf32>, tensor<672x28xf32>, tensor<28xf32>, tensor<28x672xf32>, tensor<672xf32>, tensor<112x672x1x1xf32>, tensor<112xf32>, tensor<112xf32>, tensor<112xf32>, tensor<672x112x1x1xf32>, tensor<672xf32>, tensor<672xf32>, tensor<672xf32>, tensor<672x1x5x5xf32>, tensor<672xf32>, tensor<672xf32>, tensor<672xf32>, tensor<672x28xf32>, tensor<28xf32>, tensor<28x672xf32>, tensor<672xf32>, tensor<112x672x1x1xf32>, tensor<112xf32>, tensor<112xf32>, tensor<112xf32>, tensor<672x112x1x1xf32>, tensor<672xf32>, tensor<672xf32>, tensor<672xf32>, tensor<672x1x5x5xf32>, tensor<672xf32>, tensor<672xf32>, tensor<672xf32>, tensor<672x28xf32>, tensor<28xf32>, tensor<28x672xf32>, tensor<672xf32>, tensor<192x672x1x1xf32>, tensor<192xf32>, tensor<192xf32>, tensor<192xf32>, tensor<1152x192x1x1xf32>, tensor<1152xf32>, tensor<1152xf32>, tensor<1152xf32>, tensor<1152x1x5x5xf32>, tensor<1152xf32>, tensor<1152xf32>, tensor<1152xf32>, tensor<1152x48xf32>, tensor<48xf32>, tensor<48x1152xf32>, tensor<1152xf32>, tensor<192x1152x1x1xf32>, tensor<192xf32>, tensor<192xf32>, tensor<192xf32>, tensor<1152x192x1x1xf32>, tensor<1152xf32>, tensor<1152xf32>, tensor<1152xf32>, tensor<1152x1x5x5xf32>, tensor<1152xf32>, tensor<1152xf32>, tensor<1152xf32>, tensor<1152x48xf32>, tensor<48xf32>, tensor<48x1152xf32>, tensor<1152xf32>, tensor<192x1152x1x1xf32>, tensor<192xf32>, tensor<192xf32>, tensor<192xf32>, tensor<1152x192x1x1xf32>, tensor<1152xf32>, tensor<1152xf32>, tensor<1152xf32>, tensor<1152x1x5x5xf32>, tensor<1152xf32>, tensor<1152xf32>, tensor<1152xf32>, tensor<1152x48xf32>, tensor<48xf32>, tensor<48x1152xf32>, tensor<1152xf32>, tensor<192x1152x1x1xf32>, tensor<192xf32>, tensor<192xf32>, tensor<192xf32>, tensor<1152x192x1x1xf32>, tensor<1152xf32>, tensor<1152xf32>, tensor<1152xf32>, tensor<1152x1x3x3xf32>, tensor<1152xf32>, tensor<1152xf32>, tensor<1152xf32>, tensor<1152x48xf32>, tensor<48xf32>, tensor<48x1152xf32>, tensor<1152xf32>, tensor<320x1152x1x1xf32>, tensor<320xf32>, tensor<320xf32>, tensor<320xf32>, tensor<1280x320x1x1xf32>, tensor<1280xf32>, tensor<1280xf32>, tensor<1280xf32>, tensor<1280x10xf32>, tensor<10xf32>, tensor<32x3x3x3xf32>, tensor<32xf32>, tensor<32xf32>, tensor<32xf32>, tensor<32x1x3x3xf32>, tensor<32xf32>, tensor<32xf32>, tensor<32xf32>, tensor<32x8xf32>, tensor<8xf32>, tensor<8x32xf32>, tensor<32xf32>, tensor<16x32x1x1xf32>, tensor<16xf32>, tensor<16xf32>, tensor<16xf32>, tensor<96x16x1x1xf32>, tensor<96xf32>, tensor<96xf32>, tensor<96xf32>, tensor<96x1x3x3xf32>, tensor<96xf32>, tensor<96xf32>, tensor<96xf32>, tensor<96x4xf32>, tensor<4xf32>, tensor<4x96xf32>, tensor<96xf32>, tensor<24x96x1x1xf32>, tensor<24xf32>, tensor<24xf32>, tensor<24xf32>, tensor<144x24x1x1xf32>, tensor<144xf32>, tensor<144xf32>, tensor<144xf32>, tensor<144x1x3x3xf32>, tensor<144xf32>, tensor<144xf32>, tensor<144xf32>, tensor<144x6xf32>, tensor<6xf32>, tensor<6x144xf32>, tensor<144xf32>, tensor<24x144x1x1xf32>, tensor<24xf32>, tensor<24xf32>, tensor<24xf32>, tensor<144x24x1x1xf32>, tensor<144xf32>, tensor<144xf32>, tensor<144xf32>, tensor<144x1x5x5xf32>, tensor<144xf32>, tensor<144xf32>, tensor<144xf32>, tensor<144x6xf32>, tensor<6xf32>, tensor<6x144xf32>, tensor<144xf32>, tensor<40x144x1x1xf32>, tensor<40xf32>, tensor<40xf32>, tensor<40xf32>, tensor<240x40x1x1xf32>, tensor<240xf32>, tensor<240xf32>, tensor<240xf32>, tensor<240x1x5x5xf32>, tensor<240xf32>, tensor<240xf32>, tensor<240xf32>, tensor<240x10xf32>, tensor<10xf32>, tensor<10x240xf32>, tensor<240xf32>, tensor<40x240x1x1xf32>, tensor<40xf32>, tensor<40xf32>, tensor<40xf32>, tensor<240x40x1x1xf32>, tensor<240xf32>, tensor<240xf32>, tensor<240xf32>, tensor<240x1x3x3xf32>, tensor<240xf32>, tensor<240xf32>, tensor<240xf32>, tensor<240x10xf32>, tensor<10xf32>, tensor<10x240xf32>, tensor<240xf32>, tensor<80x240x1x1xf32>, tensor<80xf32>, tensor<80xf32>, tensor<80xf32>, tensor<480x80x1x1xf32>, tensor<480xf32>, tensor<480xf32>, tensor<480xf32>, tensor<480x1x3x3xf32>, tensor<480xf32>, tensor<480xf32>, tensor<480xf32>, tensor<480x20xf32>, tensor<20xf32>, tensor<20x480xf32>, tensor<480xf32>, tensor<80x480x1x1xf32>, tensor<80xf32>, tensor<80xf32>, tensor<80xf32>, tensor<480x80x1x1xf32>, tensor<480xf32>, tensor<480xf32>, tensor<480xf32>, tensor<480x1x3x3xf32>, tensor<480xf32>, tensor<480xf32>, tensor<480xf32>, tensor<480x20xf32>, tensor<20xf32>, tensor<20x480xf32>, tensor<480xf32>, tensor<80x480x1x1xf32>, tensor<80xf32>, tensor<80xf32>, tensor<80xf32>, tensor<480x80x1x1xf32>, tensor<480xf32>, tensor<480xf32>, tensor<480xf32>, tensor<480x1x5x5xf32>, tensor<480xf32>, tensor<480xf32>, tensor<480xf32>, tensor<480x20xf32>, tensor<20xf32>, tensor<20x480xf32>, tensor<480xf32>, tensor<112x480x1x1xf32>, tensor<112xf32>, tensor<112xf32>, tensor<112xf32>, tensor<672x112x1x1xf32>, tensor<672xf32>, tensor<672xf32>, tensor<672xf32>, tensor<672x1x5x5xf32>, tensor<672xf32>, tensor<672xf32>, tensor<672xf32>, tensor<672x28xf32>, tensor<28xf32>, tensor<28x672xf32>, tensor<672xf32>, tensor<112x672x1x1xf32>, tensor<112xf32>, tensor<112xf32>, tensor<112xf32>, tensor<672x112x1x1xf32>, tensor<672xf32>, tensor<672xf32>, tensor<672xf32>, tensor<672x1x5x5xf32>, tensor<672xf32>, tensor<672xf32>, tensor<672xf32>, tensor<672x28xf32>, tensor<28xf32>, tensor<28x672xf32>, tensor<672xf32>, tensor<112x672x1x1xf32>, tensor<112xf32>, tensor<112xf32>, tensor<112xf32>, tensor<672x112x1x1xf32>, tensor<672xf32>, tensor<672xf32>, tensor<672xf32>, tensor<672x1x5x5xf32>, tensor<672xf32>, tensor<672xf32>, tensor<672xf32>, tensor<672x28xf32>, tensor<28xf32>, tensor<28x672xf32>, tensor<672xf32>, tensor<192x672x1x1xf32>, tensor<192xf32>, tensor<192xf32>, tensor<192xf32>, tensor<1152x192x1x1xf32>, tensor<1152xf32>, tensor<1152xf32>, tensor<1152xf32>, tensor<1152x1x5x5xf32>, tensor<1152xf32>, tensor<1152xf32>, tensor<1152xf32>, tensor<1152x48xf32>, tensor<48xf32>, tensor<48x1152xf32>, tensor<1152xf32>, tensor<192x1152x1x1xf32>, tensor<192xf32>, tensor<192xf32>, tensor<192xf32>, tensor<1152x192x1x1xf32>, tensor<1152xf32>, tensor<1152xf32>, tensor<1152xf32>, tensor<1152x1x5x5xf32>, tensor<1152xf32>, tensor<1152xf32>, tensor<1152xf32>, tensor<1152x48xf32>, tensor<48xf32>, tensor<48x1152xf32>, tensor<1152xf32>, tensor<192x1152x1x1xf32>, tensor<192xf32>, tensor<192xf32>, tensor<192xf32>, tensor<1152x192x1x1xf32>, tensor<1152xf32>, tensor<1152xf32>, tensor<1152xf32>, tensor<1152x1x5x5xf32>, tensor<1152xf32>, tensor<1152xf32>, tensor<1152xf32>, tensor<1152x48xf32>, tensor<48xf32>, tensor<48x1152xf32>, tensor<1152xf32>, tensor<192x1152x1x1xf32>, tensor<192xf32>, tensor<192xf32>, tensor<192xf32>, tensor<1152x192x1x1xf32>, tensor<1152xf32>, tensor<1152xf32>, tensor<1152xf32>, tensor<1152x1x3x3xf32>, tensor<1152xf32>, tensor<1152xf32>, tensor<1152xf32>, tensor<1152x48xf32>, tensor<48xf32>, tensor<48x1152xf32>, tensor<1152xf32>, tensor<320x1152x1x1xf32>, tensor<320xf32>, tensor<320xf32>, tensor<320xf32>, tensor<1280x320x1x1xf32>, tensor<1280xf32>, tensor<1280xf32>, tensor<1280xf32>, tensor<1280x10xf32>, tensor<10xf32>, tensor<32x3x3x3xf32>, tensor<32xf32>, tensor<32xf32>, tensor<32xf32>, tensor<32x1x3x3xf32>, tensor<32xf32>, tensor<32xf32>, tensor<32xf32>, tensor<32x8xf32>, tensor<8xf32>, tensor<8x32xf32>, tensor<32xf32>, tensor<16x32x1x1xf32>, tensor<16xf32>, tensor<16xf32>, tensor<16xf32>, tensor<96x16x1x1xf32>, tensor<96xf32>, tensor<96xf32>, tensor<96xf32>, tensor<96x1x3x3xf32>, tensor<96xf32>, tensor<96xf32>, tensor<96xf32>, tensor<96x4xf32>, tensor<4xf32>, tensor<4x96xf32>, tensor<96xf32>, tensor<24x96x1x1xf32>, tensor<24xf32>, tensor<24xf32>, tensor<24xf32>, tensor<144x24x1x1xf32>, tensor<144xf32>, tensor<144xf32>, tensor<144xf32>, tensor<144x1x3x3xf32>, tensor<144xf32>, tensor<144xf32>, tensor<144xf32>, tensor<144x6xf32>, tensor<6xf32>, tensor<6x144xf32>, tensor<144xf32>, tensor<24x144x1x1xf32>, tensor<24xf32>, tensor<24xf32>, tensor<24xf32>, tensor<144x24x1x1xf32>, tensor<144xf32>, tensor<144xf32>, tensor<144xf32>, tensor<144x1x5x5xf32>, tensor<144xf32>, tensor<144xf32>, tensor<144xf32>, tensor<144x6xf32>, tensor<6xf32>, tensor<6x144xf32>, tensor<144xf32>, tensor<40x144x1x1xf32>, tensor<40xf32>, tensor<40xf32>, tensor<40xf32>, tensor<240x40x1x1xf32>, tensor<240xf32>, tensor<240xf32>, tensor<240xf32>, tensor<240x1x5x5xf32>, tensor<240xf32>, tensor<240xf32>, tensor<240xf32>, tensor<240x10xf32>, tensor<10xf32>, tensor<10x240xf32>, tensor<240xf32>, tensor<40x240x1x1xf32>, tensor<40xf32>, tensor<40xf32>, tensor<40xf32>, tensor<240x40x1x1xf32>, tensor<240xf32>, tensor<240xf32>, tensor<240xf32>, tensor<240x1x3x3xf32>, tensor<240xf32>, tensor<240xf32>, tensor<240xf32>, tensor<240x10xf32>, tensor<10xf32>, tensor<10x240xf32>, tensor<240xf32>, tensor<80x240x1x1xf32>, tensor<80xf32>, tensor<80xf32>, tensor<80xf32>, tensor<480x80x1x1xf32>, tensor<480xf32>, tensor<480xf32>, tensor<480xf32>, tensor<480x1x3x3xf32>, tensor<480xf32>, tensor<480xf32>, tensor<480xf32>, tensor<480x20xf32>, tensor<20xf32>, tensor<20x480xf32>, tensor<480xf32>, tensor<80x480x1x1xf32>, tensor<80xf32>, tensor<80xf32>, tensor<80xf32>, tensor<480x80x1x1xf32>, tensor<480xf32>, tensor<480xf32>, tensor<480xf32>, tensor<480x1x3x3xf32>, tensor<480xf32>, tensor<480xf32>, tensor<480xf32>, tensor<480x20xf32>, tensor<20xf32>, tensor<20x480xf32>, tensor<480xf32>, tensor<80x480x1x1xf32>, tensor<80xf32>, tensor<80xf32>, tensor<80xf32>, tensor<480x80x1x1xf32>, tensor<480xf32>, tensor<480xf32>, tensor<480xf32>, tensor<480x1x5x5xf32>, tensor<480xf32>, tensor<480xf32>, tensor<480xf32>, tensor<480x20xf32>, tensor<20xf32>, tensor<20x480xf32>, tensor<480xf32>, tensor<112x480x1x1xf32>, tensor<112xf32>, tensor<112xf32>, tensor<112xf32>, tensor<672x112x1x1xf32>, tensor<672xf32>, tensor<672xf32>, tensor<672xf32>, tensor<672x1x5x5xf32>, tensor<672xf32>, tensor<672xf32>, tensor<672xf32>, tensor<672x28xf32>, tensor<28xf32>, tensor<28x672xf32>, tensor<672xf32>, tensor<112x672x1x1xf32>, tensor<112xf32>, tensor<112xf32>, tensor<112xf32>, tensor<672x112x1x1xf32>, tensor<672xf32>, tensor<672xf32>, tensor<672xf32>, tensor<672x1x5x5xf32>, tensor<672xf32>, tensor<672xf32>, tensor<672xf32>, tensor<672x28xf32>, tensor<28xf32>, tensor<28x672xf32>, tensor<672xf32>, tensor<112x672x1x1xf32>, tensor<112xf32>, tensor<112xf32>, tensor<112xf32>, tensor<672x112x1x1xf32>, tensor<672xf32>, tensor<672xf32>, tensor<672xf32>, tensor<672x1x5x5xf32>, tensor<672xf32>, tensor<672xf32>, tensor<672xf32>, tensor<672x28xf32>, tensor<28xf32>, tensor<28x672xf32>, tensor<672xf32>, tensor<192x672x1x1xf32>, tensor<192xf32>, tensor<192xf32>, tensor<192xf32>, tensor<1152x192x1x1xf32>, tensor<1152xf32>, tensor<1152xf32>, tensor<1152xf32>, tensor<1152x1x5x5xf32>, tensor<1152xf32>, tensor<1152xf32>, tensor<1152xf32>, tensor<1152x48xf32>, tensor<48xf32>, tensor<48x1152xf32>, tensor<1152xf32>, tensor<192x1152x1x1xf32>, tensor<192xf32>, tensor<192xf32>, tensor<192xf32>, tensor<1152x192x1x1xf32>, tensor<1152xf32>, tensor<1152xf32>, tensor<1152xf32>, tensor<1152x1x5x5xf32>, tensor<1152xf32>, tensor<1152xf32>, tensor<1152xf32>, tensor<1152x48xf32>, tensor<48xf32>, tensor<48x1152xf32>, tensor<1152xf32>, tensor<192x1152x1x1xf32>, tensor<192xf32>, tensor<192xf32>, tensor<192xf32>, tensor<1152x192x1x1xf32>, tensor<1152xf32>, tensor<1152xf32>, tensor<1152xf32>, tensor<1152x1x5x5xf32>, tensor<1152xf32>, tensor<1152xf32>, tensor<1152xf32>, tensor<1152x48xf32>, tensor<48xf32>, tensor<48x1152xf32>, tensor<1152xf32>, tensor<192x1152x1x1xf32>, tensor<192xf32>, tensor<192xf32>, tensor<192xf32>, tensor<1152x192x1x1xf32>, tensor<1152xf32>, tensor<1152xf32>, tensor<1152xf32>, tensor<1152x1x3x3xf32>, tensor<1152xf32>, tensor<1152xf32>, tensor<1152xf32>, tensor<1152x48xf32>, tensor<48xf32>, tensor<48x1152xf32>, tensor<1152xf32>, tensor<320x1152x1x1xf32>, tensor<320xf32>, tensor<320xf32>, tensor<320xf32>, tensor<1280x320x1x1xf32>, tensor<1280xf32>, tensor<1280xf32>, tensor<1280xf32>, tensor<1280x10xf32>, tensor<10xf32>, tensor<f32>, tensor<f32>, tensor<f32>, tensor<32xf32>, tensor<32xf32>, tensor<32xf32>, tensor<32xf32>, tensor<16xf32>, tensor<16xf32>, tensor<96xf32>, tensor<96xf32>, tensor<96xf32>, tensor<96xf32>, tensor<24xf32>, tensor<24xf32>, tensor<144xf32>, tensor<144xf32>, tensor<144xf32>, tensor<144xf32>, tensor<24xf32>, tensor<24xf32>, tensor<144xf32>, tensor<144xf32>, tensor<144xf32>, tensor<144xf32>, tensor<40xf32>, tensor<40xf32>, tensor<240xf32>, tensor<240xf32>, tensor<240xf32>, tensor<240xf32>, tensor<40xf32>, tensor<40xf32>, tensor<240xf32>, tensor<240xf32>, tensor<240xf32>, tensor<240xf32>, tensor<80xf32>, tensor<80xf32>, tensor<480xf32>, tensor<480xf32>, tensor<480xf32>, tensor<480xf32>, tensor<80xf32>, tensor<80xf32>, tensor<480xf32>, tensor<480xf32>, tensor<480xf32>, tensor<480xf32>, tensor<80xf32>, tensor<80xf32>, tensor<480xf32>, tensor<480xf32>, tensor<480xf32>, tensor<480xf32>, tensor<112xf32>, tensor<112xf32>, tensor<672xf32>, tensor<672xf32>, tensor<672xf32>, tensor<672xf32>, tensor<112xf32>, tensor<112xf32>, tensor<672xf32>, tensor<672xf32>, tensor<672xf32>, tensor<672xf32>, tensor<112xf32>, tensor<112xf32>, tensor<672xf32>, tensor<672xf32>, tensor<672xf32>, tensor<672xf32>, tensor<192xf32>, tensor<192xf32>, tensor<1152xf32>, tensor<1152xf32>, tensor<1152xf32>, tensor<1152xf32>, tensor<192xf32>, tensor<192xf32>, tensor<1152xf32>, tensor<1152xf32>, tensor<1152xf32>, tensor<1152xf32>, tensor<192xf32>, tensor<192xf32>, tensor<1152xf32>, tensor<1152xf32>, tensor<1152xf32>, tensor<1152xf32>, tensor<192xf32>, tensor<192xf32>, tensor<1152xf32>, tensor<1152xf32>, tensor<1152xf32>, tensor<1152xf32>, tensor<320xf32>, tensor<320xf32>, tensor<1280xf32>, tensor<1280xf32>) {
    %sc = stablehlo.constant dense<0.0> : tensor<f32>
    %xr = stablehlo.reshape %x : (tensor<32x150528xf32>) -> tensor<32x3x224x224xf32>
    %stcc = stablehlo.convolution(%xr, %sW)
      dim_numbers = [b, f, 0, 1]x[o, i, 0, 1]->[b, f, 0, 1],
      window = {stride = [2, 2], pad = [[1, 1], [1, 1]], lhs_dilate = [1, 1], rhs_dilate = [1, 1]}
      {batch_group_count = 1 : i64, feature_group_count = 1 : i64} : (tensor<32x3x224x224xf32>, tensor<32x3x3x3xf32>) -> tensor<32x32x112x112xf32>
    %stcbb = stablehlo.broadcast_in_dim %sb, dims = [1] : (tensor<32xf32>) -> tensor<32x32x112x112xf32>
    %stc = stablehlo.add %stcc, %stcbb : tensor<32x32x112x112xf32>
    %stnnf = stablehlo.constant dense<401408.0> : tensor<32x32x112x112xf32>
    %stnep = stablehlo.constant dense<1.0e-5> : tensor<32x32x112x112xf32>
    %stnsmr = stablehlo.reduce(%stc init: %sc) applies stablehlo.add across dimensions = [0, 2, 3] : (tensor<32x32x112x112xf32>, tensor<f32>) -> tensor<32xf32>
    %stnsm = stablehlo.broadcast_in_dim %stnsmr, dims = [1] : (tensor<32xf32>) -> tensor<32x32x112x112xf32>
    %stnmu = stablehlo.divide %stnsm, %stnnf : tensor<32x32x112x112xf32>
    %stnxc = stablehlo.subtract %stc, %stnmu : tensor<32x32x112x112xf32>
    %stnsq = stablehlo.multiply %stnxc, %stnxc : tensor<32x32x112x112xf32>
    %stnvsr = stablehlo.reduce(%stnsq init: %sc) applies stablehlo.add across dimensions = [0, 2, 3] : (tensor<32x32x112x112xf32>, tensor<f32>) -> tensor<32xf32>
    %stnvs = stablehlo.broadcast_in_dim %stnvsr, dims = [1] : (tensor<32xf32>) -> tensor<32x32x112x112xf32>
    %stnvr = stablehlo.divide %stnvs, %stnnf : tensor<32x32x112x112xf32>
    %stnve = stablehlo.add %stnvr, %stnep : tensor<32x32x112x112xf32>
    %stnistd = stablehlo.rsqrt %stnve : tensor<32x32x112x112xf32>
    %stnxh = stablehlo.multiply %stnxc, %stnistd : tensor<32x32x112x112xf32>
    %stngb = stablehlo.broadcast_in_dim %sg, dims = [1] : (tensor<32xf32>) -> tensor<32x32x112x112xf32>
    %stnbtb = stablehlo.broadcast_in_dim %sbt, dims = [1] : (tensor<32xf32>) -> tensor<32x32x112x112xf32>
    %stngx = stablehlo.multiply %stnxh, %stngb : tensor<32x32x112x112xf32>
    %stn = stablehlo.add %stngx, %stnbtb : tensor<32x32x112x112xf32>
    %strs = stablehlo.logistic %stn : tensor<32x32x112x112xf32>
    %str = stablehlo.multiply %stn, %strs : tensor<32x32x112x112xf32>
    %b1dc = stablehlo.convolution(%str, %b1dW)
      dim_numbers = [b, f, 0, 1]x[o, i, 0, 1]->[b, f, 0, 1],
      window = {stride = [1, 1], pad = [[1, 1], [1, 1]], lhs_dilate = [1, 1], rhs_dilate = [1, 1]}
      {batch_group_count = 1 : i64, feature_group_count = 32 : i64} : (tensor<32x32x112x112xf32>, tensor<32x1x3x3xf32>) -> tensor<32x32x112x112xf32>
    %b1dbb = stablehlo.broadcast_in_dim %b1db, dims = [1] : (tensor<32xf32>) -> tensor<32x32x112x112xf32>
    %b1d = stablehlo.add %b1dc, %b1dbb : tensor<32x32x112x112xf32>
    %b1dnnf = stablehlo.constant dense<401408.0> : tensor<32x32x112x112xf32>
    %b1dnep = stablehlo.constant dense<1.0e-5> : tensor<32x32x112x112xf32>
    %b1dnsmr = stablehlo.reduce(%b1d init: %sc) applies stablehlo.add across dimensions = [0, 2, 3] : (tensor<32x32x112x112xf32>, tensor<f32>) -> tensor<32xf32>
    %b1dnsm = stablehlo.broadcast_in_dim %b1dnsmr, dims = [1] : (tensor<32xf32>) -> tensor<32x32x112x112xf32>
    %b1dnmu = stablehlo.divide %b1dnsm, %b1dnnf : tensor<32x32x112x112xf32>
    %b1dnxc = stablehlo.subtract %b1d, %b1dnmu : tensor<32x32x112x112xf32>
    %b1dnsq = stablehlo.multiply %b1dnxc, %b1dnxc : tensor<32x32x112x112xf32>
    %b1dnvsr = stablehlo.reduce(%b1dnsq init: %sc) applies stablehlo.add across dimensions = [0, 2, 3] : (tensor<32x32x112x112xf32>, tensor<f32>) -> tensor<32xf32>
    %b1dnvs = stablehlo.broadcast_in_dim %b1dnvsr, dims = [1] : (tensor<32xf32>) -> tensor<32x32x112x112xf32>
    %b1dnvr = stablehlo.divide %b1dnvs, %b1dnnf : tensor<32x32x112x112xf32>
    %b1dnve = stablehlo.add %b1dnvr, %b1dnep : tensor<32x32x112x112xf32>
    %b1dnistd = stablehlo.rsqrt %b1dnve : tensor<32x32x112x112xf32>
    %b1dnxh = stablehlo.multiply %b1dnxc, %b1dnistd : tensor<32x32x112x112xf32>
    %b1dngb = stablehlo.broadcast_in_dim %b1dg, dims = [1] : (tensor<32xf32>) -> tensor<32x32x112x112xf32>
    %b1dnbtb = stablehlo.broadcast_in_dim %b1dbt, dims = [1] : (tensor<32xf32>) -> tensor<32x32x112x112xf32>
    %b1dngx = stablehlo.multiply %b1dnxh, %b1dngb : tensor<32x32x112x112xf32>
    %b1dn = stablehlo.add %b1dngx, %b1dnbtb : tensor<32x32x112x112xf32>
    %b1dss = stablehlo.logistic %b1dn : tensor<32x32x112x112xf32>
    %b1ds = stablehlo.multiply %b1dn, %b1dss : tensor<32x32x112x112xf32>
    %b1zsqs = stablehlo.reduce(%b1ds init: %sc) applies stablehlo.add across dimensions = [2, 3] : (tensor<32x32x112x112xf32>, tensor<f32>) -> tensor<32x32xf32>
    %b1zsqnf = stablehlo.constant dense<12544.0> : tensor<32x32xf32>
    %b1zsq = stablehlo.divide %b1zsqs, %b1zsqnf : tensor<32x32xf32>
    %b1zexd = stablehlo.dot_general %b1zsq, %b1zW1, contracting_dims = [1] x [0], precision = [DEFAULT, DEFAULT] : (tensor<32x32xf32>, tensor<32x8xf32>) -> tensor<32x8xf32>
    %b1zexbb = stablehlo.broadcast_in_dim %b1zb1, dims = [1] : (tensor<8xf32>) -> tensor<32x8xf32>
    %b1zex = stablehlo.add %b1zexd, %b1zexbb : tensor<32x8xf32>
    %b1za1s = stablehlo.logistic %b1zex : tensor<32x8xf32>
    %b1za1 = stablehlo.multiply %b1zex, %b1za1s : tensor<32x8xf32>
    %b1zh2d = stablehlo.dot_general %b1za1, %b1zW2, contracting_dims = [1] x [0], precision = [DEFAULT, DEFAULT] : (tensor<32x8xf32>, tensor<8x32xf32>) -> tensor<32x32xf32>
    %b1zh2bb = stablehlo.broadcast_in_dim %b1zb2, dims = [1] : (tensor<32xf32>) -> tensor<32x32xf32>
    %b1zh2 = stablehlo.add %b1zh2d, %b1zh2bb : tensor<32x32xf32>
    %b1zgate = stablehlo.logistic %b1zh2 : tensor<32x32xf32>
    %b1zgb = stablehlo.broadcast_in_dim %b1zgate, dims = [0, 1] : (tensor<32x32xf32>) -> tensor<32x32x112x112xf32>
    %b1zse = stablehlo.multiply %b1ds, %b1zgb : tensor<32x32x112x112xf32>
    %b1pc = stablehlo.convolution(%b1zse, %b1pW)
      dim_numbers = [b, f, 0, 1]x[o, i, 0, 1]->[b, f, 0, 1],
      window = {stride = [1, 1], pad = [[0, 0], [0, 0]], lhs_dilate = [1, 1], rhs_dilate = [1, 1]}
      {batch_group_count = 1 : i64, feature_group_count = 1 : i64} : (tensor<32x32x112x112xf32>, tensor<16x32x1x1xf32>) -> tensor<32x16x112x112xf32>
    %b1pbb = stablehlo.broadcast_in_dim %b1pb, dims = [1] : (tensor<16xf32>) -> tensor<32x16x112x112xf32>
    %b1p = stablehlo.add %b1pc, %b1pbb : tensor<32x16x112x112xf32>
    %b1pnnf = stablehlo.constant dense<401408.0> : tensor<32x16x112x112xf32>
    %b1pnep = stablehlo.constant dense<1.0e-5> : tensor<32x16x112x112xf32>
    %b1pnsmr = stablehlo.reduce(%b1p init: %sc) applies stablehlo.add across dimensions = [0, 2, 3] : (tensor<32x16x112x112xf32>, tensor<f32>) -> tensor<16xf32>
    %b1pnsm = stablehlo.broadcast_in_dim %b1pnsmr, dims = [1] : (tensor<16xf32>) -> tensor<32x16x112x112xf32>
    %b1pnmu = stablehlo.divide %b1pnsm, %b1pnnf : tensor<32x16x112x112xf32>
    %b1pnxc = stablehlo.subtract %b1p, %b1pnmu : tensor<32x16x112x112xf32>
    %b1pnsq = stablehlo.multiply %b1pnxc, %b1pnxc : tensor<32x16x112x112xf32>
    %b1pnvsr = stablehlo.reduce(%b1pnsq init: %sc) applies stablehlo.add across dimensions = [0, 2, 3] : (tensor<32x16x112x112xf32>, tensor<f32>) -> tensor<16xf32>
    %b1pnvs = stablehlo.broadcast_in_dim %b1pnvsr, dims = [1] : (tensor<16xf32>) -> tensor<32x16x112x112xf32>
    %b1pnvr = stablehlo.divide %b1pnvs, %b1pnnf : tensor<32x16x112x112xf32>
    %b1pnve = stablehlo.add %b1pnvr, %b1pnep : tensor<32x16x112x112xf32>
    %b1pnistd = stablehlo.rsqrt %b1pnve : tensor<32x16x112x112xf32>
    %b1pnxh = stablehlo.multiply %b1pnxc, %b1pnistd : tensor<32x16x112x112xf32>
    %b1pngb = stablehlo.broadcast_in_dim %b1pg, dims = [1] : (tensor<16xf32>) -> tensor<32x16x112x112xf32>
    %b1pnbtb = stablehlo.broadcast_in_dim %b1pbt, dims = [1] : (tensor<16xf32>) -> tensor<32x16x112x112xf32>
    %b1pngx = stablehlo.multiply %b1pnxh, %b1pngb : tensor<32x16x112x112xf32>
    %b1pn = stablehlo.add %b1pngx, %b1pnbtb : tensor<32x16x112x112xf32>
    %b2ec = stablehlo.convolution(%b1pn, %b2eW)
      dim_numbers = [b, f, 0, 1]x[o, i, 0, 1]->[b, f, 0, 1],
      window = {stride = [1, 1], pad = [[0, 0], [0, 0]], lhs_dilate = [1, 1], rhs_dilate = [1, 1]}
      {batch_group_count = 1 : i64, feature_group_count = 1 : i64} : (tensor<32x16x112x112xf32>, tensor<96x16x1x1xf32>) -> tensor<32x96x112x112xf32>
    %b2ebb = stablehlo.broadcast_in_dim %b2eb, dims = [1] : (tensor<96xf32>) -> tensor<32x96x112x112xf32>
    %b2e = stablehlo.add %b2ec, %b2ebb : tensor<32x96x112x112xf32>
    %b2ennf = stablehlo.constant dense<401408.0> : tensor<32x96x112x112xf32>
    %b2enep = stablehlo.constant dense<1.0e-5> : tensor<32x96x112x112xf32>
    %b2ensmr = stablehlo.reduce(%b2e init: %sc) applies stablehlo.add across dimensions = [0, 2, 3] : (tensor<32x96x112x112xf32>, tensor<f32>) -> tensor<96xf32>
    %b2ensm = stablehlo.broadcast_in_dim %b2ensmr, dims = [1] : (tensor<96xf32>) -> tensor<32x96x112x112xf32>
    %b2enmu = stablehlo.divide %b2ensm, %b2ennf : tensor<32x96x112x112xf32>
    %b2enxc = stablehlo.subtract %b2e, %b2enmu : tensor<32x96x112x112xf32>
    %b2ensq = stablehlo.multiply %b2enxc, %b2enxc : tensor<32x96x112x112xf32>
    %b2envsr = stablehlo.reduce(%b2ensq init: %sc) applies stablehlo.add across dimensions = [0, 2, 3] : (tensor<32x96x112x112xf32>, tensor<f32>) -> tensor<96xf32>
    %b2envs = stablehlo.broadcast_in_dim %b2envsr, dims = [1] : (tensor<96xf32>) -> tensor<32x96x112x112xf32>
    %b2envr = stablehlo.divide %b2envs, %b2ennf : tensor<32x96x112x112xf32>
    %b2enve = stablehlo.add %b2envr, %b2enep : tensor<32x96x112x112xf32>
    %b2enistd = stablehlo.rsqrt %b2enve : tensor<32x96x112x112xf32>
    %b2enxh = stablehlo.multiply %b2enxc, %b2enistd : tensor<32x96x112x112xf32>
    %b2engb = stablehlo.broadcast_in_dim %b2eg, dims = [1] : (tensor<96xf32>) -> tensor<32x96x112x112xf32>
    %b2enbtb = stablehlo.broadcast_in_dim %b2ebt, dims = [1] : (tensor<96xf32>) -> tensor<32x96x112x112xf32>
    %b2engx = stablehlo.multiply %b2enxh, %b2engb : tensor<32x96x112x112xf32>
    %b2en = stablehlo.add %b2engx, %b2enbtb : tensor<32x96x112x112xf32>
    %b2ess = stablehlo.logistic %b2en : tensor<32x96x112x112xf32>
    %b2es = stablehlo.multiply %b2en, %b2ess : tensor<32x96x112x112xf32>
    %b2dc = stablehlo.convolution(%b2es, %b2dW)
      dim_numbers = [b, f, 0, 1]x[o, i, 0, 1]->[b, f, 0, 1],
      window = {stride = [2, 2], pad = [[1, 1], [1, 1]], lhs_dilate = [1, 1], rhs_dilate = [1, 1]}
      {batch_group_count = 1 : i64, feature_group_count = 96 : i64} : (tensor<32x96x112x112xf32>, tensor<96x1x3x3xf32>) -> tensor<32x96x56x56xf32>
    %b2dbb = stablehlo.broadcast_in_dim %b2db, dims = [1] : (tensor<96xf32>) -> tensor<32x96x56x56xf32>
    %b2d = stablehlo.add %b2dc, %b2dbb : tensor<32x96x56x56xf32>
    %b2dnnf = stablehlo.constant dense<100352.0> : tensor<32x96x56x56xf32>
    %b2dnep = stablehlo.constant dense<1.0e-5> : tensor<32x96x56x56xf32>
    %b2dnsmr = stablehlo.reduce(%b2d init: %sc) applies stablehlo.add across dimensions = [0, 2, 3] : (tensor<32x96x56x56xf32>, tensor<f32>) -> tensor<96xf32>
    %b2dnsm = stablehlo.broadcast_in_dim %b2dnsmr, dims = [1] : (tensor<96xf32>) -> tensor<32x96x56x56xf32>
    %b2dnmu = stablehlo.divide %b2dnsm, %b2dnnf : tensor<32x96x56x56xf32>
    %b2dnxc = stablehlo.subtract %b2d, %b2dnmu : tensor<32x96x56x56xf32>
    %b2dnsq = stablehlo.multiply %b2dnxc, %b2dnxc : tensor<32x96x56x56xf32>
    %b2dnvsr = stablehlo.reduce(%b2dnsq init: %sc) applies stablehlo.add across dimensions = [0, 2, 3] : (tensor<32x96x56x56xf32>, tensor<f32>) -> tensor<96xf32>
    %b2dnvs = stablehlo.broadcast_in_dim %b2dnvsr, dims = [1] : (tensor<96xf32>) -> tensor<32x96x56x56xf32>
    %b2dnvr = stablehlo.divide %b2dnvs, %b2dnnf : tensor<32x96x56x56xf32>
    %b2dnve = stablehlo.add %b2dnvr, %b2dnep : tensor<32x96x56x56xf32>
    %b2dnistd = stablehlo.rsqrt %b2dnve : tensor<32x96x56x56xf32>
    %b2dnxh = stablehlo.multiply %b2dnxc, %b2dnistd : tensor<32x96x56x56xf32>
    %b2dngb = stablehlo.broadcast_in_dim %b2dg, dims = [1] : (tensor<96xf32>) -> tensor<32x96x56x56xf32>
    %b2dnbtb = stablehlo.broadcast_in_dim %b2dbt, dims = [1] : (tensor<96xf32>) -> tensor<32x96x56x56xf32>
    %b2dngx = stablehlo.multiply %b2dnxh, %b2dngb : tensor<32x96x56x56xf32>
    %b2dn = stablehlo.add %b2dngx, %b2dnbtb : tensor<32x96x56x56xf32>
    %b2dss = stablehlo.logistic %b2dn : tensor<32x96x56x56xf32>
    %b2ds = stablehlo.multiply %b2dn, %b2dss : tensor<32x96x56x56xf32>
    %b2zsqs = stablehlo.reduce(%b2ds init: %sc) applies stablehlo.add across dimensions = [2, 3] : (tensor<32x96x56x56xf32>, tensor<f32>) -> tensor<32x96xf32>
    %b2zsqnf = stablehlo.constant dense<3136.0> : tensor<32x96xf32>
    %b2zsq = stablehlo.divide %b2zsqs, %b2zsqnf : tensor<32x96xf32>
    %b2zexd = stablehlo.dot_general %b2zsq, %b2zW1, contracting_dims = [1] x [0], precision = [DEFAULT, DEFAULT] : (tensor<32x96xf32>, tensor<96x4xf32>) -> tensor<32x4xf32>
    %b2zexbb = stablehlo.broadcast_in_dim %b2zb1, dims = [1] : (tensor<4xf32>) -> tensor<32x4xf32>
    %b2zex = stablehlo.add %b2zexd, %b2zexbb : tensor<32x4xf32>
    %b2za1s = stablehlo.logistic %b2zex : tensor<32x4xf32>
    %b2za1 = stablehlo.multiply %b2zex, %b2za1s : tensor<32x4xf32>
    %b2zh2d = stablehlo.dot_general %b2za1, %b2zW2, contracting_dims = [1] x [0], precision = [DEFAULT, DEFAULT] : (tensor<32x4xf32>, tensor<4x96xf32>) -> tensor<32x96xf32>
    %b2zh2bb = stablehlo.broadcast_in_dim %b2zb2, dims = [1] : (tensor<96xf32>) -> tensor<32x96xf32>
    %b2zh2 = stablehlo.add %b2zh2d, %b2zh2bb : tensor<32x96xf32>
    %b2zgate = stablehlo.logistic %b2zh2 : tensor<32x96xf32>
    %b2zgb = stablehlo.broadcast_in_dim %b2zgate, dims = [0, 1] : (tensor<32x96xf32>) -> tensor<32x96x56x56xf32>
    %b2zse = stablehlo.multiply %b2ds, %b2zgb : tensor<32x96x56x56xf32>
    %b2pc = stablehlo.convolution(%b2zse, %b2pW)
      dim_numbers = [b, f, 0, 1]x[o, i, 0, 1]->[b, f, 0, 1],
      window = {stride = [1, 1], pad = [[0, 0], [0, 0]], lhs_dilate = [1, 1], rhs_dilate = [1, 1]}
      {batch_group_count = 1 : i64, feature_group_count = 1 : i64} : (tensor<32x96x56x56xf32>, tensor<24x96x1x1xf32>) -> tensor<32x24x56x56xf32>
    %b2pbb = stablehlo.broadcast_in_dim %b2pb, dims = [1] : (tensor<24xf32>) -> tensor<32x24x56x56xf32>
    %b2p = stablehlo.add %b2pc, %b2pbb : tensor<32x24x56x56xf32>
    %b2pnnf = stablehlo.constant dense<100352.0> : tensor<32x24x56x56xf32>
    %b2pnep = stablehlo.constant dense<1.0e-5> : tensor<32x24x56x56xf32>
    %b2pnsmr = stablehlo.reduce(%b2p init: %sc) applies stablehlo.add across dimensions = [0, 2, 3] : (tensor<32x24x56x56xf32>, tensor<f32>) -> tensor<24xf32>
    %b2pnsm = stablehlo.broadcast_in_dim %b2pnsmr, dims = [1] : (tensor<24xf32>) -> tensor<32x24x56x56xf32>
    %b2pnmu = stablehlo.divide %b2pnsm, %b2pnnf : tensor<32x24x56x56xf32>
    %b2pnxc = stablehlo.subtract %b2p, %b2pnmu : tensor<32x24x56x56xf32>
    %b2pnsq = stablehlo.multiply %b2pnxc, %b2pnxc : tensor<32x24x56x56xf32>
    %b2pnvsr = stablehlo.reduce(%b2pnsq init: %sc) applies stablehlo.add across dimensions = [0, 2, 3] : (tensor<32x24x56x56xf32>, tensor<f32>) -> tensor<24xf32>
    %b2pnvs = stablehlo.broadcast_in_dim %b2pnvsr, dims = [1] : (tensor<24xf32>) -> tensor<32x24x56x56xf32>
    %b2pnvr = stablehlo.divide %b2pnvs, %b2pnnf : tensor<32x24x56x56xf32>
    %b2pnve = stablehlo.add %b2pnvr, %b2pnep : tensor<32x24x56x56xf32>
    %b2pnistd = stablehlo.rsqrt %b2pnve : tensor<32x24x56x56xf32>
    %b2pnxh = stablehlo.multiply %b2pnxc, %b2pnistd : tensor<32x24x56x56xf32>
    %b2pngb = stablehlo.broadcast_in_dim %b2pg, dims = [1] : (tensor<24xf32>) -> tensor<32x24x56x56xf32>
    %b2pnbtb = stablehlo.broadcast_in_dim %b2pbt, dims = [1] : (tensor<24xf32>) -> tensor<32x24x56x56xf32>
    %b2pngx = stablehlo.multiply %b2pnxh, %b2pngb : tensor<32x24x56x56xf32>
    %b2pn = stablehlo.add %b2pngx, %b2pnbtb : tensor<32x24x56x56xf32>
    %b3ec = stablehlo.convolution(%b2pn, %b3eW)
      dim_numbers = [b, f, 0, 1]x[o, i, 0, 1]->[b, f, 0, 1],
      window = {stride = [1, 1], pad = [[0, 0], [0, 0]], lhs_dilate = [1, 1], rhs_dilate = [1, 1]}
      {batch_group_count = 1 : i64, feature_group_count = 1 : i64} : (tensor<32x24x56x56xf32>, tensor<144x24x1x1xf32>) -> tensor<32x144x56x56xf32>
    %b3ebb = stablehlo.broadcast_in_dim %b3eb, dims = [1] : (tensor<144xf32>) -> tensor<32x144x56x56xf32>
    %b3e = stablehlo.add %b3ec, %b3ebb : tensor<32x144x56x56xf32>
    %b3ennf = stablehlo.constant dense<100352.0> : tensor<32x144x56x56xf32>
    %b3enep = stablehlo.constant dense<1.0e-5> : tensor<32x144x56x56xf32>
    %b3ensmr = stablehlo.reduce(%b3e init: %sc) applies stablehlo.add across dimensions = [0, 2, 3] : (tensor<32x144x56x56xf32>, tensor<f32>) -> tensor<144xf32>
    %b3ensm = stablehlo.broadcast_in_dim %b3ensmr, dims = [1] : (tensor<144xf32>) -> tensor<32x144x56x56xf32>
    %b3enmu = stablehlo.divide %b3ensm, %b3ennf : tensor<32x144x56x56xf32>
    %b3enxc = stablehlo.subtract %b3e, %b3enmu : tensor<32x144x56x56xf32>
    %b3ensq = stablehlo.multiply %b3enxc, %b3enxc : tensor<32x144x56x56xf32>
    %b3envsr = stablehlo.reduce(%b3ensq init: %sc) applies stablehlo.add across dimensions = [0, 2, 3] : (tensor<32x144x56x56xf32>, tensor<f32>) -> tensor<144xf32>
    %b3envs = stablehlo.broadcast_in_dim %b3envsr, dims = [1] : (tensor<144xf32>) -> tensor<32x144x56x56xf32>
    %b3envr = stablehlo.divide %b3envs, %b3ennf : tensor<32x144x56x56xf32>
    %b3enve = stablehlo.add %b3envr, %b3enep : tensor<32x144x56x56xf32>
    %b3enistd = stablehlo.rsqrt %b3enve : tensor<32x144x56x56xf32>
    %b3enxh = stablehlo.multiply %b3enxc, %b3enistd : tensor<32x144x56x56xf32>
    %b3engb = stablehlo.broadcast_in_dim %b3eg, dims = [1] : (tensor<144xf32>) -> tensor<32x144x56x56xf32>
    %b3enbtb = stablehlo.broadcast_in_dim %b3ebt, dims = [1] : (tensor<144xf32>) -> tensor<32x144x56x56xf32>
    %b3engx = stablehlo.multiply %b3enxh, %b3engb : tensor<32x144x56x56xf32>
    %b3en = stablehlo.add %b3engx, %b3enbtb : tensor<32x144x56x56xf32>
    %b3ess = stablehlo.logistic %b3en : tensor<32x144x56x56xf32>
    %b3es = stablehlo.multiply %b3en, %b3ess : tensor<32x144x56x56xf32>
    %b3dc = stablehlo.convolution(%b3es, %b3dW)
      dim_numbers = [b, f, 0, 1]x[o, i, 0, 1]->[b, f, 0, 1],
      window = {stride = [1, 1], pad = [[1, 1], [1, 1]], lhs_dilate = [1, 1], rhs_dilate = [1, 1]}
      {batch_group_count = 1 : i64, feature_group_count = 144 : i64} : (tensor<32x144x56x56xf32>, tensor<144x1x3x3xf32>) -> tensor<32x144x56x56xf32>
    %b3dbb = stablehlo.broadcast_in_dim %b3db, dims = [1] : (tensor<144xf32>) -> tensor<32x144x56x56xf32>
    %b3d = stablehlo.add %b3dc, %b3dbb : tensor<32x144x56x56xf32>
    %b3dnnf = stablehlo.constant dense<100352.0> : tensor<32x144x56x56xf32>
    %b3dnep = stablehlo.constant dense<1.0e-5> : tensor<32x144x56x56xf32>
    %b3dnsmr = stablehlo.reduce(%b3d init: %sc) applies stablehlo.add across dimensions = [0, 2, 3] : (tensor<32x144x56x56xf32>, tensor<f32>) -> tensor<144xf32>
    %b3dnsm = stablehlo.broadcast_in_dim %b3dnsmr, dims = [1] : (tensor<144xf32>) -> tensor<32x144x56x56xf32>
    %b3dnmu = stablehlo.divide %b3dnsm, %b3dnnf : tensor<32x144x56x56xf32>
    %b3dnxc = stablehlo.subtract %b3d, %b3dnmu : tensor<32x144x56x56xf32>
    %b3dnsq = stablehlo.multiply %b3dnxc, %b3dnxc : tensor<32x144x56x56xf32>
    %b3dnvsr = stablehlo.reduce(%b3dnsq init: %sc) applies stablehlo.add across dimensions = [0, 2, 3] : (tensor<32x144x56x56xf32>, tensor<f32>) -> tensor<144xf32>
    %b3dnvs = stablehlo.broadcast_in_dim %b3dnvsr, dims = [1] : (tensor<144xf32>) -> tensor<32x144x56x56xf32>
    %b3dnvr = stablehlo.divide %b3dnvs, %b3dnnf : tensor<32x144x56x56xf32>
    %b3dnve = stablehlo.add %b3dnvr, %b3dnep : tensor<32x144x56x56xf32>
    %b3dnistd = stablehlo.rsqrt %b3dnve : tensor<32x144x56x56xf32>
    %b3dnxh = stablehlo.multiply %b3dnxc, %b3dnistd : tensor<32x144x56x56xf32>
    %b3dngb = stablehlo.broadcast_in_dim %b3dg, dims = [1] : (tensor<144xf32>) -> tensor<32x144x56x56xf32>
    %b3dnbtb = stablehlo.broadcast_in_dim %b3dbt, dims = [1] : (tensor<144xf32>) -> tensor<32x144x56x56xf32>
    %b3dngx = stablehlo.multiply %b3dnxh, %b3dngb : tensor<32x144x56x56xf32>
    %b3dn = stablehlo.add %b3dngx, %b3dnbtb : tensor<32x144x56x56xf32>
    %b3dss = stablehlo.logistic %b3dn : tensor<32x144x56x56xf32>
    %b3ds = stablehlo.multiply %b3dn, %b3dss : tensor<32x144x56x56xf32>
    %b3zsqs = stablehlo.reduce(%b3ds init: %sc) applies stablehlo.add across dimensions = [2, 3] : (tensor<32x144x56x56xf32>, tensor<f32>) -> tensor<32x144xf32>
    %b3zsqnf = stablehlo.constant dense<3136.0> : tensor<32x144xf32>
    %b3zsq = stablehlo.divide %b3zsqs, %b3zsqnf : tensor<32x144xf32>
    %b3zexd = stablehlo.dot_general %b3zsq, %b3zW1, contracting_dims = [1] x [0], precision = [DEFAULT, DEFAULT] : (tensor<32x144xf32>, tensor<144x6xf32>) -> tensor<32x6xf32>
    %b3zexbb = stablehlo.broadcast_in_dim %b3zb1, dims = [1] : (tensor<6xf32>) -> tensor<32x6xf32>
    %b3zex = stablehlo.add %b3zexd, %b3zexbb : tensor<32x6xf32>
    %b3za1s = stablehlo.logistic %b3zex : tensor<32x6xf32>
    %b3za1 = stablehlo.multiply %b3zex, %b3za1s : tensor<32x6xf32>
    %b3zh2d = stablehlo.dot_general %b3za1, %b3zW2, contracting_dims = [1] x [0], precision = [DEFAULT, DEFAULT] : (tensor<32x6xf32>, tensor<6x144xf32>) -> tensor<32x144xf32>
    %b3zh2bb = stablehlo.broadcast_in_dim %b3zb2, dims = [1] : (tensor<144xf32>) -> tensor<32x144xf32>
    %b3zh2 = stablehlo.add %b3zh2d, %b3zh2bb : tensor<32x144xf32>
    %b3zgate = stablehlo.logistic %b3zh2 : tensor<32x144xf32>
    %b3zgb = stablehlo.broadcast_in_dim %b3zgate, dims = [0, 1] : (tensor<32x144xf32>) -> tensor<32x144x56x56xf32>
    %b3zse = stablehlo.multiply %b3ds, %b3zgb : tensor<32x144x56x56xf32>
    %b3pc = stablehlo.convolution(%b3zse, %b3pW)
      dim_numbers = [b, f, 0, 1]x[o, i, 0, 1]->[b, f, 0, 1],
      window = {stride = [1, 1], pad = [[0, 0], [0, 0]], lhs_dilate = [1, 1], rhs_dilate = [1, 1]}
      {batch_group_count = 1 : i64, feature_group_count = 1 : i64} : (tensor<32x144x56x56xf32>, tensor<24x144x1x1xf32>) -> tensor<32x24x56x56xf32>
    %b3pbb = stablehlo.broadcast_in_dim %b3pb, dims = [1] : (tensor<24xf32>) -> tensor<32x24x56x56xf32>
    %b3p = stablehlo.add %b3pc, %b3pbb : tensor<32x24x56x56xf32>
    %b3pnnf = stablehlo.constant dense<100352.0> : tensor<32x24x56x56xf32>
    %b3pnep = stablehlo.constant dense<1.0e-5> : tensor<32x24x56x56xf32>
    %b3pnsmr = stablehlo.reduce(%b3p init: %sc) applies stablehlo.add across dimensions = [0, 2, 3] : (tensor<32x24x56x56xf32>, tensor<f32>) -> tensor<24xf32>
    %b3pnsm = stablehlo.broadcast_in_dim %b3pnsmr, dims = [1] : (tensor<24xf32>) -> tensor<32x24x56x56xf32>
    %b3pnmu = stablehlo.divide %b3pnsm, %b3pnnf : tensor<32x24x56x56xf32>
    %b3pnxc = stablehlo.subtract %b3p, %b3pnmu : tensor<32x24x56x56xf32>
    %b3pnsq = stablehlo.multiply %b3pnxc, %b3pnxc : tensor<32x24x56x56xf32>
    %b3pnvsr = stablehlo.reduce(%b3pnsq init: %sc) applies stablehlo.add across dimensions = [0, 2, 3] : (tensor<32x24x56x56xf32>, tensor<f32>) -> tensor<24xf32>
    %b3pnvs = stablehlo.broadcast_in_dim %b3pnvsr, dims = [1] : (tensor<24xf32>) -> tensor<32x24x56x56xf32>
    %b3pnvr = stablehlo.divide %b3pnvs, %b3pnnf : tensor<32x24x56x56xf32>
    %b3pnve = stablehlo.add %b3pnvr, %b3pnep : tensor<32x24x56x56xf32>
    %b3pnistd = stablehlo.rsqrt %b3pnve : tensor<32x24x56x56xf32>
    %b3pnxh = stablehlo.multiply %b3pnxc, %b3pnistd : tensor<32x24x56x56xf32>
    %b3pngb = stablehlo.broadcast_in_dim %b3pg, dims = [1] : (tensor<24xf32>) -> tensor<32x24x56x56xf32>
    %b3pnbtb = stablehlo.broadcast_in_dim %b3pbt, dims = [1] : (tensor<24xf32>) -> tensor<32x24x56x56xf32>
    %b3pngx = stablehlo.multiply %b3pnxh, %b3pngb : tensor<32x24x56x56xf32>
    %b3pn = stablehlo.add %b3pngx, %b3pnbtb : tensor<32x24x56x56xf32>
    %b3o = stablehlo.add %b3pn, %b2pn : tensor<32x24x56x56xf32>
    %b4ec = stablehlo.convolution(%b3o, %b4eW)
      dim_numbers = [b, f, 0, 1]x[o, i, 0, 1]->[b, f, 0, 1],
      window = {stride = [1, 1], pad = [[0, 0], [0, 0]], lhs_dilate = [1, 1], rhs_dilate = [1, 1]}
      {batch_group_count = 1 : i64, feature_group_count = 1 : i64} : (tensor<32x24x56x56xf32>, tensor<144x24x1x1xf32>) -> tensor<32x144x56x56xf32>
    %b4ebb = stablehlo.broadcast_in_dim %b4eb, dims = [1] : (tensor<144xf32>) -> tensor<32x144x56x56xf32>
    %b4e = stablehlo.add %b4ec, %b4ebb : tensor<32x144x56x56xf32>
    %b4ennf = stablehlo.constant dense<100352.0> : tensor<32x144x56x56xf32>
    %b4enep = stablehlo.constant dense<1.0e-5> : tensor<32x144x56x56xf32>
    %b4ensmr = stablehlo.reduce(%b4e init: %sc) applies stablehlo.add across dimensions = [0, 2, 3] : (tensor<32x144x56x56xf32>, tensor<f32>) -> tensor<144xf32>
    %b4ensm = stablehlo.broadcast_in_dim %b4ensmr, dims = [1] : (tensor<144xf32>) -> tensor<32x144x56x56xf32>
    %b4enmu = stablehlo.divide %b4ensm, %b4ennf : tensor<32x144x56x56xf32>
    %b4enxc = stablehlo.subtract %b4e, %b4enmu : tensor<32x144x56x56xf32>
    %b4ensq = stablehlo.multiply %b4enxc, %b4enxc : tensor<32x144x56x56xf32>
    %b4envsr = stablehlo.reduce(%b4ensq init: %sc) applies stablehlo.add across dimensions = [0, 2, 3] : (tensor<32x144x56x56xf32>, tensor<f32>) -> tensor<144xf32>
    %b4envs = stablehlo.broadcast_in_dim %b4envsr, dims = [1] : (tensor<144xf32>) -> tensor<32x144x56x56xf32>
    %b4envr = stablehlo.divide %b4envs, %b4ennf : tensor<32x144x56x56xf32>
    %b4enve = stablehlo.add %b4envr, %b4enep : tensor<32x144x56x56xf32>
    %b4enistd = stablehlo.rsqrt %b4enve : tensor<32x144x56x56xf32>
    %b4enxh = stablehlo.multiply %b4enxc, %b4enistd : tensor<32x144x56x56xf32>
    %b4engb = stablehlo.broadcast_in_dim %b4eg, dims = [1] : (tensor<144xf32>) -> tensor<32x144x56x56xf32>
    %b4enbtb = stablehlo.broadcast_in_dim %b4ebt, dims = [1] : (tensor<144xf32>) -> tensor<32x144x56x56xf32>
    %b4engx = stablehlo.multiply %b4enxh, %b4engb : tensor<32x144x56x56xf32>
    %b4en = stablehlo.add %b4engx, %b4enbtb : tensor<32x144x56x56xf32>
    %b4ess = stablehlo.logistic %b4en : tensor<32x144x56x56xf32>
    %b4es = stablehlo.multiply %b4en, %b4ess : tensor<32x144x56x56xf32>
    %b4dc = stablehlo.convolution(%b4es, %b4dW)
      dim_numbers = [b, f, 0, 1]x[o, i, 0, 1]->[b, f, 0, 1],
      window = {stride = [2, 2], pad = [[2, 2], [2, 2]], lhs_dilate = [1, 1], rhs_dilate = [1, 1]}
      {batch_group_count = 1 : i64, feature_group_count = 144 : i64} : (tensor<32x144x56x56xf32>, tensor<144x1x5x5xf32>) -> tensor<32x144x28x28xf32>
    %b4dbb = stablehlo.broadcast_in_dim %b4db, dims = [1] : (tensor<144xf32>) -> tensor<32x144x28x28xf32>
    %b4d = stablehlo.add %b4dc, %b4dbb : tensor<32x144x28x28xf32>
    %b4dnnf = stablehlo.constant dense<25088.0> : tensor<32x144x28x28xf32>
    %b4dnep = stablehlo.constant dense<1.0e-5> : tensor<32x144x28x28xf32>
    %b4dnsmr = stablehlo.reduce(%b4d init: %sc) applies stablehlo.add across dimensions = [0, 2, 3] : (tensor<32x144x28x28xf32>, tensor<f32>) -> tensor<144xf32>
    %b4dnsm = stablehlo.broadcast_in_dim %b4dnsmr, dims = [1] : (tensor<144xf32>) -> tensor<32x144x28x28xf32>
    %b4dnmu = stablehlo.divide %b4dnsm, %b4dnnf : tensor<32x144x28x28xf32>
    %b4dnxc = stablehlo.subtract %b4d, %b4dnmu : tensor<32x144x28x28xf32>
    %b4dnsq = stablehlo.multiply %b4dnxc, %b4dnxc : tensor<32x144x28x28xf32>
    %b4dnvsr = stablehlo.reduce(%b4dnsq init: %sc) applies stablehlo.add across dimensions = [0, 2, 3] : (tensor<32x144x28x28xf32>, tensor<f32>) -> tensor<144xf32>
    %b4dnvs = stablehlo.broadcast_in_dim %b4dnvsr, dims = [1] : (tensor<144xf32>) -> tensor<32x144x28x28xf32>
    %b4dnvr = stablehlo.divide %b4dnvs, %b4dnnf : tensor<32x144x28x28xf32>
    %b4dnve = stablehlo.add %b4dnvr, %b4dnep : tensor<32x144x28x28xf32>
    %b4dnistd = stablehlo.rsqrt %b4dnve : tensor<32x144x28x28xf32>
    %b4dnxh = stablehlo.multiply %b4dnxc, %b4dnistd : tensor<32x144x28x28xf32>
    %b4dngb = stablehlo.broadcast_in_dim %b4dg, dims = [1] : (tensor<144xf32>) -> tensor<32x144x28x28xf32>
    %b4dnbtb = stablehlo.broadcast_in_dim %b4dbt, dims = [1] : (tensor<144xf32>) -> tensor<32x144x28x28xf32>
    %b4dngx = stablehlo.multiply %b4dnxh, %b4dngb : tensor<32x144x28x28xf32>
    %b4dn = stablehlo.add %b4dngx, %b4dnbtb : tensor<32x144x28x28xf32>
    %b4dss = stablehlo.logistic %b4dn : tensor<32x144x28x28xf32>
    %b4ds = stablehlo.multiply %b4dn, %b4dss : tensor<32x144x28x28xf32>
    %b4zsqs = stablehlo.reduce(%b4ds init: %sc) applies stablehlo.add across dimensions = [2, 3] : (tensor<32x144x28x28xf32>, tensor<f32>) -> tensor<32x144xf32>
    %b4zsqnf = stablehlo.constant dense<784.0> : tensor<32x144xf32>
    %b4zsq = stablehlo.divide %b4zsqs, %b4zsqnf : tensor<32x144xf32>
    %b4zexd = stablehlo.dot_general %b4zsq, %b4zW1, contracting_dims = [1] x [0], precision = [DEFAULT, DEFAULT] : (tensor<32x144xf32>, tensor<144x6xf32>) -> tensor<32x6xf32>
    %b4zexbb = stablehlo.broadcast_in_dim %b4zb1, dims = [1] : (tensor<6xf32>) -> tensor<32x6xf32>
    %b4zex = stablehlo.add %b4zexd, %b4zexbb : tensor<32x6xf32>
    %b4za1s = stablehlo.logistic %b4zex : tensor<32x6xf32>
    %b4za1 = stablehlo.multiply %b4zex, %b4za1s : tensor<32x6xf32>
    %b4zh2d = stablehlo.dot_general %b4za1, %b4zW2, contracting_dims = [1] x [0], precision = [DEFAULT, DEFAULT] : (tensor<32x6xf32>, tensor<6x144xf32>) -> tensor<32x144xf32>
    %b4zh2bb = stablehlo.broadcast_in_dim %b4zb2, dims = [1] : (tensor<144xf32>) -> tensor<32x144xf32>
    %b4zh2 = stablehlo.add %b4zh2d, %b4zh2bb : tensor<32x144xf32>
    %b4zgate = stablehlo.logistic %b4zh2 : tensor<32x144xf32>
    %b4zgb = stablehlo.broadcast_in_dim %b4zgate, dims = [0, 1] : (tensor<32x144xf32>) -> tensor<32x144x28x28xf32>
    %b4zse = stablehlo.multiply %b4ds, %b4zgb : tensor<32x144x28x28xf32>
    %b4pc = stablehlo.convolution(%b4zse, %b4pW)
      dim_numbers = [b, f, 0, 1]x[o, i, 0, 1]->[b, f, 0, 1],
      window = {stride = [1, 1], pad = [[0, 0], [0, 0]], lhs_dilate = [1, 1], rhs_dilate = [1, 1]}
      {batch_group_count = 1 : i64, feature_group_count = 1 : i64} : (tensor<32x144x28x28xf32>, tensor<40x144x1x1xf32>) -> tensor<32x40x28x28xf32>
    %b4pbb = stablehlo.broadcast_in_dim %b4pb, dims = [1] : (tensor<40xf32>) -> tensor<32x40x28x28xf32>
    %b4p = stablehlo.add %b4pc, %b4pbb : tensor<32x40x28x28xf32>
    %b4pnnf = stablehlo.constant dense<25088.0> : tensor<32x40x28x28xf32>
    %b4pnep = stablehlo.constant dense<1.0e-5> : tensor<32x40x28x28xf32>
    %b4pnsmr = stablehlo.reduce(%b4p init: %sc) applies stablehlo.add across dimensions = [0, 2, 3] : (tensor<32x40x28x28xf32>, tensor<f32>) -> tensor<40xf32>
    %b4pnsm = stablehlo.broadcast_in_dim %b4pnsmr, dims = [1] : (tensor<40xf32>) -> tensor<32x40x28x28xf32>
    %b4pnmu = stablehlo.divide %b4pnsm, %b4pnnf : tensor<32x40x28x28xf32>
    %b4pnxc = stablehlo.subtract %b4p, %b4pnmu : tensor<32x40x28x28xf32>
    %b4pnsq = stablehlo.multiply %b4pnxc, %b4pnxc : tensor<32x40x28x28xf32>
    %b4pnvsr = stablehlo.reduce(%b4pnsq init: %sc) applies stablehlo.add across dimensions = [0, 2, 3] : (tensor<32x40x28x28xf32>, tensor<f32>) -> tensor<40xf32>
    %b4pnvs = stablehlo.broadcast_in_dim %b4pnvsr, dims = [1] : (tensor<40xf32>) -> tensor<32x40x28x28xf32>
    %b4pnvr = stablehlo.divide %b4pnvs, %b4pnnf : tensor<32x40x28x28xf32>
    %b4pnve = stablehlo.add %b4pnvr, %b4pnep : tensor<32x40x28x28xf32>
    %b4pnistd = stablehlo.rsqrt %b4pnve : tensor<32x40x28x28xf32>
    %b4pnxh = stablehlo.multiply %b4pnxc, %b4pnistd : tensor<32x40x28x28xf32>
    %b4pngb = stablehlo.broadcast_in_dim %b4pg, dims = [1] : (tensor<40xf32>) -> tensor<32x40x28x28xf32>
    %b4pnbtb = stablehlo.broadcast_in_dim %b4pbt, dims = [1] : (tensor<40xf32>) -> tensor<32x40x28x28xf32>
    %b4pngx = stablehlo.multiply %b4pnxh, %b4pngb : tensor<32x40x28x28xf32>
    %b4pn = stablehlo.add %b4pngx, %b4pnbtb : tensor<32x40x28x28xf32>
    %b5ec = stablehlo.convolution(%b4pn, %b5eW)
      dim_numbers = [b, f, 0, 1]x[o, i, 0, 1]->[b, f, 0, 1],
      window = {stride = [1, 1], pad = [[0, 0], [0, 0]], lhs_dilate = [1, 1], rhs_dilate = [1, 1]}
      {batch_group_count = 1 : i64, feature_group_count = 1 : i64} : (tensor<32x40x28x28xf32>, tensor<240x40x1x1xf32>) -> tensor<32x240x28x28xf32>
    %b5ebb = stablehlo.broadcast_in_dim %b5eb, dims = [1] : (tensor<240xf32>) -> tensor<32x240x28x28xf32>
    %b5e = stablehlo.add %b5ec, %b5ebb : tensor<32x240x28x28xf32>
    %b5ennf = stablehlo.constant dense<25088.0> : tensor<32x240x28x28xf32>
    %b5enep = stablehlo.constant dense<1.0e-5> : tensor<32x240x28x28xf32>
    %b5ensmr = stablehlo.reduce(%b5e init: %sc) applies stablehlo.add across dimensions = [0, 2, 3] : (tensor<32x240x28x28xf32>, tensor<f32>) -> tensor<240xf32>
    %b5ensm = stablehlo.broadcast_in_dim %b5ensmr, dims = [1] : (tensor<240xf32>) -> tensor<32x240x28x28xf32>
    %b5enmu = stablehlo.divide %b5ensm, %b5ennf : tensor<32x240x28x28xf32>
    %b5enxc = stablehlo.subtract %b5e, %b5enmu : tensor<32x240x28x28xf32>
    %b5ensq = stablehlo.multiply %b5enxc, %b5enxc : tensor<32x240x28x28xf32>
    %b5envsr = stablehlo.reduce(%b5ensq init: %sc) applies stablehlo.add across dimensions = [0, 2, 3] : (tensor<32x240x28x28xf32>, tensor<f32>) -> tensor<240xf32>
    %b5envs = stablehlo.broadcast_in_dim %b5envsr, dims = [1] : (tensor<240xf32>) -> tensor<32x240x28x28xf32>
    %b5envr = stablehlo.divide %b5envs, %b5ennf : tensor<32x240x28x28xf32>
    %b5enve = stablehlo.add %b5envr, %b5enep : tensor<32x240x28x28xf32>
    %b5enistd = stablehlo.rsqrt %b5enve : tensor<32x240x28x28xf32>
    %b5enxh = stablehlo.multiply %b5enxc, %b5enistd : tensor<32x240x28x28xf32>
    %b5engb = stablehlo.broadcast_in_dim %b5eg, dims = [1] : (tensor<240xf32>) -> tensor<32x240x28x28xf32>
    %b5enbtb = stablehlo.broadcast_in_dim %b5ebt, dims = [1] : (tensor<240xf32>) -> tensor<32x240x28x28xf32>
    %b5engx = stablehlo.multiply %b5enxh, %b5engb : tensor<32x240x28x28xf32>
    %b5en = stablehlo.add %b5engx, %b5enbtb : tensor<32x240x28x28xf32>
    %b5ess = stablehlo.logistic %b5en : tensor<32x240x28x28xf32>
    %b5es = stablehlo.multiply %b5en, %b5ess : tensor<32x240x28x28xf32>
    %b5dc = stablehlo.convolution(%b5es, %b5dW)
      dim_numbers = [b, f, 0, 1]x[o, i, 0, 1]->[b, f, 0, 1],
      window = {stride = [1, 1], pad = [[2, 2], [2, 2]], lhs_dilate = [1, 1], rhs_dilate = [1, 1]}
      {batch_group_count = 1 : i64, feature_group_count = 240 : i64} : (tensor<32x240x28x28xf32>, tensor<240x1x5x5xf32>) -> tensor<32x240x28x28xf32>
    %b5dbb = stablehlo.broadcast_in_dim %b5db, dims = [1] : (tensor<240xf32>) -> tensor<32x240x28x28xf32>
    %b5d = stablehlo.add %b5dc, %b5dbb : tensor<32x240x28x28xf32>
    %b5dnnf = stablehlo.constant dense<25088.0> : tensor<32x240x28x28xf32>
    %b5dnep = stablehlo.constant dense<1.0e-5> : tensor<32x240x28x28xf32>
    %b5dnsmr = stablehlo.reduce(%b5d init: %sc) applies stablehlo.add across dimensions = [0, 2, 3] : (tensor<32x240x28x28xf32>, tensor<f32>) -> tensor<240xf32>
    %b5dnsm = stablehlo.broadcast_in_dim %b5dnsmr, dims = [1] : (tensor<240xf32>) -> tensor<32x240x28x28xf32>
    %b5dnmu = stablehlo.divide %b5dnsm, %b5dnnf : tensor<32x240x28x28xf32>
    %b5dnxc = stablehlo.subtract %b5d, %b5dnmu : tensor<32x240x28x28xf32>
    %b5dnsq = stablehlo.multiply %b5dnxc, %b5dnxc : tensor<32x240x28x28xf32>
    %b5dnvsr = stablehlo.reduce(%b5dnsq init: %sc) applies stablehlo.add across dimensions = [0, 2, 3] : (tensor<32x240x28x28xf32>, tensor<f32>) -> tensor<240xf32>
    %b5dnvs = stablehlo.broadcast_in_dim %b5dnvsr, dims = [1] : (tensor<240xf32>) -> tensor<32x240x28x28xf32>
    %b5dnvr = stablehlo.divide %b5dnvs, %b5dnnf : tensor<32x240x28x28xf32>
    %b5dnve = stablehlo.add %b5dnvr, %b5dnep : tensor<32x240x28x28xf32>
    %b5dnistd = stablehlo.rsqrt %b5dnve : tensor<32x240x28x28xf32>
    %b5dnxh = stablehlo.multiply %b5dnxc, %b5dnistd : tensor<32x240x28x28xf32>
    %b5dngb = stablehlo.broadcast_in_dim %b5dg, dims = [1] : (tensor<240xf32>) -> tensor<32x240x28x28xf32>
    %b5dnbtb = stablehlo.broadcast_in_dim %b5dbt, dims = [1] : (tensor<240xf32>) -> tensor<32x240x28x28xf32>
    %b5dngx = stablehlo.multiply %b5dnxh, %b5dngb : tensor<32x240x28x28xf32>
    %b5dn = stablehlo.add %b5dngx, %b5dnbtb : tensor<32x240x28x28xf32>
    %b5dss = stablehlo.logistic %b5dn : tensor<32x240x28x28xf32>
    %b5ds = stablehlo.multiply %b5dn, %b5dss : tensor<32x240x28x28xf32>
    %b5zsqs = stablehlo.reduce(%b5ds init: %sc) applies stablehlo.add across dimensions = [2, 3] : (tensor<32x240x28x28xf32>, tensor<f32>) -> tensor<32x240xf32>
    %b5zsqnf = stablehlo.constant dense<784.0> : tensor<32x240xf32>
    %b5zsq = stablehlo.divide %b5zsqs, %b5zsqnf : tensor<32x240xf32>
    %b5zexd = stablehlo.dot_general %b5zsq, %b5zW1, contracting_dims = [1] x [0], precision = [DEFAULT, DEFAULT] : (tensor<32x240xf32>, tensor<240x10xf32>) -> tensor<32x10xf32>
    %b5zexbb = stablehlo.broadcast_in_dim %b5zb1, dims = [1] : (tensor<10xf32>) -> tensor<32x10xf32>
    %b5zex = stablehlo.add %b5zexd, %b5zexbb : tensor<32x10xf32>
    %b5za1s = stablehlo.logistic %b5zex : tensor<32x10xf32>
    %b5za1 = stablehlo.multiply %b5zex, %b5za1s : tensor<32x10xf32>
    %b5zh2d = stablehlo.dot_general %b5za1, %b5zW2, contracting_dims = [1] x [0], precision = [DEFAULT, DEFAULT] : (tensor<32x10xf32>, tensor<10x240xf32>) -> tensor<32x240xf32>
    %b5zh2bb = stablehlo.broadcast_in_dim %b5zb2, dims = [1] : (tensor<240xf32>) -> tensor<32x240xf32>
    %b5zh2 = stablehlo.add %b5zh2d, %b5zh2bb : tensor<32x240xf32>
    %b5zgate = stablehlo.logistic %b5zh2 : tensor<32x240xf32>
    %b5zgb = stablehlo.broadcast_in_dim %b5zgate, dims = [0, 1] : (tensor<32x240xf32>) -> tensor<32x240x28x28xf32>
    %b5zse = stablehlo.multiply %b5ds, %b5zgb : tensor<32x240x28x28xf32>
    %b5pc = stablehlo.convolution(%b5zse, %b5pW)
      dim_numbers = [b, f, 0, 1]x[o, i, 0, 1]->[b, f, 0, 1],
      window = {stride = [1, 1], pad = [[0, 0], [0, 0]], lhs_dilate = [1, 1], rhs_dilate = [1, 1]}
      {batch_group_count = 1 : i64, feature_group_count = 1 : i64} : (tensor<32x240x28x28xf32>, tensor<40x240x1x1xf32>) -> tensor<32x40x28x28xf32>
    %b5pbb = stablehlo.broadcast_in_dim %b5pb, dims = [1] : (tensor<40xf32>) -> tensor<32x40x28x28xf32>
    %b5p = stablehlo.add %b5pc, %b5pbb : tensor<32x40x28x28xf32>
    %b5pnnf = stablehlo.constant dense<25088.0> : tensor<32x40x28x28xf32>
    %b5pnep = stablehlo.constant dense<1.0e-5> : tensor<32x40x28x28xf32>
    %b5pnsmr = stablehlo.reduce(%b5p init: %sc) applies stablehlo.add across dimensions = [0, 2, 3] : (tensor<32x40x28x28xf32>, tensor<f32>) -> tensor<40xf32>
    %b5pnsm = stablehlo.broadcast_in_dim %b5pnsmr, dims = [1] : (tensor<40xf32>) -> tensor<32x40x28x28xf32>
    %b5pnmu = stablehlo.divide %b5pnsm, %b5pnnf : tensor<32x40x28x28xf32>
    %b5pnxc = stablehlo.subtract %b5p, %b5pnmu : tensor<32x40x28x28xf32>
    %b5pnsq = stablehlo.multiply %b5pnxc, %b5pnxc : tensor<32x40x28x28xf32>
    %b5pnvsr = stablehlo.reduce(%b5pnsq init: %sc) applies stablehlo.add across dimensions = [0, 2, 3] : (tensor<32x40x28x28xf32>, tensor<f32>) -> tensor<40xf32>
    %b5pnvs = stablehlo.broadcast_in_dim %b5pnvsr, dims = [1] : (tensor<40xf32>) -> tensor<32x40x28x28xf32>
    %b5pnvr = stablehlo.divide %b5pnvs, %b5pnnf : tensor<32x40x28x28xf32>
    %b5pnve = stablehlo.add %b5pnvr, %b5pnep : tensor<32x40x28x28xf32>
    %b5pnistd = stablehlo.rsqrt %b5pnve : tensor<32x40x28x28xf32>
    %b5pnxh = stablehlo.multiply %b5pnxc, %b5pnistd : tensor<32x40x28x28xf32>
    %b5pngb = stablehlo.broadcast_in_dim %b5pg, dims = [1] : (tensor<40xf32>) -> tensor<32x40x28x28xf32>
    %b5pnbtb = stablehlo.broadcast_in_dim %b5pbt, dims = [1] : (tensor<40xf32>) -> tensor<32x40x28x28xf32>
    %b5pngx = stablehlo.multiply %b5pnxh, %b5pngb : tensor<32x40x28x28xf32>
    %b5pn = stablehlo.add %b5pngx, %b5pnbtb : tensor<32x40x28x28xf32>
    %b5o = stablehlo.add %b5pn, %b4pn : tensor<32x40x28x28xf32>
    %b6ec = stablehlo.convolution(%b5o, %b6eW)
      dim_numbers = [b, f, 0, 1]x[o, i, 0, 1]->[b, f, 0, 1],
      window = {stride = [1, 1], pad = [[0, 0], [0, 0]], lhs_dilate = [1, 1], rhs_dilate = [1, 1]}
      {batch_group_count = 1 : i64, feature_group_count = 1 : i64} : (tensor<32x40x28x28xf32>, tensor<240x40x1x1xf32>) -> tensor<32x240x28x28xf32>
    %b6ebb = stablehlo.broadcast_in_dim %b6eb, dims = [1] : (tensor<240xf32>) -> tensor<32x240x28x28xf32>
    %b6e = stablehlo.add %b6ec, %b6ebb : tensor<32x240x28x28xf32>
    %b6ennf = stablehlo.constant dense<25088.0> : tensor<32x240x28x28xf32>
    %b6enep = stablehlo.constant dense<1.0e-5> : tensor<32x240x28x28xf32>
    %b6ensmr = stablehlo.reduce(%b6e init: %sc) applies stablehlo.add across dimensions = [0, 2, 3] : (tensor<32x240x28x28xf32>, tensor<f32>) -> tensor<240xf32>
    %b6ensm = stablehlo.broadcast_in_dim %b6ensmr, dims = [1] : (tensor<240xf32>) -> tensor<32x240x28x28xf32>
    %b6enmu = stablehlo.divide %b6ensm, %b6ennf : tensor<32x240x28x28xf32>
    %b6enxc = stablehlo.subtract %b6e, %b6enmu : tensor<32x240x28x28xf32>
    %b6ensq = stablehlo.multiply %b6enxc, %b6enxc : tensor<32x240x28x28xf32>
    %b6envsr = stablehlo.reduce(%b6ensq init: %sc) applies stablehlo.add across dimensions = [0, 2, 3] : (tensor<32x240x28x28xf32>, tensor<f32>) -> tensor<240xf32>
    %b6envs = stablehlo.broadcast_in_dim %b6envsr, dims = [1] : (tensor<240xf32>) -> tensor<32x240x28x28xf32>
    %b6envr = stablehlo.divide %b6envs, %b6ennf : tensor<32x240x28x28xf32>
    %b6enve = stablehlo.add %b6envr, %b6enep : tensor<32x240x28x28xf32>
    %b6enistd = stablehlo.rsqrt %b6enve : tensor<32x240x28x28xf32>
    %b6enxh = stablehlo.multiply %b6enxc, %b6enistd : tensor<32x240x28x28xf32>
    %b6engb = stablehlo.broadcast_in_dim %b6eg, dims = [1] : (tensor<240xf32>) -> tensor<32x240x28x28xf32>
    %b6enbtb = stablehlo.broadcast_in_dim %b6ebt, dims = [1] : (tensor<240xf32>) -> tensor<32x240x28x28xf32>
    %b6engx = stablehlo.multiply %b6enxh, %b6engb : tensor<32x240x28x28xf32>
    %b6en = stablehlo.add %b6engx, %b6enbtb : tensor<32x240x28x28xf32>
    %b6ess = stablehlo.logistic %b6en : tensor<32x240x28x28xf32>
    %b6es = stablehlo.multiply %b6en, %b6ess : tensor<32x240x28x28xf32>
    %b6dc = stablehlo.convolution(%b6es, %b6dW)
      dim_numbers = [b, f, 0, 1]x[o, i, 0, 1]->[b, f, 0, 1],
      window = {stride = [2, 2], pad = [[1, 1], [1, 1]], lhs_dilate = [1, 1], rhs_dilate = [1, 1]}
      {batch_group_count = 1 : i64, feature_group_count = 240 : i64} : (tensor<32x240x28x28xf32>, tensor<240x1x3x3xf32>) -> tensor<32x240x14x14xf32>
    %b6dbb = stablehlo.broadcast_in_dim %b6db, dims = [1] : (tensor<240xf32>) -> tensor<32x240x14x14xf32>
    %b6d = stablehlo.add %b6dc, %b6dbb : tensor<32x240x14x14xf32>
    %b6dnnf = stablehlo.constant dense<6272.0> : tensor<32x240x14x14xf32>
    %b6dnep = stablehlo.constant dense<1.0e-5> : tensor<32x240x14x14xf32>
    %b6dnsmr = stablehlo.reduce(%b6d init: %sc) applies stablehlo.add across dimensions = [0, 2, 3] : (tensor<32x240x14x14xf32>, tensor<f32>) -> tensor<240xf32>
    %b6dnsm = stablehlo.broadcast_in_dim %b6dnsmr, dims = [1] : (tensor<240xf32>) -> tensor<32x240x14x14xf32>
    %b6dnmu = stablehlo.divide %b6dnsm, %b6dnnf : tensor<32x240x14x14xf32>
    %b6dnxc = stablehlo.subtract %b6d, %b6dnmu : tensor<32x240x14x14xf32>
    %b6dnsq = stablehlo.multiply %b6dnxc, %b6dnxc : tensor<32x240x14x14xf32>
    %b6dnvsr = stablehlo.reduce(%b6dnsq init: %sc) applies stablehlo.add across dimensions = [0, 2, 3] : (tensor<32x240x14x14xf32>, tensor<f32>) -> tensor<240xf32>
    %b6dnvs = stablehlo.broadcast_in_dim %b6dnvsr, dims = [1] : (tensor<240xf32>) -> tensor<32x240x14x14xf32>
    %b6dnvr = stablehlo.divide %b6dnvs, %b6dnnf : tensor<32x240x14x14xf32>
    %b6dnve = stablehlo.add %b6dnvr, %b6dnep : tensor<32x240x14x14xf32>
    %b6dnistd = stablehlo.rsqrt %b6dnve : tensor<32x240x14x14xf32>
    %b6dnxh = stablehlo.multiply %b6dnxc, %b6dnistd : tensor<32x240x14x14xf32>
    %b6dngb = stablehlo.broadcast_in_dim %b6dg, dims = [1] : (tensor<240xf32>) -> tensor<32x240x14x14xf32>
    %b6dnbtb = stablehlo.broadcast_in_dim %b6dbt, dims = [1] : (tensor<240xf32>) -> tensor<32x240x14x14xf32>
    %b6dngx = stablehlo.multiply %b6dnxh, %b6dngb : tensor<32x240x14x14xf32>
    %b6dn = stablehlo.add %b6dngx, %b6dnbtb : tensor<32x240x14x14xf32>
    %b6dss = stablehlo.logistic %b6dn : tensor<32x240x14x14xf32>
    %b6ds = stablehlo.multiply %b6dn, %b6dss : tensor<32x240x14x14xf32>
    %b6zsqs = stablehlo.reduce(%b6ds init: %sc) applies stablehlo.add across dimensions = [2, 3] : (tensor<32x240x14x14xf32>, tensor<f32>) -> tensor<32x240xf32>
    %b6zsqnf = stablehlo.constant dense<196.0> : tensor<32x240xf32>
    %b6zsq = stablehlo.divide %b6zsqs, %b6zsqnf : tensor<32x240xf32>
    %b6zexd = stablehlo.dot_general %b6zsq, %b6zW1, contracting_dims = [1] x [0], precision = [DEFAULT, DEFAULT] : (tensor<32x240xf32>, tensor<240x10xf32>) -> tensor<32x10xf32>
    %b6zexbb = stablehlo.broadcast_in_dim %b6zb1, dims = [1] : (tensor<10xf32>) -> tensor<32x10xf32>
    %b6zex = stablehlo.add %b6zexd, %b6zexbb : tensor<32x10xf32>
    %b6za1s = stablehlo.logistic %b6zex : tensor<32x10xf32>
    %b6za1 = stablehlo.multiply %b6zex, %b6za1s : tensor<32x10xf32>
    %b6zh2d = stablehlo.dot_general %b6za1, %b6zW2, contracting_dims = [1] x [0], precision = [DEFAULT, DEFAULT] : (tensor<32x10xf32>, tensor<10x240xf32>) -> tensor<32x240xf32>
    %b6zh2bb = stablehlo.broadcast_in_dim %b6zb2, dims = [1] : (tensor<240xf32>) -> tensor<32x240xf32>
    %b6zh2 = stablehlo.add %b6zh2d, %b6zh2bb : tensor<32x240xf32>
    %b6zgate = stablehlo.logistic %b6zh2 : tensor<32x240xf32>
    %b6zgb = stablehlo.broadcast_in_dim %b6zgate, dims = [0, 1] : (tensor<32x240xf32>) -> tensor<32x240x14x14xf32>
    %b6zse = stablehlo.multiply %b6ds, %b6zgb : tensor<32x240x14x14xf32>
    %b6pc = stablehlo.convolution(%b6zse, %b6pW)
      dim_numbers = [b, f, 0, 1]x[o, i, 0, 1]->[b, f, 0, 1],
      window = {stride = [1, 1], pad = [[0, 0], [0, 0]], lhs_dilate = [1, 1], rhs_dilate = [1, 1]}
      {batch_group_count = 1 : i64, feature_group_count = 1 : i64} : (tensor<32x240x14x14xf32>, tensor<80x240x1x1xf32>) -> tensor<32x80x14x14xf32>
    %b6pbb = stablehlo.broadcast_in_dim %b6pb, dims = [1] : (tensor<80xf32>) -> tensor<32x80x14x14xf32>
    %b6p = stablehlo.add %b6pc, %b6pbb : tensor<32x80x14x14xf32>
    %b6pnnf = stablehlo.constant dense<6272.0> : tensor<32x80x14x14xf32>
    %b6pnep = stablehlo.constant dense<1.0e-5> : tensor<32x80x14x14xf32>
    %b6pnsmr = stablehlo.reduce(%b6p init: %sc) applies stablehlo.add across dimensions = [0, 2, 3] : (tensor<32x80x14x14xf32>, tensor<f32>) -> tensor<80xf32>
    %b6pnsm = stablehlo.broadcast_in_dim %b6pnsmr, dims = [1] : (tensor<80xf32>) -> tensor<32x80x14x14xf32>
    %b6pnmu = stablehlo.divide %b6pnsm, %b6pnnf : tensor<32x80x14x14xf32>
    %b6pnxc = stablehlo.subtract %b6p, %b6pnmu : tensor<32x80x14x14xf32>
    %b6pnsq = stablehlo.multiply %b6pnxc, %b6pnxc : tensor<32x80x14x14xf32>
    %b6pnvsr = stablehlo.reduce(%b6pnsq init: %sc) applies stablehlo.add across dimensions = [0, 2, 3] : (tensor<32x80x14x14xf32>, tensor<f32>) -> tensor<80xf32>
    %b6pnvs = stablehlo.broadcast_in_dim %b6pnvsr, dims = [1] : (tensor<80xf32>) -> tensor<32x80x14x14xf32>
    %b6pnvr = stablehlo.divide %b6pnvs, %b6pnnf : tensor<32x80x14x14xf32>
    %b6pnve = stablehlo.add %b6pnvr, %b6pnep : tensor<32x80x14x14xf32>
    %b6pnistd = stablehlo.rsqrt %b6pnve : tensor<32x80x14x14xf32>
    %b6pnxh = stablehlo.multiply %b6pnxc, %b6pnistd : tensor<32x80x14x14xf32>
    %b6pngb = stablehlo.broadcast_in_dim %b6pg, dims = [1] : (tensor<80xf32>) -> tensor<32x80x14x14xf32>
    %b6pnbtb = stablehlo.broadcast_in_dim %b6pbt, dims = [1] : (tensor<80xf32>) -> tensor<32x80x14x14xf32>
    %b6pngx = stablehlo.multiply %b6pnxh, %b6pngb : tensor<32x80x14x14xf32>
    %b6pn = stablehlo.add %b6pngx, %b6pnbtb : tensor<32x80x14x14xf32>
    %b7ec = stablehlo.convolution(%b6pn, %b7eW)
      dim_numbers = [b, f, 0, 1]x[o, i, 0, 1]->[b, f, 0, 1],
      window = {stride = [1, 1], pad = [[0, 0], [0, 0]], lhs_dilate = [1, 1], rhs_dilate = [1, 1]}
      {batch_group_count = 1 : i64, feature_group_count = 1 : i64} : (tensor<32x80x14x14xf32>, tensor<480x80x1x1xf32>) -> tensor<32x480x14x14xf32>
    %b7ebb = stablehlo.broadcast_in_dim %b7eb, dims = [1] : (tensor<480xf32>) -> tensor<32x480x14x14xf32>
    %b7e = stablehlo.add %b7ec, %b7ebb : tensor<32x480x14x14xf32>
    %b7ennf = stablehlo.constant dense<6272.0> : tensor<32x480x14x14xf32>
    %b7enep = stablehlo.constant dense<1.0e-5> : tensor<32x480x14x14xf32>
    %b7ensmr = stablehlo.reduce(%b7e init: %sc) applies stablehlo.add across dimensions = [0, 2, 3] : (tensor<32x480x14x14xf32>, tensor<f32>) -> tensor<480xf32>
    %b7ensm = stablehlo.broadcast_in_dim %b7ensmr, dims = [1] : (tensor<480xf32>) -> tensor<32x480x14x14xf32>
    %b7enmu = stablehlo.divide %b7ensm, %b7ennf : tensor<32x480x14x14xf32>
    %b7enxc = stablehlo.subtract %b7e, %b7enmu : tensor<32x480x14x14xf32>
    %b7ensq = stablehlo.multiply %b7enxc, %b7enxc : tensor<32x480x14x14xf32>
    %b7envsr = stablehlo.reduce(%b7ensq init: %sc) applies stablehlo.add across dimensions = [0, 2, 3] : (tensor<32x480x14x14xf32>, tensor<f32>) -> tensor<480xf32>
    %b7envs = stablehlo.broadcast_in_dim %b7envsr, dims = [1] : (tensor<480xf32>) -> tensor<32x480x14x14xf32>
    %b7envr = stablehlo.divide %b7envs, %b7ennf : tensor<32x480x14x14xf32>
    %b7enve = stablehlo.add %b7envr, %b7enep : tensor<32x480x14x14xf32>
    %b7enistd = stablehlo.rsqrt %b7enve : tensor<32x480x14x14xf32>
    %b7enxh = stablehlo.multiply %b7enxc, %b7enistd : tensor<32x480x14x14xf32>
    %b7engb = stablehlo.broadcast_in_dim %b7eg, dims = [1] : (tensor<480xf32>) -> tensor<32x480x14x14xf32>
    %b7enbtb = stablehlo.broadcast_in_dim %b7ebt, dims = [1] : (tensor<480xf32>) -> tensor<32x480x14x14xf32>
    %b7engx = stablehlo.multiply %b7enxh, %b7engb : tensor<32x480x14x14xf32>
    %b7en = stablehlo.add %b7engx, %b7enbtb : tensor<32x480x14x14xf32>
    %b7ess = stablehlo.logistic %b7en : tensor<32x480x14x14xf32>
    %b7es = stablehlo.multiply %b7en, %b7ess : tensor<32x480x14x14xf32>
    %b7dc = stablehlo.convolution(%b7es, %b7dW)
      dim_numbers = [b, f, 0, 1]x[o, i, 0, 1]->[b, f, 0, 1],
      window = {stride = [1, 1], pad = [[1, 1], [1, 1]], lhs_dilate = [1, 1], rhs_dilate = [1, 1]}
      {batch_group_count = 1 : i64, feature_group_count = 480 : i64} : (tensor<32x480x14x14xf32>, tensor<480x1x3x3xf32>) -> tensor<32x480x14x14xf32>
    %b7dbb = stablehlo.broadcast_in_dim %b7db, dims = [1] : (tensor<480xf32>) -> tensor<32x480x14x14xf32>
    %b7d = stablehlo.add %b7dc, %b7dbb : tensor<32x480x14x14xf32>
    %b7dnnf = stablehlo.constant dense<6272.0> : tensor<32x480x14x14xf32>
    %b7dnep = stablehlo.constant dense<1.0e-5> : tensor<32x480x14x14xf32>
    %b7dnsmr = stablehlo.reduce(%b7d init: %sc) applies stablehlo.add across dimensions = [0, 2, 3] : (tensor<32x480x14x14xf32>, tensor<f32>) -> tensor<480xf32>
    %b7dnsm = stablehlo.broadcast_in_dim %b7dnsmr, dims = [1] : (tensor<480xf32>) -> tensor<32x480x14x14xf32>
    %b7dnmu = stablehlo.divide %b7dnsm, %b7dnnf : tensor<32x480x14x14xf32>
    %b7dnxc = stablehlo.subtract %b7d, %b7dnmu : tensor<32x480x14x14xf32>
    %b7dnsq = stablehlo.multiply %b7dnxc, %b7dnxc : tensor<32x480x14x14xf32>
    %b7dnvsr = stablehlo.reduce(%b7dnsq init: %sc) applies stablehlo.add across dimensions = [0, 2, 3] : (tensor<32x480x14x14xf32>, tensor<f32>) -> tensor<480xf32>
    %b7dnvs = stablehlo.broadcast_in_dim %b7dnvsr, dims = [1] : (tensor<480xf32>) -> tensor<32x480x14x14xf32>
    %b7dnvr = stablehlo.divide %b7dnvs, %b7dnnf : tensor<32x480x14x14xf32>
    %b7dnve = stablehlo.add %b7dnvr, %b7dnep : tensor<32x480x14x14xf32>
    %b7dnistd = stablehlo.rsqrt %b7dnve : tensor<32x480x14x14xf32>
    %b7dnxh = stablehlo.multiply %b7dnxc, %b7dnistd : tensor<32x480x14x14xf32>
    %b7dngb = stablehlo.broadcast_in_dim %b7dg, dims = [1] : (tensor<480xf32>) -> tensor<32x480x14x14xf32>
    %b7dnbtb = stablehlo.broadcast_in_dim %b7dbt, dims = [1] : (tensor<480xf32>) -> tensor<32x480x14x14xf32>
    %b7dngx = stablehlo.multiply %b7dnxh, %b7dngb : tensor<32x480x14x14xf32>
    %b7dn = stablehlo.add %b7dngx, %b7dnbtb : tensor<32x480x14x14xf32>
    %b7dss = stablehlo.logistic %b7dn : tensor<32x480x14x14xf32>
    %b7ds = stablehlo.multiply %b7dn, %b7dss : tensor<32x480x14x14xf32>
    %b7zsqs = stablehlo.reduce(%b7ds init: %sc) applies stablehlo.add across dimensions = [2, 3] : (tensor<32x480x14x14xf32>, tensor<f32>) -> tensor<32x480xf32>
    %b7zsqnf = stablehlo.constant dense<196.0> : tensor<32x480xf32>
    %b7zsq = stablehlo.divide %b7zsqs, %b7zsqnf : tensor<32x480xf32>
    %b7zexd = stablehlo.dot_general %b7zsq, %b7zW1, contracting_dims = [1] x [0], precision = [DEFAULT, DEFAULT] : (tensor<32x480xf32>, tensor<480x20xf32>) -> tensor<32x20xf32>
    %b7zexbb = stablehlo.broadcast_in_dim %b7zb1, dims = [1] : (tensor<20xf32>) -> tensor<32x20xf32>
    %b7zex = stablehlo.add %b7zexd, %b7zexbb : tensor<32x20xf32>
    %b7za1s = stablehlo.logistic %b7zex : tensor<32x20xf32>
    %b7za1 = stablehlo.multiply %b7zex, %b7za1s : tensor<32x20xf32>
    %b7zh2d = stablehlo.dot_general %b7za1, %b7zW2, contracting_dims = [1] x [0], precision = [DEFAULT, DEFAULT] : (tensor<32x20xf32>, tensor<20x480xf32>) -> tensor<32x480xf32>
    %b7zh2bb = stablehlo.broadcast_in_dim %b7zb2, dims = [1] : (tensor<480xf32>) -> tensor<32x480xf32>
    %b7zh2 = stablehlo.add %b7zh2d, %b7zh2bb : tensor<32x480xf32>
    %b7zgate = stablehlo.logistic %b7zh2 : tensor<32x480xf32>
    %b7zgb = stablehlo.broadcast_in_dim %b7zgate, dims = [0, 1] : (tensor<32x480xf32>) -> tensor<32x480x14x14xf32>
    %b7zse = stablehlo.multiply %b7ds, %b7zgb : tensor<32x480x14x14xf32>
    %b7pc = stablehlo.convolution(%b7zse, %b7pW)
      dim_numbers = [b, f, 0, 1]x[o, i, 0, 1]->[b, f, 0, 1],
      window = {stride = [1, 1], pad = [[0, 0], [0, 0]], lhs_dilate = [1, 1], rhs_dilate = [1, 1]}
      {batch_group_count = 1 : i64, feature_group_count = 1 : i64} : (tensor<32x480x14x14xf32>, tensor<80x480x1x1xf32>) -> tensor<32x80x14x14xf32>
    %b7pbb = stablehlo.broadcast_in_dim %b7pb, dims = [1] : (tensor<80xf32>) -> tensor<32x80x14x14xf32>
    %b7p = stablehlo.add %b7pc, %b7pbb : tensor<32x80x14x14xf32>
    %b7pnnf = stablehlo.constant dense<6272.0> : tensor<32x80x14x14xf32>
    %b7pnep = stablehlo.constant dense<1.0e-5> : tensor<32x80x14x14xf32>
    %b7pnsmr = stablehlo.reduce(%b7p init: %sc) applies stablehlo.add across dimensions = [0, 2, 3] : (tensor<32x80x14x14xf32>, tensor<f32>) -> tensor<80xf32>
    %b7pnsm = stablehlo.broadcast_in_dim %b7pnsmr, dims = [1] : (tensor<80xf32>) -> tensor<32x80x14x14xf32>
    %b7pnmu = stablehlo.divide %b7pnsm, %b7pnnf : tensor<32x80x14x14xf32>
    %b7pnxc = stablehlo.subtract %b7p, %b7pnmu : tensor<32x80x14x14xf32>
    %b7pnsq = stablehlo.multiply %b7pnxc, %b7pnxc : tensor<32x80x14x14xf32>
    %b7pnvsr = stablehlo.reduce(%b7pnsq init: %sc) applies stablehlo.add across dimensions = [0, 2, 3] : (tensor<32x80x14x14xf32>, tensor<f32>) -> tensor<80xf32>
    %b7pnvs = stablehlo.broadcast_in_dim %b7pnvsr, dims = [1] : (tensor<80xf32>) -> tensor<32x80x14x14xf32>
    %b7pnvr = stablehlo.divide %b7pnvs, %b7pnnf : tensor<32x80x14x14xf32>
    %b7pnve = stablehlo.add %b7pnvr, %b7pnep : tensor<32x80x14x14xf32>
    %b7pnistd = stablehlo.rsqrt %b7pnve : tensor<32x80x14x14xf32>
    %b7pnxh = stablehlo.multiply %b7pnxc, %b7pnistd : tensor<32x80x14x14xf32>
    %b7pngb = stablehlo.broadcast_in_dim %b7pg, dims = [1] : (tensor<80xf32>) -> tensor<32x80x14x14xf32>
    %b7pnbtb = stablehlo.broadcast_in_dim %b7pbt, dims = [1] : (tensor<80xf32>) -> tensor<32x80x14x14xf32>
    %b7pngx = stablehlo.multiply %b7pnxh, %b7pngb : tensor<32x80x14x14xf32>
    %b7pn = stablehlo.add %b7pngx, %b7pnbtb : tensor<32x80x14x14xf32>
    %b7o = stablehlo.add %b7pn, %b6pn : tensor<32x80x14x14xf32>
    %b8ec = stablehlo.convolution(%b7o, %b8eW)
      dim_numbers = [b, f, 0, 1]x[o, i, 0, 1]->[b, f, 0, 1],
      window = {stride = [1, 1], pad = [[0, 0], [0, 0]], lhs_dilate = [1, 1], rhs_dilate = [1, 1]}
      {batch_group_count = 1 : i64, feature_group_count = 1 : i64} : (tensor<32x80x14x14xf32>, tensor<480x80x1x1xf32>) -> tensor<32x480x14x14xf32>
    %b8ebb = stablehlo.broadcast_in_dim %b8eb, dims = [1] : (tensor<480xf32>) -> tensor<32x480x14x14xf32>
    %b8e = stablehlo.add %b8ec, %b8ebb : tensor<32x480x14x14xf32>
    %b8ennf = stablehlo.constant dense<6272.0> : tensor<32x480x14x14xf32>
    %b8enep = stablehlo.constant dense<1.0e-5> : tensor<32x480x14x14xf32>
    %b8ensmr = stablehlo.reduce(%b8e init: %sc) applies stablehlo.add across dimensions = [0, 2, 3] : (tensor<32x480x14x14xf32>, tensor<f32>) -> tensor<480xf32>
    %b8ensm = stablehlo.broadcast_in_dim %b8ensmr, dims = [1] : (tensor<480xf32>) -> tensor<32x480x14x14xf32>
    %b8enmu = stablehlo.divide %b8ensm, %b8ennf : tensor<32x480x14x14xf32>
    %b8enxc = stablehlo.subtract %b8e, %b8enmu : tensor<32x480x14x14xf32>
    %b8ensq = stablehlo.multiply %b8enxc, %b8enxc : tensor<32x480x14x14xf32>
    %b8envsr = stablehlo.reduce(%b8ensq init: %sc) applies stablehlo.add across dimensions = [0, 2, 3] : (tensor<32x480x14x14xf32>, tensor<f32>) -> tensor<480xf32>
    %b8envs = stablehlo.broadcast_in_dim %b8envsr, dims = [1] : (tensor<480xf32>) -> tensor<32x480x14x14xf32>
    %b8envr = stablehlo.divide %b8envs, %b8ennf : tensor<32x480x14x14xf32>
    %b8enve = stablehlo.add %b8envr, %b8enep : tensor<32x480x14x14xf32>
    %b8enistd = stablehlo.rsqrt %b8enve : tensor<32x480x14x14xf32>
    %b8enxh = stablehlo.multiply %b8enxc, %b8enistd : tensor<32x480x14x14xf32>
    %b8engb = stablehlo.broadcast_in_dim %b8eg, dims = [1] : (tensor<480xf32>) -> tensor<32x480x14x14xf32>
    %b8enbtb = stablehlo.broadcast_in_dim %b8ebt, dims = [1] : (tensor<480xf32>) -> tensor<32x480x14x14xf32>
    %b8engx = stablehlo.multiply %b8enxh, %b8engb : tensor<32x480x14x14xf32>
    %b8en = stablehlo.add %b8engx, %b8enbtb : tensor<32x480x14x14xf32>
    %b8ess = stablehlo.logistic %b8en : tensor<32x480x14x14xf32>
    %b8es = stablehlo.multiply %b8en, %b8ess : tensor<32x480x14x14xf32>
    %b8dc = stablehlo.convolution(%b8es, %b8dW)
      dim_numbers = [b, f, 0, 1]x[o, i, 0, 1]->[b, f, 0, 1],
      window = {stride = [1, 1], pad = [[1, 1], [1, 1]], lhs_dilate = [1, 1], rhs_dilate = [1, 1]}
      {batch_group_count = 1 : i64, feature_group_count = 480 : i64} : (tensor<32x480x14x14xf32>, tensor<480x1x3x3xf32>) -> tensor<32x480x14x14xf32>
    %b8dbb = stablehlo.broadcast_in_dim %b8db, dims = [1] : (tensor<480xf32>) -> tensor<32x480x14x14xf32>
    %b8d = stablehlo.add %b8dc, %b8dbb : tensor<32x480x14x14xf32>
    %b8dnnf = stablehlo.constant dense<6272.0> : tensor<32x480x14x14xf32>
    %b8dnep = stablehlo.constant dense<1.0e-5> : tensor<32x480x14x14xf32>
    %b8dnsmr = stablehlo.reduce(%b8d init: %sc) applies stablehlo.add across dimensions = [0, 2, 3] : (tensor<32x480x14x14xf32>, tensor<f32>) -> tensor<480xf32>
    %b8dnsm = stablehlo.broadcast_in_dim %b8dnsmr, dims = [1] : (tensor<480xf32>) -> tensor<32x480x14x14xf32>
    %b8dnmu = stablehlo.divide %b8dnsm, %b8dnnf : tensor<32x480x14x14xf32>
    %b8dnxc = stablehlo.subtract %b8d, %b8dnmu : tensor<32x480x14x14xf32>
    %b8dnsq = stablehlo.multiply %b8dnxc, %b8dnxc : tensor<32x480x14x14xf32>
    %b8dnvsr = stablehlo.reduce(%b8dnsq init: %sc) applies stablehlo.add across dimensions = [0, 2, 3] : (tensor<32x480x14x14xf32>, tensor<f32>) -> tensor<480xf32>
    %b8dnvs = stablehlo.broadcast_in_dim %b8dnvsr, dims = [1] : (tensor<480xf32>) -> tensor<32x480x14x14xf32>
    %b8dnvr = stablehlo.divide %b8dnvs, %b8dnnf : tensor<32x480x14x14xf32>
    %b8dnve = stablehlo.add %b8dnvr, %b8dnep : tensor<32x480x14x14xf32>
    %b8dnistd = stablehlo.rsqrt %b8dnve : tensor<32x480x14x14xf32>
    %b8dnxh = stablehlo.multiply %b8dnxc, %b8dnistd : tensor<32x480x14x14xf32>
    %b8dngb = stablehlo.broadcast_in_dim %b8dg, dims = [1] : (tensor<480xf32>) -> tensor<32x480x14x14xf32>
    %b8dnbtb = stablehlo.broadcast_in_dim %b8dbt, dims = [1] : (tensor<480xf32>) -> tensor<32x480x14x14xf32>
    %b8dngx = stablehlo.multiply %b8dnxh, %b8dngb : tensor<32x480x14x14xf32>
    %b8dn = stablehlo.add %b8dngx, %b8dnbtb : tensor<32x480x14x14xf32>
    %b8dss = stablehlo.logistic %b8dn : tensor<32x480x14x14xf32>
    %b8ds = stablehlo.multiply %b8dn, %b8dss : tensor<32x480x14x14xf32>
    %b8zsqs = stablehlo.reduce(%b8ds init: %sc) applies stablehlo.add across dimensions = [2, 3] : (tensor<32x480x14x14xf32>, tensor<f32>) -> tensor<32x480xf32>
    %b8zsqnf = stablehlo.constant dense<196.0> : tensor<32x480xf32>
    %b8zsq = stablehlo.divide %b8zsqs, %b8zsqnf : tensor<32x480xf32>
    %b8zexd = stablehlo.dot_general %b8zsq, %b8zW1, contracting_dims = [1] x [0], precision = [DEFAULT, DEFAULT] : (tensor<32x480xf32>, tensor<480x20xf32>) -> tensor<32x20xf32>
    %b8zexbb = stablehlo.broadcast_in_dim %b8zb1, dims = [1] : (tensor<20xf32>) -> tensor<32x20xf32>
    %b8zex = stablehlo.add %b8zexd, %b8zexbb : tensor<32x20xf32>
    %b8za1s = stablehlo.logistic %b8zex : tensor<32x20xf32>
    %b8za1 = stablehlo.multiply %b8zex, %b8za1s : tensor<32x20xf32>
    %b8zh2d = stablehlo.dot_general %b8za1, %b8zW2, contracting_dims = [1] x [0], precision = [DEFAULT, DEFAULT] : (tensor<32x20xf32>, tensor<20x480xf32>) -> tensor<32x480xf32>
    %b8zh2bb = stablehlo.broadcast_in_dim %b8zb2, dims = [1] : (tensor<480xf32>) -> tensor<32x480xf32>
    %b8zh2 = stablehlo.add %b8zh2d, %b8zh2bb : tensor<32x480xf32>
    %b8zgate = stablehlo.logistic %b8zh2 : tensor<32x480xf32>
    %b8zgb = stablehlo.broadcast_in_dim %b8zgate, dims = [0, 1] : (tensor<32x480xf32>) -> tensor<32x480x14x14xf32>
    %b8zse = stablehlo.multiply %b8ds, %b8zgb : tensor<32x480x14x14xf32>
    %b8pc = stablehlo.convolution(%b8zse, %b8pW)
      dim_numbers = [b, f, 0, 1]x[o, i, 0, 1]->[b, f, 0, 1],
      window = {stride = [1, 1], pad = [[0, 0], [0, 0]], lhs_dilate = [1, 1], rhs_dilate = [1, 1]}
      {batch_group_count = 1 : i64, feature_group_count = 1 : i64} : (tensor<32x480x14x14xf32>, tensor<80x480x1x1xf32>) -> tensor<32x80x14x14xf32>
    %b8pbb = stablehlo.broadcast_in_dim %b8pb, dims = [1] : (tensor<80xf32>) -> tensor<32x80x14x14xf32>
    %b8p = stablehlo.add %b8pc, %b8pbb : tensor<32x80x14x14xf32>
    %b8pnnf = stablehlo.constant dense<6272.0> : tensor<32x80x14x14xf32>
    %b8pnep = stablehlo.constant dense<1.0e-5> : tensor<32x80x14x14xf32>
    %b8pnsmr = stablehlo.reduce(%b8p init: %sc) applies stablehlo.add across dimensions = [0, 2, 3] : (tensor<32x80x14x14xf32>, tensor<f32>) -> tensor<80xf32>
    %b8pnsm = stablehlo.broadcast_in_dim %b8pnsmr, dims = [1] : (tensor<80xf32>) -> tensor<32x80x14x14xf32>
    %b8pnmu = stablehlo.divide %b8pnsm, %b8pnnf : tensor<32x80x14x14xf32>
    %b8pnxc = stablehlo.subtract %b8p, %b8pnmu : tensor<32x80x14x14xf32>
    %b8pnsq = stablehlo.multiply %b8pnxc, %b8pnxc : tensor<32x80x14x14xf32>
    %b8pnvsr = stablehlo.reduce(%b8pnsq init: %sc) applies stablehlo.add across dimensions = [0, 2, 3] : (tensor<32x80x14x14xf32>, tensor<f32>) -> tensor<80xf32>
    %b8pnvs = stablehlo.broadcast_in_dim %b8pnvsr, dims = [1] : (tensor<80xf32>) -> tensor<32x80x14x14xf32>
    %b8pnvr = stablehlo.divide %b8pnvs, %b8pnnf : tensor<32x80x14x14xf32>
    %b8pnve = stablehlo.add %b8pnvr, %b8pnep : tensor<32x80x14x14xf32>
    %b8pnistd = stablehlo.rsqrt %b8pnve : tensor<32x80x14x14xf32>
    %b8pnxh = stablehlo.multiply %b8pnxc, %b8pnistd : tensor<32x80x14x14xf32>
    %b8pngb = stablehlo.broadcast_in_dim %b8pg, dims = [1] : (tensor<80xf32>) -> tensor<32x80x14x14xf32>
    %b8pnbtb = stablehlo.broadcast_in_dim %b8pbt, dims = [1] : (tensor<80xf32>) -> tensor<32x80x14x14xf32>
    %b8pngx = stablehlo.multiply %b8pnxh, %b8pngb : tensor<32x80x14x14xf32>
    %b8pn = stablehlo.add %b8pngx, %b8pnbtb : tensor<32x80x14x14xf32>
    %b8o = stablehlo.add %b8pn, %b7o : tensor<32x80x14x14xf32>
    %b9ec = stablehlo.convolution(%b8o, %b9eW)
      dim_numbers = [b, f, 0, 1]x[o, i, 0, 1]->[b, f, 0, 1],
      window = {stride = [1, 1], pad = [[0, 0], [0, 0]], lhs_dilate = [1, 1], rhs_dilate = [1, 1]}
      {batch_group_count = 1 : i64, feature_group_count = 1 : i64} : (tensor<32x80x14x14xf32>, tensor<480x80x1x1xf32>) -> tensor<32x480x14x14xf32>
    %b9ebb = stablehlo.broadcast_in_dim %b9eb, dims = [1] : (tensor<480xf32>) -> tensor<32x480x14x14xf32>
    %b9e = stablehlo.add %b9ec, %b9ebb : tensor<32x480x14x14xf32>
    %b9ennf = stablehlo.constant dense<6272.0> : tensor<32x480x14x14xf32>
    %b9enep = stablehlo.constant dense<1.0e-5> : tensor<32x480x14x14xf32>
    %b9ensmr = stablehlo.reduce(%b9e init: %sc) applies stablehlo.add across dimensions = [0, 2, 3] : (tensor<32x480x14x14xf32>, tensor<f32>) -> tensor<480xf32>
    %b9ensm = stablehlo.broadcast_in_dim %b9ensmr, dims = [1] : (tensor<480xf32>) -> tensor<32x480x14x14xf32>
    %b9enmu = stablehlo.divide %b9ensm, %b9ennf : tensor<32x480x14x14xf32>
    %b9enxc = stablehlo.subtract %b9e, %b9enmu : tensor<32x480x14x14xf32>
    %b9ensq = stablehlo.multiply %b9enxc, %b9enxc : tensor<32x480x14x14xf32>
    %b9envsr = stablehlo.reduce(%b9ensq init: %sc) applies stablehlo.add across dimensions = [0, 2, 3] : (tensor<32x480x14x14xf32>, tensor<f32>) -> tensor<480xf32>
    %b9envs = stablehlo.broadcast_in_dim %b9envsr, dims = [1] : (tensor<480xf32>) -> tensor<32x480x14x14xf32>
    %b9envr = stablehlo.divide %b9envs, %b9ennf : tensor<32x480x14x14xf32>
    %b9enve = stablehlo.add %b9envr, %b9enep : tensor<32x480x14x14xf32>
    %b9enistd = stablehlo.rsqrt %b9enve : tensor<32x480x14x14xf32>
    %b9enxh = stablehlo.multiply %b9enxc, %b9enistd : tensor<32x480x14x14xf32>
    %b9engb = stablehlo.broadcast_in_dim %b9eg, dims = [1] : (tensor<480xf32>) -> tensor<32x480x14x14xf32>
    %b9enbtb = stablehlo.broadcast_in_dim %b9ebt, dims = [1] : (tensor<480xf32>) -> tensor<32x480x14x14xf32>
    %b9engx = stablehlo.multiply %b9enxh, %b9engb : tensor<32x480x14x14xf32>
    %b9en = stablehlo.add %b9engx, %b9enbtb : tensor<32x480x14x14xf32>
    %b9ess = stablehlo.logistic %b9en : tensor<32x480x14x14xf32>
    %b9es = stablehlo.multiply %b9en, %b9ess : tensor<32x480x14x14xf32>
    %b9dc = stablehlo.convolution(%b9es, %b9dW)
      dim_numbers = [b, f, 0, 1]x[o, i, 0, 1]->[b, f, 0, 1],
      window = {stride = [1, 1], pad = [[2, 2], [2, 2]], lhs_dilate = [1, 1], rhs_dilate = [1, 1]}
      {batch_group_count = 1 : i64, feature_group_count = 480 : i64} : (tensor<32x480x14x14xf32>, tensor<480x1x5x5xf32>) -> tensor<32x480x14x14xf32>
    %b9dbb = stablehlo.broadcast_in_dim %b9db, dims = [1] : (tensor<480xf32>) -> tensor<32x480x14x14xf32>
    %b9d = stablehlo.add %b9dc, %b9dbb : tensor<32x480x14x14xf32>
    %b9dnnf = stablehlo.constant dense<6272.0> : tensor<32x480x14x14xf32>
    %b9dnep = stablehlo.constant dense<1.0e-5> : tensor<32x480x14x14xf32>
    %b9dnsmr = stablehlo.reduce(%b9d init: %sc) applies stablehlo.add across dimensions = [0, 2, 3] : (tensor<32x480x14x14xf32>, tensor<f32>) -> tensor<480xf32>
    %b9dnsm = stablehlo.broadcast_in_dim %b9dnsmr, dims = [1] : (tensor<480xf32>) -> tensor<32x480x14x14xf32>
    %b9dnmu = stablehlo.divide %b9dnsm, %b9dnnf : tensor<32x480x14x14xf32>
    %b9dnxc = stablehlo.subtract %b9d, %b9dnmu : tensor<32x480x14x14xf32>
    %b9dnsq = stablehlo.multiply %b9dnxc, %b9dnxc : tensor<32x480x14x14xf32>
    %b9dnvsr = stablehlo.reduce(%b9dnsq init: %sc) applies stablehlo.add across dimensions = [0, 2, 3] : (tensor<32x480x14x14xf32>, tensor<f32>) -> tensor<480xf32>
    %b9dnvs = stablehlo.broadcast_in_dim %b9dnvsr, dims = [1] : (tensor<480xf32>) -> tensor<32x480x14x14xf32>
    %b9dnvr = stablehlo.divide %b9dnvs, %b9dnnf : tensor<32x480x14x14xf32>
    %b9dnve = stablehlo.add %b9dnvr, %b9dnep : tensor<32x480x14x14xf32>
    %b9dnistd = stablehlo.rsqrt %b9dnve : tensor<32x480x14x14xf32>
    %b9dnxh = stablehlo.multiply %b9dnxc, %b9dnistd : tensor<32x480x14x14xf32>
    %b9dngb = stablehlo.broadcast_in_dim %b9dg, dims = [1] : (tensor<480xf32>) -> tensor<32x480x14x14xf32>
    %b9dnbtb = stablehlo.broadcast_in_dim %b9dbt, dims = [1] : (tensor<480xf32>) -> tensor<32x480x14x14xf32>
    %b9dngx = stablehlo.multiply %b9dnxh, %b9dngb : tensor<32x480x14x14xf32>
    %b9dn = stablehlo.add %b9dngx, %b9dnbtb : tensor<32x480x14x14xf32>
    %b9dss = stablehlo.logistic %b9dn : tensor<32x480x14x14xf32>
    %b9ds = stablehlo.multiply %b9dn, %b9dss : tensor<32x480x14x14xf32>
    %b9zsqs = stablehlo.reduce(%b9ds init: %sc) applies stablehlo.add across dimensions = [2, 3] : (tensor<32x480x14x14xf32>, tensor<f32>) -> tensor<32x480xf32>
    %b9zsqnf = stablehlo.constant dense<196.0> : tensor<32x480xf32>
    %b9zsq = stablehlo.divide %b9zsqs, %b9zsqnf : tensor<32x480xf32>
    %b9zexd = stablehlo.dot_general %b9zsq, %b9zW1, contracting_dims = [1] x [0], precision = [DEFAULT, DEFAULT] : (tensor<32x480xf32>, tensor<480x20xf32>) -> tensor<32x20xf32>
    %b9zexbb = stablehlo.broadcast_in_dim %b9zb1, dims = [1] : (tensor<20xf32>) -> tensor<32x20xf32>
    %b9zex = stablehlo.add %b9zexd, %b9zexbb : tensor<32x20xf32>
    %b9za1s = stablehlo.logistic %b9zex : tensor<32x20xf32>
    %b9za1 = stablehlo.multiply %b9zex, %b9za1s : tensor<32x20xf32>
    %b9zh2d = stablehlo.dot_general %b9za1, %b9zW2, contracting_dims = [1] x [0], precision = [DEFAULT, DEFAULT] : (tensor<32x20xf32>, tensor<20x480xf32>) -> tensor<32x480xf32>
    %b9zh2bb = stablehlo.broadcast_in_dim %b9zb2, dims = [1] : (tensor<480xf32>) -> tensor<32x480xf32>
    %b9zh2 = stablehlo.add %b9zh2d, %b9zh2bb : tensor<32x480xf32>
    %b9zgate = stablehlo.logistic %b9zh2 : tensor<32x480xf32>
    %b9zgb = stablehlo.broadcast_in_dim %b9zgate, dims = [0, 1] : (tensor<32x480xf32>) -> tensor<32x480x14x14xf32>
    %b9zse = stablehlo.multiply %b9ds, %b9zgb : tensor<32x480x14x14xf32>
    %b9pc = stablehlo.convolution(%b9zse, %b9pW)
      dim_numbers = [b, f, 0, 1]x[o, i, 0, 1]->[b, f, 0, 1],
      window = {stride = [1, 1], pad = [[0, 0], [0, 0]], lhs_dilate = [1, 1], rhs_dilate = [1, 1]}
      {batch_group_count = 1 : i64, feature_group_count = 1 : i64} : (tensor<32x480x14x14xf32>, tensor<112x480x1x1xf32>) -> tensor<32x112x14x14xf32>
    %b9pbb = stablehlo.broadcast_in_dim %b9pb, dims = [1] : (tensor<112xf32>) -> tensor<32x112x14x14xf32>
    %b9p = stablehlo.add %b9pc, %b9pbb : tensor<32x112x14x14xf32>
    %b9pnnf = stablehlo.constant dense<6272.0> : tensor<32x112x14x14xf32>
    %b9pnep = stablehlo.constant dense<1.0e-5> : tensor<32x112x14x14xf32>
    %b9pnsmr = stablehlo.reduce(%b9p init: %sc) applies stablehlo.add across dimensions = [0, 2, 3] : (tensor<32x112x14x14xf32>, tensor<f32>) -> tensor<112xf32>
    %b9pnsm = stablehlo.broadcast_in_dim %b9pnsmr, dims = [1] : (tensor<112xf32>) -> tensor<32x112x14x14xf32>
    %b9pnmu = stablehlo.divide %b9pnsm, %b9pnnf : tensor<32x112x14x14xf32>
    %b9pnxc = stablehlo.subtract %b9p, %b9pnmu : tensor<32x112x14x14xf32>
    %b9pnsq = stablehlo.multiply %b9pnxc, %b9pnxc : tensor<32x112x14x14xf32>
    %b9pnvsr = stablehlo.reduce(%b9pnsq init: %sc) applies stablehlo.add across dimensions = [0, 2, 3] : (tensor<32x112x14x14xf32>, tensor<f32>) -> tensor<112xf32>
    %b9pnvs = stablehlo.broadcast_in_dim %b9pnvsr, dims = [1] : (tensor<112xf32>) -> tensor<32x112x14x14xf32>
    %b9pnvr = stablehlo.divide %b9pnvs, %b9pnnf : tensor<32x112x14x14xf32>
    %b9pnve = stablehlo.add %b9pnvr, %b9pnep : tensor<32x112x14x14xf32>
    %b9pnistd = stablehlo.rsqrt %b9pnve : tensor<32x112x14x14xf32>
    %b9pnxh = stablehlo.multiply %b9pnxc, %b9pnistd : tensor<32x112x14x14xf32>
    %b9pngb = stablehlo.broadcast_in_dim %b9pg, dims = [1] : (tensor<112xf32>) -> tensor<32x112x14x14xf32>
    %b9pnbtb = stablehlo.broadcast_in_dim %b9pbt, dims = [1] : (tensor<112xf32>) -> tensor<32x112x14x14xf32>
    %b9pngx = stablehlo.multiply %b9pnxh, %b9pngb : tensor<32x112x14x14xf32>
    %b9pn = stablehlo.add %b9pngx, %b9pnbtb : tensor<32x112x14x14xf32>
    %b10ec = stablehlo.convolution(%b9pn, %b10eW)
      dim_numbers = [b, f, 0, 1]x[o, i, 0, 1]->[b, f, 0, 1],
      window = {stride = [1, 1], pad = [[0, 0], [0, 0]], lhs_dilate = [1, 1], rhs_dilate = [1, 1]}
      {batch_group_count = 1 : i64, feature_group_count = 1 : i64} : (tensor<32x112x14x14xf32>, tensor<672x112x1x1xf32>) -> tensor<32x672x14x14xf32>
    %b10ebb = stablehlo.broadcast_in_dim %b10eb, dims = [1] : (tensor<672xf32>) -> tensor<32x672x14x14xf32>
    %b10e = stablehlo.add %b10ec, %b10ebb : tensor<32x672x14x14xf32>
    %b10ennf = stablehlo.constant dense<6272.0> : tensor<32x672x14x14xf32>
    %b10enep = stablehlo.constant dense<1.0e-5> : tensor<32x672x14x14xf32>
    %b10ensmr = stablehlo.reduce(%b10e init: %sc) applies stablehlo.add across dimensions = [0, 2, 3] : (tensor<32x672x14x14xf32>, tensor<f32>) -> tensor<672xf32>
    %b10ensm = stablehlo.broadcast_in_dim %b10ensmr, dims = [1] : (tensor<672xf32>) -> tensor<32x672x14x14xf32>
    %b10enmu = stablehlo.divide %b10ensm, %b10ennf : tensor<32x672x14x14xf32>
    %b10enxc = stablehlo.subtract %b10e, %b10enmu : tensor<32x672x14x14xf32>
    %b10ensq = stablehlo.multiply %b10enxc, %b10enxc : tensor<32x672x14x14xf32>
    %b10envsr = stablehlo.reduce(%b10ensq init: %sc) applies stablehlo.add across dimensions = [0, 2, 3] : (tensor<32x672x14x14xf32>, tensor<f32>) -> tensor<672xf32>
    %b10envs = stablehlo.broadcast_in_dim %b10envsr, dims = [1] : (tensor<672xf32>) -> tensor<32x672x14x14xf32>
    %b10envr = stablehlo.divide %b10envs, %b10ennf : tensor<32x672x14x14xf32>
    %b10enve = stablehlo.add %b10envr, %b10enep : tensor<32x672x14x14xf32>
    %b10enistd = stablehlo.rsqrt %b10enve : tensor<32x672x14x14xf32>
    %b10enxh = stablehlo.multiply %b10enxc, %b10enistd : tensor<32x672x14x14xf32>
    %b10engb = stablehlo.broadcast_in_dim %b10eg, dims = [1] : (tensor<672xf32>) -> tensor<32x672x14x14xf32>
    %b10enbtb = stablehlo.broadcast_in_dim %b10ebt, dims = [1] : (tensor<672xf32>) -> tensor<32x672x14x14xf32>
    %b10engx = stablehlo.multiply %b10enxh, %b10engb : tensor<32x672x14x14xf32>
    %b10en = stablehlo.add %b10engx, %b10enbtb : tensor<32x672x14x14xf32>
    %b10ess = stablehlo.logistic %b10en : tensor<32x672x14x14xf32>
    %b10es = stablehlo.multiply %b10en, %b10ess : tensor<32x672x14x14xf32>
    %b10dc = stablehlo.convolution(%b10es, %b10dW)
      dim_numbers = [b, f, 0, 1]x[o, i, 0, 1]->[b, f, 0, 1],
      window = {stride = [1, 1], pad = [[2, 2], [2, 2]], lhs_dilate = [1, 1], rhs_dilate = [1, 1]}
      {batch_group_count = 1 : i64, feature_group_count = 672 : i64} : (tensor<32x672x14x14xf32>, tensor<672x1x5x5xf32>) -> tensor<32x672x14x14xf32>
    %b10dbb = stablehlo.broadcast_in_dim %b10db, dims = [1] : (tensor<672xf32>) -> tensor<32x672x14x14xf32>
    %b10d = stablehlo.add %b10dc, %b10dbb : tensor<32x672x14x14xf32>
    %b10dnnf = stablehlo.constant dense<6272.0> : tensor<32x672x14x14xf32>
    %b10dnep = stablehlo.constant dense<1.0e-5> : tensor<32x672x14x14xf32>
    %b10dnsmr = stablehlo.reduce(%b10d init: %sc) applies stablehlo.add across dimensions = [0, 2, 3] : (tensor<32x672x14x14xf32>, tensor<f32>) -> tensor<672xf32>
    %b10dnsm = stablehlo.broadcast_in_dim %b10dnsmr, dims = [1] : (tensor<672xf32>) -> tensor<32x672x14x14xf32>
    %b10dnmu = stablehlo.divide %b10dnsm, %b10dnnf : tensor<32x672x14x14xf32>
    %b10dnxc = stablehlo.subtract %b10d, %b10dnmu : tensor<32x672x14x14xf32>
    %b10dnsq = stablehlo.multiply %b10dnxc, %b10dnxc : tensor<32x672x14x14xf32>
    %b10dnvsr = stablehlo.reduce(%b10dnsq init: %sc) applies stablehlo.add across dimensions = [0, 2, 3] : (tensor<32x672x14x14xf32>, tensor<f32>) -> tensor<672xf32>
    %b10dnvs = stablehlo.broadcast_in_dim %b10dnvsr, dims = [1] : (tensor<672xf32>) -> tensor<32x672x14x14xf32>
    %b10dnvr = stablehlo.divide %b10dnvs, %b10dnnf : tensor<32x672x14x14xf32>
    %b10dnve = stablehlo.add %b10dnvr, %b10dnep : tensor<32x672x14x14xf32>
    %b10dnistd = stablehlo.rsqrt %b10dnve : tensor<32x672x14x14xf32>
    %b10dnxh = stablehlo.multiply %b10dnxc, %b10dnistd : tensor<32x672x14x14xf32>
    %b10dngb = stablehlo.broadcast_in_dim %b10dg, dims = [1] : (tensor<672xf32>) -> tensor<32x672x14x14xf32>
    %b10dnbtb = stablehlo.broadcast_in_dim %b10dbt, dims = [1] : (tensor<672xf32>) -> tensor<32x672x14x14xf32>
    %b10dngx = stablehlo.multiply %b10dnxh, %b10dngb : tensor<32x672x14x14xf32>
    %b10dn = stablehlo.add %b10dngx, %b10dnbtb : tensor<32x672x14x14xf32>
    %b10dss = stablehlo.logistic %b10dn : tensor<32x672x14x14xf32>
    %b10ds = stablehlo.multiply %b10dn, %b10dss : tensor<32x672x14x14xf32>
    %b10zsqs = stablehlo.reduce(%b10ds init: %sc) applies stablehlo.add across dimensions = [2, 3] : (tensor<32x672x14x14xf32>, tensor<f32>) -> tensor<32x672xf32>
    %b10zsqnf = stablehlo.constant dense<196.0> : tensor<32x672xf32>
    %b10zsq = stablehlo.divide %b10zsqs, %b10zsqnf : tensor<32x672xf32>
    %b10zexd = stablehlo.dot_general %b10zsq, %b10zW1, contracting_dims = [1] x [0], precision = [DEFAULT, DEFAULT] : (tensor<32x672xf32>, tensor<672x28xf32>) -> tensor<32x28xf32>
    %b10zexbb = stablehlo.broadcast_in_dim %b10zb1, dims = [1] : (tensor<28xf32>) -> tensor<32x28xf32>
    %b10zex = stablehlo.add %b10zexd, %b10zexbb : tensor<32x28xf32>
    %b10za1s = stablehlo.logistic %b10zex : tensor<32x28xf32>
    %b10za1 = stablehlo.multiply %b10zex, %b10za1s : tensor<32x28xf32>
    %b10zh2d = stablehlo.dot_general %b10za1, %b10zW2, contracting_dims = [1] x [0], precision = [DEFAULT, DEFAULT] : (tensor<32x28xf32>, tensor<28x672xf32>) -> tensor<32x672xf32>
    %b10zh2bb = stablehlo.broadcast_in_dim %b10zb2, dims = [1] : (tensor<672xf32>) -> tensor<32x672xf32>
    %b10zh2 = stablehlo.add %b10zh2d, %b10zh2bb : tensor<32x672xf32>
    %b10zgate = stablehlo.logistic %b10zh2 : tensor<32x672xf32>
    %b10zgb = stablehlo.broadcast_in_dim %b10zgate, dims = [0, 1] : (tensor<32x672xf32>) -> tensor<32x672x14x14xf32>
    %b10zse = stablehlo.multiply %b10ds, %b10zgb : tensor<32x672x14x14xf32>
    %b10pc = stablehlo.convolution(%b10zse, %b10pW)
      dim_numbers = [b, f, 0, 1]x[o, i, 0, 1]->[b, f, 0, 1],
      window = {stride = [1, 1], pad = [[0, 0], [0, 0]], lhs_dilate = [1, 1], rhs_dilate = [1, 1]}
      {batch_group_count = 1 : i64, feature_group_count = 1 : i64} : (tensor<32x672x14x14xf32>, tensor<112x672x1x1xf32>) -> tensor<32x112x14x14xf32>
    %b10pbb = stablehlo.broadcast_in_dim %b10pb, dims = [1] : (tensor<112xf32>) -> tensor<32x112x14x14xf32>
    %b10p = stablehlo.add %b10pc, %b10pbb : tensor<32x112x14x14xf32>
    %b10pnnf = stablehlo.constant dense<6272.0> : tensor<32x112x14x14xf32>
    %b10pnep = stablehlo.constant dense<1.0e-5> : tensor<32x112x14x14xf32>
    %b10pnsmr = stablehlo.reduce(%b10p init: %sc) applies stablehlo.add across dimensions = [0, 2, 3] : (tensor<32x112x14x14xf32>, tensor<f32>) -> tensor<112xf32>
    %b10pnsm = stablehlo.broadcast_in_dim %b10pnsmr, dims = [1] : (tensor<112xf32>) -> tensor<32x112x14x14xf32>
    %b10pnmu = stablehlo.divide %b10pnsm, %b10pnnf : tensor<32x112x14x14xf32>
    %b10pnxc = stablehlo.subtract %b10p, %b10pnmu : tensor<32x112x14x14xf32>
    %b10pnsq = stablehlo.multiply %b10pnxc, %b10pnxc : tensor<32x112x14x14xf32>
    %b10pnvsr = stablehlo.reduce(%b10pnsq init: %sc) applies stablehlo.add across dimensions = [0, 2, 3] : (tensor<32x112x14x14xf32>, tensor<f32>) -> tensor<112xf32>
    %b10pnvs = stablehlo.broadcast_in_dim %b10pnvsr, dims = [1] : (tensor<112xf32>) -> tensor<32x112x14x14xf32>
    %b10pnvr = stablehlo.divide %b10pnvs, %b10pnnf : tensor<32x112x14x14xf32>
    %b10pnve = stablehlo.add %b10pnvr, %b10pnep : tensor<32x112x14x14xf32>
    %b10pnistd = stablehlo.rsqrt %b10pnve : tensor<32x112x14x14xf32>
    %b10pnxh = stablehlo.multiply %b10pnxc, %b10pnistd : tensor<32x112x14x14xf32>
    %b10pngb = stablehlo.broadcast_in_dim %b10pg, dims = [1] : (tensor<112xf32>) -> tensor<32x112x14x14xf32>
    %b10pnbtb = stablehlo.broadcast_in_dim %b10pbt, dims = [1] : (tensor<112xf32>) -> tensor<32x112x14x14xf32>
    %b10pngx = stablehlo.multiply %b10pnxh, %b10pngb : tensor<32x112x14x14xf32>
    %b10pn = stablehlo.add %b10pngx, %b10pnbtb : tensor<32x112x14x14xf32>
    %b10o = stablehlo.add %b10pn, %b9pn : tensor<32x112x14x14xf32>
    %b11ec = stablehlo.convolution(%b10o, %b11eW)
      dim_numbers = [b, f, 0, 1]x[o, i, 0, 1]->[b, f, 0, 1],
      window = {stride = [1, 1], pad = [[0, 0], [0, 0]], lhs_dilate = [1, 1], rhs_dilate = [1, 1]}
      {batch_group_count = 1 : i64, feature_group_count = 1 : i64} : (tensor<32x112x14x14xf32>, tensor<672x112x1x1xf32>) -> tensor<32x672x14x14xf32>
    %b11ebb = stablehlo.broadcast_in_dim %b11eb, dims = [1] : (tensor<672xf32>) -> tensor<32x672x14x14xf32>
    %b11e = stablehlo.add %b11ec, %b11ebb : tensor<32x672x14x14xf32>
    %b11ennf = stablehlo.constant dense<6272.0> : tensor<32x672x14x14xf32>
    %b11enep = stablehlo.constant dense<1.0e-5> : tensor<32x672x14x14xf32>
    %b11ensmr = stablehlo.reduce(%b11e init: %sc) applies stablehlo.add across dimensions = [0, 2, 3] : (tensor<32x672x14x14xf32>, tensor<f32>) -> tensor<672xf32>
    %b11ensm = stablehlo.broadcast_in_dim %b11ensmr, dims = [1] : (tensor<672xf32>) -> tensor<32x672x14x14xf32>
    %b11enmu = stablehlo.divide %b11ensm, %b11ennf : tensor<32x672x14x14xf32>
    %b11enxc = stablehlo.subtract %b11e, %b11enmu : tensor<32x672x14x14xf32>
    %b11ensq = stablehlo.multiply %b11enxc, %b11enxc : tensor<32x672x14x14xf32>
    %b11envsr = stablehlo.reduce(%b11ensq init: %sc) applies stablehlo.add across dimensions = [0, 2, 3] : (tensor<32x672x14x14xf32>, tensor<f32>) -> tensor<672xf32>
    %b11envs = stablehlo.broadcast_in_dim %b11envsr, dims = [1] : (tensor<672xf32>) -> tensor<32x672x14x14xf32>
    %b11envr = stablehlo.divide %b11envs, %b11ennf : tensor<32x672x14x14xf32>
    %b11enve = stablehlo.add %b11envr, %b11enep : tensor<32x672x14x14xf32>
    %b11enistd = stablehlo.rsqrt %b11enve : tensor<32x672x14x14xf32>
    %b11enxh = stablehlo.multiply %b11enxc, %b11enistd : tensor<32x672x14x14xf32>
    %b11engb = stablehlo.broadcast_in_dim %b11eg, dims = [1] : (tensor<672xf32>) -> tensor<32x672x14x14xf32>
    %b11enbtb = stablehlo.broadcast_in_dim %b11ebt, dims = [1] : (tensor<672xf32>) -> tensor<32x672x14x14xf32>
    %b11engx = stablehlo.multiply %b11enxh, %b11engb : tensor<32x672x14x14xf32>
    %b11en = stablehlo.add %b11engx, %b11enbtb : tensor<32x672x14x14xf32>
    %b11ess = stablehlo.logistic %b11en : tensor<32x672x14x14xf32>
    %b11es = stablehlo.multiply %b11en, %b11ess : tensor<32x672x14x14xf32>
    %b11dc = stablehlo.convolution(%b11es, %b11dW)
      dim_numbers = [b, f, 0, 1]x[o, i, 0, 1]->[b, f, 0, 1],
      window = {stride = [1, 1], pad = [[2, 2], [2, 2]], lhs_dilate = [1, 1], rhs_dilate = [1, 1]}
      {batch_group_count = 1 : i64, feature_group_count = 672 : i64} : (tensor<32x672x14x14xf32>, tensor<672x1x5x5xf32>) -> tensor<32x672x14x14xf32>
    %b11dbb = stablehlo.broadcast_in_dim %b11db, dims = [1] : (tensor<672xf32>) -> tensor<32x672x14x14xf32>
    %b11d = stablehlo.add %b11dc, %b11dbb : tensor<32x672x14x14xf32>
    %b11dnnf = stablehlo.constant dense<6272.0> : tensor<32x672x14x14xf32>
    %b11dnep = stablehlo.constant dense<1.0e-5> : tensor<32x672x14x14xf32>
    %b11dnsmr = stablehlo.reduce(%b11d init: %sc) applies stablehlo.add across dimensions = [0, 2, 3] : (tensor<32x672x14x14xf32>, tensor<f32>) -> tensor<672xf32>
    %b11dnsm = stablehlo.broadcast_in_dim %b11dnsmr, dims = [1] : (tensor<672xf32>) -> tensor<32x672x14x14xf32>
    %b11dnmu = stablehlo.divide %b11dnsm, %b11dnnf : tensor<32x672x14x14xf32>
    %b11dnxc = stablehlo.subtract %b11d, %b11dnmu : tensor<32x672x14x14xf32>
    %b11dnsq = stablehlo.multiply %b11dnxc, %b11dnxc : tensor<32x672x14x14xf32>
    %b11dnvsr = stablehlo.reduce(%b11dnsq init: %sc) applies stablehlo.add across dimensions = [0, 2, 3] : (tensor<32x672x14x14xf32>, tensor<f32>) -> tensor<672xf32>
    %b11dnvs = stablehlo.broadcast_in_dim %b11dnvsr, dims = [1] : (tensor<672xf32>) -> tensor<32x672x14x14xf32>
    %b11dnvr = stablehlo.divide %b11dnvs, %b11dnnf : tensor<32x672x14x14xf32>
    %b11dnve = stablehlo.add %b11dnvr, %b11dnep : tensor<32x672x14x14xf32>
    %b11dnistd = stablehlo.rsqrt %b11dnve : tensor<32x672x14x14xf32>
    %b11dnxh = stablehlo.multiply %b11dnxc, %b11dnistd : tensor<32x672x14x14xf32>
    %b11dngb = stablehlo.broadcast_in_dim %b11dg, dims = [1] : (tensor<672xf32>) -> tensor<32x672x14x14xf32>
    %b11dnbtb = stablehlo.broadcast_in_dim %b11dbt, dims = [1] : (tensor<672xf32>) -> tensor<32x672x14x14xf32>
    %b11dngx = stablehlo.multiply %b11dnxh, %b11dngb : tensor<32x672x14x14xf32>
    %b11dn = stablehlo.add %b11dngx, %b11dnbtb : tensor<32x672x14x14xf32>
    %b11dss = stablehlo.logistic %b11dn : tensor<32x672x14x14xf32>
    %b11ds = stablehlo.multiply %b11dn, %b11dss : tensor<32x672x14x14xf32>
    %b11zsqs = stablehlo.reduce(%b11ds init: %sc) applies stablehlo.add across dimensions = [2, 3] : (tensor<32x672x14x14xf32>, tensor<f32>) -> tensor<32x672xf32>
    %b11zsqnf = stablehlo.constant dense<196.0> : tensor<32x672xf32>
    %b11zsq = stablehlo.divide %b11zsqs, %b11zsqnf : tensor<32x672xf32>
    %b11zexd = stablehlo.dot_general %b11zsq, %b11zW1, contracting_dims = [1] x [0], precision = [DEFAULT, DEFAULT] : (tensor<32x672xf32>, tensor<672x28xf32>) -> tensor<32x28xf32>
    %b11zexbb = stablehlo.broadcast_in_dim %b11zb1, dims = [1] : (tensor<28xf32>) -> tensor<32x28xf32>
    %b11zex = stablehlo.add %b11zexd, %b11zexbb : tensor<32x28xf32>
    %b11za1s = stablehlo.logistic %b11zex : tensor<32x28xf32>
    %b11za1 = stablehlo.multiply %b11zex, %b11za1s : tensor<32x28xf32>
    %b11zh2d = stablehlo.dot_general %b11za1, %b11zW2, contracting_dims = [1] x [0], precision = [DEFAULT, DEFAULT] : (tensor<32x28xf32>, tensor<28x672xf32>) -> tensor<32x672xf32>
    %b11zh2bb = stablehlo.broadcast_in_dim %b11zb2, dims = [1] : (tensor<672xf32>) -> tensor<32x672xf32>
    %b11zh2 = stablehlo.add %b11zh2d, %b11zh2bb : tensor<32x672xf32>
    %b11zgate = stablehlo.logistic %b11zh2 : tensor<32x672xf32>
    %b11zgb = stablehlo.broadcast_in_dim %b11zgate, dims = [0, 1] : (tensor<32x672xf32>) -> tensor<32x672x14x14xf32>
    %b11zse = stablehlo.multiply %b11ds, %b11zgb : tensor<32x672x14x14xf32>
    %b11pc = stablehlo.convolution(%b11zse, %b11pW)
      dim_numbers = [b, f, 0, 1]x[o, i, 0, 1]->[b, f, 0, 1],
      window = {stride = [1, 1], pad = [[0, 0], [0, 0]], lhs_dilate = [1, 1], rhs_dilate = [1, 1]}
      {batch_group_count = 1 : i64, feature_group_count = 1 : i64} : (tensor<32x672x14x14xf32>, tensor<112x672x1x1xf32>) -> tensor<32x112x14x14xf32>
    %b11pbb = stablehlo.broadcast_in_dim %b11pb, dims = [1] : (tensor<112xf32>) -> tensor<32x112x14x14xf32>
    %b11p = stablehlo.add %b11pc, %b11pbb : tensor<32x112x14x14xf32>
    %b11pnnf = stablehlo.constant dense<6272.0> : tensor<32x112x14x14xf32>
    %b11pnep = stablehlo.constant dense<1.0e-5> : tensor<32x112x14x14xf32>
    %b11pnsmr = stablehlo.reduce(%b11p init: %sc) applies stablehlo.add across dimensions = [0, 2, 3] : (tensor<32x112x14x14xf32>, tensor<f32>) -> tensor<112xf32>
    %b11pnsm = stablehlo.broadcast_in_dim %b11pnsmr, dims = [1] : (tensor<112xf32>) -> tensor<32x112x14x14xf32>
    %b11pnmu = stablehlo.divide %b11pnsm, %b11pnnf : tensor<32x112x14x14xf32>
    %b11pnxc = stablehlo.subtract %b11p, %b11pnmu : tensor<32x112x14x14xf32>
    %b11pnsq = stablehlo.multiply %b11pnxc, %b11pnxc : tensor<32x112x14x14xf32>
    %b11pnvsr = stablehlo.reduce(%b11pnsq init: %sc) applies stablehlo.add across dimensions = [0, 2, 3] : (tensor<32x112x14x14xf32>, tensor<f32>) -> tensor<112xf32>
    %b11pnvs = stablehlo.broadcast_in_dim %b11pnvsr, dims = [1] : (tensor<112xf32>) -> tensor<32x112x14x14xf32>
    %b11pnvr = stablehlo.divide %b11pnvs, %b11pnnf : tensor<32x112x14x14xf32>
    %b11pnve = stablehlo.add %b11pnvr, %b11pnep : tensor<32x112x14x14xf32>
    %b11pnistd = stablehlo.rsqrt %b11pnve : tensor<32x112x14x14xf32>
    %b11pnxh = stablehlo.multiply %b11pnxc, %b11pnistd : tensor<32x112x14x14xf32>
    %b11pngb = stablehlo.broadcast_in_dim %b11pg, dims = [1] : (tensor<112xf32>) -> tensor<32x112x14x14xf32>
    %b11pnbtb = stablehlo.broadcast_in_dim %b11pbt, dims = [1] : (tensor<112xf32>) -> tensor<32x112x14x14xf32>
    %b11pngx = stablehlo.multiply %b11pnxh, %b11pngb : tensor<32x112x14x14xf32>
    %b11pn = stablehlo.add %b11pngx, %b11pnbtb : tensor<32x112x14x14xf32>
    %b11o = stablehlo.add %b11pn, %b10o : tensor<32x112x14x14xf32>
    %b12ec = stablehlo.convolution(%b11o, %b12eW)
      dim_numbers = [b, f, 0, 1]x[o, i, 0, 1]->[b, f, 0, 1],
      window = {stride = [1, 1], pad = [[0, 0], [0, 0]], lhs_dilate = [1, 1], rhs_dilate = [1, 1]}
      {batch_group_count = 1 : i64, feature_group_count = 1 : i64} : (tensor<32x112x14x14xf32>, tensor<672x112x1x1xf32>) -> tensor<32x672x14x14xf32>
    %b12ebb = stablehlo.broadcast_in_dim %b12eb, dims = [1] : (tensor<672xf32>) -> tensor<32x672x14x14xf32>
    %b12e = stablehlo.add %b12ec, %b12ebb : tensor<32x672x14x14xf32>
    %b12ennf = stablehlo.constant dense<6272.0> : tensor<32x672x14x14xf32>
    %b12enep = stablehlo.constant dense<1.0e-5> : tensor<32x672x14x14xf32>
    %b12ensmr = stablehlo.reduce(%b12e init: %sc) applies stablehlo.add across dimensions = [0, 2, 3] : (tensor<32x672x14x14xf32>, tensor<f32>) -> tensor<672xf32>
    %b12ensm = stablehlo.broadcast_in_dim %b12ensmr, dims = [1] : (tensor<672xf32>) -> tensor<32x672x14x14xf32>
    %b12enmu = stablehlo.divide %b12ensm, %b12ennf : tensor<32x672x14x14xf32>
    %b12enxc = stablehlo.subtract %b12e, %b12enmu : tensor<32x672x14x14xf32>
    %b12ensq = stablehlo.multiply %b12enxc, %b12enxc : tensor<32x672x14x14xf32>
    %b12envsr = stablehlo.reduce(%b12ensq init: %sc) applies stablehlo.add across dimensions = [0, 2, 3] : (tensor<32x672x14x14xf32>, tensor<f32>) -> tensor<672xf32>
    %b12envs = stablehlo.broadcast_in_dim %b12envsr, dims = [1] : (tensor<672xf32>) -> tensor<32x672x14x14xf32>
    %b12envr = stablehlo.divide %b12envs, %b12ennf : tensor<32x672x14x14xf32>
    %b12enve = stablehlo.add %b12envr, %b12enep : tensor<32x672x14x14xf32>
    %b12enistd = stablehlo.rsqrt %b12enve : tensor<32x672x14x14xf32>
    %b12enxh = stablehlo.multiply %b12enxc, %b12enistd : tensor<32x672x14x14xf32>
    %b12engb = stablehlo.broadcast_in_dim %b12eg, dims = [1] : (tensor<672xf32>) -> tensor<32x672x14x14xf32>
    %b12enbtb = stablehlo.broadcast_in_dim %b12ebt, dims = [1] : (tensor<672xf32>) -> tensor<32x672x14x14xf32>
    %b12engx = stablehlo.multiply %b12enxh, %b12engb : tensor<32x672x14x14xf32>
    %b12en = stablehlo.add %b12engx, %b12enbtb : tensor<32x672x14x14xf32>
    %b12ess = stablehlo.logistic %b12en : tensor<32x672x14x14xf32>
    %b12es = stablehlo.multiply %b12en, %b12ess : tensor<32x672x14x14xf32>
    %b12dc = stablehlo.convolution(%b12es, %b12dW)
      dim_numbers = [b, f, 0, 1]x[o, i, 0, 1]->[b, f, 0, 1],
      window = {stride = [2, 2], pad = [[2, 2], [2, 2]], lhs_dilate = [1, 1], rhs_dilate = [1, 1]}
      {batch_group_count = 1 : i64, feature_group_count = 672 : i64} : (tensor<32x672x14x14xf32>, tensor<672x1x5x5xf32>) -> tensor<32x672x7x7xf32>
    %b12dbb = stablehlo.broadcast_in_dim %b12db, dims = [1] : (tensor<672xf32>) -> tensor<32x672x7x7xf32>
    %b12d = stablehlo.add %b12dc, %b12dbb : tensor<32x672x7x7xf32>
    %b12dnnf = stablehlo.constant dense<1568.0> : tensor<32x672x7x7xf32>
    %b12dnep = stablehlo.constant dense<1.0e-5> : tensor<32x672x7x7xf32>
    %b12dnsmr = stablehlo.reduce(%b12d init: %sc) applies stablehlo.add across dimensions = [0, 2, 3] : (tensor<32x672x7x7xf32>, tensor<f32>) -> tensor<672xf32>
    %b12dnsm = stablehlo.broadcast_in_dim %b12dnsmr, dims = [1] : (tensor<672xf32>) -> tensor<32x672x7x7xf32>
    %b12dnmu = stablehlo.divide %b12dnsm, %b12dnnf : tensor<32x672x7x7xf32>
    %b12dnxc = stablehlo.subtract %b12d, %b12dnmu : tensor<32x672x7x7xf32>
    %b12dnsq = stablehlo.multiply %b12dnxc, %b12dnxc : tensor<32x672x7x7xf32>
    %b12dnvsr = stablehlo.reduce(%b12dnsq init: %sc) applies stablehlo.add across dimensions = [0, 2, 3] : (tensor<32x672x7x7xf32>, tensor<f32>) -> tensor<672xf32>
    %b12dnvs = stablehlo.broadcast_in_dim %b12dnvsr, dims = [1] : (tensor<672xf32>) -> tensor<32x672x7x7xf32>
    %b12dnvr = stablehlo.divide %b12dnvs, %b12dnnf : tensor<32x672x7x7xf32>
    %b12dnve = stablehlo.add %b12dnvr, %b12dnep : tensor<32x672x7x7xf32>
    %b12dnistd = stablehlo.rsqrt %b12dnve : tensor<32x672x7x7xf32>
    %b12dnxh = stablehlo.multiply %b12dnxc, %b12dnistd : tensor<32x672x7x7xf32>
    %b12dngb = stablehlo.broadcast_in_dim %b12dg, dims = [1] : (tensor<672xf32>) -> tensor<32x672x7x7xf32>
    %b12dnbtb = stablehlo.broadcast_in_dim %b12dbt, dims = [1] : (tensor<672xf32>) -> tensor<32x672x7x7xf32>
    %b12dngx = stablehlo.multiply %b12dnxh, %b12dngb : tensor<32x672x7x7xf32>
    %b12dn = stablehlo.add %b12dngx, %b12dnbtb : tensor<32x672x7x7xf32>
    %b12dss = stablehlo.logistic %b12dn : tensor<32x672x7x7xf32>
    %b12ds = stablehlo.multiply %b12dn, %b12dss : tensor<32x672x7x7xf32>
    %b12zsqs = stablehlo.reduce(%b12ds init: %sc) applies stablehlo.add across dimensions = [2, 3] : (tensor<32x672x7x7xf32>, tensor<f32>) -> tensor<32x672xf32>
    %b12zsqnf = stablehlo.constant dense<49.0> : tensor<32x672xf32>
    %b12zsq = stablehlo.divide %b12zsqs, %b12zsqnf : tensor<32x672xf32>
    %b12zexd = stablehlo.dot_general %b12zsq, %b12zW1, contracting_dims = [1] x [0], precision = [DEFAULT, DEFAULT] : (tensor<32x672xf32>, tensor<672x28xf32>) -> tensor<32x28xf32>
    %b12zexbb = stablehlo.broadcast_in_dim %b12zb1, dims = [1] : (tensor<28xf32>) -> tensor<32x28xf32>
    %b12zex = stablehlo.add %b12zexd, %b12zexbb : tensor<32x28xf32>
    %b12za1s = stablehlo.logistic %b12zex : tensor<32x28xf32>
    %b12za1 = stablehlo.multiply %b12zex, %b12za1s : tensor<32x28xf32>
    %b12zh2d = stablehlo.dot_general %b12za1, %b12zW2, contracting_dims = [1] x [0], precision = [DEFAULT, DEFAULT] : (tensor<32x28xf32>, tensor<28x672xf32>) -> tensor<32x672xf32>
    %b12zh2bb = stablehlo.broadcast_in_dim %b12zb2, dims = [1] : (tensor<672xf32>) -> tensor<32x672xf32>
    %b12zh2 = stablehlo.add %b12zh2d, %b12zh2bb : tensor<32x672xf32>
    %b12zgate = stablehlo.logistic %b12zh2 : tensor<32x672xf32>
    %b12zgb = stablehlo.broadcast_in_dim %b12zgate, dims = [0, 1] : (tensor<32x672xf32>) -> tensor<32x672x7x7xf32>
    %b12zse = stablehlo.multiply %b12ds, %b12zgb : tensor<32x672x7x7xf32>
    %b12pc = stablehlo.convolution(%b12zse, %b12pW)
      dim_numbers = [b, f, 0, 1]x[o, i, 0, 1]->[b, f, 0, 1],
      window = {stride = [1, 1], pad = [[0, 0], [0, 0]], lhs_dilate = [1, 1], rhs_dilate = [1, 1]}
      {batch_group_count = 1 : i64, feature_group_count = 1 : i64} : (tensor<32x672x7x7xf32>, tensor<192x672x1x1xf32>) -> tensor<32x192x7x7xf32>
    %b12pbb = stablehlo.broadcast_in_dim %b12pb, dims = [1] : (tensor<192xf32>) -> tensor<32x192x7x7xf32>
    %b12p = stablehlo.add %b12pc, %b12pbb : tensor<32x192x7x7xf32>
    %b12pnnf = stablehlo.constant dense<1568.0> : tensor<32x192x7x7xf32>
    %b12pnep = stablehlo.constant dense<1.0e-5> : tensor<32x192x7x7xf32>
    %b12pnsmr = stablehlo.reduce(%b12p init: %sc) applies stablehlo.add across dimensions = [0, 2, 3] : (tensor<32x192x7x7xf32>, tensor<f32>) -> tensor<192xf32>
    %b12pnsm = stablehlo.broadcast_in_dim %b12pnsmr, dims = [1] : (tensor<192xf32>) -> tensor<32x192x7x7xf32>
    %b12pnmu = stablehlo.divide %b12pnsm, %b12pnnf : tensor<32x192x7x7xf32>
    %b12pnxc = stablehlo.subtract %b12p, %b12pnmu : tensor<32x192x7x7xf32>
    %b12pnsq = stablehlo.multiply %b12pnxc, %b12pnxc : tensor<32x192x7x7xf32>
    %b12pnvsr = stablehlo.reduce(%b12pnsq init: %sc) applies stablehlo.add across dimensions = [0, 2, 3] : (tensor<32x192x7x7xf32>, tensor<f32>) -> tensor<192xf32>
    %b12pnvs = stablehlo.broadcast_in_dim %b12pnvsr, dims = [1] : (tensor<192xf32>) -> tensor<32x192x7x7xf32>
    %b12pnvr = stablehlo.divide %b12pnvs, %b12pnnf : tensor<32x192x7x7xf32>
    %b12pnve = stablehlo.add %b12pnvr, %b12pnep : tensor<32x192x7x7xf32>
    %b12pnistd = stablehlo.rsqrt %b12pnve : tensor<32x192x7x7xf32>
    %b12pnxh = stablehlo.multiply %b12pnxc, %b12pnistd : tensor<32x192x7x7xf32>
    %b12pngb = stablehlo.broadcast_in_dim %b12pg, dims = [1] : (tensor<192xf32>) -> tensor<32x192x7x7xf32>
    %b12pnbtb = stablehlo.broadcast_in_dim %b12pbt, dims = [1] : (tensor<192xf32>) -> tensor<32x192x7x7xf32>
    %b12pngx = stablehlo.multiply %b12pnxh, %b12pngb : tensor<32x192x7x7xf32>
    %b12pn = stablehlo.add %b12pngx, %b12pnbtb : tensor<32x192x7x7xf32>
    %b13ec = stablehlo.convolution(%b12pn, %b13eW)
      dim_numbers = [b, f, 0, 1]x[o, i, 0, 1]->[b, f, 0, 1],
      window = {stride = [1, 1], pad = [[0, 0], [0, 0]], lhs_dilate = [1, 1], rhs_dilate = [1, 1]}
      {batch_group_count = 1 : i64, feature_group_count = 1 : i64} : (tensor<32x192x7x7xf32>, tensor<1152x192x1x1xf32>) -> tensor<32x1152x7x7xf32>
    %b13ebb = stablehlo.broadcast_in_dim %b13eb, dims = [1] : (tensor<1152xf32>) -> tensor<32x1152x7x7xf32>
    %b13e = stablehlo.add %b13ec, %b13ebb : tensor<32x1152x7x7xf32>
    %b13ennf = stablehlo.constant dense<1568.0> : tensor<32x1152x7x7xf32>
    %b13enep = stablehlo.constant dense<1.0e-5> : tensor<32x1152x7x7xf32>
    %b13ensmr = stablehlo.reduce(%b13e init: %sc) applies stablehlo.add across dimensions = [0, 2, 3] : (tensor<32x1152x7x7xf32>, tensor<f32>) -> tensor<1152xf32>
    %b13ensm = stablehlo.broadcast_in_dim %b13ensmr, dims = [1] : (tensor<1152xf32>) -> tensor<32x1152x7x7xf32>
    %b13enmu = stablehlo.divide %b13ensm, %b13ennf : tensor<32x1152x7x7xf32>
    %b13enxc = stablehlo.subtract %b13e, %b13enmu : tensor<32x1152x7x7xf32>
    %b13ensq = stablehlo.multiply %b13enxc, %b13enxc : tensor<32x1152x7x7xf32>
    %b13envsr = stablehlo.reduce(%b13ensq init: %sc) applies stablehlo.add across dimensions = [0, 2, 3] : (tensor<32x1152x7x7xf32>, tensor<f32>) -> tensor<1152xf32>
    %b13envs = stablehlo.broadcast_in_dim %b13envsr, dims = [1] : (tensor<1152xf32>) -> tensor<32x1152x7x7xf32>
    %b13envr = stablehlo.divide %b13envs, %b13ennf : tensor<32x1152x7x7xf32>
    %b13enve = stablehlo.add %b13envr, %b13enep : tensor<32x1152x7x7xf32>
    %b13enistd = stablehlo.rsqrt %b13enve : tensor<32x1152x7x7xf32>
    %b13enxh = stablehlo.multiply %b13enxc, %b13enistd : tensor<32x1152x7x7xf32>
    %b13engb = stablehlo.broadcast_in_dim %b13eg, dims = [1] : (tensor<1152xf32>) -> tensor<32x1152x7x7xf32>
    %b13enbtb = stablehlo.broadcast_in_dim %b13ebt, dims = [1] : (tensor<1152xf32>) -> tensor<32x1152x7x7xf32>
    %b13engx = stablehlo.multiply %b13enxh, %b13engb : tensor<32x1152x7x7xf32>
    %b13en = stablehlo.add %b13engx, %b13enbtb : tensor<32x1152x7x7xf32>
    %b13ess = stablehlo.logistic %b13en : tensor<32x1152x7x7xf32>
    %b13es = stablehlo.multiply %b13en, %b13ess : tensor<32x1152x7x7xf32>
    %b13dc = stablehlo.convolution(%b13es, %b13dW)
      dim_numbers = [b, f, 0, 1]x[o, i, 0, 1]->[b, f, 0, 1],
      window = {stride = [1, 1], pad = [[2, 2], [2, 2]], lhs_dilate = [1, 1], rhs_dilate = [1, 1]}
      {batch_group_count = 1 : i64, feature_group_count = 1152 : i64} : (tensor<32x1152x7x7xf32>, tensor<1152x1x5x5xf32>) -> tensor<32x1152x7x7xf32>
    %b13dbb = stablehlo.broadcast_in_dim %b13db, dims = [1] : (tensor<1152xf32>) -> tensor<32x1152x7x7xf32>
    %b13d = stablehlo.add %b13dc, %b13dbb : tensor<32x1152x7x7xf32>
    %b13dnnf = stablehlo.constant dense<1568.0> : tensor<32x1152x7x7xf32>
    %b13dnep = stablehlo.constant dense<1.0e-5> : tensor<32x1152x7x7xf32>
    %b13dnsmr = stablehlo.reduce(%b13d init: %sc) applies stablehlo.add across dimensions = [0, 2, 3] : (tensor<32x1152x7x7xf32>, tensor<f32>) -> tensor<1152xf32>
    %b13dnsm = stablehlo.broadcast_in_dim %b13dnsmr, dims = [1] : (tensor<1152xf32>) -> tensor<32x1152x7x7xf32>
    %b13dnmu = stablehlo.divide %b13dnsm, %b13dnnf : tensor<32x1152x7x7xf32>
    %b13dnxc = stablehlo.subtract %b13d, %b13dnmu : tensor<32x1152x7x7xf32>
    %b13dnsq = stablehlo.multiply %b13dnxc, %b13dnxc : tensor<32x1152x7x7xf32>
    %b13dnvsr = stablehlo.reduce(%b13dnsq init: %sc) applies stablehlo.add across dimensions = [0, 2, 3] : (tensor<32x1152x7x7xf32>, tensor<f32>) -> tensor<1152xf32>
    %b13dnvs = stablehlo.broadcast_in_dim %b13dnvsr, dims = [1] : (tensor<1152xf32>) -> tensor<32x1152x7x7xf32>
    %b13dnvr = stablehlo.divide %b13dnvs, %b13dnnf : tensor<32x1152x7x7xf32>
    %b13dnve = stablehlo.add %b13dnvr, %b13dnep : tensor<32x1152x7x7xf32>
    %b13dnistd = stablehlo.rsqrt %b13dnve : tensor<32x1152x7x7xf32>
    %b13dnxh = stablehlo.multiply %b13dnxc, %b13dnistd : tensor<32x1152x7x7xf32>
    %b13dngb = stablehlo.broadcast_in_dim %b13dg, dims = [1] : (tensor<1152xf32>) -> tensor<32x1152x7x7xf32>
    %b13dnbtb = stablehlo.broadcast_in_dim %b13dbt, dims = [1] : (tensor<1152xf32>) -> tensor<32x1152x7x7xf32>
    %b13dngx = stablehlo.multiply %b13dnxh, %b13dngb : tensor<32x1152x7x7xf32>
    %b13dn = stablehlo.add %b13dngx, %b13dnbtb : tensor<32x1152x7x7xf32>
    %b13dss = stablehlo.logistic %b13dn : tensor<32x1152x7x7xf32>
    %b13ds = stablehlo.multiply %b13dn, %b13dss : tensor<32x1152x7x7xf32>
    %b13zsqs = stablehlo.reduce(%b13ds init: %sc) applies stablehlo.add across dimensions = [2, 3] : (tensor<32x1152x7x7xf32>, tensor<f32>) -> tensor<32x1152xf32>
    %b13zsqnf = stablehlo.constant dense<49.0> : tensor<32x1152xf32>
    %b13zsq = stablehlo.divide %b13zsqs, %b13zsqnf : tensor<32x1152xf32>
    %b13zexd = stablehlo.dot_general %b13zsq, %b13zW1, contracting_dims = [1] x [0], precision = [DEFAULT, DEFAULT] : (tensor<32x1152xf32>, tensor<1152x48xf32>) -> tensor<32x48xf32>
    %b13zexbb = stablehlo.broadcast_in_dim %b13zb1, dims = [1] : (tensor<48xf32>) -> tensor<32x48xf32>
    %b13zex = stablehlo.add %b13zexd, %b13zexbb : tensor<32x48xf32>
    %b13za1s = stablehlo.logistic %b13zex : tensor<32x48xf32>
    %b13za1 = stablehlo.multiply %b13zex, %b13za1s : tensor<32x48xf32>
    %b13zh2d = stablehlo.dot_general %b13za1, %b13zW2, contracting_dims = [1] x [0], precision = [DEFAULT, DEFAULT] : (tensor<32x48xf32>, tensor<48x1152xf32>) -> tensor<32x1152xf32>
    %b13zh2bb = stablehlo.broadcast_in_dim %b13zb2, dims = [1] : (tensor<1152xf32>) -> tensor<32x1152xf32>
    %b13zh2 = stablehlo.add %b13zh2d, %b13zh2bb : tensor<32x1152xf32>
    %b13zgate = stablehlo.logistic %b13zh2 : tensor<32x1152xf32>
    %b13zgb = stablehlo.broadcast_in_dim %b13zgate, dims = [0, 1] : (tensor<32x1152xf32>) -> tensor<32x1152x7x7xf32>
    %b13zse = stablehlo.multiply %b13ds, %b13zgb : tensor<32x1152x7x7xf32>
    %b13pc = stablehlo.convolution(%b13zse, %b13pW)
      dim_numbers = [b, f, 0, 1]x[o, i, 0, 1]->[b, f, 0, 1],
      window = {stride = [1, 1], pad = [[0, 0], [0, 0]], lhs_dilate = [1, 1], rhs_dilate = [1, 1]}
      {batch_group_count = 1 : i64, feature_group_count = 1 : i64} : (tensor<32x1152x7x7xf32>, tensor<192x1152x1x1xf32>) -> tensor<32x192x7x7xf32>
    %b13pbb = stablehlo.broadcast_in_dim %b13pb, dims = [1] : (tensor<192xf32>) -> tensor<32x192x7x7xf32>
    %b13p = stablehlo.add %b13pc, %b13pbb : tensor<32x192x7x7xf32>
    %b13pnnf = stablehlo.constant dense<1568.0> : tensor<32x192x7x7xf32>
    %b13pnep = stablehlo.constant dense<1.0e-5> : tensor<32x192x7x7xf32>
    %b13pnsmr = stablehlo.reduce(%b13p init: %sc) applies stablehlo.add across dimensions = [0, 2, 3] : (tensor<32x192x7x7xf32>, tensor<f32>) -> tensor<192xf32>
    %b13pnsm = stablehlo.broadcast_in_dim %b13pnsmr, dims = [1] : (tensor<192xf32>) -> tensor<32x192x7x7xf32>
    %b13pnmu = stablehlo.divide %b13pnsm, %b13pnnf : tensor<32x192x7x7xf32>
    %b13pnxc = stablehlo.subtract %b13p, %b13pnmu : tensor<32x192x7x7xf32>
    %b13pnsq = stablehlo.multiply %b13pnxc, %b13pnxc : tensor<32x192x7x7xf32>
    %b13pnvsr = stablehlo.reduce(%b13pnsq init: %sc) applies stablehlo.add across dimensions = [0, 2, 3] : (tensor<32x192x7x7xf32>, tensor<f32>) -> tensor<192xf32>
    %b13pnvs = stablehlo.broadcast_in_dim %b13pnvsr, dims = [1] : (tensor<192xf32>) -> tensor<32x192x7x7xf32>
    %b13pnvr = stablehlo.divide %b13pnvs, %b13pnnf : tensor<32x192x7x7xf32>
    %b13pnve = stablehlo.add %b13pnvr, %b13pnep : tensor<32x192x7x7xf32>
    %b13pnistd = stablehlo.rsqrt %b13pnve : tensor<32x192x7x7xf32>
    %b13pnxh = stablehlo.multiply %b13pnxc, %b13pnistd : tensor<32x192x7x7xf32>
    %b13pngb = stablehlo.broadcast_in_dim %b13pg, dims = [1] : (tensor<192xf32>) -> tensor<32x192x7x7xf32>
    %b13pnbtb = stablehlo.broadcast_in_dim %b13pbt, dims = [1] : (tensor<192xf32>) -> tensor<32x192x7x7xf32>
    %b13pngx = stablehlo.multiply %b13pnxh, %b13pngb : tensor<32x192x7x7xf32>
    %b13pn = stablehlo.add %b13pngx, %b13pnbtb : tensor<32x192x7x7xf32>
    %b13o = stablehlo.add %b13pn, %b12pn : tensor<32x192x7x7xf32>
    %b14ec = stablehlo.convolution(%b13o, %b14eW)
      dim_numbers = [b, f, 0, 1]x[o, i, 0, 1]->[b, f, 0, 1],
      window = {stride = [1, 1], pad = [[0, 0], [0, 0]], lhs_dilate = [1, 1], rhs_dilate = [1, 1]}
      {batch_group_count = 1 : i64, feature_group_count = 1 : i64} : (tensor<32x192x7x7xf32>, tensor<1152x192x1x1xf32>) -> tensor<32x1152x7x7xf32>
    %b14ebb = stablehlo.broadcast_in_dim %b14eb, dims = [1] : (tensor<1152xf32>) -> tensor<32x1152x7x7xf32>
    %b14e = stablehlo.add %b14ec, %b14ebb : tensor<32x1152x7x7xf32>
    %b14ennf = stablehlo.constant dense<1568.0> : tensor<32x1152x7x7xf32>
    %b14enep = stablehlo.constant dense<1.0e-5> : tensor<32x1152x7x7xf32>
    %b14ensmr = stablehlo.reduce(%b14e init: %sc) applies stablehlo.add across dimensions = [0, 2, 3] : (tensor<32x1152x7x7xf32>, tensor<f32>) -> tensor<1152xf32>
    %b14ensm = stablehlo.broadcast_in_dim %b14ensmr, dims = [1] : (tensor<1152xf32>) -> tensor<32x1152x7x7xf32>
    %b14enmu = stablehlo.divide %b14ensm, %b14ennf : tensor<32x1152x7x7xf32>
    %b14enxc = stablehlo.subtract %b14e, %b14enmu : tensor<32x1152x7x7xf32>
    %b14ensq = stablehlo.multiply %b14enxc, %b14enxc : tensor<32x1152x7x7xf32>
    %b14envsr = stablehlo.reduce(%b14ensq init: %sc) applies stablehlo.add across dimensions = [0, 2, 3] : (tensor<32x1152x7x7xf32>, tensor<f32>) -> tensor<1152xf32>
    %b14envs = stablehlo.broadcast_in_dim %b14envsr, dims = [1] : (tensor<1152xf32>) -> tensor<32x1152x7x7xf32>
    %b14envr = stablehlo.divide %b14envs, %b14ennf : tensor<32x1152x7x7xf32>
    %b14enve = stablehlo.add %b14envr, %b14enep : tensor<32x1152x7x7xf32>
    %b14enistd = stablehlo.rsqrt %b14enve : tensor<32x1152x7x7xf32>
    %b14enxh = stablehlo.multiply %b14enxc, %b14enistd : tensor<32x1152x7x7xf32>
    %b14engb = stablehlo.broadcast_in_dim %b14eg, dims = [1] : (tensor<1152xf32>) -> tensor<32x1152x7x7xf32>
    %b14enbtb = stablehlo.broadcast_in_dim %b14ebt, dims = [1] : (tensor<1152xf32>) -> tensor<32x1152x7x7xf32>
    %b14engx = stablehlo.multiply %b14enxh, %b14engb : tensor<32x1152x7x7xf32>
    %b14en = stablehlo.add %b14engx, %b14enbtb : tensor<32x1152x7x7xf32>
    %b14ess = stablehlo.logistic %b14en : tensor<32x1152x7x7xf32>
    %b14es = stablehlo.multiply %b14en, %b14ess : tensor<32x1152x7x7xf32>
    %b14dc = stablehlo.convolution(%b14es, %b14dW)
      dim_numbers = [b, f, 0, 1]x[o, i, 0, 1]->[b, f, 0, 1],
      window = {stride = [1, 1], pad = [[2, 2], [2, 2]], lhs_dilate = [1, 1], rhs_dilate = [1, 1]}
      {batch_group_count = 1 : i64, feature_group_count = 1152 : i64} : (tensor<32x1152x7x7xf32>, tensor<1152x1x5x5xf32>) -> tensor<32x1152x7x7xf32>
    %b14dbb = stablehlo.broadcast_in_dim %b14db, dims = [1] : (tensor<1152xf32>) -> tensor<32x1152x7x7xf32>
    %b14d = stablehlo.add %b14dc, %b14dbb : tensor<32x1152x7x7xf32>
    %b14dnnf = stablehlo.constant dense<1568.0> : tensor<32x1152x7x7xf32>
    %b14dnep = stablehlo.constant dense<1.0e-5> : tensor<32x1152x7x7xf32>
    %b14dnsmr = stablehlo.reduce(%b14d init: %sc) applies stablehlo.add across dimensions = [0, 2, 3] : (tensor<32x1152x7x7xf32>, tensor<f32>) -> tensor<1152xf32>
    %b14dnsm = stablehlo.broadcast_in_dim %b14dnsmr, dims = [1] : (tensor<1152xf32>) -> tensor<32x1152x7x7xf32>
    %b14dnmu = stablehlo.divide %b14dnsm, %b14dnnf : tensor<32x1152x7x7xf32>
    %b14dnxc = stablehlo.subtract %b14d, %b14dnmu : tensor<32x1152x7x7xf32>
    %b14dnsq = stablehlo.multiply %b14dnxc, %b14dnxc : tensor<32x1152x7x7xf32>
    %b14dnvsr = stablehlo.reduce(%b14dnsq init: %sc) applies stablehlo.add across dimensions = [0, 2, 3] : (tensor<32x1152x7x7xf32>, tensor<f32>) -> tensor<1152xf32>
    %b14dnvs = stablehlo.broadcast_in_dim %b14dnvsr, dims = [1] : (tensor<1152xf32>) -> tensor<32x1152x7x7xf32>
    %b14dnvr = stablehlo.divide %b14dnvs, %b14dnnf : tensor<32x1152x7x7xf32>
    %b14dnve = stablehlo.add %b14dnvr, %b14dnep : tensor<32x1152x7x7xf32>
    %b14dnistd = stablehlo.rsqrt %b14dnve : tensor<32x1152x7x7xf32>
    %b14dnxh = stablehlo.multiply %b14dnxc, %b14dnistd : tensor<32x1152x7x7xf32>
    %b14dngb = stablehlo.broadcast_in_dim %b14dg, dims = [1] : (tensor<1152xf32>) -> tensor<32x1152x7x7xf32>
    %b14dnbtb = stablehlo.broadcast_in_dim %b14dbt, dims = [1] : (tensor<1152xf32>) -> tensor<32x1152x7x7xf32>
    %b14dngx = stablehlo.multiply %b14dnxh, %b14dngb : tensor<32x1152x7x7xf32>
    %b14dn = stablehlo.add %b14dngx, %b14dnbtb : tensor<32x1152x7x7xf32>
    %b14dss = stablehlo.logistic %b14dn : tensor<32x1152x7x7xf32>
    %b14ds = stablehlo.multiply %b14dn, %b14dss : tensor<32x1152x7x7xf32>
    %b14zsqs = stablehlo.reduce(%b14ds init: %sc) applies stablehlo.add across dimensions = [2, 3] : (tensor<32x1152x7x7xf32>, tensor<f32>) -> tensor<32x1152xf32>
    %b14zsqnf = stablehlo.constant dense<49.0> : tensor<32x1152xf32>
    %b14zsq = stablehlo.divide %b14zsqs, %b14zsqnf : tensor<32x1152xf32>
    %b14zexd = stablehlo.dot_general %b14zsq, %b14zW1, contracting_dims = [1] x [0], precision = [DEFAULT, DEFAULT] : (tensor<32x1152xf32>, tensor<1152x48xf32>) -> tensor<32x48xf32>
    %b14zexbb = stablehlo.broadcast_in_dim %b14zb1, dims = [1] : (tensor<48xf32>) -> tensor<32x48xf32>
…
    %adsubb16pbt = stablehlo.subtract %b16pbt, %adstb16pbt : tensor<320xf32>
    %adwdb16pbt = stablehlo.broadcast_in_dim %wd, dims = [] : (tensor<f32>) -> tensor<320xf32>
    %adwdlrb16pbt = stablehlo.multiply %adwdb16pbt, %adlrb16pbt : tensor<320xf32>
    %adwdpb16pbt = stablehlo.multiply %adwdlrb16pbt, %b16pbt : tensor<320xf32>
    %adnewb16pbt = stablehlo.subtract %adsubb16pbt, %adwdpb16pbt : tensor<320xf32>
    %adb1hW = stablehlo.broadcast_in_dim %b1, dims = [] : (tensor<f32>) -> tensor<1280x320x1x1xf32>
    %adob1hW = stablehlo.broadcast_in_dim %ob1, dims = [] : (tensor<f32>) -> tensor<1280x320x1x1xf32>
    %admshW = stablehlo.multiply %adb1hW, %hWm : tensor<1280x320x1x1xf32>
    %admghW = stablehlo.multiply %adob1hW, %dhW : tensor<1280x320x1x1xf32>
    %admnhW = stablehlo.add %admshW, %admghW : tensor<1280x320x1x1xf32>
    %adb2hW = stablehlo.broadcast_in_dim %b2, dims = [] : (tensor<f32>) -> tensor<1280x320x1x1xf32>
    %adob2hW = stablehlo.broadcast_in_dim %ob2, dims = [] : (tensor<f32>) -> tensor<1280x320x1x1xf32>
    %advshW = stablehlo.multiply %adb2hW, %hWv : tensor<1280x320x1x1xf32>
    %adg2hW = stablehlo.multiply %dhW, %dhW : tensor<1280x320x1x1xf32>
    %advghW = stablehlo.multiply %adob2hW, %adg2hW : tensor<1280x320x1x1xf32>
    %advnhW = stablehlo.add %advshW, %advghW : tensor<1280x320x1x1xf32>
    %adbc1hW = stablehlo.broadcast_in_dim %bc1, dims = [] : (tensor<f32>) -> tensor<1280x320x1x1xf32>
    %adbc2hW = stablehlo.broadcast_in_dim %bc2, dims = [] : (tensor<f32>) -> tensor<1280x320x1x1xf32>
    %admhhW = stablehlo.divide %admnhW, %adbc1hW : tensor<1280x320x1x1xf32>
    %advhhW = stablehlo.divide %advnhW, %adbc2hW : tensor<1280x320x1x1xf32>
    %adlrhW = stablehlo.broadcast_in_dim %lr, dims = [] : (tensor<f32>) -> tensor<1280x320x1x1xf32>
    %adepshW = stablehlo.broadcast_in_dim %eps, dims = [] : (tensor<f32>) -> tensor<1280x320x1x1xf32>
    %adsqhW = stablehlo.sqrt %advhhW : tensor<1280x320x1x1xf32>
    %addenhW = stablehlo.add %adsqhW, %adepshW : tensor<1280x320x1x1xf32>
    %adrathW = stablehlo.divide %admhhW, %addenhW : tensor<1280x320x1x1xf32>
    %adsthW = stablehlo.multiply %adlrhW, %adrathW : tensor<1280x320x1x1xf32>
    %adsubhW = stablehlo.subtract %hW, %adsthW : tensor<1280x320x1x1xf32>
    %adwdhW = stablehlo.broadcast_in_dim %wd, dims = [] : (tensor<f32>) -> tensor<1280x320x1x1xf32>
    %adwdlrhW = stablehlo.multiply %adwdhW, %adlrhW : tensor<1280x320x1x1xf32>
    %adwdphW = stablehlo.multiply %adwdlrhW, %hW : tensor<1280x320x1x1xf32>
    %adnewhW = stablehlo.subtract %adsubhW, %adwdphW : tensor<1280x320x1x1xf32>
    %adb1hb = stablehlo.broadcast_in_dim %b1, dims = [] : (tensor<f32>) -> tensor<1280xf32>
    %adob1hb = stablehlo.broadcast_in_dim %ob1, dims = [] : (tensor<f32>) -> tensor<1280xf32>
    %admshb = stablehlo.multiply %adb1hb, %hbm : tensor<1280xf32>
    %admghb = stablehlo.multiply %adob1hb, %dhb : tensor<1280xf32>
    %admnhb = stablehlo.add %admshb, %admghb : tensor<1280xf32>
    %adb2hb = stablehlo.broadcast_in_dim %b2, dims = [] : (tensor<f32>) -> tensor<1280xf32>
    %adob2hb = stablehlo.broadcast_in_dim %ob2, dims = [] : (tensor<f32>) -> tensor<1280xf32>
    %advshb = stablehlo.multiply %adb2hb, %hbv : tensor<1280xf32>
    %adg2hb = stablehlo.multiply %dhb, %dhb : tensor<1280xf32>
    %advghb = stablehlo.multiply %adob2hb, %adg2hb : tensor<1280xf32>
    %advnhb = stablehlo.add %advshb, %advghb : tensor<1280xf32>
    %adbc1hb = stablehlo.broadcast_in_dim %bc1, dims = [] : (tensor<f32>) -> tensor<1280xf32>
    %adbc2hb = stablehlo.broadcast_in_dim %bc2, dims = [] : (tensor<f32>) -> tensor<1280xf32>
    %admhhb = stablehlo.divide %admnhb, %adbc1hb : tensor<1280xf32>
    %advhhb = stablehlo.divide %advnhb, %adbc2hb : tensor<1280xf32>
    %adlrhb = stablehlo.broadcast_in_dim %lr, dims = [] : (tensor<f32>) -> tensor<1280xf32>
    %adepshb = stablehlo.broadcast_in_dim %eps, dims = [] : (tensor<f32>) -> tensor<1280xf32>
    %adsqhb = stablehlo.sqrt %advhhb : tensor<1280xf32>
    %addenhb = stablehlo.add %adsqhb, %adepshb : tensor<1280xf32>
    %adrathb = stablehlo.divide %admhhb, %addenhb : tensor<1280xf32>
    %adsthb = stablehlo.multiply %adlrhb, %adrathb : tensor<1280xf32>
    %adsubhb = stablehlo.subtract %hb, %adsthb : tensor<1280xf32>
    %adwdhb = stablehlo.broadcast_in_dim %wd, dims = [] : (tensor<f32>) -> tensor<1280xf32>
    %adwdlrhb = stablehlo.multiply %adwdhb, %adlrhb : tensor<1280xf32>
    %adwdphb = stablehlo.multiply %adwdlrhb, %hb : tensor<1280xf32>
    %adnewhb = stablehlo.subtract %adsubhb, %adwdphb : tensor<1280xf32>
    %adb1hg = stablehlo.broadcast_in_dim %b1, dims = [] : (tensor<f32>) -> tensor<1280xf32>
    %adob1hg = stablehlo.broadcast_in_dim %ob1, dims = [] : (tensor<f32>) -> tensor<1280xf32>
    %admshg = stablehlo.multiply %adb1hg, %hgm : tensor<1280xf32>
    %admghg = stablehlo.multiply %adob1hg, %dhndg : tensor<1280xf32>
    %admnhg = stablehlo.add %admshg, %admghg : tensor<1280xf32>
    %adb2hg = stablehlo.broadcast_in_dim %b2, dims = [] : (tensor<f32>) -> tensor<1280xf32>
    %adob2hg = stablehlo.broadcast_in_dim %ob2, dims = [] : (tensor<f32>) -> tensor<1280xf32>
    %advshg = stablehlo.multiply %adb2hg, %hgv : tensor<1280xf32>
    %adg2hg = stablehlo.multiply %dhndg, %dhndg : tensor<1280xf32>
    %advghg = stablehlo.multiply %adob2hg, %adg2hg : tensor<1280xf32>
    %advnhg = stablehlo.add %advshg, %advghg : tensor<1280xf32>
    %adbc1hg = stablehlo.broadcast_in_dim %bc1, dims = [] : (tensor<f32>) -> tensor<1280xf32>
    %adbc2hg = stablehlo.broadcast_in_dim %bc2, dims = [] : (tensor<f32>) -> tensor<1280xf32>
    %admhhg = stablehlo.divide %admnhg, %adbc1hg : tensor<1280xf32>
    %advhhg = stablehlo.divide %advnhg, %adbc2hg : tensor<1280xf32>
    %adlrhg = stablehlo.broadcast_in_dim %lr, dims = [] : (tensor<f32>) -> tensor<1280xf32>
    %adepshg = stablehlo.broadcast_in_dim %eps, dims = [] : (tensor<f32>) -> tensor<1280xf32>
    %adsqhg = stablehlo.sqrt %advhhg : tensor<1280xf32>
    %addenhg = stablehlo.add %adsqhg, %adepshg : tensor<1280xf32>
    %adrathg = stablehlo.divide %admhhg, %addenhg : tensor<1280xf32>
    %adsthg = stablehlo.multiply %adlrhg, %adrathg : tensor<1280xf32>
    %adsubhg = stablehlo.subtract %hg, %adsthg : tensor<1280xf32>
    %adwdhg = stablehlo.broadcast_in_dim %wd, dims = [] : (tensor<f32>) -> tensor<1280xf32>
    %adwdlrhg = stablehlo.multiply %adwdhg, %adlrhg : tensor<1280xf32>
    %adwdphg = stablehlo.multiply %adwdlrhg, %hg : tensor<1280xf32>
    %adnewhg = stablehlo.subtract %adsubhg, %adwdphg : tensor<1280xf32>
    %adb1hbt = stablehlo.broadcast_in_dim %b1, dims = [] : (tensor<f32>) -> tensor<1280xf32>
    %adob1hbt = stablehlo.broadcast_in_dim %ob1, dims = [] : (tensor<f32>) -> tensor<1280xf32>
    %admshbt = stablehlo.multiply %adb1hbt, %hbtm : tensor<1280xf32>
    %admghbt = stablehlo.multiply %adob1hbt, %dhndb : tensor<1280xf32>
    %admnhbt = stablehlo.add %admshbt, %admghbt : tensor<1280xf32>
    %adb2hbt = stablehlo.broadcast_in_dim %b2, dims = [] : (tensor<f32>) -> tensor<1280xf32>
    %adob2hbt = stablehlo.broadcast_in_dim %ob2, dims = [] : (tensor<f32>) -> tensor<1280xf32>
    %advshbt = stablehlo.multiply %adb2hbt, %hbtv : tensor<1280xf32>
    %adg2hbt = stablehlo.multiply %dhndb, %dhndb : tensor<1280xf32>
    %advghbt = stablehlo.multiply %adob2hbt, %adg2hbt : tensor<1280xf32>
    %advnhbt = stablehlo.add %advshbt, %advghbt : tensor<1280xf32>
    %adbc1hbt = stablehlo.broadcast_in_dim %bc1, dims = [] : (tensor<f32>) -> tensor<1280xf32>
    %adbc2hbt = stablehlo.broadcast_in_dim %bc2, dims = [] : (tensor<f32>) -> tensor<1280xf32>
    %admhhbt = stablehlo.divide %admnhbt, %adbc1hbt : tensor<1280xf32>
    %advhhbt = stablehlo.divide %advnhbt, %adbc2hbt : tensor<1280xf32>
    %adlrhbt = stablehlo.broadcast_in_dim %lr, dims = [] : (tensor<f32>) -> tensor<1280xf32>
    %adepshbt = stablehlo.broadcast_in_dim %eps, dims = [] : (tensor<f32>) -> tensor<1280xf32>
    %adsqhbt = stablehlo.sqrt %advhhbt : tensor<1280xf32>
    %addenhbt = stablehlo.add %adsqhbt, %adepshbt : tensor<1280xf32>
    %adrathbt = stablehlo.divide %admhhbt, %addenhbt : tensor<1280xf32>
    %adsthbt = stablehlo.multiply %adlrhbt, %adrathbt : tensor<1280xf32>
    %adsubhbt = stablehlo.subtract %hbt, %adsthbt : tensor<1280xf32>
    %adwdhbt = stablehlo.broadcast_in_dim %wd, dims = [] : (tensor<f32>) -> tensor<1280xf32>
    %adwdlrhbt = stablehlo.multiply %adwdhbt, %adlrhbt : tensor<1280xf32>
    %adwdphbt = stablehlo.multiply %adwdlrhbt, %hbt : tensor<1280xf32>
    %adnewhbt = stablehlo.subtract %adsubhbt, %adwdphbt : tensor<1280xf32>
    %adb1Wd = stablehlo.broadcast_in_dim %b1, dims = [] : (tensor<f32>) -> tensor<1280x10xf32>
    %adob1Wd = stablehlo.broadcast_in_dim %ob1, dims = [] : (tensor<f32>) -> tensor<1280x10xf32>
    %admsWd = stablehlo.multiply %adb1Wd, %Wdm : tensor<1280x10xf32>
    %admgWd = stablehlo.multiply %adob1Wd, %dWd : tensor<1280x10xf32>
    %admnWd = stablehlo.add %admsWd, %admgWd : tensor<1280x10xf32>
    %adb2Wd = stablehlo.broadcast_in_dim %b2, dims = [] : (tensor<f32>) -> tensor<1280x10xf32>
    %adob2Wd = stablehlo.broadcast_in_dim %ob2, dims = [] : (tensor<f32>) -> tensor<1280x10xf32>
    %advsWd = stablehlo.multiply %adb2Wd, %Wdv : tensor<1280x10xf32>
    %adg2Wd = stablehlo.multiply %dWd, %dWd : tensor<1280x10xf32>
    %advgWd = stablehlo.multiply %adob2Wd, %adg2Wd : tensor<1280x10xf32>
    %advnWd = stablehlo.add %advsWd, %advgWd : tensor<1280x10xf32>
    %adbc1Wd = stablehlo.broadcast_in_dim %bc1, dims = [] : (tensor<f32>) -> tensor<1280x10xf32>
    %adbc2Wd = stablehlo.broadcast_in_dim %bc2, dims = [] : (tensor<f32>) -> tensor<1280x10xf32>
    %admhWd = stablehlo.divide %admnWd, %adbc1Wd : tensor<1280x10xf32>
    %advhWd = stablehlo.divide %advnWd, %adbc2Wd : tensor<1280x10xf32>
    %adlrWd = stablehlo.broadcast_in_dim %lr, dims = [] : (tensor<f32>) -> tensor<1280x10xf32>
    %adepsWd = stablehlo.broadcast_in_dim %eps, dims = [] : (tensor<f32>) -> tensor<1280x10xf32>
    %adsqWd = stablehlo.sqrt %advhWd : tensor<1280x10xf32>
    %addenWd = stablehlo.add %adsqWd, %adepsWd : tensor<1280x10xf32>
    %adratWd = stablehlo.divide %admhWd, %addenWd : tensor<1280x10xf32>
    %adstWd = stablehlo.multiply %adlrWd, %adratWd : tensor<1280x10xf32>
    %adsubWd = stablehlo.subtract %Wd, %adstWd : tensor<1280x10xf32>
    %adwdWd = stablehlo.broadcast_in_dim %wd, dims = [] : (tensor<f32>) -> tensor<1280x10xf32>
    %adwdlrWd = stablehlo.multiply %adwdWd, %adlrWd : tensor<1280x10xf32>
    %adwdpWd = stablehlo.multiply %adwdlrWd, %Wd : tensor<1280x10xf32>
    %adnewWd = stablehlo.subtract %adsubWd, %adwdpWd : tensor<1280x10xf32>
    %adb1bd = stablehlo.broadcast_in_dim %b1, dims = [] : (tensor<f32>) -> tensor<10xf32>
    %adob1bd = stablehlo.broadcast_in_dim %ob1, dims = [] : (tensor<f32>) -> tensor<10xf32>
    %admsbd = stablehlo.multiply %adb1bd, %bdm : tensor<10xf32>
    %admgbd = stablehlo.multiply %adob1bd, %dbd : tensor<10xf32>
    %admnbd = stablehlo.add %admsbd, %admgbd : tensor<10xf32>
    %adb2bd = stablehlo.broadcast_in_dim %b2, dims = [] : (tensor<f32>) -> tensor<10xf32>
    %adob2bd = stablehlo.broadcast_in_dim %ob2, dims = [] : (tensor<f32>) -> tensor<10xf32>
    %advsbd = stablehlo.multiply %adb2bd, %bdv : tensor<10xf32>
    %adg2bd = stablehlo.multiply %dbd, %dbd : tensor<10xf32>
    %advgbd = stablehlo.multiply %adob2bd, %adg2bd : tensor<10xf32>
    %advnbd = stablehlo.add %advsbd, %advgbd : tensor<10xf32>
    %adbc1bd = stablehlo.broadcast_in_dim %bc1, dims = [] : (tensor<f32>) -> tensor<10xf32>
    %adbc2bd = stablehlo.broadcast_in_dim %bc2, dims = [] : (tensor<f32>) -> tensor<10xf32>
    %admhbd = stablehlo.divide %admnbd, %adbc1bd : tensor<10xf32>
    %advhbd = stablehlo.divide %advnbd, %adbc2bd : tensor<10xf32>
    %adlrbd = stablehlo.broadcast_in_dim %lr, dims = [] : (tensor<f32>) -> tensor<10xf32>
    %adepsbd = stablehlo.broadcast_in_dim %eps, dims = [] : (tensor<f32>) -> tensor<10xf32>
    %adsqbd = stablehlo.sqrt %advhbd : tensor<10xf32>
    %addenbd = stablehlo.add %adsqbd, %adepsbd : tensor<10xf32>
    %adratbd = stablehlo.divide %admhbd, %addenbd : tensor<10xf32>
    %adstbd = stablehlo.multiply %adlrbd, %adratbd : tensor<10xf32>
    %adsubbd = stablehlo.subtract %bd, %adstbd : tensor<10xf32>
    %adwdbd = stablehlo.broadcast_in_dim %wd, dims = [] : (tensor<f32>) -> tensor<10xf32>
    %adwdlrbd = stablehlo.multiply %adwdbd, %adlrbd : tensor<10xf32>
    %adwdpbd = stablehlo.multiply %adwdlrbd, %bd : tensor<10xf32>
    %adnewbd = stablehlo.subtract %adsubbd, %adwdpbd : tensor<10xf32>
    %stnbnnf = stablehlo.constant dense<401408.0> : tensor<32xf32>
    %stnbnmu = stablehlo.divide %stnsmr, %stnbnnf : tensor<32xf32>
    %stnbnvar = stablehlo.divide %stnvsr, %stnbnnf : tensor<32xf32>
    %b1dnbnnf = stablehlo.constant dense<401408.0> : tensor<32xf32>
    %b1dnbnmu = stablehlo.divide %b1dnsmr, %b1dnbnnf : tensor<32xf32>
    %b1dnbnvar = stablehlo.divide %b1dnvsr, %b1dnbnnf : tensor<32xf32>
    %b1pnbnnf = stablehlo.constant dense<401408.0> : tensor<16xf32>
    %b1pnbnmu = stablehlo.divide %b1pnsmr, %b1pnbnnf : tensor<16xf32>
    %b1pnbnvar = stablehlo.divide %b1pnvsr, %b1pnbnnf : tensor<16xf32>
    %b2enbnnf = stablehlo.constant dense<401408.0> : tensor<96xf32>
    %b2enbnmu = stablehlo.divide %b2ensmr, %b2enbnnf : tensor<96xf32>
    %b2enbnvar = stablehlo.divide %b2envsr, %b2enbnnf : tensor<96xf32>
    %b2dnbnnf = stablehlo.constant dense<100352.0> : tensor<96xf32>
    %b2dnbnmu = stablehlo.divide %b2dnsmr, %b2dnbnnf : tensor<96xf32>
    %b2dnbnvar = stablehlo.divide %b2dnvsr, %b2dnbnnf : tensor<96xf32>
    %b2pnbnnf = stablehlo.constant dense<100352.0> : tensor<24xf32>
    %b2pnbnmu = stablehlo.divide %b2pnsmr, %b2pnbnnf : tensor<24xf32>
    %b2pnbnvar = stablehlo.divide %b2pnvsr, %b2pnbnnf : tensor<24xf32>
    %b3enbnnf = stablehlo.constant dense<100352.0> : tensor<144xf32>
    %b3enbnmu = stablehlo.divide %b3ensmr, %b3enbnnf : tensor<144xf32>
    %b3enbnvar = stablehlo.divide %b3envsr, %b3enbnnf : tensor<144xf32>
    %b3dnbnnf = stablehlo.constant dense<100352.0> : tensor<144xf32>
    %b3dnbnmu = stablehlo.divide %b3dnsmr, %b3dnbnnf : tensor<144xf32>
    %b3dnbnvar = stablehlo.divide %b3dnvsr, %b3dnbnnf : tensor<144xf32>
    %b3pnbnnf = stablehlo.constant dense<100352.0> : tensor<24xf32>
    %b3pnbnmu = stablehlo.divide %b3pnsmr, %b3pnbnnf : tensor<24xf32>
    %b3pnbnvar = stablehlo.divide %b3pnvsr, %b3pnbnnf : tensor<24xf32>
    %b4enbnnf = stablehlo.constant dense<100352.0> : tensor<144xf32>
    %b4enbnmu = stablehlo.divide %b4ensmr, %b4enbnnf : tensor<144xf32>
    %b4enbnvar = stablehlo.divide %b4envsr, %b4enbnnf : tensor<144xf32>
    %b4dnbnnf = stablehlo.constant dense<25088.0> : tensor<144xf32>
    %b4dnbnmu = stablehlo.divide %b4dnsmr, %b4dnbnnf : tensor<144xf32>
    %b4dnbnvar = stablehlo.divide %b4dnvsr, %b4dnbnnf : tensor<144xf32>
    %b4pnbnnf = stablehlo.constant dense<25088.0> : tensor<40xf32>
    %b4pnbnmu = stablehlo.divide %b4pnsmr, %b4pnbnnf : tensor<40xf32>
    %b4pnbnvar = stablehlo.divide %b4pnvsr, %b4pnbnnf : tensor<40xf32>
    %b5enbnnf = stablehlo.constant dense<25088.0> : tensor<240xf32>
    %b5enbnmu = stablehlo.divide %b5ensmr, %b5enbnnf : tensor<240xf32>
    %b5enbnvar = stablehlo.divide %b5envsr, %b5enbnnf : tensor<240xf32>
    %b5dnbnnf = stablehlo.constant dense<25088.0> : tensor<240xf32>
    %b5dnbnmu = stablehlo.divide %b5dnsmr, %b5dnbnnf : tensor<240xf32>
    %b5dnbnvar = stablehlo.divide %b5dnvsr, %b5dnbnnf : tensor<240xf32>
    %b5pnbnnf = stablehlo.constant dense<25088.0> : tensor<40xf32>
    %b5pnbnmu = stablehlo.divide %b5pnsmr, %b5pnbnnf : tensor<40xf32>
    %b5pnbnvar = stablehlo.divide %b5pnvsr, %b5pnbnnf : tensor<40xf32>
    %b6enbnnf = stablehlo.constant dense<25088.0> : tensor<240xf32>
    %b6enbnmu = stablehlo.divide %b6ensmr, %b6enbnnf : tensor<240xf32>
    %b6enbnvar = stablehlo.divide %b6envsr, %b6enbnnf : tensor<240xf32>
    %b6dnbnnf = stablehlo.constant dense<6272.0> : tensor<240xf32>
    %b6dnbnmu = stablehlo.divide %b6dnsmr, %b6dnbnnf : tensor<240xf32>
    %b6dnbnvar = stablehlo.divide %b6dnvsr, %b6dnbnnf : tensor<240xf32>
    %b6pnbnnf = stablehlo.constant dense<6272.0> : tensor<80xf32>
    %b6pnbnmu = stablehlo.divide %b6pnsmr, %b6pnbnnf : tensor<80xf32>
    %b6pnbnvar = stablehlo.divide %b6pnvsr, %b6pnbnnf : tensor<80xf32>
    %b7enbnnf = stablehlo.constant dense<6272.0> : tensor<480xf32>
    %b7enbnmu = stablehlo.divide %b7ensmr, %b7enbnnf : tensor<480xf32>
    %b7enbnvar = stablehlo.divide %b7envsr, %b7enbnnf : tensor<480xf32>
    %b7dnbnnf = stablehlo.constant dense<6272.0> : tensor<480xf32>
    %b7dnbnmu = stablehlo.divide %b7dnsmr, %b7dnbnnf : tensor<480xf32>
    %b7dnbnvar = stablehlo.divide %b7dnvsr, %b7dnbnnf : tensor<480xf32>
    %b7pnbnnf = stablehlo.constant dense<6272.0> : tensor<80xf32>
    %b7pnbnmu = stablehlo.divide %b7pnsmr, %b7pnbnnf : tensor<80xf32>
    %b7pnbnvar = stablehlo.divide %b7pnvsr, %b7pnbnnf : tensor<80xf32>
    %b8enbnnf = stablehlo.constant dense<6272.0> : tensor<480xf32>
    %b8enbnmu = stablehlo.divide %b8ensmr, %b8enbnnf : tensor<480xf32>
    %b8enbnvar = stablehlo.divide %b8envsr, %b8enbnnf : tensor<480xf32>
    %b8dnbnnf = stablehlo.constant dense<6272.0> : tensor<480xf32>
    %b8dnbnmu = stablehlo.divide %b8dnsmr, %b8dnbnnf : tensor<480xf32>
    %b8dnbnvar = stablehlo.divide %b8dnvsr, %b8dnbnnf : tensor<480xf32>
    %b8pnbnnf = stablehlo.constant dense<6272.0> : tensor<80xf32>
    %b8pnbnmu = stablehlo.divide %b8pnsmr, %b8pnbnnf : tensor<80xf32>
    %b8pnbnvar = stablehlo.divide %b8pnvsr, %b8pnbnnf : tensor<80xf32>
    %b9enbnnf = stablehlo.constant dense<6272.0> : tensor<480xf32>
    %b9enbnmu = stablehlo.divide %b9ensmr, %b9enbnnf : tensor<480xf32>
    %b9enbnvar = stablehlo.divide %b9envsr, %b9enbnnf : tensor<480xf32>
    %b9dnbnnf = stablehlo.constant dense<6272.0> : tensor<480xf32>
    %b9dnbnmu = stablehlo.divide %b9dnsmr, %b9dnbnnf : tensor<480xf32>
    %b9dnbnvar = stablehlo.divide %b9dnvsr, %b9dnbnnf : tensor<480xf32>
    %b9pnbnnf = stablehlo.constant dense<6272.0> : tensor<112xf32>
    %b9pnbnmu = stablehlo.divide %b9pnsmr, %b9pnbnnf : tensor<112xf32>
    %b9pnbnvar = stablehlo.divide %b9pnvsr, %b9pnbnnf : tensor<112xf32>
    %b10enbnnf = stablehlo.constant dense<6272.0> : tensor<672xf32>
    %b10enbnmu = stablehlo.divide %b10ensmr, %b10enbnnf : tensor<672xf32>
    %b10enbnvar = stablehlo.divide %b10envsr, %b10enbnnf : tensor<672xf32>
    %b10dnbnnf = stablehlo.constant dense<6272.0> : tensor<672xf32>
    %b10dnbnmu = stablehlo.divide %b10dnsmr, %b10dnbnnf : tensor<672xf32>
    %b10dnbnvar = stablehlo.divide %b10dnvsr, %b10dnbnnf : tensor<672xf32>
    %b10pnbnnf = stablehlo.constant dense<6272.0> : tensor<112xf32>
    %b10pnbnmu = stablehlo.divide %b10pnsmr, %b10pnbnnf : tensor<112xf32>
    %b10pnbnvar = stablehlo.divide %b10pnvsr, %b10pnbnnf : tensor<112xf32>
    %b11enbnnf = stablehlo.constant dense<6272.0> : tensor<672xf32>
    %b11enbnmu = stablehlo.divide %b11ensmr, %b11enbnnf : tensor<672xf32>
    %b11enbnvar = stablehlo.divide %b11envsr, %b11enbnnf : tensor<672xf32>
    %b11dnbnnf = stablehlo.constant dense<6272.0> : tensor<672xf32>
    %b11dnbnmu = stablehlo.divide %b11dnsmr, %b11dnbnnf : tensor<672xf32>
    %b11dnbnvar = stablehlo.divide %b11dnvsr, %b11dnbnnf : tensor<672xf32>
    %b11pnbnnf = stablehlo.constant dense<6272.0> : tensor<112xf32>
    %b11pnbnmu = stablehlo.divide %b11pnsmr, %b11pnbnnf : tensor<112xf32>
    %b11pnbnvar = stablehlo.divide %b11pnvsr, %b11pnbnnf : tensor<112xf32>
    %b12enbnnf = stablehlo.constant dense<6272.0> : tensor<672xf32>
    %b12enbnmu = stablehlo.divide %b12ensmr, %b12enbnnf : tensor<672xf32>
    %b12enbnvar = stablehlo.divide %b12envsr, %b12enbnnf : tensor<672xf32>
    %b12dnbnnf = stablehlo.constant dense<1568.0> : tensor<672xf32>
    %b12dnbnmu = stablehlo.divide %b12dnsmr, %b12dnbnnf : tensor<672xf32>
    %b12dnbnvar = stablehlo.divide %b12dnvsr, %b12dnbnnf : tensor<672xf32>
    %b12pnbnnf = stablehlo.constant dense<1568.0> : tensor<192xf32>
    %b12pnbnmu = stablehlo.divide %b12pnsmr, %b12pnbnnf : tensor<192xf32>
    %b12pnbnvar = stablehlo.divide %b12pnvsr, %b12pnbnnf : tensor<192xf32>
    %b13enbnnf = stablehlo.constant dense<1568.0> : tensor<1152xf32>
    %b13enbnmu = stablehlo.divide %b13ensmr, %b13enbnnf : tensor<1152xf32>
    %b13enbnvar = stablehlo.divide %b13envsr, %b13enbnnf : tensor<1152xf32>
    %b13dnbnnf = stablehlo.constant dense<1568.0> : tensor<1152xf32>
    %b13dnbnmu = stablehlo.divide %b13dnsmr, %b13dnbnnf : tensor<1152xf32>
    %b13dnbnvar = stablehlo.divide %b13dnvsr, %b13dnbnnf : tensor<1152xf32>
    %b13pnbnnf = stablehlo.constant dense<1568.0> : tensor<192xf32>
    %b13pnbnmu = stablehlo.divide %b13pnsmr, %b13pnbnnf : tensor<192xf32>
    %b13pnbnvar = stablehlo.divide %b13pnvsr, %b13pnbnnf : tensor<192xf32>
    %b14enbnnf = stablehlo.constant dense<1568.0> : tensor<1152xf32>
    %b14enbnmu = stablehlo.divide %b14ensmr, %b14enbnnf : tensor<1152xf32>
    %b14enbnvar = stablehlo.divide %b14envsr, %b14enbnnf : tensor<1152xf32>
    %b14dnbnnf = stablehlo.constant dense<1568.0> : tensor<1152xf32>
    %b14dnbnmu = stablehlo.divide %b14dnsmr, %b14dnbnnf : tensor<1152xf32>
    %b14dnbnvar = stablehlo.divide %b14dnvsr, %b14dnbnnf : tensor<1152xf32>
    %b14pnbnnf = stablehlo.constant dense<1568.0> : tensor<192xf32>
    %b14pnbnmu = stablehlo.divide %b14pnsmr, %b14pnbnnf : tensor<192xf32>
    %b14pnbnvar = stablehlo.divide %b14pnvsr, %b14pnbnnf : tensor<192xf32>
    %b15enbnnf = stablehlo.constant dense<1568.0> : tensor<1152xf32>
    %b15enbnmu = stablehlo.divide %b15ensmr, %b15enbnnf : tensor<1152xf32>
    %b15enbnvar = stablehlo.divide %b15envsr, %b15enbnnf : tensor<1152xf32>
    %b15dnbnnf = stablehlo.constant dense<1568.0> : tensor<1152xf32>
    %b15dnbnmu = stablehlo.divide %b15dnsmr, %b15dnbnnf : tensor<1152xf32>
    %b15dnbnvar = stablehlo.divide %b15dnvsr, %b15dnbnnf : tensor<1152xf32>
    %b15pnbnnf = stablehlo.constant dense<1568.0> : tensor<192xf32>
    %b15pnbnmu = stablehlo.divide %b15pnsmr, %b15pnbnnf : tensor<192xf32>
    %b15pnbnvar = stablehlo.divide %b15pnvsr, %b15pnbnnf : tensor<192xf32>
    %b16enbnnf = stablehlo.constant dense<1568.0> : tensor<1152xf32>
    %b16enbnmu = stablehlo.divide %b16ensmr, %b16enbnnf : tensor<1152xf32>
    %b16enbnvar = stablehlo.divide %b16envsr, %b16enbnnf : tensor<1152xf32>
    %b16dnbnnf = stablehlo.constant dense<1568.0> : tensor<1152xf32>
    %b16dnbnmu = stablehlo.divide %b16dnsmr, %b16dnbnnf : tensor<1152xf32>
    %b16dnbnvar = stablehlo.divide %b16dnvsr, %b16dnbnnf : tensor<1152xf32>
    %b16pnbnnf = stablehlo.constant dense<1568.0> : tensor<320xf32>
    %b16pnbnmu = stablehlo.divide %b16pnsmr, %b16pnbnnf : tensor<320xf32>
    %b16pnbnvar = stablehlo.divide %b16pnvsr, %b16pnbnnf : tensor<320xf32>
    %hnbnnf = stablehlo.constant dense<1568.0> : tensor<1280xf32>
    %hnbnmu = stablehlo.divide %hnsmr, %hnbnnf : tensor<1280xf32>
    %hnbnvar = stablehlo.divide %hnvsr, %hnbnnf : tensor<1280xf32>
    return %adnewsW, %adnewsb, %adnewsg, %adnewsbt, %adnewb1dW, %adnewb1db, %adnewb1dg, %adnewb1dbt, %adnewb1zW1, %adnewb1zb1, %adnewb1zW2, %adnewb1zb2, %adnewb1pW, %adnewb1pb, %adnewb1pg, %adnewb1pbt, %adnewb2eW, %adnewb2eb, %adnewb2eg, %adnewb2ebt, %adnewb2dW, %adnewb2db, %adnewb2dg, %adnewb2dbt, %adnewb2zW1, %adnewb2zb1, %adnewb2zW2, %adnewb2zb2, %adnewb2pW, %adnewb2pb, %adnewb2pg, %adnewb2pbt, %adnewb3eW, %adnewb3eb, %adnewb3eg, %adnewb3ebt, %adnewb3dW, %adnewb3db, %adnewb3dg, %adnewb3dbt, %adnewb3zW1, %adnewb3zb1, %adnewb3zW2, %adnewb3zb2, %adnewb3pW, %adnewb3pb, %adnewb3pg, %adnewb3pbt, %adnewb4eW, %adnewb4eb, %adnewb4eg, %adnewb4ebt, %adnewb4dW, %adnewb4db, %adnewb4dg, %adnewb4dbt, %adnewb4zW1, %adnewb4zb1, %adnewb4zW2, %adnewb4zb2, %adnewb4pW, %adnewb4pb, %adnewb4pg, %adnewb4pbt, %adnewb5eW, %adnewb5eb, %adnewb5eg, %adnewb5ebt, %adnewb5dW, %adnewb5db, %adnewb5dg, %adnewb5dbt, %adnewb5zW1, %adnewb5zb1, %adnewb5zW2, %adnewb5zb2, %adnewb5pW, %adnewb5pb, %adnewb5pg, %adnewb5pbt, %adnewb6eW, %adnewb6eb, %adnewb6eg, %adnewb6ebt, %adnewb6dW, %adnewb6db, %adnewb6dg, %adnewb6dbt, %adnewb6zW1, %adnewb6zb1, %adnewb6zW2, %adnewb6zb2, %adnewb6pW, %adnewb6pb, %adnewb6pg, %adnewb6pbt, %adnewb7eW, %adnewb7eb, %adnewb7eg, %adnewb7ebt, %adnewb7dW, %adnewb7db, %adnewb7dg, %adnewb7dbt, %adnewb7zW1, %adnewb7zb1, %adnewb7zW2, %adnewb7zb2, %adnewb7pW, %adnewb7pb, %adnewb7pg, %adnewb7pbt, %adnewb8eW, %adnewb8eb, %adnewb8eg, %adnewb8ebt, %adnewb8dW, %adnewb8db, %adnewb8dg, %adnewb8dbt, %adnewb8zW1, %adnewb8zb1, %adnewb8zW2, %adnewb8zb2, %adnewb8pW, %adnewb8pb, %adnewb8pg, %adnewb8pbt, %adnewb9eW, %adnewb9eb, %adnewb9eg, %adnewb9ebt, %adnewb9dW, %adnewb9db, %adnewb9dg, %adnewb9dbt, %adnewb9zW1, %adnewb9zb1, %adnewb9zW2, %adnewb9zb2, %adnewb9pW, %adnewb9pb, %adnewb9pg, %adnewb9pbt, %adnewb10eW, %adnewb10eb, %adnewb10eg, %adnewb10ebt, %adnewb10dW, %adnewb10db, %adnewb10dg, %adnewb10dbt, %adnewb10zW1, %adnewb10zb1, %adnewb10zW2, %adnewb10zb2, %adnewb10pW, %adnewb10pb, %adnewb10pg, %adnewb10pbt, %adnewb11eW, %adnewb11eb, %adnewb11eg, %adnewb11ebt, %adnewb11dW, %adnewb11db, %adnewb11dg, %adnewb11dbt, %adnewb11zW1, %adnewb11zb1, %adnewb11zW2, %adnewb11zb2, %adnewb11pW, %adnewb11pb, %adnewb11pg, %adnewb11pbt, %adnewb12eW, %adnewb12eb, %adnewb12eg, %adnewb12ebt, %adnewb12dW, %adnewb12db, %adnewb12dg, %adnewb12dbt, %adnewb12zW1, %adnewb12zb1, %adnewb12zW2, %adnewb12zb2, %adnewb12pW, %adnewb12pb, %adnewb12pg, %adnewb12pbt, %adnewb13eW, %adnewb13eb, %adnewb13eg, %adnewb13ebt, %adnewb13dW, %adnewb13db, %adnewb13dg, %adnewb13dbt, %adnewb13zW1, %adnewb13zb1, %adnewb13zW2, %adnewb13zb2, %adnewb13pW, %adnewb13pb, %adnewb13pg, %adnewb13pbt, %adnewb14eW, %adnewb14eb, %adnewb14eg, %adnewb14ebt, %adnewb14dW, %adnewb14db, %adnewb14dg, %adnewb14dbt, %adnewb14zW1, %adnewb14zb1, %adnewb14zW2, %adnewb14zb2, %adnewb14pW, %adnewb14pb, %adnewb14pg, %adnewb14pbt, %adnewb15eW, %adnewb15eb, %adnewb15eg, %adnewb15ebt, %adnewb15dW, %adnewb15db, %adnewb15dg, %adnewb15dbt, %adnewb15zW1, %adnewb15zb1, %adnewb15zW2, %adnewb15zb2, %adnewb15pW, %adnewb15pb, %adnewb15pg, %adnewb15pbt, %adnewb16eW, %adnewb16eb, %adnewb16eg, %adnewb16ebt, %adnewb16dW, %adnewb16db, %adnewb16dg, %adnewb16dbt, %adnewb16zW1, %adnewb16zb1, %adnewb16zW2, %adnewb16zb2, %adnewb16pW, %adnewb16pb, %adnewb16pg, %adnewb16pbt, %adnewhW, %adnewhb, %adnewhg, %adnewhbt, %adnewWd, %adnewbd, %admnsW, %admnsb, %admnsg, %admnsbt, %admnb1dW, %admnb1db, %admnb1dg, %admnb1dbt, %admnb1zW1, %admnb1zb1, %admnb1zW2, %admnb1zb2, %admnb1pW, %admnb1pb, %admnb1pg, %admnb1pbt, %admnb2eW, %admnb2eb, %admnb2eg, %admnb2ebt, %admnb2dW, %admnb2db, %admnb2dg, %admnb2dbt, %admnb2zW1, %admnb2zb1, %admnb2zW2, %admnb2zb2, %admnb2pW, %admnb2pb, %admnb2pg, %admnb2pbt, %admnb3eW, %admnb3eb, %admnb3eg, %admnb3ebt, %admnb3dW, %admnb3db, %admnb3dg, %admnb3dbt, %admnb3zW1, %admnb3zb1, %admnb3zW2, %admnb3zb2, %admnb3pW, %admnb3pb, %admnb3pg, %admnb3pbt, %admnb4eW, %admnb4eb, %admnb4eg, %admnb4ebt, %admnb4dW, %admnb4db, %admnb4dg, %admnb4dbt, %admnb4zW1, %admnb4zb1, %admnb4zW2, %admnb4zb2, %admnb4pW, %admnb4pb, %admnb4pg, %admnb4pbt, %admnb5eW, %admnb5eb, %admnb5eg, %admnb5ebt, %admnb5dW, %admnb5db, %admnb5dg, %admnb5dbt, %admnb5zW1, %admnb5zb1, %admnb5zW2, %admnb5zb2, %admnb5pW, %admnb5pb, %admnb5pg, %admnb5pbt, %admnb6eW, %admnb6eb, %admnb6eg, %admnb6ebt, %admnb6dW, %admnb6db, %admnb6dg, %admnb6dbt, %admnb6zW1, %admnb6zb1, %admnb6zW2, %admnb6zb2, %admnb6pW, %admnb6pb, %admnb6pg, %admnb6pbt, %admnb7eW, %admnb7eb, %admnb7eg, %admnb7ebt, %admnb7dW, %admnb7db, %admnb7dg, %admnb7dbt, %admnb7zW1, %admnb7zb1, %admnb7zW2, %admnb7zb2, %admnb7pW, %admnb7pb, %admnb7pg, %admnb7pbt, %admnb8eW, %admnb8eb, %admnb8eg, %admnb8ebt, %admnb8dW, %admnb8db, %admnb8dg, %admnb8dbt, %admnb8zW1, %admnb8zb1, %admnb8zW2, %admnb8zb2, %admnb8pW, %admnb8pb, %admnb8pg, %admnb8pbt, %admnb9eW, %admnb9eb, %admnb9eg, %admnb9ebt, %admnb9dW, %admnb9db, %admnb9dg, %admnb9dbt, %admnb9zW1, %admnb9zb1, %admnb9zW2, %admnb9zb2, %admnb9pW, %admnb9pb, %admnb9pg, %admnb9pbt, %admnb10eW, %admnb10eb, %admnb10eg, %admnb10ebt, %admnb10dW, %admnb10db, %admnb10dg, %admnb10dbt, %admnb10zW1, %admnb10zb1, %admnb10zW2, %admnb10zb2, %admnb10pW, %admnb10pb, %admnb10pg, %admnb10pbt, %admnb11eW, %admnb11eb, %admnb11eg, %admnb11ebt, %admnb11dW, %admnb11db, %admnb11dg, %admnb11dbt, %admnb11zW1, %admnb11zb1, %admnb11zW2, %admnb11zb2, %admnb11pW, %admnb11pb, %admnb11pg, %admnb11pbt, %admnb12eW, %admnb12eb, %admnb12eg, %admnb12ebt, %admnb12dW, %admnb12db, %admnb12dg, %admnb12dbt, %admnb12zW1, %admnb12zb1, %admnb12zW2, %admnb12zb2, %admnb12pW, %admnb12pb, %admnb12pg, %admnb12pbt, %admnb13eW, %admnb13eb, %admnb13eg, %admnb13ebt, %admnb13dW, %admnb13db, %admnb13dg, %admnb13dbt, %admnb13zW1, %admnb13zb1, %admnb13zW2, %admnb13zb2, %admnb13pW, %admnb13pb, %admnb13pg, %admnb13pbt, %admnb14eW, %admnb14eb, %admnb14eg, %admnb14ebt, %admnb14dW, %admnb14db, %admnb14dg, %admnb14dbt, %admnb14zW1, %admnb14zb1, %admnb14zW2, %admnb14zb2, %admnb14pW, %admnb14pb, %admnb14pg, %admnb14pbt, %admnb15eW, %admnb15eb, %admnb15eg, %admnb15ebt, %admnb15dW, %admnb15db, %admnb15dg, %admnb15dbt, %admnb15zW1, %admnb15zb1, %admnb15zW2, %admnb15zb2, %admnb15pW, %admnb15pb, %admnb15pg, %admnb15pbt, %admnb16eW, %admnb16eb, %admnb16eg, %admnb16ebt, %admnb16dW, %admnb16db, %admnb16dg, %admnb16dbt, %admnb16zW1, %admnb16zb1, %admnb16zW2, %admnb16zb2, %admnb16pW, %admnb16pb, %admnb16pg, %admnb16pbt, %admnhW, %admnhb, %admnhg, %admnhbt, %admnWd, %admnbd, %advnsW, %advnsb, %advnsg, %advnsbt, %advnb1dW, %advnb1db, %advnb1dg, %advnb1dbt, %advnb1zW1, %advnb1zb1, %advnb1zW2, %advnb1zb2, %advnb1pW, %advnb1pb, %advnb1pg, %advnb1pbt, %advnb2eW, %advnb2eb, %advnb2eg, %advnb2ebt, %advnb2dW, %advnb2db, %advnb2dg, %advnb2dbt, %advnb2zW1, %advnb2zb1, %advnb2zW2, %advnb2zb2, %advnb2pW, %advnb2pb, %advnb2pg, %advnb2pbt, %advnb3eW, %advnb3eb, %advnb3eg, %advnb3ebt, %advnb3dW, %advnb3db, %advnb3dg, %advnb3dbt, %advnb3zW1, %advnb3zb1, %advnb3zW2, %advnb3zb2, %advnb3pW, %advnb3pb, %advnb3pg, %advnb3pbt, %advnb4eW, %advnb4eb, %advnb4eg, %advnb4ebt, %advnb4dW, %advnb4db, %advnb4dg, %advnb4dbt, %advnb4zW1, %advnb4zb1, %advnb4zW2, %advnb4zb2, %advnb4pW, %advnb4pb, %advnb4pg, %advnb4pbt, %advnb5eW, %advnb5eb, %advnb5eg, %advnb5ebt, %advnb5dW, %advnb5db, %advnb5dg, %advnb5dbt, %advnb5zW1, %advnb5zb1, %advnb5zW2, %advnb5zb2, %advnb5pW, %advnb5pb, %advnb5pg, %advnb5pbt, %advnb6eW, %advnb6eb, %advnb6eg, %advnb6ebt, %advnb6dW, %advnb6db, %advnb6dg, %advnb6dbt, %advnb6zW1, %advnb6zb1, %advnb6zW2, %advnb6zb2, %advnb6pW, %advnb6pb, %advnb6pg, %advnb6pbt, %advnb7eW, %advnb7eb, %advnb7eg, %advnb7ebt, %advnb7dW, %advnb7db, %advnb7dg, %advnb7dbt, %advnb7zW1, %advnb7zb1, %advnb7zW2, %advnb7zb2, %advnb7pW, %advnb7pb, %advnb7pg, %advnb7pbt, %advnb8eW, %advnb8eb, %advnb8eg, %advnb8ebt, %advnb8dW, %advnb8db, %advnb8dg, %advnb8dbt, %advnb8zW1, %advnb8zb1, %advnb8zW2, %advnb8zb2, %advnb8pW, %advnb8pb, %advnb8pg, %advnb8pbt, %advnb9eW, %advnb9eb, %advnb9eg, %advnb9ebt, %advnb9dW, %advnb9db, %advnb9dg, %advnb9dbt, %advnb9zW1, %advnb9zb1, %advnb9zW2, %advnb9zb2, %advnb9pW, %advnb9pb, %advnb9pg, %advnb9pbt, %advnb10eW, %advnb10eb, %advnb10eg, %advnb10ebt, %advnb10dW, %advnb10db, %advnb10dg, %advnb10dbt, %advnb10zW1, %advnb10zb1, %advnb10zW2, %advnb10zb2, %advnb10pW, %advnb10pb, %advnb10pg, %advnb10pbt, %advnb11eW, %advnb11eb, %advnb11eg, %advnb11ebt, %advnb11dW, %advnb11db, %advnb11dg, %advnb11dbt, %advnb11zW1, %advnb11zb1, %advnb11zW2, %advnb11zb2, %advnb11pW, %advnb11pb, %advnb11pg, %advnb11pbt, %advnb12eW, %advnb12eb, %advnb12eg, %advnb12ebt, %advnb12dW, %advnb12db, %advnb12dg, %advnb12dbt, %advnb12zW1, %advnb12zb1, %advnb12zW2, %advnb12zb2, %advnb12pW, %advnb12pb, %advnb12pg, %advnb12pbt, %advnb13eW, %advnb13eb, %advnb13eg, %advnb13ebt, %advnb13dW, %advnb13db, %advnb13dg, %advnb13dbt, %advnb13zW1, %advnb13zb1, %advnb13zW2, %advnb13zb2, %advnb13pW, %advnb13pb, %advnb13pg, %advnb13pbt, %advnb14eW, %advnb14eb, %advnb14eg, %advnb14ebt, %advnb14dW, %advnb14db, %advnb14dg, %advnb14dbt, %advnb14zW1, %advnb14zb1, %advnb14zW2, %advnb14zb2, %advnb14pW, %advnb14pb, %advnb14pg, %advnb14pbt, %advnb15eW, %advnb15eb, %advnb15eg, %advnb15ebt, %advnb15dW, %advnb15db, %advnb15dg, %advnb15dbt, %advnb15zW1, %advnb15zb1, %advnb15zW2, %advnb15zb2, %advnb15pW, %advnb15pb, %advnb15pg, %advnb15pbt, %advnb16eW, %advnb16eb, %advnb16eg, %advnb16ebt, %advnb16dW, %advnb16db, %advnb16dg, %advnb16dbt, %advnb16zW1, %advnb16zb1, %advnb16zW2, %advnb16zb2, %advnb16pW, %advnb16pb, %advnb16pg, %advnb16pbt, %advnhW, %advnhb, %advnhg, %advnhbt, %advnWd, %advnbd, %loss, %bc1, %bc2, %stnbnmu, %stnbnvar, %b1dnbnmu, %b1dnbnvar, %b1pnbnmu, %b1pnbnvar, %b2enbnmu, %b2enbnvar, %b2dnbnmu, %b2dnbnvar, %b2pnbnmu, %b2pnbnvar, %b3enbnmu, %b3enbnvar, %b3dnbnmu, %b3dnbnvar, %b3pnbnmu, %b3pnbnvar, %b4enbnmu, %b4enbnvar, %b4dnbnmu, %b4dnbnvar, %b4pnbnmu, %b4pnbnvar, %b5enbnmu, %b5enbnvar, %b5dnbnmu, %b5dnbnvar, %b5pnbnmu, %b5pnbnvar, %b6enbnmu, %b6enbnvar, %b6dnbnmu, %b6dnbnvar, %b6pnbnmu, %b6pnbnvar, %b7enbnmu, %b7enbnvar, %b7dnbnmu, %b7dnbnvar, %b7pnbnmu, %b7pnbnvar, %b8enbnmu, %b8enbnvar, %b8dnbnmu, %b8dnbnvar, %b8pnbnmu, %b8pnbnvar, %b9enbnmu, %b9enbnvar, %b9dnbnmu, %b9dnbnvar, %b9pnbnmu, %b9pnbnvar, %b10enbnmu, %b10enbnvar, %b10dnbnmu, %b10dnbnvar, %b10pnbnmu, %b10pnbnvar, %b11enbnmu, %b11enbnvar, %b11dnbnmu, %b11dnbnvar, %b11pnbnmu, %b11pnbnvar, %b12enbnmu, %b12enbnvar, %b12dnbnmu, %b12dnbnvar, %b12pnbnmu, %b12pnbnvar, %b13enbnmu, %b13enbnvar, %b13dnbnmu, %b13dnbnvar, %b13pnbnmu, %b13pnbnvar, %b14enbnmu, %b14enbnvar, %b14dnbnmu, %b14dnbnvar, %b14pnbnmu, %b14pnbnvar, %b15enbnmu, %b15enbnvar, %b15dnbnmu, %b15dnbnvar, %b15pnbnmu, %b15pnbnvar, %b16enbnmu, %b16enbnvar, %b16dnbnmu, %b16dnbnvar, %b16pnbnmu, %b16pnbnvar, %hnbnmu, %hnbnvar : tensor<32x3x3x3xf32>, tensor<32xf32>, tensor<32xf32>, tensor<32xf32>, tensor<32x1x3x3xf32>, tensor<32xf32>, tensor<32xf32>, tensor<32xf32>, tensor<32x8xf32>, tensor<8xf32>, tensor<8x32xf32>, tensor<32xf32>, tensor<16x32x1x1xf32>, tensor<16xf32>, tensor<16xf32>, tensor<16xf32>, tensor<96x16x1x1xf32>, tensor<96xf32>, tensor<96xf32>, tensor<96xf32>, tensor<96x1x3x3xf32>, tensor<96xf32>, tensor<96xf32>, tensor<96xf32>, tensor<96x4xf32>, tensor<4xf32>, tensor<4x96xf32>, tensor<96xf32>, tensor<24x96x1x1xf32>, tensor<24xf32>, tensor<24xf32>, tensor<24xf32>, tensor<144x24x1x1xf32>, tensor<144xf32>, tensor<144xf32>, tensor<144xf32>, tensor<144x1x3x3xf32>, tensor<144xf32>, tensor<144xf32>, tensor<144xf32>, tensor<144x6xf32>, tensor<6xf32>, tensor<6x144xf32>, tensor<144xf32>, tensor<24x144x1x1xf32>, tensor<24xf32>, tensor<24xf32>, tensor<24xf32>, tensor<144x24x1x1xf32>, tensor<144xf32>, tensor<144xf32>, tensor<144xf32>, tensor<144x1x5x5xf32>, tensor<144xf32>, tensor<144xf32>, tensor<144xf32>, tensor<144x6xf32>, tensor<6xf32>, tensor<6x144xf32>, tensor<144xf32>, tensor<40x144x1x1xf32>, tensor<40xf32>, tensor<40xf32>, tensor<40xf32>, tensor<240x40x1x1xf32>, tensor<240xf32>, tensor<240xf32>, tensor<240xf32>, tensor<240x1x5x5xf32>, tensor<240xf32>, tensor<240xf32>, tensor<240xf32>, tensor<240x10xf32>, tensor<10xf32>, tensor<10x240xf32>, tensor<240xf32>, tensor<40x240x1x1xf32>, tensor<40xf32>, tensor<40xf32>, tensor<40xf32>, tensor<240x40x1x1xf32>, tensor<240xf32>, tensor<240xf32>, tensor<240xf32>, tensor<240x1x3x3xf32>, tensor<240xf32>, tensor<240xf32>, tensor<240xf32>, tensor<240x10xf32>, tensor<10xf32>, tensor<10x240xf32>, tensor<240xf32>, tensor<80x240x1x1xf32>, tensor<80xf32>, tensor<80xf32>, tensor<80xf32>, tensor<480x80x1x1xf32>, tensor<480xf32>, tensor<480xf32>, tensor<480xf32>, tensor<480x1x3x3xf32>, tensor<480xf32>, tensor<480xf32>, tensor<480xf32>, tensor<480x20xf32>, tensor<20xf32>, tensor<20x480xf32>, tensor<480xf32>, tensor<80x480x1x1xf32>, tensor<80xf32>, tensor<80xf32>, tensor<80xf32>, tensor<480x80x1x1xf32>, tensor<480xf32>, tensor<480xf32>, tensor<480xf32>, tensor<480x1x3x3xf32>, tensor<480xf32>, tensor<480xf32>, tensor<480xf32>, tensor<480x20xf32>, tensor<20xf32>, tensor<20x480xf32>, tensor<480xf32>, tensor<80x480x1x1xf32>, tensor<80xf32>, tensor<80xf32>, tensor<80xf32>, tensor<480x80x1x1xf32>, tensor<480xf32>, tensor<480xf32>, tensor<480xf32>, tensor<480x1x5x5xf32>, tensor<480xf32>, tensor<480xf32>, tensor<480xf32>, tensor<480x20xf32>, tensor<20xf32>, tensor<20x480xf32>, tensor<480xf32>, tensor<112x480x1x1xf32>, tensor<112xf32>, tensor<112xf32>, tensor<112xf32>, tensor<672x112x1x1xf32>, tensor<672xf32>, tensor<672xf32>, tensor<672xf32>, tensor<672x1x5x5xf32>, tensor<672xf32>, tensor<672xf32>, tensor<672xf32>, tensor<672x28xf32>, tensor<28xf32>, tensor<28x672xf32>, tensor<672xf32>, tensor<112x672x1x1xf32>, tensor<112xf32>, tensor<112xf32>, tensor<112xf32>, tensor<672x112x1x1xf32>, tensor<672xf32>, tensor<672xf32>, tensor<672xf32>, tensor<672x1x5x5xf32>, tensor<672xf32>, tensor<672xf32>, tensor<672xf32>, tensor<672x28xf32>, tensor<28xf32>, tensor<28x672xf32>, tensor<672xf32>, tensor<112x672x1x1xf32>, tensor<112xf32>, tensor<112xf32>, tensor<112xf32>, tensor<672x112x1x1xf32>, tensor<672xf32>, tensor<672xf32>, tensor<672xf32>, tensor<672x1x5x5xf32>, tensor<672xf32>, tensor<672xf32>, tensor<672xf32>, tensor<672x28xf32>, tensor<28xf32>, tensor<28x672xf32>, tensor<672xf32>, tensor<192x672x1x1xf32>, tensor<192xf32>, tensor<192xf32>, tensor<192xf32>, tensor<1152x192x1x1xf32>, tensor<1152xf32>, tensor<1152xf32>, tensor<1152xf32>, tensor<1152x1x5x5xf32>, tensor<1152xf32>, tensor<1152xf32>, tensor<1152xf32>, tensor<1152x48xf32>, tensor<48xf32>, tensor<48x1152xf32>, tensor<1152xf32>, tensor<192x1152x1x1xf32>, tensor<192xf32>, tensor<192xf32>, tensor<192xf32>, tensor<1152x192x1x1xf32>, tensor<1152xf32>, tensor<1152xf32>, tensor<1152xf32>, tensor<1152x1x5x5xf32>, tensor<1152xf32>, tensor<1152xf32>, tensor<1152xf32>, tensor<1152x48xf32>, tensor<48xf32>, tensor<48x1152xf32>, tensor<1152xf32>, tensor<192x1152x1x1xf32>, tensor<192xf32>, tensor<192xf32>, tensor<192xf32>, tensor<1152x192x1x1xf32>, tensor<1152xf32>, tensor<1152xf32>, tensor<1152xf32>, tensor<1152x1x5x5xf32>, tensor<1152xf32>, tensor<1152xf32>, tensor<1152xf32>, tensor<1152x48xf32>, tensor<48xf32>, tensor<48x1152xf32>, tensor<1152xf32>, tensor<192x1152x1x1xf32>, tensor<192xf32>, tensor<192xf32>, tensor<192xf32>, tensor<1152x192x1x1xf32>, tensor<1152xf32>, tensor<1152xf32>, tensor<1152xf32>, tensor<1152x1x3x3xf32>, tensor<1152xf32>, tensor<1152xf32>, tensor<1152xf32>, tensor<1152x48xf32>, tensor<48xf32>, tensor<48x1152xf32>, tensor<1152xf32>, tensor<320x1152x1x1xf32>, tensor<320xf32>, tensor<320xf32>, tensor<320xf32>, tensor<1280x320x1x1xf32>, tensor<1280xf32>, tensor<1280xf32>, tensor<1280xf32>, tensor<1280x10xf32>, tensor<10xf32>, tensor<32x3x3x3xf32>, tensor<32xf32>, tensor<32xf32>, tensor<32xf32>, tensor<32x1x3x3xf32>, tensor<32xf32>, tensor<32xf32>, tensor<32xf32>, tensor<32x8xf32>, tensor<8xf32>, tensor<8x32xf32>, tensor<32xf32>, tensor<16x32x1x1xf32>, tensor<16xf32>, tensor<16xf32>, tensor<16xf32>, tensor<96x16x1x1xf32>, tensor<96xf32>, tensor<96xf32>, tensor<96xf32>, tensor<96x1x3x3xf32>, tensor<96xf32>, tensor<96xf32>, tensor<96xf32>, tensor<96x4xf32>, tensor<4xf32>, tensor<4x96xf32>, tensor<96xf32>, tensor<24x96x1x1xf32>, tensor<24xf32>, tensor<24xf32>, tensor<24xf32>, tensor<144x24x1x1xf32>, tensor<144xf32>, tensor<144xf32>, tensor<144xf32>, tensor<144x1x3x3xf32>, tensor<144xf32>, tensor<144xf32>, tensor<144xf32>, tensor<144x6xf32>, tensor<6xf32>, tensor<6x144xf32>, tensor<144xf32>, tensor<24x144x1x1xf32>, tensor<24xf32>, tensor<24xf32>, tensor<24xf32>, tensor<144x24x1x1xf32>, tensor<144xf32>, tensor<144xf32>, tensor<144xf32>, tensor<144x1x5x5xf32>, tensor<144xf32>, tensor<144xf32>, tensor<144xf32>, tensor<144x6xf32>, tensor<6xf32>, tensor<6x144xf32>, tensor<144xf32>, tensor<40x144x1x1xf32>, tensor<40xf32>, tensor<40xf32>, tensor<40xf32>, tensor<240x40x1x1xf32>, tensor<240xf32>, tensor<240xf32>, tensor<240xf32>, tensor<240x1x5x5xf32>, tensor<240xf32>, tensor<240xf32>, tensor<240xf32>, tensor<240x10xf32>, tensor<10xf32>, tensor<10x240xf32>, tensor<240xf32>, tensor<40x240x1x1xf32>, tensor<40xf32>, tensor<40xf32>, tensor<40xf32>, tensor<240x40x1x1xf32>, tensor<240xf32>, tensor<240xf32>, tensor<240xf32>, tensor<240x1x3x3xf32>, tensor<240xf32>, tensor<240xf32>, tensor<240xf32>, tensor<240x10xf32>, tensor<10xf32>, tensor<10x240xf32>, tensor<240xf32>, tensor<80x240x1x1xf32>, tensor<80xf32>, tensor<80xf32>, tensor<80xf32>, tensor<480x80x1x1xf32>, tensor<480xf32>, tensor<480xf32>, tensor<480xf32>, tensor<480x1x3x3xf32>, tensor<480xf32>, tensor<480xf32>, tensor<480xf32>, tensor<480x20xf32>, tensor<20xf32>, tensor<20x480xf32>, tensor<480xf32>, tensor<80x480x1x1xf32>, tensor<80xf32>, tensor<80xf32>, tensor<80xf32>, tensor<480x80x1x1xf32>, tensor<480xf32>, tensor<480xf32>, tensor<480xf32>, tensor<480x1x3x3xf32>, tensor<480xf32>, tensor<480xf32>, tensor<480xf32>, tensor<480x20xf32>, tensor<20xf32>, tensor<20x480xf32>, tensor<480xf32>, tensor<80x480x1x1xf32>, tensor<80xf32>, tensor<80xf32>, tensor<80xf32>, tensor<480x80x1x1xf32>, tensor<480xf32>, tensor<480xf32>, tensor<480xf32>, tensor<480x1x5x5xf32>, tensor<480xf32>, tensor<480xf32>, tensor<480xf32>, tensor<480x20xf32>, tensor<20xf32>, tensor<20x480xf32>, tensor<480xf32>, tensor<112x480x1x1xf32>, tensor<112xf32>, tensor<112xf32>, tensor<112xf32>, tensor<672x112x1x1xf32>, tensor<672xf32>, tensor<672xf32>, tensor<672xf32>, tensor<672x1x5x5xf32>, tensor<672xf32>, tensor<672xf32>, tensor<672xf32>, tensor<672x28xf32>, tensor<28xf32>, tensor<28x672xf32>, tensor<672xf32>, tensor<112x672x1x1xf32>, tensor<112xf32>, tensor<112xf32>, tensor<112xf32>, tensor<672x112x1x1xf32>, tensor<672xf32>, tensor<672xf32>, tensor<672xf32>, tensor<672x1x5x5xf32>, tensor<672xf32>, tensor<672xf32>, tensor<672xf32>, tensor<672x28xf32>, tensor<28xf32>, tensor<28x672xf32>, tensor<672xf32>, tensor<112x672x1x1xf32>, tensor<112xf32>, tensor<112xf32>, tensor<112xf32>, tensor<672x112x1x1xf32>, tensor<672xf32>, tensor<672xf32>, tensor<672xf32>, tensor<672x1x5x5xf32>, tensor<672xf32>, tensor<672xf32>, tensor<672xf32>, tensor<672x28xf32>, tensor<28xf32>, tensor<28x672xf32>, tensor<672xf32>, tensor<192x672x1x1xf32>, tensor<192xf32>, tensor<192xf32>, tensor<192xf32>, tensor<1152x192x1x1xf32>, tensor<1152xf32>, tensor<1152xf32>, tensor<1152xf32>, tensor<1152x1x5x5xf32>, tensor<1152xf32>, tensor<1152xf32>, tensor<1152xf32>, tensor<1152x48xf32>, tensor<48xf32>, tensor<48x1152xf32>, tensor<1152xf32>, tensor<192x1152x1x1xf32>, tensor<192xf32>, tensor<192xf32>, tensor<192xf32>, tensor<1152x192x1x1xf32>, tensor<1152xf32>, tensor<1152xf32>, tensor<1152xf32>, tensor<1152x1x5x5xf32>, tensor<1152xf32>, tensor<1152xf32>, tensor<1152xf32>, tensor<1152x48xf32>, tensor<48xf32>, tensor<48x1152xf32>, tensor<1152xf32>, tensor<192x1152x1x1xf32>, tensor<192xf32>, tensor<192xf32>, tensor<192xf32>, tensor<1152x192x1x1xf32>, tensor<1152xf32>, tensor<1152xf32>, tensor<1152xf32>, tensor<1152x1x5x5xf32>, tensor<1152xf32>, tensor<1152xf32>, tensor<1152xf32>, tensor<1152x48xf32>, tensor<48xf32>, tensor<48x1152xf32>, tensor<1152xf32>, tensor<192x1152x1x1xf32>, tensor<192xf32>, tensor<192xf32>, tensor<192xf32>, tensor<1152x192x1x1xf32>, tensor<1152xf32>, tensor<1152xf32>, tensor<1152xf32>, tensor<1152x1x3x3xf32>, tensor<1152xf32>, tensor<1152xf32>, tensor<1152xf32>, tensor<1152x48xf32>, tensor<48xf32>, tensor<48x1152xf32>, tensor<1152xf32>, tensor<320x1152x1x1xf32>, tensor<320xf32>, tensor<320xf32>, tensor<320xf32>, tensor<1280x320x1x1xf32>, tensor<1280xf32>, tensor<1280xf32>, tensor<1280xf32>, tensor<1280x10xf32>, tensor<10xf32>, tensor<32x3x3x3xf32>, tensor<32xf32>, tensor<32xf32>, tensor<32xf32>, tensor<32x1x3x3xf32>, tensor<32xf32>, tensor<32xf32>, tensor<32xf32>, tensor<32x8xf32>, tensor<8xf32>, tensor<8x32xf32>, tensor<32xf32>, tensor<16x32x1x1xf32>, tensor<16xf32>, tensor<16xf32>, tensor<16xf32>, tensor<96x16x1x1xf32>, tensor<96xf32>, tensor<96xf32>, tensor<96xf32>, tensor<96x1x3x3xf32>, tensor<96xf32>, tensor<96xf32>, tensor<96xf32>, tensor<96x4xf32>, tensor<4xf32>, tensor<4x96xf32>, tensor<96xf32>, tensor<24x96x1x1xf32>, tensor<24xf32>, tensor<24xf32>, tensor<24xf32>, tensor<144x24x1x1xf32>, tensor<144xf32>, tensor<144xf32>, tensor<144xf32>, tensor<144x1x3x3xf32>, tensor<144xf32>, tensor<144xf32>, tensor<144xf32>, tensor<144x6xf32>, tensor<6xf32>, tensor<6x144xf32>, tensor<144xf32>, tensor<24x144x1x1xf32>, tensor<24xf32>, tensor<24xf32>, tensor<24xf32>, tensor<144x24x1x1xf32>, tensor<144xf32>, tensor<144xf32>, tensor<144xf32>, tensor<144x1x5x5xf32>, tensor<144xf32>, tensor<144xf32>, tensor<144xf32>, tensor<144x6xf32>, tensor<6xf32>, tensor<6x144xf32>, tensor<144xf32>, tensor<40x144x1x1xf32>, tensor<40xf32>, tensor<40xf32>, tensor<40xf32>, tensor<240x40x1x1xf32>, tensor<240xf32>, tensor<240xf32>, tensor<240xf32>, tensor<240x1x5x5xf32>, tensor<240xf32>, tensor<240xf32>, tensor<240xf32>, tensor<240x10xf32>, tensor<10xf32>, tensor<10x240xf32>, tensor<240xf32>, tensor<40x240x1x1xf32>, tensor<40xf32>, tensor<40xf32>, tensor<40xf32>, tensor<240x40x1x1xf32>, tensor<240xf32>, tensor<240xf32>, tensor<240xf32>, tensor<240x1x3x3xf32>, tensor<240xf32>, tensor<240xf32>, tensor<240xf32>, tensor<240x10xf32>, tensor<10xf32>, tensor<10x240xf32>, tensor<240xf32>, tensor<80x240x1x1xf32>, tensor<80xf32>, tensor<80xf32>, tensor<80xf32>, tensor<480x80x1x1xf32>, tensor<480xf32>, tensor<480xf32>, tensor<480xf32>, tensor<480x1x3x3xf32>, tensor<480xf32>, tensor<480xf32>, tensor<480xf32>, tensor<480x20xf32>, tensor<20xf32>, tensor<20x480xf32>, tensor<480xf32>, tensor<80x480x1x1xf32>, tensor<80xf32>, tensor<80xf32>, tensor<80xf32>, tensor<480x80x1x1xf32>, tensor<480xf32>, tensor<480xf32>, tensor<480xf32>, tensor<480x1x3x3xf32>, tensor<480xf32>, tensor<480xf32>, tensor<480xf32>, tensor<480x20xf32>, tensor<20xf32>, tensor<20x480xf32>, tensor<480xf32>, tensor<80x480x1x1xf32>, tensor<80xf32>, tensor<80xf32>, tensor<80xf32>, tensor<480x80x1x1xf32>, tensor<480xf32>, tensor<480xf32>, tensor<480xf32>, tensor<480x1x5x5xf32>, tensor<480xf32>, tensor<480xf32>, tensor<480xf32>, tensor<480x20xf32>, tensor<20xf32>, tensor<20x480xf32>, tensor<480xf32>, tensor<112x480x1x1xf32>, tensor<112xf32>, tensor<112xf32>, tensor<112xf32>, tensor<672x112x1x1xf32>, tensor<672xf32>, tensor<672xf32>, tensor<672xf32>, tensor<672x1x5x5xf32>, tensor<672xf32>, tensor<672xf32>, tensor<672xf32>, tensor<672x28xf32>, tensor<28xf32>, tensor<28x672xf32>, tensor<672xf32>, tensor<112x672x1x1xf32>, tensor<112xf32>, tensor<112xf32>, tensor<112xf32>, tensor<672x112x1x1xf32>, tensor<672xf32>, tensor<672xf32>, tensor<672xf32>, tensor<672x1x5x5xf32>, tensor<672xf32>, tensor<672xf32>, tensor<672xf32>, tensor<672x28xf32>, tensor<28xf32>, tensor<28x672xf32>, tensor<672xf32>, tensor<112x672x1x1xf32>, tensor<112xf32>, tensor<112xf32>, tensor<112xf32>, tensor<672x112x1x1xf32>, tensor<672xf32>, tensor<672xf32>, tensor<672xf32>, tensor<672x1x5x5xf32>, tensor<672xf32>, tensor<672xf32>, tensor<672xf32>, tensor<672x28xf32>, tensor<28xf32>, tensor<28x672xf32>, tensor<672xf32>, tensor<192x672x1x1xf32>, tensor<192xf32>, tensor<192xf32>, tensor<192xf32>, tensor<1152x192x1x1xf32>, tensor<1152xf32>, tensor<1152xf32>, tensor<1152xf32>, tensor<1152x1x5x5xf32>, tensor<1152xf32>, tensor<1152xf32>, tensor<1152xf32>, tensor<1152x48xf32>, tensor<48xf32>, tensor<48x1152xf32>, tensor<1152xf32>, tensor<192x1152x1x1xf32>, tensor<192xf32>, tensor<192xf32>, tensor<192xf32>, tensor<1152x192x1x1xf32>, tensor<1152xf32>, tensor<1152xf32>, tensor<1152xf32>, tensor<1152x1x5x5xf32>, tensor<1152xf32>, tensor<1152xf32>, tensor<1152xf32>, tensor<1152x48xf32>, tensor<48xf32>, tensor<48x1152xf32>, tensor<1152xf32>, tensor<192x1152x1x1xf32>, tensor<192xf32>, tensor<192xf32>, tensor<192xf32>, tensor<1152x192x1x1xf32>, tensor<1152xf32>, tensor<1152xf32>, tensor<1152xf32>, tensor<1152x1x5x5xf32>, tensor<1152xf32>, tensor<1152xf32>, tensor<1152xf32>, tensor<1152x48xf32>, tensor<48xf32>, tensor<48x1152xf32>, tensor<1152xf32>, tensor<192x1152x1x1xf32>, tensor<192xf32>, tensor<192xf32>, tensor<192xf32>, tensor<1152x192x1x1xf32>, tensor<1152xf32>, tensor<1152xf32>, tensor<1152xf32>, tensor<1152x1x3x3xf32>, tensor<1152xf32>, tensor<1152xf32>, tensor<1152xf32>, tensor<1152x48xf32>, tensor<48xf32>, tensor<48x1152xf32>, tensor<1152xf32>, tensor<320x1152x1x1xf32>, tensor<320xf32>, tensor<320xf32>, tensor<320xf32>, tensor<1280x320x1x1xf32>, tensor<1280xf32>, tensor<1280xf32>, tensor<1280xf32>, tensor<1280x10xf32>, tensor<10xf32>, tensor<f32>, tensor<f32>, tensor<f32>, tensor<32xf32>, tensor<32xf32>, tensor<32xf32>, tensor<32xf32>, tensor<16xf32>, tensor<16xf32>, tensor<96xf32>, tensor<96xf32>, tensor<96xf32>, tensor<96xf32>, tensor<24xf32>, tensor<24xf32>, tensor<144xf32>, tensor<144xf32>, tensor<144xf32>, tensor<144xf32>, tensor<24xf32>, tensor<24xf32>, tensor<144xf32>, tensor<144xf32>, tensor<144xf32>, tensor<144xf32>, tensor<40xf32>, tensor<40xf32>, tensor<240xf32>, tensor<240xf32>, tensor<240xf32>, tensor<240xf32>, tensor<40xf32>, tensor<40xf32>, tensor<240xf32>, tensor<240xf32>, tensor<240xf32>, tensor<240xf32>, tensor<80xf32>, tensor<80xf32>, tensor<480xf32>, tensor<480xf32>, tensor<480xf32>, tensor<480xf32>, tensor<80xf32>, tensor<80xf32>, tensor<480xf32>, tensor<480xf32>, tensor<480xf32>, tensor<480xf32>, tensor<80xf32>, tensor<80xf32>, tensor<480xf32>, tensor<480xf32>, tensor<480xf32>, tensor<480xf32>, tensor<112xf32>, tensor<112xf32>, tensor<672xf32>, tensor<672xf32>, tensor<672xf32>, tensor<672xf32>, tensor<112xf32>, tensor<112xf32>, tensor<672xf32>, tensor<672xf32>, tensor<672xf32>, tensor<672xf32>, tensor<112xf32>, tensor<112xf32>, tensor<672xf32>, tensor<672xf32>, tensor<672xf32>, tensor<672xf32>, tensor<192xf32>, tensor<192xf32>, tensor<1152xf32>, tensor<1152xf32>, tensor<1152xf32>, tensor<1152xf32>, tensor<192xf32>, tensor<192xf32>, tensor<1152xf32>, tensor<1152xf32>, tensor<1152xf32>, tensor<1152xf32>, tensor<192xf32>, tensor<192xf32>, tensor<1152xf32>, tensor<1152xf32>, tensor<1152xf32>, tensor<1152xf32>, tensor<192xf32>, tensor<192xf32>, tensor<1152xf32>, tensor<1152xf32>, tensor<1152xf32>, tensor<1152xf32>, tensor<320xf32>, tensor<320xf32>, tensor<1280xf32>, tensor<1280xf32>
  }
}
