module @m {
  func.func @mobilenetv2_adam_train_step(%x: tensor<32x150528xf32>, %sW: tensor<32x3x3x3xf32>, %sb: tensor<32xf32>, %sg: tensor<32xf32>, %sbt: tensor<32xf32>, %b1eW: tensor<32x32x1x1xf32>, %b1eb: tensor<32xf32>, %b1eg: tensor<32xf32>, %b1ebt: tensor<32xf32>, %b1dW: tensor<32x1x3x3xf32>, %b1db: tensor<32xf32>, %b1dg: tensor<32xf32>, %b1dbt: tensor<32xf32>, %b1pW: tensor<16x32x1x1xf32>, %b1pb: tensor<16xf32>, %b1pg: tensor<16xf32>, %b1pbt: tensor<16xf32>, %b2eW: tensor<96x16x1x1xf32>, %b2eb: tensor<96xf32>, %b2eg: tensor<96xf32>, %b2ebt: tensor<96xf32>, %b2dW: tensor<96x1x3x3xf32>, %b2db: tensor<96xf32>, %b2dg: tensor<96xf32>, %b2dbt: tensor<96xf32>, %b2pW: tensor<24x96x1x1xf32>, %b2pb: tensor<24xf32>, %b2pg: tensor<24xf32>, %b2pbt: tensor<24xf32>, %b3eW: tensor<144x24x1x1xf32>, %b3eb: tensor<144xf32>, %b3eg: tensor<144xf32>, %b3ebt: tensor<144xf32>, %b3dW: tensor<144x1x3x3xf32>, %b3db: tensor<144xf32>, %b3dg: tensor<144xf32>, %b3dbt: tensor<144xf32>, %b3pW: tensor<24x144x1x1xf32>, %b3pb: tensor<24xf32>, %b3pg: tensor<24xf32>, %b3pbt: tensor<24xf32>, %b4eW: tensor<144x24x1x1xf32>, %b4eb: tensor<144xf32>, %b4eg: tensor<144xf32>, %b4ebt: tensor<144xf32>, %b4dW: tensor<144x1x3x3xf32>, %b4db: tensor<144xf32>, %b4dg: tensor<144xf32>, %b4dbt: tensor<144xf32>, %b4pW: tensor<32x144x1x1xf32>, %b4pb: tensor<32xf32>, %b4pg: tensor<32xf32>, %b4pbt: tensor<32xf32>, %b5eW: tensor<192x32x1x1xf32>, %b5eb: tensor<192xf32>, %b5eg: tensor<192xf32>, %b5ebt: tensor<192xf32>, %b5dW: tensor<192x1x3x3xf32>, %b5db: tensor<192xf32>, %b5dg: tensor<192xf32>, %b5dbt: tensor<192xf32>, %b5pW: tensor<32x192x1x1xf32>, %b5pb: tensor<32xf32>, %b5pg: tensor<32xf32>, %b5pbt: tensor<32xf32>, %b6eW: tensor<192x32x1x1xf32>, %b6eb: tensor<192xf32>, %b6eg: tensor<192xf32>, %b6ebt: tensor<192xf32>, %b6dW: tensor<192x1x3x3xf32>, %b6db: tensor<192xf32>, %b6dg: tensor<192xf32>, %b6dbt: tensor<192xf32>, %b6pW: tensor<32x192x1x1xf32>, %b6pb: tensor<32xf32>, %b6pg: tensor<32xf32>, %b6pbt: tensor<32xf32>, %b7eW: tensor<192x32x1x1xf32>, %b7eb: tensor<192xf32>, %b7eg: tensor<192xf32>, %b7ebt: tensor<192xf32>, %b7dW: tensor<192x1x3x3xf32>, %b7db: tensor<192xf32>, %b7dg: tensor<192xf32>, %b7dbt: tensor<192xf32>, %b7pW: tensor<64x192x1x1xf32>, %b7pb: tensor<64xf32>, %b7pg: tensor<64xf32>, %b7pbt: tensor<64xf32>, %b8eW: tensor<384x64x1x1xf32>, %b8eb: tensor<384xf32>, %b8eg: tensor<384xf32>, %b8ebt: tensor<384xf32>, %b8dW: tensor<384x1x3x3xf32>, %b8db: tensor<384xf32>, %b8dg: tensor<384xf32>, %b8dbt: tensor<384xf32>, %b8pW: tensor<64x384x1x1xf32>, %b8pb: tensor<64xf32>, %b8pg: tensor<64xf32>, %b8pbt: tensor<64xf32>, %b9eW: tensor<384x64x1x1xf32>, %b9eb: tensor<384xf32>, %b9eg: tensor<384xf32>, %b9ebt: tensor<384xf32>, %b9dW: tensor<384x1x3x3xf32>, %b9db: tensor<384xf32>, %b9dg: tensor<384xf32>, %b9dbt: tensor<384xf32>, %b9pW: tensor<64x384x1x1xf32>, %b9pb: tensor<64xf32>, %b9pg: tensor<64xf32>, %b9pbt: tensor<64xf32>, %b10eW: tensor<384x64x1x1xf32>, %b10eb: tensor<384xf32>, %b10eg: tensor<384xf32>, %b10ebt: tensor<384xf32>, %b10dW: tensor<384x1x3x3xf32>, %b10db: tensor<384xf32>, %b10dg: tensor<384xf32>, %b10dbt: tensor<384xf32>, %b10pW: tensor<64x384x1x1xf32>, %b10pb: tensor<64xf32>, %b10pg: tensor<64xf32>, %b10pbt: tensor<64xf32>, %b11eW: tensor<384x64x1x1xf32>, %b11eb: tensor<384xf32>, %b11eg: tensor<384xf32>, %b11ebt: tensor<384xf32>, %b11dW: tensor<384x1x3x3xf32>, %b11db: tensor<384xf32>, %b11dg: tensor<384xf32>, %b11dbt: tensor<384xf32>, %b11pW: tensor<96x384x1x1xf32>, %b11pb: tensor<96xf32>, %b11pg: tensor<96xf32>, %b11pbt: tensor<96xf32>, %b12eW: tensor<576x96x1x1xf32>, %b12eb: tensor<576xf32>, %b12eg: tensor<576xf32>, %b12ebt: tensor<576xf32>, %b12dW: tensor<576x1x3x3xf32>, %b12db: tensor<576xf32>, %b12dg: tensor<576xf32>, %b12dbt: tensor<576xf32>, %b12pW: tensor<96x576x1x1xf32>, %b12pb: tensor<96xf32>, %b12pg: tensor<96xf32>, %b12pbt: tensor<96xf32>, %b13eW: tensor<576x96x1x1xf32>, %b13eb: tensor<576xf32>, %b13eg: tensor<576xf32>, %b13ebt: tensor<576xf32>, %b13dW: tensor<576x1x3x3xf32>, %b13db: tensor<576xf32>, %b13dg: tensor<576xf32>, %b13dbt: tensor<576xf32>, %b13pW: tensor<96x576x1x1xf32>, %b13pb: tensor<96xf32>, %b13pg: tensor<96xf32>, %b13pbt: tensor<96xf32>, %b14eW: tensor<576x96x1x1xf32>, %b14eb: tensor<576xf32>, %b14eg: tensor<576xf32>, %b14ebt: tensor<576xf32>, %b14dW: tensor<576x1x3x3xf32>, %b14db: tensor<576xf32>, %b14dg: tensor<576xf32>, %b14dbt: tensor<576xf32>, %b14pW: tensor<160x576x1x1xf32>, %b14pb: tensor<160xf32>, %b14pg: tensor<160xf32>, %b14pbt: tensor<160xf32>, %b15eW: tensor<960x160x1x1xf32>, %b15eb: tensor<960xf32>, %b15eg: tensor<960xf32>, %b15ebt: tensor<960xf32>, %b15dW: tensor<960x1x3x3xf32>, %b15db: tensor<960xf32>, %b15dg: tensor<960xf32>, %b15dbt: tensor<960xf32>, %b15pW: tensor<160x960x1x1xf32>, %b15pb: tensor<160xf32>, %b15pg: tensor<160xf32>, %b15pbt: tensor<160xf32>, %b16eW: tensor<960x160x1x1xf32>, %b16eb: tensor<960xf32>, %b16eg: tensor<960xf32>, %b16ebt: tensor<960xf32>, %b16dW: tensor<960x1x3x3xf32>, %b16db: tensor<960xf32>, %b16dg: tensor<960xf32>, %b16dbt: tensor<960xf32>, %b16pW: tensor<160x960x1x1xf32>, %b16pb: tensor<160xf32>, %b16pg: tensor<160xf32>, %b16pbt: tensor<160xf32>, %b17eW: tensor<960x160x1x1xf32>, %b17eb: tensor<960xf32>, %b17eg: tensor<960xf32>, %b17ebt: tensor<960xf32>, %b17dW: tensor<960x1x3x3xf32>, %b17db: tensor<960xf32>, %b17dg: tensor<960xf32>, %b17dbt: tensor<960xf32>, %b17pW: tensor<320x960x1x1xf32>, %b17pb: tensor<320xf32>, %b17pg: tensor<320xf32>, %b17pbt: tensor<320xf32>, %hW: tensor<1280x320x1x1xf32>, %hb: tensor<1280xf32>, %hg: tensor<1280xf32>, %hbt: tensor<1280xf32>, %Wd: tensor<1280x10xf32>, %bd: tensor<10xf32>, %sWm: tensor<32x3x3x3xf32>, %sbm: tensor<32xf32>, %sgm: tensor<32xf32>, %sbtm: tensor<32xf32>, %b1eWm: tensor<32x32x1x1xf32>, %b1ebm: tensor<32xf32>, %b1egm: tensor<32xf32>, %b1ebtm: tensor<32xf32>, %b1dWm: tensor<32x1x3x3xf32>, %b1dbm: tensor<32xf32>, %b1dgm: tensor<32xf32>, %b1dbtm: tensor<32xf32>, %b1pWm: tensor<16x32x1x1xf32>, %b1pbm: tensor<16xf32>, %b1pgm: tensor<16xf32>, %b1pbtm: tensor<16xf32>, %b2eWm: tensor<96x16x1x1xf32>, %b2ebm: tensor<96xf32>, %b2egm: tensor<96xf32>, %b2ebtm: tensor<96xf32>, %b2dWm: tensor<96x1x3x3xf32>, %b2dbm: tensor<96xf32>, %b2dgm: tensor<96xf32>, %b2dbtm: tensor<96xf32>, %b2pWm: tensor<24x96x1x1xf32>, %b2pbm: tensor<24xf32>, %b2pgm: tensor<24xf32>, %b2pbtm: tensor<24xf32>, %b3eWm: tensor<144x24x1x1xf32>, %b3ebm: tensor<144xf32>, %b3egm: tensor<144xf32>, %b3ebtm: tensor<144xf32>, %b3dWm: tensor<144x1x3x3xf32>, %b3dbm: tensor<144xf32>, %b3dgm: tensor<144xf32>, %b3dbtm: tensor<144xf32>, %b3pWm: tensor<24x144x1x1xf32>, %b3pbm: tensor<24xf32>, %b3pgm: tensor<24xf32>, %b3pbtm: tensor<24xf32>, %b4eWm: tensor<144x24x1x1xf32>, %b4ebm: tensor<144xf32>, %b4egm: tensor<144xf32>, %b4ebtm: tensor<144xf32>, %b4dWm: tensor<144x1x3x3xf32>, %b4dbm: tensor<144xf32>, %b4dgm: tensor<144xf32>, %b4dbtm: tensor<144xf32>, %b4pWm: tensor<32x144x1x1xf32>, %b4pbm: tensor<32xf32>, %b4pgm: tensor<32xf32>, %b4pbtm: tensor<32xf32>, %b5eWm: tensor<192x32x1x1xf32>, %b5ebm: tensor<192xf32>, %b5egm: tensor<192xf32>, %b5ebtm: tensor<192xf32>, %b5dWm: tensor<192x1x3x3xf32>, %b5dbm: tensor<192xf32>, %b5dgm: tensor<192xf32>, %b5dbtm: tensor<192xf32>, %b5pWm: tensor<32x192x1x1xf32>, %b5pbm: tensor<32xf32>, %b5pgm: tensor<32xf32>, %b5pbtm: tensor<32xf32>, %b6eWm: tensor<192x32x1x1xf32>, %b6ebm: tensor<192xf32>, %b6egm: tensor<192xf32>, %b6ebtm: tensor<192xf32>, %b6dWm: tensor<192x1x3x3xf32>, %b6dbm: tensor<192xf32>, %b6dgm: tensor<192xf32>, %b6dbtm: tensor<192xf32>, %b6pWm: tensor<32x192x1x1xf32>, %b6pbm: tensor<32xf32>, %b6pgm: tensor<32xf32>, %b6pbtm: tensor<32xf32>, %b7eWm: tensor<192x32x1x1xf32>, %b7ebm: tensor<192xf32>, %b7egm: tensor<192xf32>, %b7ebtm: tensor<192xf32>, %b7dWm: tensor<192x1x3x3xf32>, %b7dbm: tensor<192xf32>, %b7dgm: tensor<192xf32>, %b7dbtm: tensor<192xf32>, %b7pWm: tensor<64x192x1x1xf32>, %b7pbm: tensor<64xf32>, %b7pgm: tensor<64xf32>, %b7pbtm: tensor<64xf32>, %b8eWm: tensor<384x64x1x1xf32>, %b8ebm: tensor<384xf32>, %b8egm: tensor<384xf32>, %b8ebtm: tensor<384xf32>, %b8dWm: tensor<384x1x3x3xf32>, %b8dbm: tensor<384xf32>, %b8dgm: tensor<384xf32>, %b8dbtm: tensor<384xf32>, %b8pWm: tensor<64x384x1x1xf32>, %b8pbm: tensor<64xf32>, %b8pgm: tensor<64xf32>, %b8pbtm: tensor<64xf32>, %b9eWm: tensor<384x64x1x1xf32>, %b9ebm: tensor<384xf32>, %b9egm: tensor<384xf32>, %b9ebtm: tensor<384xf32>, %b9dWm: tensor<384x1x3x3xf32>, %b9dbm: tensor<384xf32>, %b9dgm: tensor<384xf32>, %b9dbtm: tensor<384xf32>, %b9pWm: tensor<64x384x1x1xf32>, %b9pbm: tensor<64xf32>, %b9pgm: tensor<64xf32>, %b9pbtm: tensor<64xf32>, %b10eWm: tensor<384x64x1x1xf32>, %b10ebm: tensor<384xf32>, %b10egm: tensor<384xf32>, %b10ebtm: tensor<384xf32>, %b10dWm: tensor<384x1x3x3xf32>, %b10dbm: tensor<384xf32>, %b10dgm: tensor<384xf32>, %b10dbtm: tensor<384xf32>, %b10pWm: tensor<64x384x1x1xf32>, %b10pbm: tensor<64xf32>, %b10pgm: tensor<64xf32>, %b10pbtm: tensor<64xf32>, %b11eWm: tensor<384x64x1x1xf32>, %b11ebm: tensor<384xf32>, %b11egm: tensor<384xf32>, %b11ebtm: tensor<384xf32>, %b11dWm: tensor<384x1x3x3xf32>, %b11dbm: tensor<384xf32>, %b11dgm: tensor<384xf32>, %b11dbtm: tensor<384xf32>, %b11pWm: tensor<96x384x1x1xf32>, %b11pbm: tensor<96xf32>, %b11pgm: tensor<96xf32>, %b11pbtm: tensor<96xf32>, %b12eWm: tensor<576x96x1x1xf32>, %b12ebm: tensor<576xf32>, %b12egm: tensor<576xf32>, %b12ebtm: tensor<576xf32>, %b12dWm: tensor<576x1x3x3xf32>, %b12dbm: tensor<576xf32>, %b12dgm: tensor<576xf32>, %b12dbtm: tensor<576xf32>, %b12pWm: tensor<96x576x1x1xf32>, %b12pbm: tensor<96xf32>, %b12pgm: tensor<96xf32>, %b12pbtm: tensor<96xf32>, %b13eWm: tensor<576x96x1x1xf32>, %b13ebm: tensor<576xf32>, %b13egm: tensor<576xf32>, %b13ebtm: tensor<576xf32>, %b13dWm: tensor<576x1x3x3xf32>, %b13dbm: tensor<576xf32>, %b13dgm: tensor<576xf32>, %b13dbtm: tensor<576xf32>, %b13pWm: tensor<96x576x1x1xf32>, %b13pbm: tensor<96xf32>, %b13pgm: tensor<96xf32>, %b13pbtm: tensor<96xf32>, %b14eWm: tensor<576x96x1x1xf32>, %b14ebm: tensor<576xf32>, %b14egm: tensor<576xf32>, %b14ebtm: tensor<576xf32>, %b14dWm: tensor<576x1x3x3xf32>, %b14dbm: tensor<576xf32>, %b14dgm: tensor<576xf32>, %b14dbtm: tensor<576xf32>, %b14pWm: tensor<160x576x1x1xf32>, %b14pbm: tensor<160xf32>, %b14pgm: tensor<160xf32>, %b14pbtm: tensor<160xf32>, %b15eWm: tensor<960x160x1x1xf32>, %b15ebm: tensor<960xf32>, %b15egm: tensor<960xf32>, %b15ebtm: tensor<960xf32>, %b15dWm: tensor<960x1x3x3xf32>, %b15dbm: tensor<960xf32>, %b15dgm: tensor<960xf32>, %b15dbtm: tensor<960xf32>, %b15pWm: tensor<160x960x1x1xf32>, %b15pbm: tensor<160xf32>, %b15pgm: tensor<160xf32>, %b15pbtm: tensor<160xf32>, %b16eWm: tensor<960x160x1x1xf32>, %b16ebm: tensor<960xf32>, %b16egm: tensor<960xf32>, %b16ebtm: tensor<960xf32>, %b16dWm: tensor<960x1x3x3xf32>, %b16dbm: tensor<960xf32>, %b16dgm: tensor<960xf32>, %b16dbtm: tensor<960xf32>, %b16pWm: tensor<160x960x1x1xf32>, %b16pbm: tensor<160xf32>, %b16pgm: tensor<160xf32>, %b16pbtm: tensor<160xf32>, %b17eWm: tensor<960x160x1x1xf32>, %b17ebm: tensor<960xf32>, %b17egm: tensor<960xf32>, %b17ebtm: tensor<960xf32>, %b17dWm: tensor<960x1x3x3xf32>, %b17dbm: tensor<960xf32>, %b17dgm: tensor<960xf32>, %b17dbtm: tensor<960xf32>, %b17pWm: tensor<320x960x1x1xf32>, %b17pbm: tensor<320xf32>, %b17pgm: tensor<320xf32>, %b17pbtm: tensor<320xf32>, %hWm: tensor<1280x320x1x1xf32>, %hbm: tensor<1280xf32>, %hgm: tensor<1280xf32>, %hbtm: tensor<1280xf32>, %Wdm: tensor<1280x10xf32>, %bdm: tensor<10xf32>, %sWv: tensor<32x3x3x3xf32>, %sbv: tensor<32xf32>, %sgv: tensor<32xf32>, %sbtv: tensor<32xf32>, %b1eWv: tensor<32x32x1x1xf32>, %b1ebv: tensor<32xf32>, %b1egv: tensor<32xf32>, %b1ebtv: tensor<32xf32>, %b1dWv: tensor<32x1x3x3xf32>, %b1dbv: tensor<32xf32>, %b1dgv: tensor<32xf32>, %b1dbtv: tensor<32xf32>, %b1pWv: tensor<16x32x1x1xf32>, %b1pbv: tensor<16xf32>, %b1pgv: tensor<16xf32>, %b1pbtv: tensor<16xf32>, %b2eWv: tensor<96x16x1x1xf32>, %b2ebv: tensor<96xf32>, %b2egv: tensor<96xf32>, %b2ebtv: tensor<96xf32>, %b2dWv: tensor<96x1x3x3xf32>, %b2dbv: tensor<96xf32>, %b2dgv: tensor<96xf32>, %b2dbtv: tensor<96xf32>, %b2pWv: tensor<24x96x1x1xf32>, %b2pbv: tensor<24xf32>, %b2pgv: tensor<24xf32>, %b2pbtv: tensor<24xf32>, %b3eWv: tensor<144x24x1x1xf32>, %b3ebv: tensor<144xf32>, %b3egv: tensor<144xf32>, %b3ebtv: tensor<144xf32>, %b3dWv: tensor<144x1x3x3xf32>, %b3dbv: tensor<144xf32>, %b3dgv: tensor<144xf32>, %b3dbtv: tensor<144xf32>, %b3pWv: tensor<24x144x1x1xf32>, %b3pbv: tensor<24xf32>, %b3pgv: tensor<24xf32>, %b3pbtv: tensor<24xf32>, %b4eWv: tensor<144x24x1x1xf32>, %b4ebv: tensor<144xf32>, %b4egv: tensor<144xf32>, %b4ebtv: tensor<144xf32>, %b4dWv: tensor<144x1x3x3xf32>, %b4dbv: tensor<144xf32>, %b4dgv: tensor<144xf32>, %b4dbtv: tensor<144xf32>, %b4pWv: tensor<32x144x1x1xf32>, %b4pbv: tensor<32xf32>, %b4pgv: tensor<32xf32>, %b4pbtv: tensor<32xf32>, %b5eWv: tensor<192x32x1x1xf32>, %b5ebv: tensor<192xf32>, %b5egv: tensor<192xf32>, %b5ebtv: tensor<192xf32>, %b5dWv: tensor<192x1x3x3xf32>, %b5dbv: tensor<192xf32>, %b5dgv: tensor<192xf32>, %b5dbtv: tensor<192xf32>, %b5pWv: tensor<32x192x1x1xf32>, %b5pbv: tensor<32xf32>, %b5pgv: tensor<32xf32>, %b5pbtv: tensor<32xf32>, %b6eWv: tensor<192x32x1x1xf32>, %b6ebv: tensor<192xf32>, %b6egv: tensor<192xf32>, %b6ebtv: tensor<192xf32>, %b6dWv: tensor<192x1x3x3xf32>, %b6dbv: tensor<192xf32>, %b6dgv: tensor<192xf32>, %b6dbtv: tensor<192xf32>, %b6pWv: tensor<32x192x1x1xf32>, %b6pbv: tensor<32xf32>, %b6pgv: tensor<32xf32>, %b6pbtv: tensor<32xf32>, %b7eWv: tensor<192x32x1x1xf32>, %b7ebv: tensor<192xf32>, %b7egv: tensor<192xf32>, %b7ebtv: tensor<192xf32>, %b7dWv: tensor<192x1x3x3xf32>, %b7dbv: tensor<192xf32>, %b7dgv: tensor<192xf32>, %b7dbtv: tensor<192xf32>, %b7pWv: tensor<64x192x1x1xf32>, %b7pbv: tensor<64xf32>, %b7pgv: tensor<64xf32>, %b7pbtv: tensor<64xf32>, %b8eWv: tensor<384x64x1x1xf32>, %b8ebv: tensor<384xf32>, %b8egv: tensor<384xf32>, %b8ebtv: tensor<384xf32>, %b8dWv: tensor<384x1x3x3xf32>, %b8dbv: tensor<384xf32>, %b8dgv: tensor<384xf32>, %b8dbtv: tensor<384xf32>, %b8pWv: tensor<64x384x1x1xf32>, %b8pbv: tensor<64xf32>, %b8pgv: tensor<64xf32>, %b8pbtv: tensor<64xf32>, %b9eWv: tensor<384x64x1x1xf32>, %b9ebv: tensor<384xf32>, %b9egv: tensor<384xf32>, %b9ebtv: tensor<384xf32>, %b9dWv: tensor<384x1x3x3xf32>, %b9dbv: tensor<384xf32>, %b9dgv: tensor<384xf32>, %b9dbtv: tensor<384xf32>, %b9pWv: tensor<64x384x1x1xf32>, %b9pbv: tensor<64xf32>, %b9pgv: tensor<64xf32>, %b9pbtv: tensor<64xf32>, %b10eWv: tensor<384x64x1x1xf32>, %b10ebv: tensor<384xf32>, %b10egv: tensor<384xf32>, %b10ebtv: tensor<384xf32>, %b10dWv: tensor<384x1x3x3xf32>, %b10dbv: tensor<384xf32>, %b10dgv: tensor<384xf32>, %b10dbtv: tensor<384xf32>, %b10pWv: tensor<64x384x1x1xf32>, %b10pbv: tensor<64xf32>, %b10pgv: tensor<64xf32>, %b10pbtv: tensor<64xf32>, %b11eWv: tensor<384x64x1x1xf32>, %b11ebv: tensor<384xf32>, %b11egv: tensor<384xf32>, %b11ebtv: tensor<384xf32>, %b11dWv: tensor<384x1x3x3xf32>, %b11dbv: tensor<384xf32>, %b11dgv: tensor<384xf32>, %b11dbtv: tensor<384xf32>, %b11pWv: tensor<96x384x1x1xf32>, %b11pbv: tensor<96xf32>, %b11pgv: tensor<96xf32>, %b11pbtv: tensor<96xf32>, %b12eWv: tensor<576x96x1x1xf32>, %b12ebv: tensor<576xf32>, %b12egv: tensor<576xf32>, %b12ebtv: tensor<576xf32>, %b12dWv: tensor<576x1x3x3xf32>, %b12dbv: tensor<576xf32>, %b12dgv: tensor<576xf32>, %b12dbtv: tensor<576xf32>, %b12pWv: tensor<96x576x1x1xf32>, %b12pbv: tensor<96xf32>, %b12pgv: tensor<96xf32>, %b12pbtv: tensor<96xf32>, %b13eWv: tensor<576x96x1x1xf32>, %b13ebv: tensor<576xf32>, %b13egv: tensor<576xf32>, %b13ebtv: tensor<576xf32>, %b13dWv: tensor<576x1x3x3xf32>, %b13dbv: tensor<576xf32>, %b13dgv: tensor<576xf32>, %b13dbtv: tensor<576xf32>, %b13pWv: tensor<96x576x1x1xf32>, %b13pbv: tensor<96xf32>, %b13pgv: tensor<96xf32>, %b13pbtv: tensor<96xf32>, %b14eWv: tensor<576x96x1x1xf32>, %b14ebv: tensor<576xf32>, %b14egv: tensor<576xf32>, %b14ebtv: tensor<576xf32>, %b14dWv: tensor<576x1x3x3xf32>, %b14dbv: tensor<576xf32>, %b14dgv: tensor<576xf32>, %b14dbtv: tensor<576xf32>, %b14pWv: tensor<160x576x1x1xf32>, %b14pbv: tensor<160xf32>, %b14pgv: tensor<160xf32>, %b14pbtv: tensor<160xf32>, %b15eWv: tensor<960x160x1x1xf32>, %b15ebv: tensor<960xf32>, %b15egv: tensor<960xf32>, %b15ebtv: tensor<960xf32>, %b15dWv: tensor<960x1x3x3xf32>, %b15dbv: tensor<960xf32>, %b15dgv: tensor<960xf32>, %b15dbtv: tensor<960xf32>, %b15pWv: tensor<160x960x1x1xf32>, %b15pbv: tensor<160xf32>, %b15pgv: tensor<160xf32>, %b15pbtv: tensor<160xf32>, %b16eWv: tensor<960x160x1x1xf32>, %b16ebv: tensor<960xf32>, %b16egv: tensor<960xf32>, %b16ebtv: tensor<960xf32>, %b16dWv: tensor<960x1x3x3xf32>, %b16dbv: tensor<960xf32>, %b16dgv: tensor<960xf32>, %b16dbtv: tensor<960xf32>, %b16pWv: tensor<160x960x1x1xf32>, %b16pbv: tensor<160xf32>, %b16pgv: tensor<160xf32>, %b16pbtv: tensor<160xf32>, %b17eWv: tensor<960x160x1x1xf32>, %b17ebv: tensor<960xf32>, %b17egv: tensor<960xf32>, %b17ebtv: tensor<960xf32>, %b17dWv: tensor<960x1x3x3xf32>, %b17dbv: tensor<960xf32>, %b17dgv: tensor<960xf32>, %b17dbtv: tensor<960xf32>, %b17pWv: tensor<320x960x1x1xf32>, %b17pbv: tensor<320xf32>, %b17pgv: tensor<320xf32>, %b17pbtv: tensor<320xf32>, %hWv: tensor<1280x320x1x1xf32>, %hbv: tensor<1280xf32>, %hgv: tensor<1280xf32>, %hbtv: tensor<1280xf32>, %Wdv: tensor<1280x10xf32>, %bdv: tensor<10xf32>, %lr: tensor<f32>, %bc1: tensor<f32>, %bc2: tensor<f32>, %stnmui: tensor<32xf32>, %stnvari: tensor<32xf32>, %b1enmui: tensor<32xf32>, %b1envari: tensor<32xf32>, %b1dnmui: tensor<32xf32>, %b1dnvari: tensor<32xf32>, %b1pnmui: tensor<16xf32>, %b1pnvari: tensor<16xf32>, %b2enmui: tensor<96xf32>, %b2envari: tensor<96xf32>, %b2dnmui: tensor<96xf32>, %b2dnvari: tensor<96xf32>, %b2pnmui: tensor<24xf32>, %b2pnvari: tensor<24xf32>, %b3enmui: tensor<144xf32>, %b3envari: tensor<144xf32>, %b3dnmui: tensor<144xf32>, %b3dnvari: tensor<144xf32>, %b3pnmui: tensor<24xf32>, %b3pnvari: tensor<24xf32>, %b4enmui: tensor<144xf32>, %b4envari: tensor<144xf32>, %b4dnmui: tensor<144xf32>, %b4dnvari: tensor<144xf32>, %b4pnmui: tensor<32xf32>, %b4pnvari: tensor<32xf32>, %b5enmui: tensor<192xf32>, %b5envari: tensor<192xf32>, %b5dnmui: tensor<192xf32>, %b5dnvari: tensor<192xf32>, %b5pnmui: tensor<32xf32>, %b5pnvari: tensor<32xf32>, %b6enmui: tensor<192xf32>, %b6envari: tensor<192xf32>, %b6dnmui: tensor<192xf32>, %b6dnvari: tensor<192xf32>, %b6pnmui: tensor<32xf32>, %b6pnvari: tensor<32xf32>, %b7enmui: tensor<192xf32>, %b7envari: tensor<192xf32>, %b7dnmui: tensor<192xf32>, %b7dnvari: tensor<192xf32>, %b7pnmui: tensor<64xf32>, %b7pnvari: tensor<64xf32>, %b8enmui: tensor<384xf32>, %b8envari: tensor<384xf32>, %b8dnmui: tensor<384xf32>, %b8dnvari: tensor<384xf32>, %b8pnmui: tensor<64xf32>, %b8pnvari: tensor<64xf32>, %b9enmui: tensor<384xf32>, %b9envari: tensor<384xf32>, %b9dnmui: tensor<384xf32>, %b9dnvari: tensor<384xf32>, %b9pnmui: tensor<64xf32>, %b9pnvari: tensor<64xf32>, %b10enmui: tensor<384xf32>, %b10envari: tensor<384xf32>, %b10dnmui: tensor<384xf32>, %b10dnvari: tensor<384xf32>, %b10pnmui: tensor<64xf32>, %b10pnvari: tensor<64xf32>, %b11enmui: tensor<384xf32>, %b11envari: tensor<384xf32>, %b11dnmui: tensor<384xf32>, %b11dnvari: tensor<384xf32>, %b11pnmui: tensor<96xf32>, %b11pnvari: tensor<96xf32>, %b12enmui: tensor<576xf32>, %b12envari: tensor<576xf32>, %b12dnmui: tensor<576xf32>, %b12dnvari: tensor<576xf32>, %b12pnmui: tensor<96xf32>, %b12pnvari: tensor<96xf32>, %b13enmui: tensor<576xf32>, %b13envari: tensor<576xf32>, %b13dnmui: tensor<576xf32>, %b13dnvari: tensor<576xf32>, %b13pnmui: tensor<96xf32>, %b13pnvari: tensor<96xf32>, %b14enmui: tensor<576xf32>, %b14envari: tensor<576xf32>, %b14dnmui: tensor<576xf32>, %b14dnvari: tensor<576xf32>, %b14pnmui: tensor<160xf32>, %b14pnvari: tensor<160xf32>, %b15enmui: tensor<960xf32>, %b15envari: tensor<960xf32>, %b15dnmui: tensor<960xf32>, %b15dnvari: tensor<960xf32>, %b15pnmui: tensor<160xf32>, %b15pnvari: tensor<160xf32>, %b16enmui: tensor<960xf32>, %b16envari: tensor<960xf32>, %b16dnmui: tensor<960xf32>, %b16dnvari: tensor<960xf32>, %b16pnmui: tensor<160xf32>, %b16pnvari: tensor<160xf32>, %b17enmui: tensor<960xf32>, %b17envari: tensor<960xf32>, %b17dnmui: tensor<960xf32>, %b17dnvari: tensor<960xf32>, %b17pnmui: tensor<320xf32>, %b17pnvari: tensor<320xf32>, %hnmui: tensor<1280xf32>, %hnvari: tensor<1280xf32>, %onehot: tensor<32x10xf32>) -> (tensor<32x3x3x3xf32>, tensor<32xf32>, tensor<32xf32>, tensor<32xf32>, tensor<32x32x1x1xf32>, tensor<32xf32>, tensor<32xf32>, tensor<32xf32>, tensor<32x1x3x3xf32>, tensor<32xf32>, tensor<32xf32>, tensor<32xf32>, tensor<16x32x1x1xf32>, tensor<16xf32>, tensor<16xf32>, tensor<16xf32>, tensor<96x16x1x1xf32>, tensor<96xf32>, tensor<96xf32>, tensor<96xf32>, tensor<96x1x3x3xf32>, tensor<96xf32>, tensor<96xf32>, tensor<96xf32>, tensor<24x96x1x1xf32>, tensor<24xf32>, tensor<24xf32>, tensor<24xf32>, tensor<144x24x1x1xf32>, tensor<144xf32>, tensor<144xf32>, tensor<144xf32>, tensor<144x1x3x3xf32>, tensor<144xf32>, tensor<144xf32>, tensor<144xf32>, tensor<24x144x1x1xf32>, tensor<24xf32>, tensor<24xf32>, tensor<24xf32>, tensor<144x24x1x1xf32>, tensor<144xf32>, tensor<144xf32>, tensor<144xf32>, tensor<144x1x3x3xf32>, tensor<144xf32>, tensor<144xf32>, tensor<144xf32>, tensor<32x144x1x1xf32>, tensor<32xf32>, tensor<32xf32>, tensor<32xf32>, tensor<192x32x1x1xf32>, tensor<192xf32>, tensor<192xf32>, tensor<192xf32>, tensor<192x1x3x3xf32>, tensor<192xf32>, tensor<192xf32>, tensor<192xf32>, tensor<32x192x1x1xf32>, tensor<32xf32>, tensor<32xf32>, tensor<32xf32>, tensor<192x32x1x1xf32>, tensor<192xf32>, tensor<192xf32>, tensor<192xf32>, tensor<192x1x3x3xf32>, tensor<192xf32>, tensor<192xf32>, tensor<192xf32>, tensor<32x192x1x1xf32>, tensor<32xf32>, tensor<32xf32>, tensor<32xf32>, tensor<192x32x1x1xf32>, tensor<192xf32>, tensor<192xf32>, tensor<192xf32>, tensor<192x1x3x3xf32>, tensor<192xf32>, tensor<192xf32>, tensor<192xf32>, tensor<64x192x1x1xf32>, tensor<64xf32>, tensor<64xf32>, tensor<64xf32>, tensor<384x64x1x1xf32>, tensor<384xf32>, tensor<384xf32>, tensor<384xf32>, tensor<384x1x3x3xf32>, tensor<384xf32>, tensor<384xf32>, tensor<384xf32>, tensor<64x384x1x1xf32>, tensor<64xf32>, tensor<64xf32>, tensor<64xf32>, tensor<384x64x1x1xf32>, tensor<384xf32>, tensor<384xf32>, tensor<384xf32>, tensor<384x1x3x3xf32>, tensor<384xf32>, tensor<384xf32>, tensor<384xf32>, tensor<64x384x1x1xf32>, tensor<64xf32>, tensor<64xf32>, tensor<64xf32>, tensor<384x64x1x1xf32>, tensor<384xf32>, tensor<384xf32>, tensor<384xf32>, tensor<384x1x3x3xf32>, tensor<384xf32>, tensor<384xf32>, tensor<384xf32>, tensor<64x384x1x1xf32>, tensor<64xf32>, tensor<64xf32>, tensor<64xf32>, tensor<384x64x1x1xf32>, tensor<384xf32>, tensor<384xf32>, tensor<384xf32>, tensor<384x1x3x3xf32>, tensor<384xf32>, tensor<384xf32>, tensor<384xf32>, tensor<96x384x1x1xf32>, tensor<96xf32>, tensor<96xf32>, tensor<96xf32>, tensor<576x96x1x1xf32>, tensor<576xf32>, tensor<576xf32>, tensor<576xf32>, tensor<576x1x3x3xf32>, tensor<576xf32>, tensor<576xf32>, tensor<576xf32>, tensor<96x576x1x1xf32>, tensor<96xf32>, tensor<96xf32>, tensor<96xf32>, tensor<576x96x1x1xf32>, tensor<576xf32>, tensor<576xf32>, tensor<576xf32>, tensor<576x1x3x3xf32>, tensor<576xf32>, tensor<576xf32>, tensor<576xf32>, tensor<96x576x1x1xf32>, tensor<96xf32>, tensor<96xf32>, tensor<96xf32>, tensor<576x96x1x1xf32>, tensor<576xf32>, tensor<576xf32>, tensor<576xf32>, tensor<576x1x3x3xf32>, tensor<576xf32>, tensor<576xf32>, tensor<576xf32>, tensor<160x576x1x1xf32>, tensor<160xf32>, tensor<160xf32>, tensor<160xf32>, tensor<960x160x1x1xf32>, tensor<960xf32>, tensor<960xf32>, tensor<960xf32>, tensor<960x1x3x3xf32>, tensor<960xf32>, tensor<960xf32>, tensor<960xf32>, tensor<160x960x1x1xf32>, tensor<160xf32>, tensor<160xf32>, tensor<160xf32>, tensor<960x160x1x1xf32>, tensor<960xf32>, tensor<960xf32>, tensor<960xf32>, tensor<960x1x3x3xf32>, tensor<960xf32>, tensor<960xf32>, tensor<960xf32>, tensor<160x960x1x1xf32>, tensor<160xf32>, tensor<160xf32>, tensor<160xf32>, tensor<960x160x1x1xf32>, tensor<960xf32>, tensor<960xf32>, tensor<960xf32>, tensor<960x1x3x3xf32>, tensor<960xf32>, tensor<960xf32>, tensor<960xf32>, tensor<320x960x1x1xf32>, tensor<320xf32>, tensor<320xf32>, tensor<320xf32>, tensor<1280x320x1x1xf32>, tensor<1280xf32>, tensor<1280xf32>, tensor<1280xf32>, tensor<1280x10xf32>, tensor<10xf32>, tensor<32x3x3x3xf32>, tensor<32xf32>, tensor<32xf32>, tensor<32xf32>, tensor<32x32x1x1xf32>, tensor<32xf32>, tensor<32xf32>, tensor<32xf32>, tensor<32x1x3x3xf32>, tensor<32xf32>, tensor<32xf32>, tensor<32xf32>, tensor<16x32x1x1xf32>, tensor<16xf32>, tensor<16xf32>, tensor<16xf32>, tensor<96x16x1x1xf32>, tensor<96xf32>, tensor<96xf32>, tensor<96xf32>, tensor<96x1x3x3xf32>, tensor<96xf32>, tensor<96xf32>, tensor<96xf32>, tensor<24x96x1x1xf32>, tensor<24xf32>, tensor<24xf32>, tensor<24xf32>, tensor<144x24x1x1xf32>, tensor<144xf32>, tensor<144xf32>, tensor<144xf32>, tensor<144x1x3x3xf32>, tensor<144xf32>, tensor<144xf32>, tensor<144xf32>, tensor<24x144x1x1xf32>, tensor<24xf32>, tensor<24xf32>, tensor<24xf32>, tensor<144x24x1x1xf32>, tensor<144xf32>, tensor<144xf32>, tensor<144xf32>, tensor<144x1x3x3xf32>, tensor<144xf32>, tensor<144xf32>, tensor<144xf32>, tensor<32x144x1x1xf32>, tensor<32xf32>, tensor<32xf32>, tensor<32xf32>, tensor<192x32x1x1xf32>, tensor<192xf32>, tensor<192xf32>, tensor<192xf32>, tensor<192x1x3x3xf32>, tensor<192xf32>, tensor<192xf32>, tensor<192xf32>, tensor<32x192x1x1xf32>, tensor<32xf32>, tensor<32xf32>, tensor<32xf32>, tensor<192x32x1x1xf32>, tensor<192xf32>, tensor<192xf32>, tensor<192xf32>, tensor<192x1x3x3xf32>, tensor<192xf32>, tensor<192xf32>, tensor<192xf32>, tensor<32x192x1x1xf32>, tensor<32xf32>, tensor<32xf32>, tensor<32xf32>, tensor<192x32x1x1xf32>, tensor<192xf32>, tensor<192xf32>, tensor<192xf32>, tensor<192x1x3x3xf32>, tensor<192xf32>, tensor<192xf32>, tensor<192xf32>, tensor<64x192x1x1xf32>, tensor<64xf32>, tensor<64xf32>, tensor<64xf32>, tensor<384x64x1x1xf32>, tensor<384xf32>, tensor<384xf32>, tensor<384xf32>, tensor<384x1x3x3xf32>, tensor<384xf32>, tensor<384xf32>, tensor<384xf32>, tensor<64x384x1x1xf32>, tensor<64xf32>, tensor<64xf32>, tensor<64xf32>, tensor<384x64x1x1xf32>, tensor<384xf32>, tensor<384xf32>, tensor<384xf32>, tensor<384x1x3x3xf32>, tensor<384xf32>, tensor<384xf32>, tensor<384xf32>, tensor<64x384x1x1xf32>, tensor<64xf32>, tensor<64xf32>, tensor<64xf32>, tensor<384x64x1x1xf32>, tensor<384xf32>, tensor<384xf32>, tensor<384xf32>, tensor<384x1x3x3xf32>, tensor<384xf32>, tensor<384xf32>, tensor<384xf32>, tensor<64x384x1x1xf32>, tensor<64xf32>, tensor<64xf32>, tensor<64xf32>, tensor<384x64x1x1xf32>, tensor<384xf32>, tensor<384xf32>, tensor<384xf32>, tensor<384x1x3x3xf32>, tensor<384xf32>, tensor<384xf32>, tensor<384xf32>, tensor<96x384x1x1xf32>, tensor<96xf32>, tensor<96xf32>, tensor<96xf32>, tensor<576x96x1x1xf32>, tensor<576xf32>, tensor<576xf32>, tensor<576xf32>, tensor<576x1x3x3xf32>, tensor<576xf32>, tensor<576xf32>, tensor<576xf32>, tensor<96x576x1x1xf32>, tensor<96xf32>, tensor<96xf32>, tensor<96xf32>, tensor<576x96x1x1xf32>, tensor<576xf32>, tensor<576xf32>, tensor<576xf32>, tensor<576x1x3x3xf32>, tensor<576xf32>, tensor<576xf32>, tensor<576xf32>, tensor<96x576x1x1xf32>, tensor<96xf32>, tensor<96xf32>, tensor<96xf32>, tensor<576x96x1x1xf32>, tensor<576xf32>, tensor<576xf32>, tensor<576xf32>, tensor<576x1x3x3xf32>, tensor<576xf32>, tensor<576xf32>, tensor<576xf32>, tensor<160x576x1x1xf32>, tensor<160xf32>, tensor<160xf32>, tensor<160xf32>, tensor<960x160x1x1xf32>, tensor<960xf32>, tensor<960xf32>, tensor<960xf32>, tensor<960x1x3x3xf32>, tensor<960xf32>, tensor<960xf32>, tensor<960xf32>, tensor<160x960x1x1xf32>, tensor<160xf32>, tensor<160xf32>, tensor<160xf32>, tensor<960x160x1x1xf32>, tensor<960xf32>, tensor<960xf32>, tensor<960xf32>, tensor<960x1x3x3xf32>, tensor<960xf32>, tensor<960xf32>, tensor<960xf32>, tensor<160x960x1x1xf32>, tensor<160xf32>, tensor<160xf32>, tensor<160xf32>, tensor<960x160x1x1xf32>, tensor<960xf32>, tensor<960xf32>, tensor<960xf32>, tensor<960x1x3x3xf32>, tensor<960xf32>, tensor<960xf32>, tensor<960xf32>, tensor<320x960x1x1xf32>, tensor<320xf32>, tensor<320xf32>, tensor<320xf32>, tensor<1280x320x1x1xf32>, tensor<1280xf32>, tensor<1280xf32>, tensor<1280xf32>, tensor<1280x10xf32>, tensor<10xf32>, tensor<32x3x3x3xf32>, tensor<32xf32>, tensor<32xf32>, tensor<32xf32>, tensor<32x32x1x1xf32>, tensor<32xf32>, tensor<32xf32>, tensor<32xf32>, tensor<32x1x3x3xf32>, tensor<32xf32>, tensor<32xf32>, tensor<32xf32>, tensor<16x32x1x1xf32>, tensor<16xf32>, tensor<16xf32>, tensor<16xf32>, tensor<96x16x1x1xf32>, tensor<96xf32>, tensor<96xf32>, tensor<96xf32>, tensor<96x1x3x3xf32>, tensor<96xf32>, tensor<96xf32>, tensor<96xf32>, tensor<24x96x1x1xf32>, tensor<24xf32>, tensor<24xf32>, tensor<24xf32>, tensor<144x24x1x1xf32>, tensor<144xf32>, tensor<144xf32>, tensor<144xf32>, tensor<144x1x3x3xf32>, tensor<144xf32>, tensor<144xf32>, tensor<144xf32>, tensor<24x144x1x1xf32>, tensor<24xf32>, tensor<24xf32>, tensor<24xf32>, tensor<144x24x1x1xf32>, tensor<144xf32>, tensor<144xf32>, tensor<144xf32>, tensor<144x1x3x3xf32>, tensor<144xf32>, tensor<144xf32>, tensor<144xf32>, tensor<32x144x1x1xf32>, tensor<32xf32>, tensor<32xf32>, tensor<32xf32>, tensor<192x32x1x1xf32>, tensor<192xf32>, tensor<192xf32>, tensor<192xf32>, tensor<192x1x3x3xf32>, tensor<192xf32>, tensor<192xf32>, tensor<192xf32>, tensor<32x192x1x1xf32>, tensor<32xf32>, tensor<32xf32>, tensor<32xf32>, tensor<192x32x1x1xf32>, tensor<192xf32>, tensor<192xf32>, tensor<192xf32>, tensor<192x1x3x3xf32>, tensor<192xf32>, tensor<192xf32>, tensor<192xf32>, tensor<32x192x1x1xf32>, tensor<32xf32>, tensor<32xf32>, tensor<32xf32>, tensor<192x32x1x1xf32>, tensor<192xf32>, tensor<192xf32>, tensor<192xf32>, tensor<192x1x3x3xf32>, tensor<192xf32>, tensor<192xf32>, tensor<192xf32>, tensor<64x192x1x1xf32>, tensor<64xf32>, tensor<64xf32>, tensor<64xf32>, tensor<384x64x1x1xf32>, tensor<384xf32>, tensor<384xf32>, tensor<384xf32>, tensor<384x1x3x3xf32>, tensor<384xf32>, tensor<384xf32>, tensor<384xf32>, tensor<64x384x1x1xf32>, tensor<64xf32>, tensor<64xf32>, tensor<64xf32>, tensor<384x64x1x1xf32>, tensor<384xf32>, tensor<384xf32>, tensor<384xf32>, tensor<384x1x3x3xf32>, tensor<384xf32>, tensor<384xf32>, tensor<384xf32>, tensor<64x384x1x1xf32>, tensor<64xf32>, tensor<64xf32>, tensor<64xf32>, tensor<384x64x1x1xf32>, tensor<384xf32>, tensor<384xf32>, tensor<384xf32>, tensor<384x1x3x3xf32>, tensor<384xf32>, tensor<384xf32>, tensor<384xf32>, tensor<64x384x1x1xf32>, tensor<64xf32>, tensor<64xf32>, tensor<64xf32>, tensor<384x64x1x1xf32>, tensor<384xf32>, tensor<384xf32>, tensor<384xf32>, tensor<384x1x3x3xf32>, tensor<384xf32>, tensor<384xf32>, tensor<384xf32>, tensor<96x384x1x1xf32>, tensor<96xf32>, tensor<96xf32>, tensor<96xf32>, tensor<576x96x1x1xf32>, tensor<576xf32>, tensor<576xf32>, tensor<576xf32>, tensor<576x1x3x3xf32>, tensor<576xf32>, tensor<576xf32>, tensor<576xf32>, tensor<96x576x1x1xf32>, tensor<96xf32>, tensor<96xf32>, tensor<96xf32>, tensor<576x96x1x1xf32>, tensor<576xf32>, tensor<576xf32>, tensor<576xf32>, tensor<576x1x3x3xf32>, tensor<576xf32>, tensor<576xf32>, tensor<576xf32>, tensor<96x576x1x1xf32>, tensor<96xf32>, tensor<96xf32>, tensor<96xf32>, tensor<576x96x1x1xf32>, tensor<576xf32>, tensor<576xf32>, tensor<576xf32>, tensor<576x1x3x3xf32>, tensor<576xf32>, tensor<576xf32>, tensor<576xf32>, tensor<160x576x1x1xf32>, tensor<160xf32>, tensor<160xf32>, tensor<160xf32>, tensor<960x160x1x1xf32>, tensor<960xf32>, tensor<960xf32>, tensor<960xf32>, tensor<960x1x3x3xf32>, tensor<960xf32>, tensor<960xf32>, tensor<960xf32>, tensor<160x960x1x1xf32>, tensor<160xf32>, tensor<160xf32>, tensor<160xf32>, tensor<960x160x1x1xf32>, tensor<960xf32>, tensor<960xf32>, tensor<960xf32>, tensor<960x1x3x3xf32>, tensor<960xf32>, tensor<960xf32>, tensor<960xf32>, tensor<160x960x1x1xf32>, tensor<160xf32>, tensor<160xf32>, tensor<160xf32>, tensor<960x160x1x1xf32>, tensor<960xf32>, tensor<960xf32>, tensor<960xf32>, tensor<960x1x3x3xf32>, tensor<960xf32>, tensor<960xf32>, tensor<960xf32>, tensor<320x960x1x1xf32>, tensor<320xf32>, tensor<320xf32>, tensor<320xf32>, tensor<1280x320x1x1xf32>, tensor<1280xf32>, tensor<1280xf32>, tensor<1280xf32>, tensor<1280x10xf32>, tensor<10xf32>, tensor<f32>, tensor<f32>, tensor<f32>, tensor<32xf32>, tensor<32xf32>, tensor<32xf32>, tensor<32xf32>, tensor<32xf32>, tensor<32xf32>, tensor<16xf32>, tensor<16xf32>, tensor<96xf32>, tensor<96xf32>, tensor<96xf32>, tensor<96xf32>, tensor<24xf32>, tensor<24xf32>, tensor<144xf32>, tensor<144xf32>, tensor<144xf32>, tensor<144xf32>, tensor<24xf32>, tensor<24xf32>, tensor<144xf32>, tensor<144xf32>, tensor<144xf32>, tensor<144xf32>, tensor<32xf32>, tensor<32xf32>, tensor<192xf32>, tensor<192xf32>, tensor<192xf32>, tensor<192xf32>, tensor<32xf32>, tensor<32xf32>, tensor<192xf32>, tensor<192xf32>, tensor<192xf32>, tensor<192xf32>, tensor<32xf32>, tensor<32xf32>, tensor<192xf32>, tensor<192xf32>, tensor<192xf32>, tensor<192xf32>, tensor<64xf32>, tensor<64xf32>, tensor<384xf32>, tensor<384xf32>, tensor<384xf32>, tensor<384xf32>, tensor<64xf32>, tensor<64xf32>, tensor<384xf32>, tensor<384xf32>, tensor<384xf32>, tensor<384xf32>, tensor<64xf32>, tensor<64xf32>, tensor<384xf32>, tensor<384xf32>, tensor<384xf32>, tensor<384xf32>, tensor<64xf32>, tensor<64xf32>, tensor<384xf32>, tensor<384xf32>, tensor<384xf32>, tensor<384xf32>, tensor<96xf32>, tensor<96xf32>, tensor<576xf32>, tensor<576xf32>, tensor<576xf32>, tensor<576xf32>, tensor<96xf32>, tensor<96xf32>, tensor<576xf32>, tensor<576xf32>, tensor<576xf32>, tensor<576xf32>, tensor<96xf32>, tensor<96xf32>, tensor<576xf32>, tensor<576xf32>, tensor<576xf32>, tensor<576xf32>, tensor<160xf32>, tensor<160xf32>, tensor<960xf32>, tensor<960xf32>, tensor<960xf32>, tensor<960xf32>, tensor<160xf32>, tensor<160xf32>, tensor<960xf32>, tensor<960xf32>, tensor<960xf32>, tensor<960xf32>, tensor<160xf32>, tensor<160xf32>, tensor<960xf32>, tensor<960xf32>, tensor<960xf32>, tensor<960xf32>, tensor<320xf32>, tensor<320xf32>, tensor<1280xf32>, tensor<1280xf32>) {
    %sc = stablehlo.constant dense<0.0> : tensor<f32>
    %bsc = stablehlo.constant dense<32.0> : tensor<32x10xf32>
    %b1 = stablehlo.constant dense<0.9> : tensor<f32>
    %ob1 = stablehlo.constant dense<0.1> : tensor<f32>
    %b2 = stablehlo.constant dense<0.999> : tensor<f32>
    %ob2 = stablehlo.constant dense<0.001> : tensor<f32>
    %eps = stablehlo.constant dense<1.0e-8> : tensor<f32>
    %wd = stablehlo.constant dense<0.0001> : tensor<f32>
    %v0 = stablehlo.reshape %x : (tensor<32x150528xf32>) -> tensor<32x3x224x224xf32>
    %v1 = stablehlo.convolution(%v0, %sW)
      dim_numbers = [b, f, 0, 1]x[o, i, 0, 1]->[b, f, 0, 1],
      window = {stride = [2, 2], pad = [[1, 1], [1, 1]], lhs_dilate = [1, 1], rhs_dilate = [1, 1]}
      {batch_group_count = 1 : i64, feature_group_count = 1 : i64} : (tensor<32x3x224x224xf32>, tensor<32x3x3x3xf32>) -> tensor<32x32x112x112xf32>
    %v2 = stablehlo.broadcast_in_dim %sb, dims = [1] : (tensor<32xf32>) -> tensor<32x32x112x112xf32>
    %v3 = stablehlo.add %v1, %v2 : tensor<32x32x112x112xf32>
    %v4 = stablehlo.reshape %v3 : (tensor<32x32x112x112xf32>) -> tensor<32x401408xf32>
    %stnxi = stablehlo.reshape %v4 : (tensor<32x401408xf32>) -> tensor<32x32x112x112xf32>
    %stnnf = stablehlo.constant dense<401408.0> : tensor<32x32x112x112xf32>
    %stnep = stablehlo.constant dense<1.0e-5> : tensor<32x32x112x112xf32>
    %stnsmr = stablehlo.reduce(%stnxi init: %sc) applies stablehlo.add across dimensions = [0, 2, 3] : (tensor<32x32x112x112xf32>, tensor<f32>) -> tensor<32xf32>
    %stnsm = stablehlo.broadcast_in_dim %stnsmr, dims = [1] : (tensor<32xf32>) -> tensor<32x32x112x112xf32>
    %stnmu = stablehlo.divide %stnsm, %stnnf : tensor<32x32x112x112xf32>
    %stnxc = stablehlo.subtract %stnxi, %stnmu : tensor<32x32x112x112xf32>
    %stnsq = stablehlo.multiply %stnxc, %stnxc : tensor<32x32x112x112xf32>
    %stnvsr = stablehlo.reduce(%stnsq init: %sc) applies stablehlo.add across dimensions = [0, 2, 3] : (tensor<32x32x112x112xf32>, tensor<f32>) -> tensor<32xf32>
    %stnvs = stablehlo.broadcast_in_dim %stnvsr, dims = [1] : (tensor<32xf32>) -> tensor<32x32x112x112xf32>
    %stnvr = stablehlo.divide %stnvs, %stnnf : tensor<32x32x112x112xf32>
    %stnve = stablehlo.add %stnvr, %stnep : tensor<32x32x112x112xf32>
    %stnistd = stablehlo.rsqrt %stnve : tensor<32x32x112x112xf32>
    %stnxh = stablehlo.multiply %stnxc, %stnistd : tensor<32x32x112x112xf32>
    %stngb = stablehlo.broadcast_in_dim %sg, dims = [1] : (tensor<32xf32>) -> tensor<32x32x112x112xf32>
    %stnbtb = stablehlo.broadcast_in_dim %sbt, dims = [1] : (tensor<32xf32>) -> tensor<32x32x112x112xf32>
    %stngx = stablehlo.multiply %stnxh, %stngb : tensor<32x32x112x112xf32>
    %stnn4 = stablehlo.add %stngx, %stnbtb : tensor<32x32x112x112xf32>
    %stn = stablehlo.reshape %stnn4 : (tensor<32x32x112x112xf32>) -> tensor<32x401408xf32>
    %v5 = stablehlo.constant dense<0.0> : tensor<32x401408xf32>
    %v6 = stablehlo.constant dense<6.0> : tensor<32x401408xf32>
    %v7 = stablehlo.maximum %stn, %v5 : tensor<32x401408xf32>
    %v8 = stablehlo.minimum %v7, %v6 : tensor<32x401408xf32>
    %v9 = stablehlo.reshape %v8 : (tensor<32x401408xf32>) -> tensor<32x32x112x112xf32>
    %v10 = stablehlo.convolution(%v9, %b1eW)
      dim_numbers = [b, f, 0, 1]x[o, i, 0, 1]->[b, f, 0, 1],
      window = {stride = [1, 1], pad = [[0, 0], [0, 0]], lhs_dilate = [1, 1], rhs_dilate = [1, 1]}
      {batch_group_count = 1 : i64, feature_group_count = 1 : i64} : (tensor<32x32x112x112xf32>, tensor<32x32x1x1xf32>) -> tensor<32x32x112x112xf32>
    %v11 = stablehlo.broadcast_in_dim %b1eb, dims = [1] : (tensor<32xf32>) -> tensor<32x32x112x112xf32>
    %v12 = stablehlo.add %v10, %v11 : tensor<32x32x112x112xf32>
    %v13 = stablehlo.reshape %v12 : (tensor<32x32x112x112xf32>) -> tensor<32x401408xf32>
    %b1enxi = stablehlo.reshape %v13 : (tensor<32x401408xf32>) -> tensor<32x32x112x112xf32>
    %b1ennf = stablehlo.constant dense<401408.0> : tensor<32x32x112x112xf32>
    %b1enep = stablehlo.constant dense<1.0e-5> : tensor<32x32x112x112xf32>
    %b1ensmr = stablehlo.reduce(%b1enxi init: %sc) applies stablehlo.add across dimensions = [0, 2, 3] : (tensor<32x32x112x112xf32>, tensor<f32>) -> tensor<32xf32>
    %b1ensm = stablehlo.broadcast_in_dim %b1ensmr, dims = [1] : (tensor<32xf32>) -> tensor<32x32x112x112xf32>
    %b1enmu = stablehlo.divide %b1ensm, %b1ennf : tensor<32x32x112x112xf32>
    %b1enxc = stablehlo.subtract %b1enxi, %b1enmu : tensor<32x32x112x112xf32>
    %b1ensq = stablehlo.multiply %b1enxc, %b1enxc : tensor<32x32x112x112xf32>
    %b1envsr = stablehlo.reduce(%b1ensq init: %sc) applies stablehlo.add across dimensions = [0, 2, 3] : (tensor<32x32x112x112xf32>, tensor<f32>) -> tensor<32xf32>
    %b1envs = stablehlo.broadcast_in_dim %b1envsr, dims = [1] : (tensor<32xf32>) -> tensor<32x32x112x112xf32>
    %b1envr = stablehlo.divide %b1envs, %b1ennf : tensor<32x32x112x112xf32>
    %b1enve = stablehlo.add %b1envr, %b1enep : tensor<32x32x112x112xf32>
    %b1enistd = stablehlo.rsqrt %b1enve : tensor<32x32x112x112xf32>
    %b1enxh = stablehlo.multiply %b1enxc, %b1enistd : tensor<32x32x112x112xf32>
    %b1engb = stablehlo.broadcast_in_dim %b1eg, dims = [1] : (tensor<32xf32>) -> tensor<32x32x112x112xf32>
    %b1enbtb = stablehlo.broadcast_in_dim %b1ebt, dims = [1] : (tensor<32xf32>) -> tensor<32x32x112x112xf32>
    %b1engx = stablehlo.multiply %b1enxh, %b1engb : tensor<32x32x112x112xf32>
    %b1enn4 = stablehlo.add %b1engx, %b1enbtb : tensor<32x32x112x112xf32>
    %b1en = stablehlo.reshape %b1enn4 : (tensor<32x32x112x112xf32>) -> tensor<32x401408xf32>
    %v14 = stablehlo.constant dense<0.0> : tensor<32x401408xf32>
    %v15 = stablehlo.constant dense<6.0> : tensor<32x401408xf32>
    %v16 = stablehlo.maximum %b1en, %v14 : tensor<32x401408xf32>
    %v17 = stablehlo.minimum %v16, %v15 : tensor<32x401408xf32>
    %v18 = stablehlo.reshape %v17 : (tensor<32x401408xf32>) -> tensor<32x32x112x112xf32>
    %v19 = stablehlo.convolution(%v18, %b1dW)
      dim_numbers = [b, f, 0, 1]x[o, i, 0, 1]->[b, f, 0, 1],
      window = {stride = [1, 1], pad = [[1, 1], [1, 1]], lhs_dilate = [1, 1], rhs_dilate = [1, 1]}
      {batch_group_count = 1 : i64, feature_group_count = 32 : i64} : (tensor<32x32x112x112xf32>, tensor<32x1x3x3xf32>) -> tensor<32x32x112x112xf32>
    %v20 = stablehlo.broadcast_in_dim %b1db, dims = [1] : (tensor<32xf32>) -> tensor<32x32x112x112xf32>
    %v21 = stablehlo.add %v19, %v20 : tensor<32x32x112x112xf32>
    %v22 = stablehlo.reshape %v21 : (tensor<32x32x112x112xf32>) -> tensor<32x401408xf32>
    %b1dnxi = stablehlo.reshape %v22 : (tensor<32x401408xf32>) -> tensor<32x32x112x112xf32>
    %b1dnnf = stablehlo.constant dense<401408.0> : tensor<32x32x112x112xf32>
    %b1dnep = stablehlo.constant dense<1.0e-5> : tensor<32x32x112x112xf32>
    %b1dnsmr = stablehlo.reduce(%b1dnxi init: %sc) applies stablehlo.add across dimensions = [0, 2, 3] : (tensor<32x32x112x112xf32>, tensor<f32>) -> tensor<32xf32>
    %b1dnsm = stablehlo.broadcast_in_dim %b1dnsmr, dims = [1] : (tensor<32xf32>) -> tensor<32x32x112x112xf32>
    %b1dnmu = stablehlo.divide %b1dnsm, %b1dnnf : tensor<32x32x112x112xf32>
    %b1dnxc = stablehlo.subtract %b1dnxi, %b1dnmu : tensor<32x32x112x112xf32>
    %b1dnsq = stablehlo.multiply %b1dnxc, %b1dnxc : tensor<32x32x112x112xf32>
    %b1dnvsr = stablehlo.reduce(%b1dnsq init: %sc) applies stablehlo.add across dimensions = [0, 2, 3] : (tensor<32x32x112x112xf32>, tensor<f32>) -> tensor<32xf32>
    %b1dnvs = stablehlo.broadcast_in_dim %b1dnvsr, dims = [1] : (tensor<32xf32>) -> tensor<32x32x112x112xf32>
    %b1dnvr = stablehlo.divide %b1dnvs, %b1dnnf : tensor<32x32x112x112xf32>
    %b1dnve = stablehlo.add %b1dnvr, %b1dnep : tensor<32x32x112x112xf32>
    %b1dnistd = stablehlo.rsqrt %b1dnve : tensor<32x32x112x112xf32>
    %b1dnxh = stablehlo.multiply %b1dnxc, %b1dnistd : tensor<32x32x112x112xf32>
    %b1dngb = stablehlo.broadcast_in_dim %b1dg, dims = [1] : (tensor<32xf32>) -> tensor<32x32x112x112xf32>
    %b1dnbtb = stablehlo.broadcast_in_dim %b1dbt, dims = [1] : (tensor<32xf32>) -> tensor<32x32x112x112xf32>
    %b1dngx = stablehlo.multiply %b1dnxh, %b1dngb : tensor<32x32x112x112xf32>
    %b1dnn4 = stablehlo.add %b1dngx, %b1dnbtb : tensor<32x32x112x112xf32>
    %b1dn = stablehlo.reshape %b1dnn4 : (tensor<32x32x112x112xf32>) -> tensor<32x401408xf32>
    %v23 = stablehlo.constant dense<0.0> : tensor<32x401408xf32>
    %v24 = stablehlo.constant dense<6.0> : tensor<32x401408xf32>
    %v25 = stablehlo.maximum %b1dn, %v23 : tensor<32x401408xf32>
    %v26 = stablehlo.minimum %v25, %v24 : tensor<32x401408xf32>
    %v27 = stablehlo.reshape %v26 : (tensor<32x401408xf32>) -> tensor<32x32x112x112xf32>
    %v28 = stablehlo.convolution(%v27, %b1pW)
      dim_numbers = [b, f, 0, 1]x[o, i, 0, 1]->[b, f, 0, 1],
      window = {stride = [1, 1], pad = [[0, 0], [0, 0]], lhs_dilate = [1, 1], rhs_dilate = [1, 1]}
      {batch_group_count = 1 : i64, feature_group_count = 1 : i64} : (tensor<32x32x112x112xf32>, tensor<16x32x1x1xf32>) -> tensor<32x16x112x112xf32>
    %v29 = stablehlo.broadcast_in_dim %b1pb, dims = [1] : (tensor<16xf32>) -> tensor<32x16x112x112xf32>
    %v30 = stablehlo.add %v28, %v29 : tensor<32x16x112x112xf32>
    %v31 = stablehlo.reshape %v30 : (tensor<32x16x112x112xf32>) -> tensor<32x200704xf32>
    %b1pnxi = stablehlo.reshape %v31 : (tensor<32x200704xf32>) -> tensor<32x16x112x112xf32>
    %b1pnnf = stablehlo.constant dense<401408.0> : tensor<32x16x112x112xf32>
    %b1pnep = stablehlo.constant dense<1.0e-5> : tensor<32x16x112x112xf32>
    %b1pnsmr = stablehlo.reduce(%b1pnxi init: %sc) applies stablehlo.add across dimensions = [0, 2, 3] : (tensor<32x16x112x112xf32>, tensor<f32>) -> tensor<16xf32>
    %b1pnsm = stablehlo.broadcast_in_dim %b1pnsmr, dims = [1] : (tensor<16xf32>) -> tensor<32x16x112x112xf32>
    %b1pnmu = stablehlo.divide %b1pnsm, %b1pnnf : tensor<32x16x112x112xf32>
    %b1pnxc = stablehlo.subtract %b1pnxi, %b1pnmu : tensor<32x16x112x112xf32>
    %b1pnsq = stablehlo.multiply %b1pnxc, %b1pnxc : tensor<32x16x112x112xf32>
    %b1pnvsr = stablehlo.reduce(%b1pnsq init: %sc) applies stablehlo.add across dimensions = [0, 2, 3] : (tensor<32x16x112x112xf32>, tensor<f32>) -> tensor<16xf32>
    %b1pnvs = stablehlo.broadcast_in_dim %b1pnvsr, dims = [1] : (tensor<16xf32>) -> tensor<32x16x112x112xf32>
    %b1pnvr = stablehlo.divide %b1pnvs, %b1pnnf : tensor<32x16x112x112xf32>
    %b1pnve = stablehlo.add %b1pnvr, %b1pnep : tensor<32x16x112x112xf32>
    %b1pnistd = stablehlo.rsqrt %b1pnve : tensor<32x16x112x112xf32>
    %b1pnxh = stablehlo.multiply %b1pnxc, %b1pnistd : tensor<32x16x112x112xf32>
    %b1pngb = stablehlo.broadcast_in_dim %b1pg, dims = [1] : (tensor<16xf32>) -> tensor<32x16x112x112xf32>
    %b1pnbtb = stablehlo.broadcast_in_dim %b1pbt, dims = [1] : (tensor<16xf32>) -> tensor<32x16x112x112xf32>
    %b1pngx = stablehlo.multiply %b1pnxh, %b1pngb : tensor<32x16x112x112xf32>
    %b1pnn4 = stablehlo.add %b1pngx, %b1pnbtb : tensor<32x16x112x112xf32>
    %b1pn = stablehlo.reshape %b1pnn4 : (tensor<32x16x112x112xf32>) -> tensor<32x200704xf32>
    %v32 = stablehlo.reshape %b1pn : (tensor<32x200704xf32>) -> tensor<32x16x112x112xf32>
    %v33 = stablehlo.convolution(%v32, %b2eW)
      dim_numbers = [b, f, 0, 1]x[o, i, 0, 1]->[b, f, 0, 1],
      window = {stride = [1, 1], pad = [[0, 0], [0, 0]], lhs_dilate = [1, 1], rhs_dilate = [1, 1]}
      {batch_group_count = 1 : i64, feature_group_count = 1 : i64} : (tensor<32x16x112x112xf32>, tensor<96x16x1x1xf32>) -> tensor<32x96x112x112xf32>
    %v34 = stablehlo.broadcast_in_dim %b2eb, dims = [1] : (tensor<96xf32>) -> tensor<32x96x112x112xf32>
    %v35 = stablehlo.add %v33, %v34 : tensor<32x96x112x112xf32>
    %v36 = stablehlo.reshape %v35 : (tensor<32x96x112x112xf32>) -> tensor<32x1204224xf32>
    %b2enxi = stablehlo.reshape %v36 : (tensor<32x1204224xf32>) -> tensor<32x96x112x112xf32>
    %b2ennf = stablehlo.constant dense<401408.0> : tensor<32x96x112x112xf32>
    %b2enep = stablehlo.constant dense<1.0e-5> : tensor<32x96x112x112xf32>
    %b2ensmr = stablehlo.reduce(%b2enxi init: %sc) applies stablehlo.add across dimensions = [0, 2, 3] : (tensor<32x96x112x112xf32>, tensor<f32>) -> tensor<96xf32>
    %b2ensm = stablehlo.broadcast_in_dim %b2ensmr, dims = [1] : (tensor<96xf32>) -> tensor<32x96x112x112xf32>
    %b2enmu = stablehlo.divide %b2ensm, %b2ennf : tensor<32x96x112x112xf32>
    %b2enxc = stablehlo.subtract %b2enxi, %b2enmu : tensor<32x96x112x112xf32>
    %b2ensq = stablehlo.multiply %b2enxc, %b2enxc : tensor<32x96x112x112xf32>
    %b2envsr = stablehlo.reduce(%b2ensq init: %sc) applies stablehlo.add across dimensions = [0, 2, 3] : (tensor<32x96x112x112xf32>, tensor<f32>) -> tensor<96xf32>
    %b2envs = stablehlo.broadcast_in_dim %b2envsr, dims = [1] : (tensor<96xf32>) -> tensor<32x96x112x112xf32>
    %b2envr = stablehlo.divide %b2envs, %b2ennf : tensor<32x96x112x112xf32>
    %b2enve = stablehlo.add %b2envr, %b2enep : tensor<32x96x112x112xf32>
    %b2enistd = stablehlo.rsqrt %b2enve : tensor<32x96x112x112xf32>
    %b2enxh = stablehlo.multiply %b2enxc, %b2enistd : tensor<32x96x112x112xf32>
    %b2engb = stablehlo.broadcast_in_dim %b2eg, dims = [1] : (tensor<96xf32>) -> tensor<32x96x112x112xf32>
    %b2enbtb = stablehlo.broadcast_in_dim %b2ebt, dims = [1] : (tensor<96xf32>) -> tensor<32x96x112x112xf32>
    %b2engx = stablehlo.multiply %b2enxh, %b2engb : tensor<32x96x112x112xf32>
    %b2enn4 = stablehlo.add %b2engx, %b2enbtb : tensor<32x96x112x112xf32>
    %b2en = stablehlo.reshape %b2enn4 : (tensor<32x96x112x112xf32>) -> tensor<32x1204224xf32>
    %v37 = stablehlo.constant dense<0.0> : tensor<32x1204224xf32>
    %v38 = stablehlo.constant dense<6.0> : tensor<32x1204224xf32>
    %v39 = stablehlo.maximum %b2en, %v37 : tensor<32x1204224xf32>
    %v40 = stablehlo.minimum %v39, %v38 : tensor<32x1204224xf32>
    %v41 = stablehlo.reshape %v40 : (tensor<32x1204224xf32>) -> tensor<32x96x112x112xf32>
    %v42 = stablehlo.convolution(%v41, %b2dW)
      dim_numbers = [b, f, 0, 1]x[o, i, 0, 1]->[b, f, 0, 1],
      window = {stride = [2, 2], pad = [[1, 1], [1, 1]], lhs_dilate = [1, 1], rhs_dilate = [1, 1]}
      {batch_group_count = 1 : i64, feature_group_count = 96 : i64} : (tensor<32x96x112x112xf32>, tensor<96x1x3x3xf32>) -> tensor<32x96x56x56xf32>
    %v43 = stablehlo.broadcast_in_dim %b2db, dims = [1] : (tensor<96xf32>) -> tensor<32x96x56x56xf32>
    %v44 = stablehlo.add %v42, %v43 : tensor<32x96x56x56xf32>
    %v45 = stablehlo.reshape %v44 : (tensor<32x96x56x56xf32>) -> tensor<32x301056xf32>
    %b2dnxi = stablehlo.reshape %v45 : (tensor<32x301056xf32>) -> tensor<32x96x56x56xf32>
    %b2dnnf = stablehlo.constant dense<100352.0> : tensor<32x96x56x56xf32>
    %b2dnep = stablehlo.constant dense<1.0e-5> : tensor<32x96x56x56xf32>
    %b2dnsmr = stablehlo.reduce(%b2dnxi init: %sc) applies stablehlo.add across dimensions = [0, 2, 3] : (tensor<32x96x56x56xf32>, tensor<f32>) -> tensor<96xf32>
    %b2dnsm = stablehlo.broadcast_in_dim %b2dnsmr, dims = [1] : (tensor<96xf32>) -> tensor<32x96x56x56xf32>
    %b2dnmu = stablehlo.divide %b2dnsm, %b2dnnf : tensor<32x96x56x56xf32>
    %b2dnxc = stablehlo.subtract %b2dnxi, %b2dnmu : tensor<32x96x56x56xf32>
    %b2dnsq = stablehlo.multiply %b2dnxc, %b2dnxc : tensor<32x96x56x56xf32>
    %b2dnvsr = stablehlo.reduce(%b2dnsq init: %sc) applies stablehlo.add across dimensions = [0, 2, 3] : (tensor<32x96x56x56xf32>, tensor<f32>) -> tensor<96xf32>
    %b2dnvs = stablehlo.broadcast_in_dim %b2dnvsr, dims = [1] : (tensor<96xf32>) -> tensor<32x96x56x56xf32>
    %b2dnvr = stablehlo.divide %b2dnvs, %b2dnnf : tensor<32x96x56x56xf32>
    %b2dnve = stablehlo.add %b2dnvr, %b2dnep : tensor<32x96x56x56xf32>
    %b2dnistd = stablehlo.rsqrt %b2dnve : tensor<32x96x56x56xf32>
    %b2dnxh = stablehlo.multiply %b2dnxc, %b2dnistd : tensor<32x96x56x56xf32>
    %b2dngb = stablehlo.broadcast_in_dim %b2dg, dims = [1] : (tensor<96xf32>) -> tensor<32x96x56x56xf32>
    %b2dnbtb = stablehlo.broadcast_in_dim %b2dbt, dims = [1] : (tensor<96xf32>) -> tensor<32x96x56x56xf32>
    %b2dngx = stablehlo.multiply %b2dnxh, %b2dngb : tensor<32x96x56x56xf32>
    %b2dnn4 = stablehlo.add %b2dngx, %b2dnbtb : tensor<32x96x56x56xf32>
    %b2dn = stablehlo.reshape %b2dnn4 : (tensor<32x96x56x56xf32>) -> tensor<32x301056xf32>
    %v46 = stablehlo.constant dense<0.0> : tensor<32x301056xf32>
    %v47 = stablehlo.constant dense<6.0> : tensor<32x301056xf32>
    %v48 = stablehlo.maximum %b2dn, %v46 : tensor<32x301056xf32>
    %v49 = stablehlo.minimum %v48, %v47 : tensor<32x301056xf32>
    %v50 = stablehlo.reshape %v49 : (tensor<32x301056xf32>) -> tensor<32x96x56x56xf32>
    %v51 = stablehlo.convolution(%v50, %b2pW)
      dim_numbers = [b, f, 0, 1]x[o, i, 0, 1]->[b, f, 0, 1],
      window = {stride = [1, 1], pad = [[0, 0], [0, 0]], lhs_dilate = [1, 1], rhs_dilate = [1, 1]}
      {batch_group_count = 1 : i64, feature_group_count = 1 : i64} : (tensor<32x96x56x56xf32>, tensor<24x96x1x1xf32>) -> tensor<32x24x56x56xf32>
    %v52 = stablehlo.broadcast_in_dim %b2pb, dims = [1] : (tensor<24xf32>) -> tensor<32x24x56x56xf32>
    %v53 = stablehlo.add %v51, %v52 : tensor<32x24x56x56xf32>
    %v54 = stablehlo.reshape %v53 : (tensor<32x24x56x56xf32>) -> tensor<32x75264xf32>
    %b2pnxi = stablehlo.reshape %v54 : (tensor<32x75264xf32>) -> tensor<32x24x56x56xf32>
    %b2pnnf = stablehlo.constant dense<100352.0> : tensor<32x24x56x56xf32>
    %b2pnep = stablehlo.constant dense<1.0e-5> : tensor<32x24x56x56xf32>
    %b2pnsmr = stablehlo.reduce(%b2pnxi init: %sc) applies stablehlo.add across dimensions = [0, 2, 3] : (tensor<32x24x56x56xf32>, tensor<f32>) -> tensor<24xf32>
    %b2pnsm = stablehlo.broadcast_in_dim %b2pnsmr, dims = [1] : (tensor<24xf32>) -> tensor<32x24x56x56xf32>
    %b2pnmu = stablehlo.divide %b2pnsm, %b2pnnf : tensor<32x24x56x56xf32>
    %b2pnxc = stablehlo.subtract %b2pnxi, %b2pnmu : tensor<32x24x56x56xf32>
    %b2pnsq = stablehlo.multiply %b2pnxc, %b2pnxc : tensor<32x24x56x56xf32>
    %b2pnvsr = stablehlo.reduce(%b2pnsq init: %sc) applies stablehlo.add across dimensions = [0, 2, 3] : (tensor<32x24x56x56xf32>, tensor<f32>) -> tensor<24xf32>
    %b2pnvs = stablehlo.broadcast_in_dim %b2pnvsr, dims = [1] : (tensor<24xf32>) -> tensor<32x24x56x56xf32>
    %b2pnvr = stablehlo.divide %b2pnvs, %b2pnnf : tensor<32x24x56x56xf32>
    %b2pnve = stablehlo.add %b2pnvr, %b2pnep : tensor<32x24x56x56xf32>
    %b2pnistd = stablehlo.rsqrt %b2pnve : tensor<32x24x56x56xf32>
    %b2pnxh = stablehlo.multiply %b2pnxc, %b2pnistd : tensor<32x24x56x56xf32>
    %b2pngb = stablehlo.broadcast_in_dim %b2pg, dims = [1] : (tensor<24xf32>) -> tensor<32x24x56x56xf32>
    %b2pnbtb = stablehlo.broadcast_in_dim %b2pbt, dims = [1] : (tensor<24xf32>) -> tensor<32x24x56x56xf32>
    %b2pngx = stablehlo.multiply %b2pnxh, %b2pngb : tensor<32x24x56x56xf32>
    %b2pnn4 = stablehlo.add %b2pngx, %b2pnbtb : tensor<32x24x56x56xf32>
    %b2pn = stablehlo.reshape %b2pnn4 : (tensor<32x24x56x56xf32>) -> tensor<32x75264xf32>
    %v55 = stablehlo.reshape %b2pn : (tensor<32x75264xf32>) -> tensor<32x24x56x56xf32>
    %v56 = stablehlo.convolution(%v55, %b3eW)
      dim_numbers = [b, f, 0, 1]x[o, i, 0, 1]->[b, f, 0, 1],
      window = {stride = [1, 1], pad = [[0, 0], [0, 0]], lhs_dilate = [1, 1], rhs_dilate = [1, 1]}
      {batch_group_count = 1 : i64, feature_group_count = 1 : i64} : (tensor<32x24x56x56xf32>, tensor<144x24x1x1xf32>) -> tensor<32x144x56x56xf32>
    %v57 = stablehlo.broadcast_in_dim %b3eb, dims = [1] : (tensor<144xf32>) -> tensor<32x144x56x56xf32>
    %v58 = stablehlo.add %v56, %v57 : tensor<32x144x56x56xf32>
    %v59 = stablehlo.reshape %v58 : (tensor<32x144x56x56xf32>) -> tensor<32x451584xf32>
    %b3enxi = stablehlo.reshape %v59 : (tensor<32x451584xf32>) -> tensor<32x144x56x56xf32>
    %b3ennf = stablehlo.constant dense<100352.0> : tensor<32x144x56x56xf32>
    %b3enep = stablehlo.constant dense<1.0e-5> : tensor<32x144x56x56xf32>
    %b3ensmr = stablehlo.reduce(%b3enxi init: %sc) applies stablehlo.add across dimensions = [0, 2, 3] : (tensor<32x144x56x56xf32>, tensor<f32>) -> tensor<144xf32>
    %b3ensm = stablehlo.broadcast_in_dim %b3ensmr, dims = [1] : (tensor<144xf32>) -> tensor<32x144x56x56xf32>
    %b3enmu = stablehlo.divide %b3ensm, %b3ennf : tensor<32x144x56x56xf32>
    %b3enxc = stablehlo.subtract %b3enxi, %b3enmu : tensor<32x144x56x56xf32>
    %b3ensq = stablehlo.multiply %b3enxc, %b3enxc : tensor<32x144x56x56xf32>
    %b3envsr = stablehlo.reduce(%b3ensq init: %sc) applies stablehlo.add across dimensions = [0, 2, 3] : (tensor<32x144x56x56xf32>, tensor<f32>) -> tensor<144xf32>
    %b3envs = stablehlo.broadcast_in_dim %b3envsr, dims = [1] : (tensor<144xf32>) -> tensor<32x144x56x56xf32>
    %b3envr = stablehlo.divide %b3envs, %b3ennf : tensor<32x144x56x56xf32>
    %b3enve = stablehlo.add %b3envr, %b3enep : tensor<32x144x56x56xf32>
    %b3enistd = stablehlo.rsqrt %b3enve : tensor<32x144x56x56xf32>
    %b3enxh = stablehlo.multiply %b3enxc, %b3enistd : tensor<32x144x56x56xf32>
    %b3engb = stablehlo.broadcast_in_dim %b3eg, dims = [1] : (tensor<144xf32>) -> tensor<32x144x56x56xf32>
    %b3enbtb = stablehlo.broadcast_in_dim %b3ebt, dims = [1] : (tensor<144xf32>) -> tensor<32x144x56x56xf32>
    %b3engx = stablehlo.multiply %b3enxh, %b3engb : tensor<32x144x56x56xf32>
    %b3enn4 = stablehlo.add %b3engx, %b3enbtb : tensor<32x144x56x56xf32>
    %b3en = stablehlo.reshape %b3enn4 : (tensor<32x144x56x56xf32>) -> tensor<32x451584xf32>
    %v60 = stablehlo.constant dense<0.0> : tensor<32x451584xf32>
    %v61 = stablehlo.constant dense<6.0> : tensor<32x451584xf32>
    %v62 = stablehlo.maximum %b3en, %v60 : tensor<32x451584xf32>
    %v63 = stablehlo.minimum %v62, %v61 : tensor<32x451584xf32>
    %v64 = stablehlo.reshape %v63 : (tensor<32x451584xf32>) -> tensor<32x144x56x56xf32>
    %v65 = stablehlo.convolution(%v64, %b3dW)
      dim_numbers = [b, f, 0, 1]x[o, i, 0, 1]->[b, f, 0, 1],
      window = {stride = [1, 1], pad = [[1, 1], [1, 1]], lhs_dilate = [1, 1], rhs_dilate = [1, 1]}
      {batch_group_count = 1 : i64, feature_group_count = 144 : i64} : (tensor<32x144x56x56xf32>, tensor<144x1x3x3xf32>) -> tensor<32x144x56x56xf32>
    %v66 = stablehlo.broadcast_in_dim %b3db, dims = [1] : (tensor<144xf32>) -> tensor<32x144x56x56xf32>
    %v67 = stablehlo.add %v65, %v66 : tensor<32x144x56x56xf32>
    %v68 = stablehlo.reshape %v67 : (tensor<32x144x56x56xf32>) -> tensor<32x451584xf32>
    %b3dnxi = stablehlo.reshape %v68 : (tensor<32x451584xf32>) -> tensor<32x144x56x56xf32>
    %b3dnnf = stablehlo.constant dense<100352.0> : tensor<32x144x56x56xf32>
    %b3dnep = stablehlo.constant dense<1.0e-5> : tensor<32x144x56x56xf32>
    %b3dnsmr = stablehlo.reduce(%b3dnxi init: %sc) applies stablehlo.add across dimensions = [0, 2, 3] : (tensor<32x144x56x56xf32>, tensor<f32>) -> tensor<144xf32>
    %b3dnsm = stablehlo.broadcast_in_dim %b3dnsmr, dims = [1] : (tensor<144xf32>) -> tensor<32x144x56x56xf32>
    %b3dnmu = stablehlo.divide %b3dnsm, %b3dnnf : tensor<32x144x56x56xf32>
    %b3dnxc = stablehlo.subtract %b3dnxi, %b3dnmu : tensor<32x144x56x56xf32>
    %b3dnsq = stablehlo.multiply %b3dnxc, %b3dnxc : tensor<32x144x56x56xf32>
    %b3dnvsr = stablehlo.reduce(%b3dnsq init: %sc) applies stablehlo.add across dimensions = [0, 2, 3] : (tensor<32x144x56x56xf32>, tensor<f32>) -> tensor<144xf32>
    %b3dnvs = stablehlo.broadcast_in_dim %b3dnvsr, dims = [1] : (tensor<144xf32>) -> tensor<32x144x56x56xf32>
    %b3dnvr = stablehlo.divide %b3dnvs, %b3dnnf : tensor<32x144x56x56xf32>
    %b3dnve = stablehlo.add %b3dnvr, %b3dnep : tensor<32x144x56x56xf32>
    %b3dnistd = stablehlo.rsqrt %b3dnve : tensor<32x144x56x56xf32>
    %b3dnxh = stablehlo.multiply %b3dnxc, %b3dnistd : tensor<32x144x56x56xf32>
    %b3dngb = stablehlo.broadcast_in_dim %b3dg, dims = [1] : (tensor<144xf32>) -> tensor<32x144x56x56xf32>
    %b3dnbtb = stablehlo.broadcast_in_dim %b3dbt, dims = [1] : (tensor<144xf32>) -> tensor<32x144x56x56xf32>
    %b3dngx = stablehlo.multiply %b3dnxh, %b3dngb : tensor<32x144x56x56xf32>
    %b3dnn4 = stablehlo.add %b3dngx, %b3dnbtb : tensor<32x144x56x56xf32>
    %b3dn = stablehlo.reshape %b3dnn4 : (tensor<32x144x56x56xf32>) -> tensor<32x451584xf32>
    %v69 = stablehlo.constant dense<0.0> : tensor<32x451584xf32>
    %v70 = stablehlo.constant dense<6.0> : tensor<32x451584xf32>
    %v71 = stablehlo.maximum %b3dn, %v69 : tensor<32x451584xf32>
    %v72 = stablehlo.minimum %v71, %v70 : tensor<32x451584xf32>
    %v73 = stablehlo.reshape %v72 : (tensor<32x451584xf32>) -> tensor<32x144x56x56xf32>
    %v74 = stablehlo.convolution(%v73, %b3pW)
      dim_numbers = [b, f, 0, 1]x[o, i, 0, 1]->[b, f, 0, 1],
      window = {stride = [1, 1], pad = [[0, 0], [0, 0]], lhs_dilate = [1, 1], rhs_dilate = [1, 1]}
      {batch_group_count = 1 : i64, feature_group_count = 1 : i64} : (tensor<32x144x56x56xf32>, tensor<24x144x1x1xf32>) -> tensor<32x24x56x56xf32>
    %v75 = stablehlo.broadcast_in_dim %b3pb, dims = [1] : (tensor<24xf32>) -> tensor<32x24x56x56xf32>
    %v76 = stablehlo.add %v74, %v75 : tensor<32x24x56x56xf32>
    %v77 = stablehlo.reshape %v76 : (tensor<32x24x56x56xf32>) -> tensor<32x75264xf32>
    %b3pnxi = stablehlo.reshape %v77 : (tensor<32x75264xf32>) -> tensor<32x24x56x56xf32>
    %b3pnnf = stablehlo.constant dense<100352.0> : tensor<32x24x56x56xf32>
    %b3pnep = stablehlo.constant dense<1.0e-5> : tensor<32x24x56x56xf32>
    %b3pnsmr = stablehlo.reduce(%b3pnxi init: %sc) applies stablehlo.add across dimensions = [0, 2, 3] : (tensor<32x24x56x56xf32>, tensor<f32>) -> tensor<24xf32>
    %b3pnsm = stablehlo.broadcast_in_dim %b3pnsmr, dims = [1] : (tensor<24xf32>) -> tensor<32x24x56x56xf32>
    %b3pnmu = stablehlo.divide %b3pnsm, %b3pnnf : tensor<32x24x56x56xf32>
    %b3pnxc = stablehlo.subtract %b3pnxi, %b3pnmu : tensor<32x24x56x56xf32>
    %b3pnsq = stablehlo.multiply %b3pnxc, %b3pnxc : tensor<32x24x56x56xf32>
    %b3pnvsr = stablehlo.reduce(%b3pnsq init: %sc) applies stablehlo.add across dimensions = [0, 2, 3] : (tensor<32x24x56x56xf32>, tensor<f32>) -> tensor<24xf32>
    %b3pnvs = stablehlo.broadcast_in_dim %b3pnvsr, dims = [1] : (tensor<24xf32>) -> tensor<32x24x56x56xf32>
    %b3pnvr = stablehlo.divide %b3pnvs, %b3pnnf : tensor<32x24x56x56xf32>
    %b3pnve = stablehlo.add %b3pnvr, %b3pnep : tensor<32x24x56x56xf32>
    %b3pnistd = stablehlo.rsqrt %b3pnve : tensor<32x24x56x56xf32>
    %b3pnxh = stablehlo.multiply %b3pnxc, %b3pnistd : tensor<32x24x56x56xf32>
    %b3pngb = stablehlo.broadcast_in_dim %b3pg, dims = [1] : (tensor<24xf32>) -> tensor<32x24x56x56xf32>
    %b3pnbtb = stablehlo.broadcast_in_dim %b3pbt, dims = [1] : (tensor<24xf32>) -> tensor<32x24x56x56xf32>
    %b3pngx = stablehlo.multiply %b3pnxh, %b3pngb : tensor<32x24x56x56xf32>
    %b3pnn4 = stablehlo.add %b3pngx, %b3pnbtb : tensor<32x24x56x56xf32>
    %b3pn = stablehlo.reshape %b3pnn4 : (tensor<32x24x56x56xf32>) -> tensor<32x75264xf32>
    %v78 = stablehlo.add %b3pn, %b2pn : tensor<32x75264xf32>
    %v79 = stablehlo.reshape %v78 : (tensor<32x75264xf32>) -> tensor<32x24x56x56xf32>
    %v80 = stablehlo.convolution(%v79, %b4eW)
      dim_numbers = [b, f, 0, 1]x[o, i, 0, 1]->[b, f, 0, 1],
      window = {stride = [1, 1], pad = [[0, 0], [0, 0]], lhs_dilate = [1, 1], rhs_dilate = [1, 1]}
      {batch_group_count = 1 : i64, feature_group_count = 1 : i64} : (tensor<32x24x56x56xf32>, tensor<144x24x1x1xf32>) -> tensor<32x144x56x56xf32>
    %v81 = stablehlo.broadcast_in_dim %b4eb, dims = [1] : (tensor<144xf32>) -> tensor<32x144x56x56xf32>
    %v82 = stablehlo.add %v80, %v81 : tensor<32x144x56x56xf32>
    %v83 = stablehlo.reshape %v82 : (tensor<32x144x56x56xf32>) -> tensor<32x451584xf32>
    %b4enxi = stablehlo.reshape %v83 : (tensor<32x451584xf32>) -> tensor<32x144x56x56xf32>
    %b4ennf = stablehlo.constant dense<100352.0> : tensor<32x144x56x56xf32>
    %b4enep = stablehlo.constant dense<1.0e-5> : tensor<32x144x56x56xf32>
    %b4ensmr = stablehlo.reduce(%b4enxi init: %sc) applies stablehlo.add across dimensions = [0, 2, 3] : (tensor<32x144x56x56xf32>, tensor<f32>) -> tensor<144xf32>
    %b4ensm = stablehlo.broadcast_in_dim %b4ensmr, dims = [1] : (tensor<144xf32>) -> tensor<32x144x56x56xf32>
    %b4enmu = stablehlo.divide %b4ensm, %b4ennf : tensor<32x144x56x56xf32>
    %b4enxc = stablehlo.subtract %b4enxi, %b4enmu : tensor<32x144x56x56xf32>
    %b4ensq = stablehlo.multiply %b4enxc, %b4enxc : tensor<32x144x56x56xf32>
    %b4envsr = stablehlo.reduce(%b4ensq init: %sc) applies stablehlo.add across dimensions = [0, 2, 3] : (tensor<32x144x56x56xf32>, tensor<f32>) -> tensor<144xf32>
    %b4envs = stablehlo.broadcast_in_dim %b4envsr, dims = [1] : (tensor<144xf32>) -> tensor<32x144x56x56xf32>
    %b4envr = stablehlo.divide %b4envs, %b4ennf : tensor<32x144x56x56xf32>
    %b4enve = stablehlo.add %b4envr, %b4enep : tensor<32x144x56x56xf32>
    %b4enistd = stablehlo.rsqrt %b4enve : tensor<32x144x56x56xf32>
    %b4enxh = stablehlo.multiply %b4enxc, %b4enistd : tensor<32x144x56x56xf32>
    %b4engb = stablehlo.broadcast_in_dim %b4eg, dims = [1] : (tensor<144xf32>) -> tensor<32x144x56x56xf32>
    %b4enbtb = stablehlo.broadcast_in_dim %b4ebt, dims = [1] : (tensor<144xf32>) -> tensor<32x144x56x56xf32>
    %b4engx = stablehlo.multiply %b4enxh, %b4engb : tensor<32x144x56x56xf32>
    %b4enn4 = stablehlo.add %b4engx, %b4enbtb : tensor<32x144x56x56xf32>
    %b4en = stablehlo.reshape %b4enn4 : (tensor<32x144x56x56xf32>) -> tensor<32x451584xf32>
    %v84 = stablehlo.constant dense<0.0> : tensor<32x451584xf32>
    %v85 = stablehlo.constant dense<6.0> : tensor<32x451584xf32>
    %v86 = stablehlo.maximum %b4en, %v84 : tensor<32x451584xf32>
    %v87 = stablehlo.minimum %v86, %v85 : tensor<32x451584xf32>
    %v88 = stablehlo.reshape %v87 : (tensor<32x451584xf32>) -> tensor<32x144x56x56xf32>
    %v89 = stablehlo.convolution(%v88, %b4dW)
      dim_numbers = [b, f, 0, 1]x[o, i, 0, 1]->[b, f, 0, 1],
      window = {stride = [2, 2], pad = [[1, 1], [1, 1]], lhs_dilate = [1, 1], rhs_dilate = [1, 1]}
      {batch_group_count = 1 : i64, feature_group_count = 144 : i64} : (tensor<32x144x56x56xf32>, tensor<144x1x3x3xf32>) -> tensor<32x144x28x28xf32>
    %v90 = stablehlo.broadcast_in_dim %b4db, dims = [1] : (tensor<144xf32>) -> tensor<32x144x28x28xf32>
    %v91 = stablehlo.add %v89, %v90 : tensor<32x144x28x28xf32>
    %v92 = stablehlo.reshape %v91 : (tensor<32x144x28x28xf32>) -> tensor<32x112896xf32>
    %b4dnxi = stablehlo.reshape %v92 : (tensor<32x112896xf32>) -> tensor<32x144x28x28xf32>
    %b4dnnf = stablehlo.constant dense<25088.0> : tensor<32x144x28x28xf32>
    %b4dnep = stablehlo.constant dense<1.0e-5> : tensor<32x144x28x28xf32>
    %b4dnsmr = stablehlo.reduce(%b4dnxi init: %sc) applies stablehlo.add across dimensions = [0, 2, 3] : (tensor<32x144x28x28xf32>, tensor<f32>) -> tensor<144xf32>
    %b4dnsm = stablehlo.broadcast_in_dim %b4dnsmr, dims = [1] : (tensor<144xf32>) -> tensor<32x144x28x28xf32>
    %b4dnmu = stablehlo.divide %b4dnsm, %b4dnnf : tensor<32x144x28x28xf32>
    %b4dnxc = stablehlo.subtract %b4dnxi, %b4dnmu : tensor<32x144x28x28xf32>
    %b4dnsq = stablehlo.multiply %b4dnxc, %b4dnxc : tensor<32x144x28x28xf32>
    %b4dnvsr = stablehlo.reduce(%b4dnsq init: %sc) applies stablehlo.add across dimensions = [0, 2, 3] : (tensor<32x144x28x28xf32>, tensor<f32>) -> tensor<144xf32>
    %b4dnvs = stablehlo.broadcast_in_dim %b4dnvsr, dims = [1] : (tensor<144xf32>) -> tensor<32x144x28x28xf32>
    %b4dnvr = stablehlo.divide %b4dnvs, %b4dnnf : tensor<32x144x28x28xf32>
    %b4dnve = stablehlo.add %b4dnvr, %b4dnep : tensor<32x144x28x28xf32>
    %b4dnistd = stablehlo.rsqrt %b4dnve : tensor<32x144x28x28xf32>
    %b4dnxh = stablehlo.multiply %b4dnxc, %b4dnistd : tensor<32x144x28x28xf32>
    %b4dngb = stablehlo.broadcast_in_dim %b4dg, dims = [1] : (tensor<144xf32>) -> tensor<32x144x28x28xf32>
    %b4dnbtb = stablehlo.broadcast_in_dim %b4dbt, dims = [1] : (tensor<144xf32>) -> tensor<32x144x28x28xf32>
    %b4dngx = stablehlo.multiply %b4dnxh, %b4dngb : tensor<32x144x28x28xf32>
    %b4dnn4 = stablehlo.add %b4dngx, %b4dnbtb : tensor<32x144x28x28xf32>
    %b4dn = stablehlo.reshape %b4dnn4 : (tensor<32x144x28x28xf32>) -> tensor<32x112896xf32>
    %v93 = stablehlo.constant dense<0.0> : tensor<32x112896xf32>
    %v94 = stablehlo.constant dense<6.0> : tensor<32x112896xf32>
    %v95 = stablehlo.maximum %b4dn, %v93 : tensor<32x112896xf32>
    %v96 = stablehlo.minimum %v95, %v94 : tensor<32x112896xf32>
    %v97 = stablehlo.reshape %v96 : (tensor<32x112896xf32>) -> tensor<32x144x28x28xf32>
    %v98 = stablehlo.convolution(%v97, %b4pW)
      dim_numbers = [b, f, 0, 1]x[o, i, 0, 1]->[b, f, 0, 1],
      window = {stride = [1, 1], pad = [[0, 0], [0, 0]], lhs_dilate = [1, 1], rhs_dilate = [1, 1]}
      {batch_group_count = 1 : i64, feature_group_count = 1 : i64} : (tensor<32x144x28x28xf32>, tensor<32x144x1x1xf32>) -> tensor<32x32x28x28xf32>
    %v99 = stablehlo.broadcast_in_dim %b4pb, dims = [1] : (tensor<32xf32>) -> tensor<32x32x28x28xf32>
    %v100 = stablehlo.add %v98, %v99 : tensor<32x32x28x28xf32>
    %v101 = stablehlo.reshape %v100 : (tensor<32x32x28x28xf32>) -> tensor<32x25088xf32>
    %b4pnxi = stablehlo.reshape %v101 : (tensor<32x25088xf32>) -> tensor<32x32x28x28xf32>
    %b4pnnf = stablehlo.constant dense<25088.0> : tensor<32x32x28x28xf32>
    %b4pnep = stablehlo.constant dense<1.0e-5> : tensor<32x32x28x28xf32>
    %b4pnsmr = stablehlo.reduce(%b4pnxi init: %sc) applies stablehlo.add across dimensions = [0, 2, 3] : (tensor<32x32x28x28xf32>, tensor<f32>) -> tensor<32xf32>
    %b4pnsm = stablehlo.broadcast_in_dim %b4pnsmr, dims = [1] : (tensor<32xf32>) -> tensor<32x32x28x28xf32>
    %b4pnmu = stablehlo.divide %b4pnsm, %b4pnnf : tensor<32x32x28x28xf32>
    %b4pnxc = stablehlo.subtract %b4pnxi, %b4pnmu : tensor<32x32x28x28xf32>
    %b4pnsq = stablehlo.multiply %b4pnxc, %b4pnxc : tensor<32x32x28x28xf32>
    %b4pnvsr = stablehlo.reduce(%b4pnsq init: %sc) applies stablehlo.add across dimensions = [0, 2, 3] : (tensor<32x32x28x28xf32>, tensor<f32>) -> tensor<32xf32>
    %b4pnvs = stablehlo.broadcast_in_dim %b4pnvsr, dims = [1] : (tensor<32xf32>) -> tensor<32x32x28x28xf32>
    %b4pnvr = stablehlo.divide %b4pnvs, %b4pnnf : tensor<32x32x28x28xf32>
    %b4pnve = stablehlo.add %b4pnvr, %b4pnep : tensor<32x32x28x28xf32>
    %b4pnistd = stablehlo.rsqrt %b4pnve : tensor<32x32x28x28xf32>
    %b4pnxh = stablehlo.multiply %b4pnxc, %b4pnistd : tensor<32x32x28x28xf32>
    %b4pngb = stablehlo.broadcast_in_dim %b4pg, dims = [1] : (tensor<32xf32>) -> tensor<32x32x28x28xf32>
    %b4pnbtb = stablehlo.broadcast_in_dim %b4pbt, dims = [1] : (tensor<32xf32>) -> tensor<32x32x28x28xf32>
    %b4pngx = stablehlo.multiply %b4pnxh, %b4pngb : tensor<32x32x28x28xf32>
    %b4pnn4 = stablehlo.add %b4pngx, %b4pnbtb : tensor<32x32x28x28xf32>
    %b4pn = stablehlo.reshape %b4pnn4 : (tensor<32x32x28x28xf32>) -> tensor<32x25088xf32>
    %v102 = stablehlo.reshape %b4pn : (tensor<32x25088xf32>) -> tensor<32x32x28x28xf32>
    %v103 = stablehlo.convolution(%v102, %b5eW)
      dim_numbers = [b, f, 0, 1]x[o, i, 0, 1]->[b, f, 0, 1],
      window = {stride = [1, 1], pad = [[0, 0], [0, 0]], lhs_dilate = [1, 1], rhs_dilate = [1, 1]}
      {batch_group_count = 1 : i64, feature_group_count = 1 : i64} : (tensor<32x32x28x28xf32>, tensor<192x32x1x1xf32>) -> tensor<32x192x28x28xf32>
    %v104 = stablehlo.broadcast_in_dim %b5eb, dims = [1] : (tensor<192xf32>) -> tensor<32x192x28x28xf32>
    %v105 = stablehlo.add %v103, %v104 : tensor<32x192x28x28xf32>
    %v106 = stablehlo.reshape %v105 : (tensor<32x192x28x28xf32>) -> tensor<32x150528xf32>
    %b5enxi = stablehlo.reshape %v106 : (tensor<32x150528xf32>) -> tensor<32x192x28x28xf32>
    %b5ennf = stablehlo.constant dense<25088.0> : tensor<32x192x28x28xf32>
    %b5enep = stablehlo.constant dense<1.0e-5> : tensor<32x192x28x28xf32>
    %b5ensmr = stablehlo.reduce(%b5enxi init: %sc) applies stablehlo.add across dimensions = [0, 2, 3] : (tensor<32x192x28x28xf32>, tensor<f32>) -> tensor<192xf32>
    %b5ensm = stablehlo.broadcast_in_dim %b5ensmr, dims = [1] : (tensor<192xf32>) -> tensor<32x192x28x28xf32>
    %b5enmu = stablehlo.divide %b5ensm, %b5ennf : tensor<32x192x28x28xf32>
    %b5enxc = stablehlo.subtract %b5enxi, %b5enmu : tensor<32x192x28x28xf32>
    %b5ensq = stablehlo.multiply %b5enxc, %b5enxc : tensor<32x192x28x28xf32>
    %b5envsr = stablehlo.reduce(%b5ensq init: %sc) applies stablehlo.add across dimensions = [0, 2, 3] : (tensor<32x192x28x28xf32>, tensor<f32>) -> tensor<192xf32>
    %b5envs = stablehlo.broadcast_in_dim %b5envsr, dims = [1] : (tensor<192xf32>) -> tensor<32x192x28x28xf32>
    %b5envr = stablehlo.divide %b5envs, %b5ennf : tensor<32x192x28x28xf32>
    %b5enve = stablehlo.add %b5envr, %b5enep : tensor<32x192x28x28xf32>
    %b5enistd = stablehlo.rsqrt %b5enve : tensor<32x192x28x28xf32>
    %b5enxh = stablehlo.multiply %b5enxc, %b5enistd : tensor<32x192x28x28xf32>
    %b5engb = stablehlo.broadcast_in_dim %b5eg, dims = [1] : (tensor<192xf32>) -> tensor<32x192x28x28xf32>
    %b5enbtb = stablehlo.broadcast_in_dim %b5ebt, dims = [1] : (tensor<192xf32>) -> tensor<32x192x28x28xf32>
    %b5engx = stablehlo.multiply %b5enxh, %b5engb : tensor<32x192x28x28xf32>
    %b5enn4 = stablehlo.add %b5engx, %b5enbtb : tensor<32x192x28x28xf32>
    %b5en = stablehlo.reshape %b5enn4 : (tensor<32x192x28x28xf32>) -> tensor<32x150528xf32>
    %v107 = stablehlo.constant dense<0.0> : tensor<32x150528xf32>
    %v108 = stablehlo.constant dense<6.0> : tensor<32x150528xf32>
    %v109 = stablehlo.maximum %b5en, %v107 : tensor<32x150528xf32>
    %v110 = stablehlo.minimum %v109, %v108 : tensor<32x150528xf32>
    %v111 = stablehlo.reshape %v110 : (tensor<32x150528xf32>) -> tensor<32x192x28x28xf32>
    %v112 = stablehlo.convolution(%v111, %b5dW)
      dim_numbers = [b, f, 0, 1]x[o, i, 0, 1]->[b, f, 0, 1],
      window = {stride = [1, 1], pad = [[1, 1], [1, 1]], lhs_dilate = [1, 1], rhs_dilate = [1, 1]}
      {batch_group_count = 1 : i64, feature_group_count = 192 : i64} : (tensor<32x192x28x28xf32>, tensor<192x1x3x3xf32>) -> tensor<32x192x28x28xf32>
    %v113 = stablehlo.broadcast_in_dim %b5db, dims = [1] : (tensor<192xf32>) -> tensor<32x192x28x28xf32>
    %v114 = stablehlo.add %v112, %v113 : tensor<32x192x28x28xf32>
    %v115 = stablehlo.reshape %v114 : (tensor<32x192x28x28xf32>) -> tensor<32x150528xf32>
    %b5dnxi = stablehlo.reshape %v115 : (tensor<32x150528xf32>) -> tensor<32x192x28x28xf32>
    %b5dnnf = stablehlo.constant dense<25088.0> : tensor<32x192x28x28xf32>
    %b5dnep = stablehlo.constant dense<1.0e-5> : tensor<32x192x28x28xf32>
    %b5dnsmr = stablehlo.reduce(%b5dnxi init: %sc) applies stablehlo.add across dimensions = [0, 2, 3] : (tensor<32x192x28x28xf32>, tensor<f32>) -> tensor<192xf32>
    %b5dnsm = stablehlo.broadcast_in_dim %b5dnsmr, dims = [1] : (tensor<192xf32>) -> tensor<32x192x28x28xf32>
    %b5dnmu = stablehlo.divide %b5dnsm, %b5dnnf : tensor<32x192x28x28xf32>
    %b5dnxc = stablehlo.subtract %b5dnxi, %b5dnmu : tensor<32x192x28x28xf32>
    %b5dnsq = stablehlo.multiply %b5dnxc, %b5dnxc : tensor<32x192x28x28xf32>
    %b5dnvsr = stablehlo.reduce(%b5dnsq init: %sc) applies stablehlo.add across dimensions = [0, 2, 3] : (tensor<32x192x28x28xf32>, tensor<f32>) -> tensor<192xf32>
    %b5dnvs = stablehlo.broadcast_in_dim %b5dnvsr, dims = [1] : (tensor<192xf32>) -> tensor<32x192x28x28xf32>
    %b5dnvr = stablehlo.divide %b5dnvs, %b5dnnf : tensor<32x192x28x28xf32>
    %b5dnve = stablehlo.add %b5dnvr, %b5dnep : tensor<32x192x28x28xf32>
    %b5dnistd = stablehlo.rsqrt %b5dnve : tensor<32x192x28x28xf32>
    %b5dnxh = stablehlo.multiply %b5dnxc, %b5dnistd : tensor<32x192x28x28xf32>
    %b5dngb = stablehlo.broadcast_in_dim %b5dg, dims = [1] : (tensor<192xf32>) -> tensor<32x192x28x28xf32>
    %b5dnbtb = stablehlo.broadcast_in_dim %b5dbt, dims = [1] : (tensor<192xf32>) -> tensor<32x192x28x28xf32>
    %b5dngx = stablehlo.multiply %b5dnxh, %b5dngb : tensor<32x192x28x28xf32>
    %b5dnn4 = stablehlo.add %b5dngx, %b5dnbtb : tensor<32x192x28x28xf32>
    %b5dn = stablehlo.reshape %b5dnn4 : (tensor<32x192x28x28xf32>) -> tensor<32x150528xf32>
    %v116 = stablehlo.constant dense<0.0> : tensor<32x150528xf32>
    %v117 = stablehlo.constant dense<6.0> : tensor<32x150528xf32>
    %v118 = stablehlo.maximum %b5dn, %v116 : tensor<32x150528xf32>
    %v119 = stablehlo.minimum %v118, %v117 : tensor<32x150528xf32>
    %v120 = stablehlo.reshape %v119 : (tensor<32x150528xf32>) -> tensor<32x192x28x28xf32>
    %v121 = stablehlo.convolution(%v120, %b5pW)
      dim_numbers = [b, f, 0, 1]x[o, i, 0, 1]->[b, f, 0, 1],
      window = {stride = [1, 1], pad = [[0, 0], [0, 0]], lhs_dilate = [1, 1], rhs_dilate = [1, 1]}
      {batch_group_count = 1 : i64, feature_group_count = 1 : i64} : (tensor<32x192x28x28xf32>, tensor<32x192x1x1xf32>) -> tensor<32x32x28x28xf32>
    %v122 = stablehlo.broadcast_in_dim %b5pb, dims = [1] : (tensor<32xf32>) -> tensor<32x32x28x28xf32>
    %v123 = stablehlo.add %v121, %v122 : tensor<32x32x28x28xf32>
    %v124 = stablehlo.reshape %v123 : (tensor<32x32x28x28xf32>) -> tensor<32x25088xf32>
    %b5pnxi = stablehlo.reshape %v124 : (tensor<32x25088xf32>) -> tensor<32x32x28x28xf32>
    %b5pnnf = stablehlo.constant dense<25088.0> : tensor<32x32x28x28xf32>
    %b5pnep = stablehlo.constant dense<1.0e-5> : tensor<32x32x28x28xf32>
    %b5pnsmr = stablehlo.reduce(%b5pnxi init: %sc) applies stablehlo.add across dimensions = [0, 2, 3] : (tensor<32x32x28x28xf32>, tensor<f32>) -> tensor<32xf32>
    %b5pnsm = stablehlo.broadcast_in_dim %b5pnsmr, dims = [1] : (tensor<32xf32>) -> tensor<32x32x28x28xf32>
    %b5pnmu = stablehlo.divide %b5pnsm, %b5pnnf : tensor<32x32x28x28xf32>
    %b5pnxc = stablehlo.subtract %b5pnxi, %b5pnmu : tensor<32x32x28x28xf32>
    %b5pnsq = stablehlo.multiply %b5pnxc, %b5pnxc : tensor<32x32x28x28xf32>
    %b5pnvsr = stablehlo.reduce(%b5pnsq init: %sc) applies stablehlo.add across dimensions = [0, 2, 3] : (tensor<32x32x28x28xf32>, tensor<f32>) -> tensor<32xf32>
    %b5pnvs = stablehlo.broadcast_in_dim %b5pnvsr, dims = [1] : (tensor<32xf32>) -> tensor<32x32x28x28xf32>
    %b5pnvr = stablehlo.divide %b5pnvs, %b5pnnf : tensor<32x32x28x28xf32>
    %b5pnve = stablehlo.add %b5pnvr, %b5pnep : tensor<32x32x28x28xf32>
    %b5pnistd = stablehlo.rsqrt %b5pnve : tensor<32x32x28x28xf32>
    %b5pnxh = stablehlo.multiply %b5pnxc, %b5pnistd : tensor<32x32x28x28xf32>
    %b5pngb = stablehlo.broadcast_in_dim %b5pg, dims = [1] : (tensor<32xf32>) -> tensor<32x32x28x28xf32>
    %b5pnbtb = stablehlo.broadcast_in_dim %b5pbt, dims = [1] : (tensor<32xf32>) -> tensor<32x32x28x28xf32>
    %b5pngx = stablehlo.multiply %b5pnxh, %b5pngb : tensor<32x32x28x28xf32>
    %b5pnn4 = stablehlo.add %b5pngx, %b5pnbtb : tensor<32x32x28x28xf32>
    %b5pn = stablehlo.reshape %b5pnn4 : (tensor<32x32x28x28xf32>) -> tensor<32x25088xf32>
    %v125 = stablehlo.add %b5pn, %b4pn : tensor<32x25088xf32>
    %v126 = stablehlo.reshape %v125 : (tensor<32x25088xf32>) -> tensor<32x32x28x28xf32>
    %v127 = stablehlo.convolution(%v126, %b6eW)
      dim_numbers = [b, f, 0, 1]x[o, i, 0, 1]->[b, f, 0, 1],
      window = {stride = [1, 1], pad = [[0, 0], [0, 0]], lhs_dilate = [1, 1], rhs_dilate = [1, 1]}
      {batch_group_count = 1 : i64, feature_group_count = 1 : i64} : (tensor<32x32x28x28xf32>, tensor<192x32x1x1xf32>) -> tensor<32x192x28x28xf32>
    %v128 = stablehlo.broadcast_in_dim %b6eb, dims = [1] : (tensor<192xf32>) -> tensor<32x192x28x28xf32>
    %v129 = stablehlo.add %v127, %v128 : tensor<32x192x28x28xf32>
    %v130 = stablehlo.reshape %v129 : (tensor<32x192x28x28xf32>) -> tensor<32x150528xf32>
    %b6enxi = stablehlo.reshape %v130 : (tensor<32x150528xf32>) -> tensor<32x192x28x28xf32>
    %b6ennf = stablehlo.constant dense<25088.0> : tensor<32x192x28x28xf32>
    %b6enep = stablehlo.constant dense<1.0e-5> : tensor<32x192x28x28xf32>
    %b6ensmr = stablehlo.reduce(%b6enxi init: %sc) applies stablehlo.add across dimensions = [0, 2, 3] : (tensor<32x192x28x28xf32>, tensor<f32>) -> tensor<192xf32>
    %b6ensm = stablehlo.broadcast_in_dim %b6ensmr, dims = [1] : (tensor<192xf32>) -> tensor<32x192x28x28xf32>
    %b6enmu = stablehlo.divide %b6ensm, %b6ennf : tensor<32x192x28x28xf32>
    %b6enxc = stablehlo.subtract %b6enxi, %b6enmu : tensor<32x192x28x28xf32>
    %b6ensq = stablehlo.multiply %b6enxc, %b6enxc : tensor<32x192x28x28xf32>
    %b6envsr = stablehlo.reduce(%b6ensq init: %sc) applies stablehlo.add across dimensions = [0, 2, 3] : (tensor<32x192x28x28xf32>, tensor<f32>) -> tensor<192xf32>
    %b6envs = stablehlo.broadcast_in_dim %b6envsr, dims = [1] : (tensor<192xf32>) -> tensor<32x192x28x28xf32>
    %b6envr = stablehlo.divide %b6envs, %b6ennf : tensor<32x192x28x28xf32>
    %b6enve = stablehlo.add %b6envr, %b6enep : tensor<32x192x28x28xf32>
    %b6enistd = stablehlo.rsqrt %b6enve : tensor<32x192x28x28xf32>
    %b6enxh = stablehlo.multiply %b6enxc, %b6enistd : tensor<32x192x28x28xf32>
    %b6engb = stablehlo.broadcast_in_dim %b6eg, dims = [1] : (tensor<192xf32>) -> tensor<32x192x28x28xf32>
    %b6enbtb = stablehlo.broadcast_in_dim %b6ebt, dims = [1] : (tensor<192xf32>) -> tensor<32x192x28x28xf32>
    %b6engx = stablehlo.multiply %b6enxh, %b6engb : tensor<32x192x28x28xf32>
    %b6enn4 = stablehlo.add %b6engx, %b6enbtb : tensor<32x192x28x28xf32>
    %b6en = stablehlo.reshape %b6enn4 : (tensor<32x192x28x28xf32>) -> tensor<32x150528xf32>
    %v131 = stablehlo.constant dense<0.0> : tensor<32x150528xf32>
    %v132 = stablehlo.constant dense<6.0> : tensor<32x150528xf32>
    %v133 = stablehlo.maximum %b6en, %v131 : tensor<32x150528xf32>
    %v134 = stablehlo.minimum %v133, %v132 : tensor<32x150528xf32>
    %v135 = stablehlo.reshape %v134 : (tensor<32x150528xf32>) -> tensor<32x192x28x28xf32>
    %v136 = stablehlo.convolution(%v135, %b6dW)
      dim_numbers = [b, f, 0, 1]x[o, i, 0, 1]->[b, f, 0, 1],
      window = {stride = [1, 1], pad = [[1, 1], [1, 1]], lhs_dilate = [1, 1], rhs_dilate = [1, 1]}
      {batch_group_count = 1 : i64, feature_group_count = 192 : i64} : (tensor<32x192x28x28xf32>, tensor<192x1x3x3xf32>) -> tensor<32x192x28x28xf32>
    %v137 = stablehlo.broadcast_in_dim %b6db, dims = [1] : (tensor<192xf32>) -> tensor<32x192x28x28xf32>
    %v138 = stablehlo.add %v136, %v137 : tensor<32x192x28x28xf32>
    %v139 = stablehlo.reshape %v138 : (tensor<32x192x28x28xf32>) -> tensor<32x150528xf32>
    %b6dnxi = stablehlo.reshape %v139 : (tensor<32x150528xf32>) -> tensor<32x192x28x28xf32>
    %b6dnnf = stablehlo.constant dense<25088.0> : tensor<32x192x28x28xf32>
    %b6dnep = stablehlo.constant dense<1.0e-5> : tensor<32x192x28x28xf32>
    %b6dnsmr = stablehlo.reduce(%b6dnxi init: %sc) applies stablehlo.add across dimensions = [0, 2, 3] : (tensor<32x192x28x28xf32>, tensor<f32>) -> tensor<192xf32>
    %b6dnsm = stablehlo.broadcast_in_dim %b6dnsmr, dims = [1] : (tensor<192xf32>) -> tensor<32x192x28x28xf32>
    %b6dnmu = stablehlo.divide %b6dnsm, %b6dnnf : tensor<32x192x28x28xf32>
    %b6dnxc = stablehlo.subtract %b6dnxi, %b6dnmu : tensor<32x192x28x28xf32>
    %b6dnsq = stablehlo.multiply %b6dnxc, %b6dnxc : tensor<32x192x28x28xf32>
    %b6dnvsr = stablehlo.reduce(%b6dnsq init: %sc) applies stablehlo.add across dimensions = [0, 2, 3] : (tensor<32x192x28x28xf32>, tensor<f32>) -> tensor<192xf32>
    %b6dnvs = stablehlo.broadcast_in_dim %b6dnvsr, dims = [1] : (tensor<192xf32>) -> tensor<32x192x28x28xf32>
    %b6dnvr = stablehlo.divide %b6dnvs, %b6dnnf : tensor<32x192x28x28xf32>
    %b6dnve = stablehlo.add %b6dnvr, %b6dnep : tensor<32x192x28x28xf32>
    %b6dnistd = stablehlo.rsqrt %b6dnve : tensor<32x192x28x28xf32>
    %b6dnxh = stablehlo.multiply %b6dnxc, %b6dnistd : tensor<32x192x28x28xf32>
    %b6dngb = stablehlo.broadcast_in_dim %b6dg, dims = [1] : (tensor<192xf32>) -> tensor<32x192x28x28xf32>
    %b6dnbtb = stablehlo.broadcast_in_dim %b6dbt, dims = [1] : (tensor<192xf32>) -> tensor<32x192x28x28xf32>
    %b6dngx = stablehlo.multiply %b6dnxh, %b6dngb : tensor<32x192x28x28xf32>
    %b6dnn4 = stablehlo.add %b6dngx, %b6dnbtb : tensor<32x192x28x28xf32>
    %b6dn = stablehlo.reshape %b6dnn4 : (tensor<32x192x28x28xf32>) -> tensor<32x150528xf32>
    %v140 = stablehlo.constant dense<0.0> : tensor<32x150528xf32>
    %v141 = stablehlo.constant dense<6.0> : tensor<32x150528xf32>
    %v142 = stablehlo.maximum %b6dn, %v140 : tensor<32x150528xf32>
    %v143 = stablehlo.minimum %v142, %v141 : tensor<32x150528xf32>
    %v144 = stablehlo.reshape %v143 : (tensor<32x150528xf32>) -> tensor<32x192x28x28xf32>
    %v145 = stablehlo.convolution(%v144, %b6pW)
      dim_numbers = [b, f, 0, 1]x[o, i, 0, 1]->[b, f, 0, 1],
      window = {stride = [1, 1], pad = [[0, 0], [0, 0]], lhs_dilate = [1, 1], rhs_dilate = [1, 1]}
      {batch_group_count = 1 : i64, feature_group_count = 1 : i64} : (tensor<32x192x28x28xf32>, tensor<32x192x1x1xf32>) -> tensor<32x32x28x28xf32>
    %v146 = stablehlo.broadcast_in_dim %b6pb, dims = [1] : (tensor<32xf32>) -> tensor<32x32x28x28xf32>
    %v147 = stablehlo.add %v145, %v146 : tensor<32x32x28x28xf32>
    %v148 = stablehlo.reshape %v147 : (tensor<32x32x28x28xf32>) -> tensor<32x25088xf32>
    %b6pnxi = stablehlo.reshape %v148 : (tensor<32x25088xf32>) -> tensor<32x32x28x28xf32>
    %b6pnnf = stablehlo.constant dense<25088.0> : tensor<32x32x28x28xf32>
    %b6pnep = stablehlo.constant dense<1.0e-5> : tensor<32x32x28x28xf32>
    %b6pnsmr = stablehlo.reduce(%b6pnxi init: %sc) applies stablehlo.add across dimensions = [0, 2, 3] : (tensor<32x32x28x28xf32>, tensor<f32>) -> tensor<32xf32>
    %b6pnsm = stablehlo.broadcast_in_dim %b6pnsmr, dims = [1] : (tensor<32xf32>) -> tensor<32x32x28x28xf32>
    %b6pnmu = stablehlo.divide %b6pnsm, %b6pnnf : tensor<32x32x28x28xf32>
    %b6pnxc = stablehlo.subtract %b6pnxi, %b6pnmu : tensor<32x32x28x28xf32>
    %b6pnsq = stablehlo.multiply %b6pnxc, %b6pnxc : tensor<32x32x28x28xf32>
    %b6pnvsr = stablehlo.reduce(%b6pnsq init: %sc) applies stablehlo.add across dimensions = [0, 2, 3] : (tensor<32x32x28x28xf32>, tensor<f32>) -> tensor<32xf32>
    %b6pnvs = stablehlo.broadcast_in_dim %b6pnvsr, dims = [1] : (tensor<32xf32>) -> tensor<32x32x28x28xf32>
    %b6pnvr = stablehlo.divide %b6pnvs, %b6pnnf : tensor<32x32x28x28xf32>
    %b6pnve = stablehlo.add %b6pnvr, %b6pnep : tensor<32x32x28x28xf32>
    %b6pnistd = stablehlo.rsqrt %b6pnve : tensor<32x32x28x28xf32>
    %b6pnxh = stablehlo.multiply %b6pnxc, %b6pnistd : tensor<32x32x28x28xf32>
    %b6pngb = stablehlo.broadcast_in_dim %b6pg, dims = [1] : (tensor<32xf32>) -> tensor<32x32x28x28xf32>
    %b6pnbtb = stablehlo.broadcast_in_dim %b6pbt, dims = [1] : (tensor<32xf32>) -> tensor<32x32x28x28xf32>
    %b6pngx = stablehlo.multiply %b6pnxh, %b6pngb : tensor<32x32x28x28xf32>
    %b6pnn4 = stablehlo.add %b6pngx, %b6pnbtb : tensor<32x32x28x28xf32>
    %b6pn = stablehlo.reshape %b6pnn4 : (tensor<32x32x28x28xf32>) -> tensor<32x25088xf32>
    %v149 = stablehlo.add %b6pn, %v125 : tensor<32x25088xf32>
    %v150 = stablehlo.reshape %v149 : (tensor<32x25088xf32>) -> tensor<32x32x28x28xf32>
    %v151 = stablehlo.convolution(%v150, %b7eW)
      dim_numbers = [b, f, 0, 1]x[o, i, 0, 1]->[b, f, 0, 1],
      window = {stride = [1, 1], pad = [[0, 0], [0, 0]], lhs_dilate = [1, 1], rhs_dilate = [1, 1]}
      {batch_group_count = 1 : i64, feature_group_count = 1 : i64} : (tensor<32x32x28x28xf32>, tensor<192x32x1x1xf32>) -> tensor<32x192x28x28xf32>
    %v152 = stablehlo.broadcast_in_dim %b7eb, dims = [1] : (tensor<192xf32>) -> tensor<32x192x28x28xf32>
    %v153 = stablehlo.add %v151, %v152 : tensor<32x192x28x28xf32>
    %v154 = stablehlo.reshape %v153 : (tensor<32x192x28x28xf32>) -> tensor<32x150528xf32>
    %b7enxi = stablehlo.reshape %v154 : (tensor<32x150528xf32>) -> tensor<32x192x28x28xf32>
    %b7ennf = stablehlo.constant dense<25088.0> : tensor<32x192x28x28xf32>
    %b7enep = stablehlo.constant dense<1.0e-5> : tensor<32x192x28x28xf32>
    %b7ensmr = stablehlo.reduce(%b7enxi init: %sc) applies stablehlo.add across dimensions = [0, 2, 3] : (tensor<32x192x28x28xf32>, tensor<f32>) -> tensor<192xf32>
    %b7ensm = stablehlo.broadcast_in_dim %b7ensmr, dims = [1] : (tensor<192xf32>) -> tensor<32x192x28x28xf32>
    %b7enmu = stablehlo.divide %b7ensm, %b7ennf : tensor<32x192x28x28xf32>
    %b7enxc = stablehlo.subtract %b7enxi, %b7enmu : tensor<32x192x28x28xf32>
    %b7ensq = stablehlo.multiply %b7enxc, %b7enxc : tensor<32x192x28x28xf32>
    %b7envsr = stablehlo.reduce(%b7ensq init: %sc) applies stablehlo.add across dimensions = [0, 2, 3] : (tensor<32x192x28x28xf32>, tensor<f32>) -> tensor<192xf32>
    %b7envs = stablehlo.broadcast_in_dim %b7envsr, dims = [1] : (tensor<192xf32>) -> tensor<32x192x28x28xf32>
    %b7envr = stablehlo.divide %b7envs, %b7ennf : tensor<32x192x28x28xf32>
    %b7enve = stablehlo.add %b7envr, %b7enep : tensor<32x192x28x28xf32>
    %b7enistd = stablehlo.rsqrt %b7enve : tensor<32x192x28x28xf32>
    %b7enxh = stablehlo.multiply %b7enxc, %b7enistd : tensor<32x192x28x28xf32>
    %b7engb = stablehlo.broadcast_in_dim %b7eg, dims = [1] : (tensor<192xf32>) -> tensor<32x192x28x28xf32>
    %b7enbtb = stablehlo.broadcast_in_dim %b7ebt, dims = [1] : (tensor<192xf32>) -> tensor<32x192x28x28xf32>
    %b7engx = stablehlo.multiply %b7enxh, %b7engb : tensor<32x192x28x28xf32>
    %b7enn4 = stablehlo.add %b7engx, %b7enbtb : tensor<32x192x28x28xf32>
    %b7en = stablehlo.reshape %b7enn4 : (tensor<32x192x28x28xf32>) -> tensor<32x150528xf32>
    %v155 = stablehlo.constant dense<0.0> : tensor<32x150528xf32>
    %v156 = stablehlo.constant dense<6.0> : tensor<32x150528xf32>
    %v157 = stablehlo.maximum %b7en, %v155 : tensor<32x150528xf32>
    %v158 = stablehlo.minimum %v157, %v156 : tensor<32x150528xf32>
    %v159 = stablehlo.reshape %v158 : (tensor<32x150528xf32>) -> tensor<32x192x28x28xf32>
    %v160 = stablehlo.convolution(%v159, %b7dW)
      dim_numbers = [b, f, 0, 1]x[o, i, 0, 1]->[b, f, 0, 1],
      window = {stride = [2, 2], pad = [[1, 1], [1, 1]], lhs_dilate = [1, 1], rhs_dilate = [1, 1]}
      {batch_group_count = 1 : i64, feature_group_count = 192 : i64} : (tensor<32x192x28x28xf32>, tensor<192x1x3x3xf32>) -> tensor<32x192x14x14xf32>
    %v161 = stablehlo.broadcast_in_dim %b7db, dims = [1] : (tensor<192xf32>) -> tensor<32x192x14x14xf32>
    %v162 = stablehlo.add %v160, %v161 : tensor<32x192x14x14xf32>
    %v163 = stablehlo.reshape %v162 : (tensor<32x192x14x14xf32>) -> tensor<32x37632xf32>
    %b7dnxi = stablehlo.reshape %v163 : (tensor<32x37632xf32>) -> tensor<32x192x14x14xf32>
    %b7dnnf = stablehlo.constant dense<6272.0> : tensor<32x192x14x14xf32>
    %b7dnep = stablehlo.constant dense<1.0e-5> : tensor<32x192x14x14xf32>
    %b7dnsmr = stablehlo.reduce(%b7dnxi init: %sc) applies stablehlo.add across dimensions = [0, 2, 3] : (tensor<32x192x14x14xf32>, tensor<f32>) -> tensor<192xf32>
    %b7dnsm = stablehlo.broadcast_in_dim %b7dnsmr, dims = [1] : (tensor<192xf32>) -> tensor<32x192x14x14xf32>
    %b7dnmu = stablehlo.divide %b7dnsm, %b7dnnf : tensor<32x192x14x14xf32>
    %b7dnxc = stablehlo.subtract %b7dnxi, %b7dnmu : tensor<32x192x14x14xf32>
    %b7dnsq = stablehlo.multiply %b7dnxc, %b7dnxc : tensor<32x192x14x14xf32>
    %b7dnvsr = stablehlo.reduce(%b7dnsq init: %sc) applies stablehlo.add across dimensions = [0, 2, 3] : (tensor<32x192x14x14xf32>, tensor<f32>) -> tensor<192xf32>
    %b7dnvs = stablehlo.broadcast_in_dim %b7dnvsr, dims = [1] : (tensor<192xf32>) -> tensor<32x192x14x14xf32>
    %b7dnvr = stablehlo.divide %b7dnvs, %b7dnnf : tensor<32x192x14x14xf32>
    %b7dnve = stablehlo.add %b7dnvr, %b7dnep : tensor<32x192x14x14xf32>
    %b7dnistd = stablehlo.rsqrt %b7dnve : tensor<32x192x14x14xf32>
    %b7dnxh = stablehlo.multiply %b7dnxc, %b7dnistd : tensor<32x192x14x14xf32>
    %b7dngb = stablehlo.broadcast_in_dim %b7dg, dims = [1] : (tensor<192xf32>) -> tensor<32x192x14x14xf32>
    %b7dnbtb = stablehlo.broadcast_in_dim %b7dbt, dims = [1] : (tensor<192xf32>) -> tensor<32x192x14x14xf32>
    %b7dngx = stablehlo.multiply %b7dnxh, %b7dngb : tensor<32x192x14x14xf32>
    %b7dnn4 = stablehlo.add %b7dngx, %b7dnbtb : tensor<32x192x14x14xf32>
    %b7dn = stablehlo.reshape %b7dnn4 : (tensor<32x192x14x14xf32>) -> tensor<32x37632xf32>
    %v164 = stablehlo.constant dense<0.0> : tensor<32x37632xf32>
    %v165 = stablehlo.constant dense<6.0> : tensor<32x37632xf32>
    %v166 = stablehlo.maximum %b7dn, %v164 : tensor<32x37632xf32>
    %v167 = stablehlo.minimum %v166, %v165 : tensor<32x37632xf32>
    %v168 = stablehlo.reshape %v167 : (tensor<32x37632xf32>) -> tensor<32x192x14x14xf32>
    %v169 = stablehlo.convolution(%v168, %b7pW)
      dim_numbers = [b, f, 0, 1]x[o, i, 0, 1]->[b, f, 0, 1],
      window = {stride = [1, 1], pad = [[0, 0], [0, 0]], lhs_dilate = [1, 1], rhs_dilate = [1, 1]}
      {batch_group_count = 1 : i64, feature_group_count = 1 : i64} : (tensor<32x192x14x14xf32>, tensor<64x192x1x1xf32>) -> tensor<32x64x14x14xf32>
    %v170 = stablehlo.broadcast_in_dim %b7pb, dims = [1] : (tensor<64xf32>) -> tensor<32x64x14x14xf32>
    %v171 = stablehlo.add %v169, %v170 : tensor<32x64x14x14xf32>
    %v172 = stablehlo.reshape %v171 : (tensor<32x64x14x14xf32>) -> tensor<32x12544xf32>
    %b7pnxi = stablehlo.reshape %v172 : (tensor<32x12544xf32>) -> tensor<32x64x14x14xf32>
    %b7pnnf = stablehlo.constant dense<6272.0> : tensor<32x64x14x14xf32>
    %b7pnep = stablehlo.constant dense<1.0e-5> : tensor<32x64x14x14xf32>
    %b7pnsmr = stablehlo.reduce(%b7pnxi init: %sc) applies stablehlo.add across dimensions = [0, 2, 3] : (tensor<32x64x14x14xf32>, tensor<f32>) -> tensor<64xf32>
    %b7pnsm = stablehlo.broadcast_in_dim %b7pnsmr, dims = [1] : (tensor<64xf32>) -> tensor<32x64x14x14xf32>
    %b7pnmu = stablehlo.divide %b7pnsm, %b7pnnf : tensor<32x64x14x14xf32>
    %b7pnxc = stablehlo.subtract %b7pnxi, %b7pnmu : tensor<32x64x14x14xf32>
    %b7pnsq = stablehlo.multiply %b7pnxc, %b7pnxc : tensor<32x64x14x14xf32>
    %b7pnvsr = stablehlo.reduce(%b7pnsq init: %sc) applies stablehlo.add across dimensions = [0, 2, 3] : (tensor<32x64x14x14xf32>, tensor<f32>) -> tensor<64xf32>
    %b7pnvs = stablehlo.broadcast_in_dim %b7pnvsr, dims = [1] : (tensor<64xf32>) -> tensor<32x64x14x14xf32>
    %b7pnvr = stablehlo.divide %b7pnvs, %b7pnnf : tensor<32x64x14x14xf32>
    %b7pnve = stablehlo.add %b7pnvr, %b7pnep : tensor<32x64x14x14xf32>
    %b7pnistd = stablehlo.rsqrt %b7pnve : tensor<32x64x14x14xf32>
    %b7pnxh = stablehlo.multiply %b7pnxc, %b7pnistd : tensor<32x64x14x14xf32>
    %b7pngb = stablehlo.broadcast_in_dim %b7pg, dims = [1] : (tensor<64xf32>) -> tensor<32x64x14x14xf32>
    %b7pnbtb = stablehlo.broadcast_in_dim %b7pbt, dims = [1] : (tensor<64xf32>) -> tensor<32x64x14x14xf32>
    %b7pngx = stablehlo.multiply %b7pnxh, %b7pngb : tensor<32x64x14x14xf32>
    %b7pnn4 = stablehlo.add %b7pngx, %b7pnbtb : tensor<32x64x14x14xf32>
    %b7pn = stablehlo.reshape %b7pnn4 : (tensor<32x64x14x14xf32>) -> tensor<32x12544xf32>
    %v173 = stablehlo.reshape %b7pn : (tensor<32x12544xf32>) -> tensor<32x64x14x14xf32>
    %v174 = stablehlo.convolution(%v173, %b8eW)
      dim_numbers = [b, f, 0, 1]x[o, i, 0, 1]->[b, f, 0, 1],
      window = {stride = [1, 1], pad = [[0, 0], [0, 0]], lhs_dilate = [1, 1], rhs_dilate = [1, 1]}
      {batch_group_count = 1 : i64, feature_group_count = 1 : i64} : (tensor<32x64x14x14xf32>, tensor<384x64x1x1xf32>) -> tensor<32x384x14x14xf32>
    %v175 = stablehlo.broadcast_in_dim %b8eb, dims = [1] : (tensor<384xf32>) -> tensor<32x384x14x14xf32>
    %v176 = stablehlo.add %v174, %v175 : tensor<32x384x14x14xf32>
    %v177 = stablehlo.reshape %v176 : (tensor<32x384x14x14xf32>) -> tensor<32x75264xf32>
    %b8enxi = stablehlo.reshape %v177 : (tensor<32x75264xf32>) -> tensor<32x384x14x14xf32>
    %b8ennf = stablehlo.constant dense<6272.0> : tensor<32x384x14x14xf32>
    %b8enep = stablehlo.constant dense<1.0e-5> : tensor<32x384x14x14xf32>
    %b8ensmr = stablehlo.reduce(%b8enxi init: %sc) applies stablehlo.add across dimensions = [0, 2, 3] : (tensor<32x384x14x14xf32>, tensor<f32>) -> tensor<384xf32>
    %b8ensm = stablehlo.broadcast_in_dim %b8ensmr, dims = [1] : (tensor<384xf32>) -> tensor<32x384x14x14xf32>
    %b8enmu = stablehlo.divide %b8ensm, %b8ennf : tensor<32x384x14x14xf32>
    %b8enxc = stablehlo.subtract %b8enxi, %b8enmu : tensor<32x384x14x14xf32>
    %b8ensq = stablehlo.multiply %b8enxc, %b8enxc : tensor<32x384x14x14xf32>
    %b8envsr = stablehlo.reduce(%b8ensq init: %sc) applies stablehlo.add across dimensions = [0, 2, 3] : (tensor<32x384x14x14xf32>, tensor<f32>) -> tensor<384xf32>
    %b8envs = stablehlo.broadcast_in_dim %b8envsr, dims = [1] : (tensor<384xf32>) -> tensor<32x384x14x14xf32>
    %b8envr = stablehlo.divide %b8envs, %b8ennf : tensor<32x384x14x14xf32>
    %b8enve = stablehlo.add %b8envr, %b8enep : tensor<32x384x14x14xf32>
    %b8enistd = stablehlo.rsqrt %b8enve : tensor<32x384x14x14xf32>
    %b8enxh = stablehlo.multiply %b8enxc, %b8enistd : tensor<32x384x14x14xf32>
    %b8engb = stablehlo.broadcast_in_dim %b8eg, dims = [1] : (tensor<384xf32>) -> tensor<32x384x14x14xf32>
    %b8enbtb = stablehlo.broadcast_in_dim %b8ebt, dims = [1] : (tensor<384xf32>) -> tensor<32x384x14x14xf32>
    %b8engx = stablehlo.multiply %b8enxh, %b8engb : tensor<32x384x14x14xf32>
    %b8enn4 = stablehlo.add %b8engx, %b8enbtb : tensor<32x384x14x14xf32>
    %b8en = stablehlo.reshape %b8enn4 : (tensor<32x384x14x14xf32>) -> tensor<32x75264xf32>
    %v178 = stablehlo.constant dense<0.0> : tensor<32x75264xf32>
    %v179 = stablehlo.constant dense<6.0> : tensor<32x75264xf32>
    %v180 = stablehlo.maximum %b8en, %v178 : tensor<32x75264xf32>
    %v181 = stablehlo.minimum %v180, %v179 : tensor<32x75264xf32>
    %v182 = stablehlo.reshape %v181 : (tensor<32x75264xf32>) -> tensor<32x384x14x14xf32>
    %v183 = stablehlo.convolution(%v182, %b8dW)
      dim_numbers = [b, f, 0, 1]x[o, i, 0, 1]->[b, f, 0, 1],
      window = {stride = [1, 1], pad = [[1, 1], [1, 1]], lhs_dilate = [1, 1], rhs_dilate = [1, 1]}
      {batch_group_count = 1 : i64, feature_group_count = 384 : i64} : (tensor<32x384x14x14xf32>, tensor<384x1x3x3xf32>) -> tensor<32x384x14x14xf32>
    %v184 = stablehlo.broadcast_in_dim %b8db, dims = [1] : (tensor<384xf32>) -> tensor<32x384x14x14xf32>
    %v185 = stablehlo.add %v183, %v184 : tensor<32x384x14x14xf32>
    %v186 = stablehlo.reshape %v185 : (tensor<32x384x14x14xf32>) -> tensor<32x75264xf32>
    %b8dnxi = stablehlo.reshape %v186 : (tensor<32x75264xf32>) -> tensor<32x384x14x14xf32>
    %b8dnnf = stablehlo.constant dense<6272.0> : tensor<32x384x14x14xf32>
    %b8dnep = stablehlo.constant dense<1.0e-5> : tensor<32x384x14x14xf32>
    %b8dnsmr = stablehlo.reduce(%b8dnxi init: %sc) applies stablehlo.add across dimensions = [0, 2, 3] : (tensor<32x384x14x14xf32>, tensor<f32>) -> tensor<384xf32>
    %b8dnsm = stablehlo.broadcast_in_dim %b8dnsmr, dims = [1] : (tensor<384xf32>) -> tensor<32x384x14x14xf32>
    %b8dnmu = stablehlo.divide %b8dnsm, %b8dnnf : tensor<32x384x14x14xf32>
    %b8dnxc = stablehlo.subtract %b8dnxi, %b8dnmu : tensor<32x384x14x14xf32>
    %b8dnsq = stablehlo.multiply %b8dnxc, %b8dnxc : tensor<32x384x14x14xf32>
    %b8dnvsr = stablehlo.reduce(%b8dnsq init: %sc) applies stablehlo.add across dimensions = [0, 2, 3] : (tensor<32x384x14x14xf32>, tensor<f32>) -> tensor<384xf32>
    %b8dnvs = stablehlo.broadcast_in_dim %b8dnvsr, dims = [1] : (tensor<384xf32>) -> tensor<32x384x14x14xf32>
    %b8dnvr = stablehlo.divide %b8dnvs, %b8dnnf : tensor<32x384x14x14xf32>
    %b8dnve = stablehlo.add %b8dnvr, %b8dnep : tensor<32x384x14x14xf32>
    %b8dnistd = stablehlo.rsqrt %b8dnve : tensor<32x384x14x14xf32>
    %b8dnxh = stablehlo.multiply %b8dnxc, %b8dnistd : tensor<32x384x14x14xf32>
    %b8dngb = stablehlo.broadcast_in_dim %b8dg, dims = [1] : (tensor<384xf32>) -> tensor<32x384x14x14xf32>
    %b8dnbtb = stablehlo.broadcast_in_dim %b8dbt, dims = [1] : (tensor<384xf32>) -> tensor<32x384x14x14xf32>
    %b8dngx = stablehlo.multiply %b8dnxh, %b8dngb : tensor<32x384x14x14xf32>
    %b8dnn4 = stablehlo.add %b8dngx, %b8dnbtb : tensor<32x384x14x14xf32>
    %b8dn = stablehlo.reshape %b8dnn4 : (tensor<32x384x14x14xf32>) -> tensor<32x75264xf32>
    %v187 = stablehlo.constant dense<0.0> : tensor<32x75264xf32>
    %v188 = stablehlo.constant dense<6.0> : tensor<32x75264xf32>
    %v189 = stablehlo.maximum %b8dn, %v187 : tensor<32x75264xf32>
    %v190 = stablehlo.minimum %v189, %v188 : tensor<32x75264xf32>
    %v191 = stablehlo.reshape %v190 : (tensor<32x75264xf32>) -> tensor<32x384x14x14xf32>
    %v192 = stablehlo.convolution(%v191, %b8pW)
      dim_numbers = [b, f, 0, 1]x[o, i, 0, 1]->[b, f, 0, 1],
      window = {stride = [1, 1], pad = [[0, 0], [0, 0]], lhs_dilate = [1, 1], rhs_dilate = [1, 1]}
      {batch_group_count = 1 : i64, feature_group_count = 1 : i64} : (tensor<32x384x14x14xf32>, tensor<64x384x1x1xf32>) -> tensor<32x64x14x14xf32>
    %v193 = stablehlo.broadcast_in_dim %b8pb, dims = [1] : (tensor<64xf32>) -> tensor<32x64x14x14xf32>
    %v194 = stablehlo.add %v192, %v193 : tensor<32x64x14x14xf32>
    %v195 = stablehlo.reshape %v194 : (tensor<32x64x14x14xf32>) -> tensor<32x12544xf32>
    %b8pnxi = stablehlo.reshape %v195 : (tensor<32x12544xf32>) -> tensor<32x64x14x14xf32>
    %b8pnnf = stablehlo.constant dense<6272.0> : tensor<32x64x14x14xf32>
    %b8pnep = stablehlo.constant dense<1.0e-5> : tensor<32x64x14x14xf32>
    %b8pnsmr = stablehlo.reduce(%b8pnxi init: %sc) applies stablehlo.add across dimensions = [0, 2, 3] : (tensor<32x64x14x14xf32>, tensor<f32>) -> tensor<64xf32>
    %b8pnsm = stablehlo.broadcast_in_dim %b8pnsmr, dims = [1] : (tensor<64xf32>) -> tensor<32x64x14x14xf32>
    %b8pnmu = stablehlo.divide %b8pnsm, %b8pnnf : tensor<32x64x14x14xf32>
    %b8pnxc = stablehlo.subtract %b8pnxi, %b8pnmu : tensor<32x64x14x14xf32>
    %b8pnsq = stablehlo.multiply %b8pnxc, %b8pnxc : tensor<32x64x14x14xf32>
    %b8pnvsr = stablehlo.reduce(%b8pnsq init: %sc) applies stablehlo.add across dimensions = [0, 2, 3] : (tensor<32x64x14x14xf32>, tensor<f32>) -> tensor<64xf32>
    %b8pnvs = stablehlo.broadcast_in_dim %b8pnvsr, dims = [1] : (tensor<64xf32>) -> tensor<32x64x14x14xf32>
    %b8pnvr = stablehlo.divide %b8pnvs, %b8pnnf : tensor<32x64x14x14xf32>
    %b8pnve = stablehlo.add %b8pnvr, %b8pnep : tensor<32x64x14x14xf32>
    %b8pnistd = stablehlo.rsqrt %b8pnve : tensor<32x64x14x14xf32>
    %b8pnxh = stablehlo.multiply %b8pnxc, %b8pnistd : tensor<32x64x14x14xf32>
    %b8pngb = stablehlo.broadcast_in_dim %b8pg, dims = [1] : (tensor<64xf32>) -> tensor<32x64x14x14xf32>
    %b8pnbtb = stablehlo.broadcast_in_dim %b8pbt, dims = [1] : (tensor<64xf32>) -> tensor<32x64x14x14xf32>
    %b8pngx = stablehlo.multiply %b8pnxh, %b8pngb : tensor<32x64x14x14xf32>
    %b8pnn4 = stablehlo.add %b8pngx, %b8pnbtb : tensor<32x64x14x14xf32>
    %b8pn = stablehlo.reshape %b8pnn4 : (tensor<32x64x14x14xf32>) -> tensor<32x12544xf32>
    %v196 = stablehlo.add %b8pn, %b7pn : tensor<32x12544xf32>
    %v197 = stablehlo.reshape %v196 : (tensor<32x12544xf32>) -> tensor<32x64x14x14xf32>
    %v198 = stablehlo.convolution(%v197, %b9eW)
      dim_numbers = [b, f, 0, 1]x[o, i, 0, 1]->[b, f, 0, 1],
      window = {stride = [1, 1], pad = [[0, 0], [0, 0]], lhs_dilate = [1, 1], rhs_dilate = [1, 1]}
      {batch_group_count = 1 : i64, feature_group_count = 1 : i64} : (tensor<32x64x14x14xf32>, tensor<384x64x1x1xf32>) -> tensor<32x384x14x14xf32>
    %v199 = stablehlo.broadcast_in_dim %b9eb, dims = [1] : (tensor<384xf32>) -> tensor<32x384x14x14xf32>
    %v200 = stablehlo.add %v198, %v199 : tensor<32x384x14x14xf32>
    %v201 = stablehlo.reshape %v200 : (tensor<32x384x14x14xf32>) -> tensor<32x75264xf32>
    %b9enxi = stablehlo.reshape %v201 : (tensor<32x75264xf32>) -> tensor<32x384x14x14xf32>
    %b9ennf = stablehlo.constant dense<6272.0> : tensor<32x384x14x14xf32>
    %b9enep = stablehlo.constant dense<1.0e-5> : tensor<32x384x14x14xf32>
    %b9ensmr = stablehlo.reduce(%b9enxi init: %sc) applies stablehlo.add across dimensions = [0, 2, 3] : (tensor<32x384x14x14xf32>, tensor<f32>) -> tensor<384xf32>
    %b9ensm = stablehlo.broadcast_in_dim %b9ensmr, dims = [1] : (tensor<384xf32>) -> tensor<32x384x14x14xf32>
    %b9enmu = stablehlo.divide %b9ensm, %b9ennf : tensor<32x384x14x14xf32>
    %b9enxc = stablehlo.subtract %b9enxi, %b9enmu : tensor<32x384x14x14xf32>
    %b9ensq = stablehlo.multiply %b9enxc, %b9enxc : tensor<32x384x14x14xf32>
    %b9envsr = stablehlo.reduce(%b9ensq init: %sc) applies stablehlo.add across dimensions = [0, 2, 3] : (tensor<32x384x14x14xf32>, tensor<f32>) -> tensor<384xf32>
    %b9envs = stablehlo.broadcast_in_dim %b9envsr, dims = [1] : (tensor<384xf32>) -> tensor<32x384x14x14xf32>
    %b9envr = stablehlo.divide %b9envs, %b9ennf : tensor<32x384x14x14xf32>
    %b9enve = stablehlo.add %b9envr, %b9enep : tensor<32x384x14x14xf32>
    %b9enistd = stablehlo.rsqrt %b9enve : tensor<32x384x14x14xf32>
    %b9enxh = stablehlo.multiply %b9enxc, %b9enistd : tensor<32x384x14x14xf32>
    %b9engb = stablehlo.broadcast_in_dim %b9eg, dims = [1] : (tensor<384xf32>) -> tensor<32x384x14x14xf32>
    %b9enbtb = stablehlo.broadcast_in_dim %b9ebt, dims = [1] : (tensor<384xf32>) -> tensor<32x384x14x14xf32>
    %b9engx = stablehlo.multiply %b9enxh, %b9engb : tensor<32x384x14x14xf32>
    %b9enn4 = stablehlo.add %b9engx, %b9enbtb : tensor<32x384x14x14xf32>
    %b9en = stablehlo.reshape %b9enn4 : (tensor<32x384x14x14xf32>) -> tensor<32x75264xf32>
    %v202 = stablehlo.constant dense<0.0> : tensor<32x75264xf32>
    %v203 = stablehlo.constant dense<6.0> : tensor<32x75264xf32>
    %v204 = stablehlo.maximum %b9en, %v202 : tensor<32x75264xf32>
    %v205 = stablehlo.minimum %v204, %v203 : tensor<32x75264xf32>
    %v206 = stablehlo.reshape %v205 : (tensor<32x75264xf32>) -> tensor<32x384x14x14xf32>
    %v207 = stablehlo.convolution(%v206, %b9dW)
      dim_numbers = [b, f, 0, 1]x[o, i, 0, 1]->[b, f, 0, 1],
      window = {stride = [1, 1], pad = [[1, 1], [1, 1]], lhs_dilate = [1, 1], rhs_dilate = [1, 1]}
      {batch_group_count = 1 : i64, feature_group_count = 384 : i64} : (tensor<32x384x14x14xf32>, tensor<384x1x3x3xf32>) -> tensor<32x384x14x14xf32>
    %v208 = stablehlo.broadcast_in_dim %b9db, dims = [1] : (tensor<384xf32>) -> tensor<32x384x14x14xf32>
    %v209 = stablehlo.add %v207, %v208 : tensor<32x384x14x14xf32>
    %v210 = stablehlo.reshape %v209 : (tensor<32x384x14x14xf32>) -> tensor<32x75264xf32>
    %b9dnxi = stablehlo.reshape %v210 : (tensor<32x75264xf32>) -> tensor<32x384x14x14xf32>
    %b9dnnf = stablehlo.constant dense<6272.0> : tensor<32x384x14x14xf32>
    %b9dnep = stablehlo.constant dense<1.0e-5> : tensor<32x384x14x14xf32>
    %b9dnsmr = stablehlo.reduce(%b9dnxi init: %sc) applies stablehlo.add across dimensions = [0, 2, 3] : (tensor<32x384x14x14xf32>, tensor<f32>) -> tensor<384xf32>
    %b9dnsm = stablehlo.broadcast_in_dim %b9dnsmr, dims = [1] : (tensor<384xf32>) -> tensor<32x384x14x14xf32>
    %b9dnmu = stablehlo.divide %b9dnsm, %b9dnnf : tensor<32x384x14x14xf32>
    %b9dnxc = stablehlo.subtract %b9dnxi, %b9dnmu : tensor<32x384x14x14xf32>
    %b9dnsq = stablehlo.multiply %b9dnxc, %b9dnxc : tensor<32x384x14x14xf32>
    %b9dnvsr = stablehlo.reduce(%b9dnsq init: %sc) applies stablehlo.add across dimensions = [0, 2, 3] : (tensor<32x384x14x14xf32>, tensor<f32>) -> tensor<384xf32>
    %b9dnvs = stablehlo.broadcast_in_dim %b9dnvsr, dims = [1] : (tensor<384xf32>) -> tensor<32x384x14x14xf32>
    %b9dnvr = stablehlo.divide %b9dnvs, %b9dnnf : tensor<32x384x14x14xf32>
    %b9dnve = stablehlo.add %b9dnvr, %b9dnep : tensor<32x384x14x14xf32>
    %b9dnistd = stablehlo.rsqrt %b9dnve : tensor<32x384x14x14xf32>
    %b9dnxh = stablehlo.multiply %b9dnxc, %b9dnistd : tensor<32x384x14x14xf32>
    %b9dngb = stablehlo.broadcast_in_dim %b9dg, dims = [1] : (tensor<384xf32>) -> tensor<32x384x14x14xf32>
    %b9dnbtb = stablehlo.broadcast_in_dim %b9dbt, dims = [1] : (tensor<384xf32>) -> tensor<32x384x14x14xf32>
    %b9dngx = stablehlo.multiply %b9dnxh, %b9dngb : tensor<32x384x14x14xf32>
    %b9dnn4 = stablehlo.add %b9dngx, %b9dnbtb : tensor<32x384x14x14xf32>
    %b9dn = stablehlo.reshape %b9dnn4 : (tensor<32x384x14x14xf32>) -> tensor<32x75264xf32>
    %v211 = stablehlo.constant dense<0.0> : tensor<32x75264xf32>
    %v212 = stablehlo.constant dense<6.0> : tensor<32x75264xf32>
    %v213 = stablehlo.maximum %b9dn, %v211 : tensor<32x75264xf32>
    %v214 = stablehlo.minimum %v213, %v212 : tensor<32x75264xf32>
    %v215 = stablehlo.reshape %v214 : (tensor<32x75264xf32>) -> tensor<32x384x14x14xf32>
    %v216 = stablehlo.convolution(%v215, %b9pW)
      dim_numbers = [b, f, 0, 1]x[o, i, 0, 1]->[b, f, 0, 1],
      window = {stride = [1, 1], pad = [[0, 0], [0, 0]], lhs_dilate = [1, 1], rhs_dilate = [1, 1]}
      {batch_group_count = 1 : i64, feature_group_count = 1 : i64} : (tensor<32x384x14x14xf32>, tensor<64x384x1x1xf32>) -> tensor<32x64x14x14xf32>
    %v217 = stablehlo.broadcast_in_dim %b9pb, dims = [1] : (tensor<64xf32>) -> tensor<32x64x14x14xf32>
    %v218 = stablehlo.add %v216, %v217 : tensor<32x64x14x14xf32>
    %v219 = stablehlo.reshape %v218 : (tensor<32x64x14x14xf32>) -> tensor<32x12544xf32>
    %b9pnxi = stablehlo.reshape %v219 : (tensor<32x12544xf32>) -> tensor<32x64x14x14xf32>
    %b9pnnf = stablehlo.constant dense<6272.0> : tensor<32x64x14x14xf32>
    %b9pnep = stablehlo.constant dense<1.0e-5> : tensor<32x64x14x14xf32>
    %b9pnsmr = stablehlo.reduce(%b9pnxi init: %sc) applies stablehlo.add across dimensions = [0, 2, 3] : (tensor<32x64x14x14xf32>, tensor<f32>) -> tensor<64xf32>
    %b9pnsm = stablehlo.broadcast_in_dim %b9pnsmr, dims = [1] : (tensor<64xf32>) -> tensor<32x64x14x14xf32>
    %b9pnmu = stablehlo.divide %b9pnsm, %b9pnnf : tensor<32x64x14x14xf32>
    %b9pnxc = stablehlo.subtract %b9pnxi, %b9pnmu : tensor<32x64x14x14xf32>
    %b9pnsq = stablehlo.multiply %b9pnxc, %b9pnxc : tensor<32x64x14x14xf32>
    %b9pnvsr = stablehlo.reduce(%b9pnsq init: %sc) applies stablehlo.add across dimensions = [0, 2, 3] : (tensor<32x64x14x14xf32>, tensor<f32>) -> tensor<64xf32>
    %b9pnvs = stablehlo.broadcast_in_dim %b9pnvsr, dims = [1] : (tensor<64xf32>) -> tensor<32x64x14x14xf32>
    %b9pnvr = stablehlo.divide %b9pnvs, %b9pnnf : tensor<32x64x14x14xf32>
    %b9pnve = stablehlo.add %b9pnvr, %b9pnep : tensor<32x64x14x14xf32>
    %b9pnistd = stablehlo.rsqrt %b9pnve : tensor<32x64x14x14xf32>
    %b9pnxh = stablehlo.multiply %b9pnxc, %b9pnistd : tensor<32x64x14x14xf32>
    %b9pngb = stablehlo.broadcast_in_dim %b9pg, dims = [1] : (tensor<64xf32>) -> tensor<32x64x14x14xf32>
    %b9pnbtb = stablehlo.broadcast_in_dim %b9pbt, dims = [1] : (tensor<64xf32>) -> tensor<32x64x14x14xf32>
    %b9pngx = stablehlo.multiply %b9pnxh, %b9pngb : tensor<32x64x14x14xf32>
    %b9pnn4 = stablehlo.add %b9pngx, %b9pnbtb : tensor<32x64x14x14xf32>
    %b9pn = stablehlo.reshape %b9pnn4 : (tensor<32x64x14x14xf32>) -> tensor<32x12544xf32>
    %v220 = stablehlo.add %b9pn, %v196 : tensor<32x12544xf32>
    %v221 = stablehlo.reshape %v220 : (tensor<32x12544xf32>) -> tensor<32x64x14x14xf32>
    %v222 = stablehlo.convolution(%v221, %b10eW)
      dim_numbers = [b, f, 0, 1]x[o, i, 0, 1]->[b, f, 0, 1],
      window = {stride = [1, 1], pad = [[0, 0], [0, 0]], lhs_dilate = [1, 1], rhs_dilate = [1, 1]}
      {batch_group_count = 1 : i64, feature_group_count = 1 : i64} : (tensor<32x64x14x14xf32>, tensor<384x64x1x1xf32>) -> tensor<32x384x14x14xf32>
    %v223 = stablehlo.broadcast_in_dim %b10eb, dims = [1] : (tensor<384xf32>) -> tensor<32x384x14x14xf32>
    %v224 = stablehlo.add %v222, %v223 : tensor<32x384x14x14xf32>
    %v225 = stablehlo.reshape %v224 : (tensor<32x384x14x14xf32>) -> tensor<32x75264xf32>
    %b10enxi = stablehlo.reshape %v225 : (tensor<32x75264xf32>) -> tensor<32x384x14x14xf32>
    %b10ennf = stablehlo.constant dense<6272.0> : tensor<32x384x14x14xf32>
    %b10enep = stablehlo.constant dense<1.0e-5> : tensor<32x384x14x14xf32>
    %b10ensmr = stablehlo.reduce(%b10enxi init: %sc) applies stablehlo.add across dimensions = [0, 2, 3] : (tensor<32x384x14x14xf32>, tensor<f32>) -> tensor<384xf32>
    %b10ensm = stablehlo.broadcast_in_dim %b10ensmr, dims = [1] : (tensor<384xf32>) -> tensor<32x384x14x14xf32>
    %b10enmu = stablehlo.divide %b10ensm, %b10ennf : tensor<32x384x14x14xf32>
    %b10enxc = stablehlo.subtract %b10enxi, %b10enmu : tensor<32x384x14x14xf32>
    %b10ensq = stablehlo.multiply %b10enxc, %b10enxc : tensor<32x384x14x14xf32>
    %b10envsr = stablehlo.reduce(%b10ensq init: %sc) applies stablehlo.add across dimensions = [0, 2, 3] : (tensor<32x384x14x14xf32>, tensor<f32>) -> tensor<384xf32>
    %b10envs = stablehlo.broadcast_in_dim %b10envsr, dims = [1] : (tensor<384xf32>) -> tensor<32x384x14x14xf32>
    %b10envr = stablehlo.divide %b10envs, %b10ennf : tensor<32x384x14x14xf32>
    %b10enve = stablehlo.add %b10envr, %b10enep : tensor<32x384x14x14xf32>
    %b10enistd = stablehlo.rsqrt %b10enve : tensor<32x384x14x14xf32>
    %b10enxh = stablehlo.multiply %b10enxc, %b10enistd : tensor<32x384x14x14xf32>
    %b10engb = stablehlo.broadcast_in_dim %b10eg, dims = [1] : (tensor<384xf32>) -> tensor<32x384x14x14xf32>
    %b10enbtb = stablehlo.broadcast_in_dim %b10ebt, dims = [1] : (tensor<384xf32>) -> tensor<32x384x14x14xf32>
    %b10engx = stablehlo.multiply %b10enxh, %b10engb : tensor<32x384x14x14xf32>
    %b10enn4 = stablehlo.add %b10engx, %b10enbtb : tensor<32x384x14x14xf32>
    %b10en = stablehlo.reshape %b10enn4 : (tensor<32x384x14x14xf32>) -> tensor<32x75264xf32>
    %v226 = stablehlo.constant dense<0.0> : tensor<32x75264xf32>
    %v227 = stablehlo.constant dense<6.0> : tensor<32x75264xf32>
    %v228 = stablehlo.maximum %b10en, %v226 : tensor<32x75264xf32>
    %v229 = stablehlo.minimum %v228, %v227 : tensor<32x75264xf32>
    %v230 = stablehlo.reshape %v229 : (tensor<32x75264xf32>) -> tensor<32x384x14x14xf32>
    %v231 = stablehlo.convolution(%v230, %b10dW)
      dim_numbers = [b, f, 0, 1]x[o, i, 0, 1]->[b, f, 0, 1],
      window = {stride = [1, 1], pad = [[1, 1], [1, 1]], lhs_dilate = [1, 1], rhs_dilate = [1, 1]}
      {batch_group_count = 1 : i64, feature_group_count = 384 : i64} : (tensor<32x384x14x14xf32>, tensor<384x1x3x3xf32>) -> tensor<32x384x14x14xf32>
    %v232 = stablehlo.broadcast_in_dim %b10db, dims = [1] : (tensor<384xf32>) -> tensor<32x384x14x14xf32>
    %v233 = stablehlo.add %v231, %v232 : tensor<32x384x14x14xf32>
    %v234 = stablehlo.reshape %v233 : (tensor<32x384x14x14xf32>) -> tensor<32x75264xf32>
    %b10dnxi = stablehlo.reshape %v234 : (tensor<32x75264xf32>) -> tensor<32x384x14x14xf32>
    %b10dnnf = stablehlo.constant dense<6272.0> : tensor<32x384x14x14xf32>
    %b10dnep = stablehlo.constant dense<1.0e-5> : tensor<32x384x14x14xf32>
    %b10dnsmr = stablehlo.reduce(%b10dnxi init: %sc) applies stablehlo.add across dimensions = [0, 2, 3] : (tensor<32x384x14x14xf32>, tensor<f32>) -> tensor<384xf32>
    %b10dnsm = stablehlo.broadcast_in_dim %b10dnsmr, dims = [1] : (tensor<384xf32>) -> tensor<32x384x14x14xf32>
    %b10dnmu = stablehlo.divide %b10dnsm, %b10dnnf : tensor<32x384x14x14xf32>
    %b10dnxc = stablehlo.subtract %b10dnxi, %b10dnmu : tensor<32x384x14x14xf32>
    %b10dnsq = stablehlo.multiply %b10dnxc, %b10dnxc : tensor<32x384x14x14xf32>
    %b10dnvsr = stablehlo.reduce(%b10dnsq init: %sc) applies stablehlo.add across dimensions = [0, 2, 3] : (tensor<32x384x14x14xf32>, tensor<f32>) -> tensor<384xf32>
    %b10dnvs = stablehlo.broadcast_in_dim %b10dnvsr, dims = [1] : (tensor<384xf32>) -> tensor<32x384x14x14xf32>
    %b10dnvr = stablehlo.divide %b10dnvs, %b10dnnf : tensor<32x384x14x14xf32>
    %b10dnve = stablehlo.add %b10dnvr, %b10dnep : tensor<32x384x14x14xf32>
    %b10dnistd = stablehlo.rsqrt %b10dnve : tensor<32x384x14x14xf32>
    %b10dnxh = stablehlo.multiply %b10dnxc, %b10dnistd : tensor<32x384x14x14xf32>
    %b10dngb = stablehlo.broadcast_in_dim %b10dg, dims = [1] : (tensor<384xf32>) -> tensor<32x384x14x14xf32>
    %b10dnbtb = stablehlo.broadcast_in_dim %b10dbt, dims = [1] : (tensor<384xf32>) -> tensor<32x384x14x14xf32>
    %b10dngx = stablehlo.multiply %b10dnxh, %b10dngb : tensor<32x384x14x14xf32>
    %b10dnn4 = stablehlo.add %b10dngx, %b10dnbtb : tensor<32x384x14x14xf32>
    %b10dn = stablehlo.reshape %b10dnn4 : (tensor<32x384x14x14xf32>) -> tensor<32x75264xf32>
    %v235 = stablehlo.constant dense<0.0> : tensor<32x75264xf32>
    %v236 = stablehlo.constant dense<6.0> : tensor<32x75264xf32>
    %v237 = stablehlo.maximum %b10dn, %v235 : tensor<32x75264xf32>
    %v238 = stablehlo.minimum %v237, %v236 : tensor<32x75264xf32>
    %v239 = stablehlo.reshape %v238 : (tensor<32x75264xf32>) -> tensor<32x384x14x14xf32>
    %v240 = stablehlo.convolution(%v239, %b10pW)
      dim_numbers = [b, f, 0, 1]x[o, i, 0, 1]->[b, f, 0, 1],
      window = {stride = [1, 1], pad = [[0, 0], [0, 0]], lhs_dilate = [1, 1], rhs_dilate = [1, 1]}
      {batch_group_count = 1 : i64, feature_group_count = 1 : i64} : (tensor<32x384x14x14xf32>, tensor<64x384x1x1xf32>) -> tensor<32x64x14x14xf32>
    %v241 = stablehlo.broadcast_in_dim %b10pb, dims = [1] : (tensor<64xf32>) -> tensor<32x64x14x14xf32>
    %v242 = stablehlo.add %v240, %v241 : tensor<32x64x14x14xf32>
    %v243 = stablehlo.reshape %v242 : (tensor<32x64x14x14xf32>) -> tensor<32x12544xf32>
    %b10pnxi = stablehlo.reshape %v243 : (tensor<32x12544xf32>) -> tensor<32x64x14x14xf32>
    %b10pnnf = stablehlo.constant dense<6272.0> : tensor<32x64x14x14xf32>
    %b10pnep = stablehlo.constant dense<1.0e-5> : tensor<32x64x14x14xf32>
    %b10pnsmr = stablehlo.reduce(%b10pnxi init: %sc) applies stablehlo.add across dimensions = [0, 2, 3] : (tensor<32x64x14x14xf32>, tensor<f32>) -> tensor<64xf32>
    %b10pnsm = stablehlo.broadcast_in_dim %b10pnsmr, dims = [1] : (tensor<64xf32>) -> tensor<32x64x14x14xf32>
    %b10pnmu = stablehlo.divide %b10pnsm, %b10pnnf : tensor<32x64x14x14xf32>
    %b10pnxc = stablehlo.subtract %b10pnxi, %b10pnmu : tensor<32x64x14x14xf32>
    %b10pnsq = stablehlo.multiply %b10pnxc, %b10pnxc : tensor<32x64x14x14xf32>
    %b10pnvsr = stablehlo.reduce(%b10pnsq init: %sc) applies stablehlo.add across dimensions = [0, 2, 3] : (tensor<32x64x14x14xf32>, tensor<f32>) -> tensor<64xf32>
    %b10pnvs = stablehlo.broadcast_in_dim %b10pnvsr, dims = [1] : (tensor<64xf32>) -> tensor<32x64x14x14xf32>
    %b10pnvr = stablehlo.divide %b10pnvs, %b10pnnf : tensor<32x64x14x14xf32>
    %b10pnve = stablehlo.add %b10pnvr, %b10pnep : tensor<32x64x14x14xf32>
    %b10pnistd = stablehlo.rsqrt %b10pnve : tensor<32x64x14x14xf32>
    %b10pnxh = stablehlo.multiply %b10pnxc, %b10pnistd : tensor<32x64x14x14xf32>
    %b10pngb = stablehlo.broadcast_in_dim %b10pg, dims = [1] : (tensor<64xf32>) -> tensor<32x64x14x14xf32>
    %b10pnbtb = stablehlo.broadcast_in_dim %b10pbt, dims = [1] : (tensor<64xf32>) -> tensor<32x64x14x14xf32>
    %b10pngx = stablehlo.multiply %b10pnxh, %b10pngb : tensor<32x64x14x14xf32>
    %b10pnn4 = stablehlo.add %b10pngx, %b10pnbtb : tensor<32x64x14x14xf32>
    %b10pn = stablehlo.reshape %b10pnn4 : (tensor<32x64x14x14xf32>) -> tensor<32x12544xf32>
    %v244 = stablehlo.add %b10pn, %v220 : tensor<32x12544xf32>
    %v245 = stablehlo.reshape %v244 : (tensor<32x12544xf32>) -> tensor<32x64x14x14xf32>
    %v246 = stablehlo.convolution(%v245, %b11eW)
      dim_numbers = [b, f, 0, 1]x[o, i, 0, 1]->[b, f, 0, 1],
      window = {stride = [1, 1], pad = [[0, 0], [0, 0]], lhs_dilate = [1, 1], rhs_dilate = [1, 1]}
      {batch_group_count = 1 : i64, feature_group_count = 1 : i64} : (tensor<32x64x14x14xf32>, tensor<384x64x1x1xf32>) -> tensor<32x384x14x14xf32>
    %v247 = stablehlo.broadcast_in_dim %b11eb, dims = [1] : (tensor<384xf32>) -> tensor<32x384x14x14xf32>
    %v248 = stablehlo.add %v246, %v247 : tensor<32x384x14x14xf32>
    %v249 = stablehlo.reshape %v248 : (tensor<32x384x14x14xf32>) -> tensor<32x75264xf32>
    %b11enxi = stablehlo.reshape %v249 : (tensor<32x75264xf32>) -> tensor<32x384x14x14xf32>
    %b11ennf = stablehlo.constant dense<6272.0> : tensor<32x384x14x14xf32>
    %b11enep = stablehlo.constant dense<1.0e-5> : tensor<32x384x14x14xf32>
    %b11ensmr = stablehlo.reduce(%b11enxi init: %sc) applies stablehlo.add across dimensions = [0, 2, 3] : (tensor<32x384x14x14xf32>, tensor<f32>) -> tensor<384xf32>
    %b11ensm = stablehlo.broadcast_in_dim %b11ensmr, dims = [1] : (tensor<384xf32>) -> tensor<32x384x14x14xf32>
    %b11enmu = stablehlo.divide %b11ensm, %b11ennf : tensor<32x384x14x14xf32>
    %b11enxc = stablehlo.subtract %b11enxi, %b11enmu : tensor<32x384x14x14xf32>
    %b11ensq = stablehlo.multiply %b11enxc, %b11enxc : tensor<32x384x14x14xf32>
    %b11envsr = stablehlo.reduce(%b11ensq init: %sc) applies stablehlo.add across dimensions = [0, 2, 3] : (tensor<32x384x14x14xf32>, tensor<f32>) -> tensor<384xf32>
    %b11envs = stablehlo.broadcast_in_dim %b11envsr, dims = [1] : (tensor<384xf32>) -> tensor<32x384x14x14xf32>
    %b11envr = stablehlo.divide %b11envs, %b11ennf : tensor<32x384x14x14xf32>
    %b11enve = stablehlo.add %b11envr, %b11enep : tensor<32x384x14x14xf32>
    %b11enistd = stablehlo.rsqrt %b11enve : tensor<32x384x14x14xf32>
    %b11enxh = stablehlo.multiply %b11enxc, %b11enistd : tensor<32x384x14x14xf32>
    %b11engb = stablehlo.broadcast_in_dim %b11eg, dims = [1] : (tensor<384xf32>) -> tensor<32x384x14x14xf32>
    %b11enbtb = stablehlo.broadcast_in_dim %b11ebt, dims = [1] : (tensor<384xf32>) -> tensor<32x384x14x14xf32>
    %b11engx = stablehlo.multiply %b11enxh, %b11engb : tensor<32x384x14x14xf32>
    %b11enn4 = stablehlo.add %b11engx, %b11enbtb : tensor<32x384x14x14xf32>
    %b11en = stablehlo.reshape %b11enn4 : (tensor<32x384x14x14xf32>) -> tensor<32x75264xf32>
    %v250 = stablehlo.constant dense<0.0> : tensor<32x75264xf32>
    %v251 = stablehlo.constant dense<6.0> : tensor<32x75264xf32>
    %v252 = stablehlo.maximum %b11en, %v250 : tensor<32x75264xf32>
    %v253 = stablehlo.minimum %v252, %v251 : tensor<32x75264xf32>
    %v254 = stablehlo.reshape %v253 : (tensor<32x75264xf32>) -> tensor<32x384x14x14xf32>
    %v255 = stablehlo.convolution(%v254, %b11dW)
      dim_numbers = [b, f, 0, 1]x[o, i, 0, 1]->[b, f, 0, 1],
      window = {stride = [1, 1], pad = [[1, 1], [1, 1]], lhs_dilate = [1, 1], rhs_dilate = [1, 1]}
      {batch_group_count = 1 : i64, feature_group_count = 384 : i64} : (tensor<32x384x14x14xf32>, tensor<384x1x3x3xf32>) -> tensor<32x384x14x14xf32>
    %v256 = stablehlo.broadcast_in_dim %b11db, dims = [1] : (tensor<384xf32>) -> tensor<32x384x14x14xf32>
    %v257 = stablehlo.add %v255, %v256 : tensor<32x384x14x14xf32>
    %v258 = stablehlo.reshape %v257 : (tensor<32x384x14x14xf32>) -> tensor<32x75264xf32>
    %b11dnxi = stablehlo.reshape %v258 : (tensor<32x75264xf32>) -> tensor<32x384x14x14xf32>
    %b11dnnf = stablehlo.constant dense<6272.0> : tensor<32x384x14x14xf32>
    %b11dnep = stablehlo.constant dense<1.0e-5> : tensor<32x384x14x14xf32>
    %b11dnsmr = stablehlo.reduce(%b11dnxi init: %sc) applies stablehlo.add across dimensions = [0, 2, 3] : (tensor<32x384x14x14xf32>, tensor<f32>) -> tensor<384xf32>
    %b11dnsm = stablehlo.broadcast_in_dim %b11dnsmr, dims = [1] : (tensor<384xf32>) -> tensor<32x384x14x14xf32>
    %b11dnmu = stablehlo.divide %b11dnsm, %b11dnnf : tensor<32x384x14x14xf32>
    %b11dnxc = stablehlo.subtract %b11dnxi, %b11dnmu : tensor<32x384x14x14xf32>
    %b11dnsq = stablehlo.multiply %b11dnxc, %b11dnxc : tensor<32x384x14x14xf32>
    %b11dnvsr = stablehlo.reduce(%b11dnsq init: %sc) applies stablehlo.add across dimensions = [0, 2, 3] : (tensor<32x384x14x14xf32>, tensor<f32>) -> tensor<384xf32>
    %b11dnvs = stablehlo.broadcast_in_dim %b11dnvsr, dims = [1] : (tensor<384xf32>) -> tensor<32x384x14x14xf32>
    %b11dnvr = stablehlo.divide %b11dnvs, %b11dnnf : tensor<32x384x14x14xf32>
    %b11dnve = stablehlo.add %b11dnvr, %b11dnep : tensor<32x384x14x14xf32>
    %b11dnistd = stablehlo.rsqrt %b11dnve : tensor<32x384x14x14xf32>
    %b11dnxh = stablehlo.multiply %b11dnxc, %b11dnistd : tensor<32x384x14x14xf32>
    %b11dngb = stablehlo.broadcast_in_dim %b11dg, dims = [1] : (tensor<384xf32>) -> tensor<32x384x14x14xf32>
    %b11dnbtb = stablehlo.broadcast_in_dim %b11dbt, dims = [1] : (tensor<384xf32>) -> tensor<32x384x14x14xf32>
    %b11dngx = stablehlo.multiply %b11dnxh, %b11dngb : tensor<32x384x14x14xf32>
    %b11dnn4 = stablehlo.add %b11dngx, %b11dnbtb : tensor<32x384x14x14xf32>
    %b11dn = stablehlo.reshape %b11dnn4 : (tensor<32x384x14x14xf32>) -> tensor<32x75264xf32>
    %v259 = stablehlo.constant dense<0.0> : tensor<32x75264xf32>
    %v260 = stablehlo.constant dense<6.0> : tensor<32x75264xf32>
    %v261 = stablehlo.maximum %b11dn, %v259 : tensor<32x75264xf32>
    %v262 = stablehlo.minimum %v261, %v260 : tensor<32x75264xf32>
    %v263 = stablehlo.reshape %v262 : (tensor<32x75264xf32>) -> tensor<32x384x14x14xf32>
    %v264 = stablehlo.convolution(%v263, %b11pW)
      dim_numbers = [b, f, 0, 1]x[o, i, 0, 1]->[b, f, 0, 1],
      window = {stride = [1, 1], pad = [[0, 0], [0, 0]], lhs_dilate = [1, 1], rhs_dilate = [1, 1]}
      {batch_group_count = 1 : i64, feature_group_count = 1 : i64} : (tensor<32x384x14x14xf32>, tensor<96x384x1x1xf32>) -> tensor<32x96x14x14xf32>
    %v265 = stablehlo.broadcast_in_dim %b11pb, dims = [1] : (tensor<96xf32>) -> tensor<32x96x14x14xf32>
    %v266 = stablehlo.add %v264, %v265 : tensor<32x96x14x14xf32>
    %v267 = stablehlo.reshape %v266 : (tensor<32x96x14x14xf32>) -> tensor<32x18816xf32>
    %b11pnxi = stablehlo.reshape %v267 : (tensor<32x18816xf32>) -> tensor<32x96x14x14xf32>
    %b11pnnf = stablehlo.constant dense<6272.0> : tensor<32x96x14x14xf32>
    %b11pnep = stablehlo.constant dense<1.0e-5> : tensor<32x96x14x14xf32>
    %b11pnsmr = stablehlo.reduce(%b11pnxi init: %sc) applies stablehlo.add across dimensions = [0, 2, 3] : (tensor<32x96x14x14xf32>, tensor<f32>) -> tensor<96xf32>
    %b11pnsm = stablehlo.broadcast_in_dim %b11pnsmr, dims = [1] : (tensor<96xf32>) -> tensor<32x96x14x14xf32>
    %b11pnmu = stablehlo.divide %b11pnsm, %b11pnnf : tensor<32x96x14x14xf32>
    %b11pnxc = stablehlo.subtract %b11pnxi, %b11pnmu : tensor<32x96x14x14xf32>
    %b11pnsq = stablehlo.multiply %b11pnxc, %b11pnxc : tensor<32x96x14x14xf32>
    %b11pnvsr = stablehlo.reduce(%b11pnsq init: %sc) applies stablehlo.add across dimensions = [0, 2, 3] : (tensor<32x96x14x14xf32>, tensor<f32>) -> tensor<96xf32>
    %b11pnvs = stablehlo.broadcast_in_dim %b11pnvsr, dims = [1] : (tensor<96xf32>) -> tensor<32x96x14x14xf32>
    %b11pnvr = stablehlo.divide %b11pnvs, %b11pnnf : tensor<32x96x14x14xf32>
    %b11pnve = stablehlo.add %b11pnvr, %b11pnep : tensor<32x96x14x14xf32>
    %b11pnistd = stablehlo.rsqrt %b11pnve : tensor<32x96x14x14xf32>
    %b11pnxh = stablehlo.multiply %b11pnxc, %b11pnistd : tensor<32x96x14x14xf32>
    %b11pngb = stablehlo.broadcast_in_dim %b11pg, dims = [1] : (tensor<96xf32>) -> tensor<32x96x14x14xf32>
    %b11pnbtb = stablehlo.broadcast_in_dim %b11pbt, dims = [1] : (tensor<96xf32>) -> tensor<32x96x14x14xf32>
    %b11pngx = stablehlo.multiply %b11pnxh, %b11pngb : tensor<32x96x14x14xf32>
    %b11pnn4 = stablehlo.add %b11pngx, %b11pnbtb : tensor<32x96x14x14xf32>
    %b11pn = stablehlo.reshape %b11pnn4 : (tensor<32x96x14x14xf32>) -> tensor<32x18816xf32>
    %v268 = stablehlo.reshape %b11pn : (tensor<32x18816xf32>) -> tensor<32x96x14x14xf32>
    %v269 = stablehlo.convolution(%v268, %b12eW)
      dim_numbers = [b, f, 0, 1]x[o, i, 0, 1]->[b, f, 0, 1],
      window = {stride = [1, 1], pad = [[0, 0], [0, 0]], lhs_dilate = [1, 1], rhs_dilate = [1, 1]}
      {batch_group_count = 1 : i64, feature_group_count = 1 : i64} : (tensor<32x96x14x14xf32>, tensor<576x96x1x1xf32>) -> tensor<32x576x14x14xf32>
    %v270 = stablehlo.broadcast_in_dim %b12eb, dims = [1] : (tensor<576xf32>) -> tensor<32x576x14x14xf32>
    %v271 = stablehlo.add %v269, %v270 : tensor<32x576x14x14xf32>
    %v272 = stablehlo.reshape %v271 : (tensor<32x576x14x14xf32>) -> tensor<32x112896xf32>
    %b12enxi = stablehlo.reshape %v272 : (tensor<32x112896xf32>) -> tensor<32x576x14x14xf32>
    %b12ennf = stablehlo.constant dense<6272.0> : tensor<32x576x14x14xf32>
    %b12enep = stablehlo.constant dense<1.0e-5> : tensor<32x576x14x14xf32>
    %b12ensmr = stablehlo.reduce(%b12enxi init: %sc) applies stablehlo.add across dimensions = [0, 2, 3] : (tensor<32x576x14x14xf32>, tensor<f32>) -> tensor<576xf32>
    %b12ensm = stablehlo.broadcast_in_dim %b12ensmr, dims = [1] : (tensor<576xf32>) -> tensor<32x576x14x14xf32>
    %b12enmu = stablehlo.divide %b12ensm, %b12ennf : tensor<32x576x14x14xf32>
    %b12enxc = stablehlo.subtract %b12enxi, %b12enmu : tensor<32x576x14x14xf32>
    %b12ensq = stablehlo.multiply %b12enxc, %b12enxc : tensor<32x576x14x14xf32>
    %b12envsr = stablehlo.reduce(%b12ensq init: %sc) applies stablehlo.add across dimensions = [0, 2, 3] : (tensor<32x576x14x14xf32>, tensor<f32>) -> tensor<576xf32>
    %b12envs = stablehlo.broadcast_in_dim %b12envsr, dims = [1] : (tensor<576xf32>) -> tensor<32x576x14x14xf32>
    %b12envr = stablehlo.divide %b12envs, %b12ennf : tensor<32x576x14x14xf32>
    %b12enve = stablehlo.add %b12envr, %b12enep : tensor<32x576x14x14xf32>
    %b12enistd = stablehlo.rsqrt %b12enve : tensor<32x576x14x14xf32>
    %b12enxh = stablehlo.multiply %b12enxc, %b12enistd : tensor<32x576x14x14xf32>
    %b12engb = stablehlo.broadcast_in_dim %b12eg, dims = [1] : (tensor<576xf32>) -> tensor<32x576x14x14xf32>
    %b12enbtb = stablehlo.broadcast_in_dim %b12ebt, dims = [1] : (tensor<576xf32>) -> tensor<32x576x14x14xf32>
    %b12engx = stablehlo.multiply %b12enxh, %b12engb : tensor<32x576x14x14xf32>
    %b12enn4 = stablehlo.add %b12engx, %b12enbtb : tensor<32x576x14x14xf32>
    %b12en = stablehlo.reshape %b12enn4 : (tensor<32x576x14x14xf32>) -> tensor<32x112896xf32>
    %v273 = stablehlo.constant dense<0.0> : tensor<32x112896xf32>
    %v274 = stablehlo.constant dense<6.0> : tensor<32x112896xf32>
    %v275 = stablehlo.maximum %b12en, %v273 : tensor<32x112896xf32>
    %v276 = stablehlo.minimum %v275, %v274 : tensor<32x112896xf32>
    %v277 = stablehlo.reshape %v276 : (tensor<32x112896xf32>) -> tensor<32x576x14x14xf32>
    %v278 = stablehlo.convolution(%v277, %b12dW)
      dim_numbers = [b, f, 0, 1]x[o, i, 0, 1]->[b, f, 0, 1],
      window = {stride = [1, 1], pad = [[1, 1], [1, 1]], lhs_dilate = [1, 1], rhs_dilate = [1, 1]}
      {batch_group_count = 1 : i64, feature_group_count = 576 : i64} : (tensor<32x576x14x14xf32>, tensor<576x1x3x3xf32>) -> tensor<32x576x14x14xf32>
    %v279 = stablehlo.broadcast_in_dim %b12db, dims = [1] : (tensor<576xf32>) -> tensor<32x576x14x14xf32>
    %v280 = stablehlo.add %v278, %v279 : tensor<32x576x14x14xf32>
    %v281 = stablehlo.reshape %v280 : (tensor<32x576x14x14xf32>) -> tensor<32x112896xf32>
    %b12dnxi = stablehlo.reshape %v281 : (tensor<32x112896xf32>) -> tensor<32x576x14x14xf32>
    %b12dnnf = stablehlo.constant dense<6272.0> : tensor<32x576x14x14xf32>
    %b12dnep = stablehlo.constant dense<1.0e-5> : tensor<32x576x14x14xf32>
    %b12dnsmr = stablehlo.reduce(%b12dnxi init: %sc) applies stablehlo.add across dimensions = [0, 2, 3] : (tensor<32x576x14x14xf32>, tensor<f32>) -> tensor<576xf32>
    %b12dnsm = stablehlo.broadcast_in_dim %b12dnsmr, dims = [1] : (tensor<576xf32>) -> tensor<32x576x14x14xf32>
    %b12dnmu = stablehlo.divide %b12dnsm, %b12dnnf : tensor<32x576x14x14xf32>
    %b12dnxc = stablehlo.subtract %b12dnxi, %b12dnmu : tensor<32x576x14x14xf32>
    %b12dnsq = stablehlo.multiply %b12dnxc, %b12dnxc : tensor<32x576x14x14xf32>
    %b12dnvsr = stablehlo.reduce(%b12dnsq init: %sc) applies stablehlo.add across dimensions = [0, 2, 3] : (tensor<32x576x14x14xf32>, tensor<f32>) -> tensor<576xf32>
    %b12dnvs = stablehlo.broadcast_in_dim %b12dnvsr, dims = [1] : (tensor<576xf32>) -> tensor<32x576x14x14xf32>
    %b12dnvr = stablehlo.divide %b12dnvs, %b12dnnf : tensor<32x576x14x14xf32>
    %b12dnve = stablehlo.add %b12dnvr, %b12dnep : tensor<32x576x14x14xf32>
    %b12dnistd = stablehlo.rsqrt %b12dnve : tensor<32x576x14x14xf32>
    %b12dnxh = stablehlo.multiply %b12dnxc, %b12dnistd : tensor<32x576x14x14xf32>
    %b12dngb = stablehlo.broadcast_in_dim %b12dg, dims = [1] : (tensor<576xf32>) -> tensor<32x576x14x14xf32>
    %b12dnbtb = stablehlo.broadcast_in_dim %b12dbt, dims = [1] : (tensor<576xf32>) -> tensor<32x576x14x14xf32>
    %b12dngx = stablehlo.multiply %b12dnxh, %b12dngb : tensor<32x576x14x14xf32>
    %b12dnn4 = stablehlo.add %b12dngx, %b12dnbtb : tensor<32x576x14x14xf32>
    %b12dn = stablehlo.reshape %b12dnn4 : (tensor<32x576x14x14xf32>) -> tensor<32x112896xf32>
    %v282 = stablehlo.constant dense<0.0> : tensor<32x112896xf32>
    %v283 = stablehlo.constant dense<6.0> : tensor<32x112896xf32>
    %v284 = stablehlo.maximum %b12dn, %v282 : tensor<32x112896xf32>
    %v285 = stablehlo.minimum %v284, %v283 : tensor<32x112896xf32>
    %v286 = stablehlo.reshape %v285 : (tensor<32x112896xf32>) -> tensor<32x576x14x14xf32>
    %v287 = stablehlo.convolution(%v286, %b12pW)
      dim_numbers = [b, f, 0, 1]x[o, i, 0, 1]->[b, f, 0, 1],
      window = {stride = [1, 1], pad = [[0, 0], [0, 0]], lhs_dilate = [1, 1], rhs_dilate = [1, 1]}
      {batch_group_count = 1 : i64, feature_group_count = 1 : i64} : (tensor<32x576x14x14xf32>, tensor<96x576x1x1xf32>) -> tensor<32x96x14x14xf32>
    %v288 = stablehlo.broadcast_in_dim %b12pb, dims = [1] : (tensor<96xf32>) -> tensor<32x96x14x14xf32>
    %v289 = stablehlo.add %v287, %v288 : tensor<32x96x14x14xf32>
    %v290 = stablehlo.reshape %v289 : (tensor<32x96x14x14xf32>) -> tensor<32x18816xf32>
    %b12pnxi = stablehlo.reshape %v290 : (tensor<32x18816xf32>) -> tensor<32x96x14x14xf32>
    %b12pnnf = stablehlo.constant dense<6272.0> : tensor<32x96x14x14xf32>
    %b12pnep = stablehlo.constant dense<1.0e-5> : tensor<32x96x14x14xf32>
    %b12pnsmr = stablehlo.reduce(%b12pnxi init: %sc) applies stablehlo.add across dimensions = [0, 2, 3] : (tensor<32x96x14x14xf32>, tensor<f32>) -> tensor<96xf32>
    %b12pnsm = stablehlo.broadcast_in_dim %b12pnsmr, dims = [1] : (tensor<96xf32>) -> tensor<32x96x14x14xf32>
    %b12pnmu = stablehlo.divide %b12pnsm, %b12pnnf : tensor<32x96x14x14xf32>
    %b12pnxc = stablehlo.subtract %b12pnxi, %b12pnmu : tensor<32x96x14x14xf32>
    %b12pnsq = stablehlo.multiply %b12pnxc, %b12pnxc : tensor<32x96x14x14xf32>
    %b12pnvsr = stablehlo.reduce(%b12pnsq init: %sc) applies stablehlo.add across dimensions = [0, 2, 3] : (tensor<32x96x14x14xf32>, tensor<f32>) -> tensor<96xf32>
    %b12pnvs = stablehlo.broadcast_in_dim %b12pnvsr, dims = [1] : (tensor<96xf32>) -> tensor<32x96x14x14xf32>
    %b12pnvr = stablehlo.divide %b12pnvs, %b12pnnf : tensor<32x96x14x14xf32>
    %b12pnve = stablehlo.add %b12pnvr, %b12pnep : tensor<32x96x14x14xf32>
    %b12pnistd = stablehlo.rsqrt %b12pnve : tensor<32x96x14x14xf32>
    %b12pnxh = stablehlo.multiply %b12pnxc, %b12pnistd : tensor<32x96x14x14xf32>
    %b12pngb = stablehlo.broadcast_in_dim %b12pg, dims = [1] : (tensor<96xf32>) -> tensor<32x96x14x14xf32>
    %b12pnbtb = stablehlo.broadcast_in_dim %b12pbt, dims = [1] : (tensor<96xf32>) -> tensor<32x96x14x14xf32>
    %b12pngx = stablehlo.multiply %b12pnxh, %b12pngb : tensor<32x96x14x14xf32>
    %b12pnn4 = stablehlo.add %b12pngx, %b12pnbtb : tensor<32x96x14x14xf32>
    %b12pn = stablehlo.reshape %b12pnn4 : (tensor<32x96x14x14xf32>) -> tensor<32x18816xf32>
    %v291 = stablehlo.add %b12pn, %b11pn : tensor<32x18816xf32>
    %v292 = stablehlo.reshape %v291 : (tensor<32x18816xf32>) -> tensor<32x96x14x14xf32>
    %v293 = stablehlo.convolution(%v292, %b13eW)
      dim_numbers = [b, f, 0, 1]x[o, i, 0, 1]->[b, f, 0, 1],
      window = {stride = [1, 1], pad = [[0, 0], [0, 0]], lhs_dilate = [1, 1], rhs_dilate = [1, 1]}
      {batch_group_count = 1 : i64, feature_group_count = 1 : i64} : (tensor<32x96x14x14xf32>, tensor<576x96x1x1xf32>) -> tensor<32x576x14x14xf32>
    %v294 = stablehlo.broadcast_in_dim %b13eb, dims = [1] : (tensor<576xf32>) -> tensor<32x576x14x14xf32>
    %v295 = stablehlo.add %v293, %v294 : tensor<32x576x14x14xf32>
    %v296 = stablehlo.reshape %v295 : (tensor<32x576x14x14xf32>) -> tensor<32x112896xf32>
    %b13enxi = stablehlo.reshape %v296 : (tensor<32x112896xf32>) -> tensor<32x576x14x14xf32>
    %b13ennf = stablehlo.constant dense<6272.0> : tensor<32x576x14x14xf32>
    %b13enep = stablehlo.constant dense<1.0e-5> : tensor<32x576x14x14xf32>
    %b13ensmr = stablehlo.reduce(%b13enxi init: %sc) applies stablehlo.add across dimensions = [0, 2, 3] : (tensor<32x576x14x14xf32>, tensor<f32>) -> tensor<576xf32>
    %b13ensm = stablehlo.broadcast_in_dim %b13ensmr, dims = [1] : (tensor<576xf32>) -> tensor<32x576x14x14xf32>
    %b13enmu = stablehlo.divide %b13ensm, %b13ennf : tensor<32x576x14x14xf32>
    %b13enxc = stablehlo.subtract %b13enxi, %b13enmu : tensor<32x576x14x14xf32>
    %b13ensq = stablehlo.multiply %b13enxc, %b13enxc : tensor<32x576x14x14xf32>
    %b13envsr = stablehlo.reduce(%b13ensq init: %sc) applies stablehlo.add across dimensions = [0, 2, 3] : (tensor<32x576x14x14xf32>, tensor<f32>) -> tensor<576xf32>
    %b13envs = stablehlo.broadcast_in_dim %b13envsr, dims = [1] : (tensor<576xf32>) -> tensor<32x576x14x14xf32>
    %b13envr = stablehlo.divide %b13envs, %b13ennf : tensor<32x576x14x14xf32>
    %b13enve = stablehlo.add %b13envr, %b13enep : tensor<32x576x14x14xf32>
    %b13enistd = stablehlo.rsqrt %b13enve : tensor<32x576x14x14xf32>
    %b13enxh = stablehlo.multiply %b13enxc, %b13enistd : tensor<32x576x14x14xf32>
    %b13engb = stablehlo.broadcast_in_dim %b13eg, dims = [1] : (tensor<576xf32>) -> tensor<32x576x14x14xf32>
    %b13enbtb = stablehlo.broadcast_in_dim %b13ebt, dims = [1] : (tensor<576xf32>) -> tensor<32x576x14x14xf32>
    %b13engx = stablehlo.multiply %b13enxh, %b13engb : tensor<32x576x14x14xf32>
    %b13enn4 = stablehlo.add %b13engx, %b13enbtb : tensor<32x576x14x14xf32>
    %b13en = stablehlo.reshape %b13enn4 : (tensor<32x576x14x14xf32>) -> tensor<32x112896xf32>
    %v297 = stablehlo.constant dense<0.0> : tensor<32x112896xf32>
    %v298 = stablehlo.constant dense<6.0> : tensor<32x112896xf32>
    %v299 = stablehlo.maximum %b13en, %v297 : tensor<32x112896xf32>
    %v300 = stablehlo.minimum %v299, %v298 : tensor<32x112896xf32>
    %v301 = stablehlo.reshape %v300 : (tensor<32x112896xf32>) -> tensor<32x576x14x14xf32>
    %v302 = stablehlo.convolution(%v301, %b13dW)
      dim_numbers = [b, f, 0, 1]x[o, i, 0, 1]->[b, f, 0, 1],
      window = {stride = [1, 1], pad = [[1, 1], [1, 1]], lhs_dilate = [1, 1], rhs_dilate = [1, 1]}
      {batch_group_count = 1 : i64, feature_group_count = 576 : i64} : (tensor<32x576x14x14xf32>, tensor<576x1x3x3xf32>) -> tensor<32x576x14x14xf32>
    %v303 = stablehlo.broadcast_in_dim %b13db, dims = [1] : (tensor<576xf32>) -> tensor<32x576x14x14xf32>
    %v304 = stablehlo.add %v302, %v303 : tensor<32x576x14x14xf32>
    %v305 = stablehlo.reshape %v304 : (tensor<32x576x14x14xf32>) -> tensor<32x112896xf32>
    %b13dnxi = stablehlo.reshape %v305 : (tensor<32x112896xf32>) -> tensor<32x576x14x14xf32>
    %b13dnnf = stablehlo.constant dense<6272.0> : tensor<32x576x14x14xf32>
    %b13dnep = stablehlo.constant dense<1.0e-5> : tensor<32x576x14x14xf32>
    %b13dnsmr = stablehlo.reduce(%b13dnxi init: %sc) applies stablehlo.add across dimensions = [0, 2, 3] : (tensor<32x576x14x14xf32>, tensor<f32>) -> tensor<576xf32>
    %b13dnsm = stablehlo.broadcast_in_dim %b13dnsmr, dims = [1] : (tensor<576xf32>) -> tensor<32x576x14x14xf32>
    %b13dnmu = stablehlo.divide %b13dnsm, %b13dnnf : tensor<32x576x14x14xf32>
    %b13dnxc = stablehlo.subtract %b13dnxi, %b13dnmu : tensor<32x576x14x14xf32>
    %b13dnsq = stablehlo.multiply %b13dnxc, %b13dnxc : tensor<32x576x14x14xf32>
    %b13dnvsr = stablehlo.reduce(%b13dnsq init: %sc) applies stablehlo.add across dimensions = [0, 2, 3] : (tensor<32x576x14x14xf32>, tensor<f32>) -> tensor<576xf32>
    %b13dnvs = stablehlo.broadcast_in_dim %b13dnvsr, dims = [1] : (tensor<576xf32>) -> tensor<32x576x14x14xf32>
    %b13dnvr = stablehlo.divide %b13dnvs, %b13dnnf : tensor<32x576x14x14xf32>
    %b13dnve = stablehlo.add %b13dnvr, %b13dnep : tensor<32x576x14x14xf32>
    %b13dnistd = stablehlo.rsqrt %b13dnve : tensor<32x576x14x14xf32>
    %b13dnxh = stablehlo.multiply %b13dnxc, %b13dnistd : tensor<32x576x14x14xf32>
    %b13dngb = stablehlo.broadcast_in_dim %b13dg, dims = [1] : (tensor<576xf32>) -> tensor<32x576x14x14xf32>
    %b13dnbtb = stablehlo.broadcast_in_dim %b13dbt, dims = [1] : (tensor<576xf32>) -> tensor<32x576x14x14xf32>
    %b13dngx = stablehlo.multiply %b13dnxh, %b13dngb : tensor<32x576x14x14xf32>
    %b13dnn4 = stablehlo.add %b13dngx, %b13dnbtb : tensor<32x576x14x14xf32>
    %b13dn = stablehlo.reshape %b13dnn4 : (tensor<32x576x14x14xf32>) -> tensor<32x112896xf32>
    %v306 = stablehlo.constant dense<0.0> : tensor<32x112896xf32>
    %v307 = stablehlo.constant dense<6.0> : tensor<32x112896xf32>
    %v308 = stablehlo.maximum %b13dn, %v306 : tensor<32x112896xf32>
    %v309 = stablehlo.minimum %v308, %v307 : tensor<32x112896xf32>
    %v310 = stablehlo.reshape %v309 : (tensor<32x112896xf32>) -> tensor<32x576x14x14xf32>
    %v311 = stablehlo.convolution(%v310, %b13pW)
      dim_numbers = [b, f, 0, 1]x[o, i, 0, 1]->[b, f, 0, 1],
      window = {stride = [1, 1], pad = [[0, 0], [0, 0]], lhs_dilate = [1, 1], rhs_dilate = [1, 1]}
      {batch_group_count = 1 : i64, feature_group_count = 1 : i64} : (tensor<32x576x14x14xf32>, tensor<96x576x1x1xf32>) -> tensor<32x96x14x14xf32>
    %v312 = stablehlo.broadcast_in_dim %b13pb, dims = [1] : (tensor<96xf32>) -> tensor<32x96x14x14xf32>
    %v313 = stablehlo.add %v311, %v312 : tensor<32x96x14x14xf32>
    %v314 = stablehlo.reshape %v313 : (tensor<32x96x14x14xf32>) -> tensor<32x18816xf32>
    %b13pnxi = stablehlo.reshape %v314 : (tensor<32x18816xf32>) -> tensor<32x96x14x14xf32>
    %b13pnnf = stablehlo.constant dense<6272.0> : tensor<32x96x14x14xf32>
    %b13pnep = stablehlo.constant dense<1.0e-5> : tensor<32x96x14x14xf32>
    %b13pnsmr = stablehlo.reduce(%b13pnxi init: %sc) applies stablehlo.add across dimensions = [0, 2, 3] : (tensor<32x96x14x14xf32>, tensor<f32>) -> tensor<96xf32>
    %b13pnsm = stablehlo.broadcast_in_dim %b13pnsmr, dims = [1] : (tensor<96xf32>) -> tensor<32x96x14x14xf32>
    %b13pnmu = stablehlo.divide %b13pnsm, %b13pnnf : tensor<32x96x14x14xf32>
    %b13pnxc = stablehlo.subtract %b13pnxi, %b13pnmu : tensor<32x96x14x14xf32>
    %b13pnsq = stablehlo.multiply %b13pnxc, %b13pnxc : tensor<32x96x14x14xf32>
    %b13pnvsr = stablehlo.reduce(%b13pnsq init: %sc) applies stablehlo.add across dimensions = [0, 2, 3] : (tensor<32x96x14x14xf32>, tensor<f32>) -> tensor<96xf32>
    %b13pnvs = stablehlo.broadcast_in_dim %b13pnvsr, dims = [1] : (tensor<96xf32>) -> tensor<32x96x14x14xf32>
    %b13pnvr = stablehlo.divide %b13pnvs, %b13pnnf : tensor<32x96x14x14xf32>
    %b13pnve = stablehlo.add %b13pnvr, %b13pnep : tensor<32x96x14x14xf32>
    %b13pnistd = stablehlo.rsqrt %b13pnve : tensor<32x96x14x14xf32>
    %b13pnxh = stablehlo.multiply %b13pnxc, %b13pnistd : tensor<32x96x14x14xf32>
    %b13pngb = stablehlo.broadcast_in_dim %b13pg, dims = [1] : (tensor<96xf32>) -> tensor<32x96x14x14xf32>
    %b13pnbtb = stablehlo.broadcast_in_dim %b13pbt, dims = [1] : (tensor<96xf32>) -> tensor<32x96x14x14xf32>
    %b13pngx = stablehlo.multiply %b13pnxh, %b13pngb : tensor<32x96x14x14xf32>
    %b13pnn4 = stablehlo.add %b13pngx, %b13pnbtb : tensor<32x96x14x14xf32>
    %b13pn = stablehlo.reshape %b13pnn4 : (tensor<32x96x14x14xf32>) -> tensor<32x18816xf32>
    %v315 = stablehlo.add %b13pn, %v291 : tensor<32x18816xf32>
    %v316 = stablehlo.reshape %v315 : (tensor<32x18816xf32>) -> tensor<32x96x14x14xf32>
    %v317 = stablehlo.convolution(%v316, %b14eW)
      dim_numbers = [b, f, 0, 1]x[o, i, 0, 1]->[b, f, 0, 1],
      window = {stride = [1, 1], pad = [[0, 0], [0, 0]], lhs_dilate = [1, 1], rhs_dilate = [1, 1]}
      {batch_group_count = 1 : i64, feature_group_count = 1 : i64} : (tensor<32x96x14x14xf32>, tensor<576x96x1x1xf32>) -> tensor<32x576x14x14xf32>
    %v318 = stablehlo.broadcast_in_dim %b14eb, dims = [1] : (tensor<576xf32>) -> tensor<32x576x14x14xf32>
    %v319 = stablehlo.add %v317, %v318 : tensor<32x576x14x14xf32>
    %v320 = stablehlo.reshape %v319 : (tensor<32x576x14x14xf32>) -> tensor<32x112896xf32>
    %b14enxi = stablehlo.reshape %v320 : (tensor<32x112896xf32>) -> tensor<32x576x14x14xf32>
    %b14ennf = stablehlo.constant dense<6272.0> : tensor<32x576x14x14xf32>
    %b14enep = stablehlo.constant dense<1.0e-5> : tensor<32x576x14x14xf32>
    %b14ensmr = stablehlo.reduce(%b14enxi init: %sc) applies stablehlo.add across dimensions = [0, 2, 3] : (tensor<32x576x14x14xf32>, tensor<f32>) -> tensor<576xf32>
    %b14ensm = stablehlo.broadcast_in_dim %b14ensmr, dims = [1] : (tensor<576xf32>) -> tensor<32x576x14x14xf32>
    %b14enmu = stablehlo.divide %b14ensm, %b14ennf : tensor<32x576x14x14xf32>
    %b14enxc = stablehlo.subtract %b14enxi, %b14enmu : tensor<32x576x14x14xf32>
    %b14ensq = stablehlo.multiply %b14enxc, %b14enxc : tensor<32x576x14x14xf32>
    %b14envsr = stablehlo.reduce(%b14ensq init: %sc) applies stablehlo.add across dimensions = [0, 2, 3] : (tensor<32x576x14x14xf32>, tensor<f32>) -> tensor<576xf32>
    %b14envs = stablehlo.broadcast_in_dim %b14envsr, dims = [1] : (tensor<576xf32>) -> tensor<32x576x14x14xf32>
    %b14envr = stablehlo.divide %b14envs, %b14ennf : tensor<32x576x14x14xf32>
    %b14enve = stablehlo.add %b14envr, %b14enep : tensor<32x576x14x14xf32>
    %b14enistd = stablehlo.rsqrt %b14enve : tensor<32x576x14x14xf32>
    %b14enxh = stablehlo.multiply %b14enxc, %b14enistd : tensor<32x576x14x14xf32>
    %b14engb = stablehlo.broadcast_in_dim %b14eg, dims = [1] : (tensor<576xf32>) -> tensor<32x576x14x14xf32>
    %b14enbtb = stablehlo.broadcast_in_dim %b14ebt, dims = [1] : (tensor<576xf32>) -> tensor<32x576x14x14xf32>
    %b14engx = stablehlo.multiply %b14enxh, %b14engb : tensor<32x576x14x14xf32>
    %b14enn4 = stablehlo.add %b14engx, %b14enbtb : tensor<32x576x14x14xf32>
    %b14en = stablehlo.reshape %b14enn4 : (tensor<32x576x14x14xf32>) -> tensor<32x112896xf32>
    %v321 = stablehlo.constant dense<0.0> : tensor<32x112896xf32>
    %v322 = stablehlo.constant dense<6.0> : tensor<32x112896xf32>
    %v323 = stablehlo.maximum %b14en, %v321 : tensor<32x112896xf32>
    %v324 = stablehlo.minimum %v323, %v322 : tensor<32x112896xf32>
    %v325 = stablehlo.reshape %v324 : (tensor<32x112896xf32>) -> tensor<32x576x14x14xf32>
    %v326 = stablehlo.convolution(%v325, %b14dW)
      dim_numbers = [b, f, 0, 1]x[o, i, 0, 1]->[b, f, 0, 1],
      window = {stride = [2, 2], pad = [[1, 1], [1, 1]], lhs_dilate = [1, 1], rhs_dilate = [1, 1]}
      {batch_group_count = 1 : i64, feature_group_count = 576 : i64} : (tensor<32x576x14x14xf32>, tensor<576x1x3x3xf32>) -> tensor<32x576x7x7xf32>
    %v327 = stablehlo.broadcast_in_dim %b14db, dims = [1] : (tensor<576xf32>) -> tensor<32x576x7x7xf32>
    %v328 = stablehlo.add %v326, %v327 : tensor<32x576x7x7xf32>
    %v329 = stablehlo.reshape %v328 : (tensor<32x576x7x7xf32>) -> tensor<32x28224xf32>
    %b14dnxi = stablehlo.reshape %v329 : (tensor<32x28224xf32>) -> tensor<32x576x7x7xf32>
    %b14dnnf = stablehlo.constant dense<1568.0> : tensor<32x576x7x7xf32>
    %b14dnep = stablehlo.constant dense<1.0e-5> : tensor<32x576x7x7xf32>
    %b14dnsmr = stablehlo.reduce(%b14dnxi init: %sc) applies stablehlo.add across dimensions = [0, 2, 3] : (tensor<32x576x7x7xf32>, tensor<f32>) -> tensor<576xf32>
    %b14dnsm = stablehlo.broadcast_in_dim %b14dnsmr, dims = [1] : (tensor<576xf32>) -> tensor<32x576x7x7xf32>
    %b14dnmu = stablehlo.divide %b14dnsm, %b14dnnf : tensor<32x576x7x7xf32>
    %b14dnxc = stablehlo.subtract %b14dnxi, %b14dnmu : tensor<32x576x7x7xf32>
    %b14dnsq = stablehlo.multiply %b14dnxc, %b14dnxc : tensor<32x576x7x7xf32>
    %b14dnvsr = stablehlo.reduce(%b14dnsq init: %sc) applies stablehlo.add across dimensions = [0, 2, 3] : (tensor<32x576x7x7xf32>, tensor<f32>) -> tensor<576xf32>
    %b14dnvs = stablehlo.broadcast_in_dim %b14dnvsr, dims = [1] : (tensor<576xf32>) -> tensor<32x576x7x7xf32>
    %b14dnvr = stablehlo.divide %b14dnvs, %b14dnnf : tensor<32x576x7x7xf32>
    %b14dnve = stablehlo.add %b14dnvr, %b14dnep : tensor<32x576x7x7xf32>
    %b14dnistd = stablehlo.rsqrt %b14dnve : tensor<32x576x7x7xf32>
    %b14dnxh = stablehlo.multiply %b14dnxc, %b14dnistd : tensor<32x576x7x7xf32>
    %b14dngb = stablehlo.broadcast_in_dim %b14dg, dims = [1] : (tensor<576xf32>) -> tensor<32x576x7x7xf32>
    %b14dnbtb = stablehlo.broadcast_in_dim %b14dbt, dims = [1] : (tensor<576xf32>) -> tensor<32x576x7x7xf32>
    %b14dngx = stablehlo.multiply %b14dnxh, %b14dngb : tensor<32x576x7x7xf32>
    %b14dnn4 = stablehlo.add %b14dngx, %b14dnbtb : tensor<32x576x7x7xf32>
    %b14dn = stablehlo.reshape %b14dnn4 : (tensor<32x576x7x7xf32>) -> tensor<32x28224xf32>
    %v330 = stablehlo.constant dense<0.0> : tensor<32x28224xf32>
    %v331 = stablehlo.constant dense<6.0> : tensor<32x28224xf32>
    %v332 = stablehlo.maximum %b14dn, %v330 : tensor<32x28224xf32>
    %v333 = stablehlo.minimum %v332, %v331 : tensor<32x28224xf32>
    %v334 = stablehlo.reshape %v333 : (tensor<32x28224xf32>) -> tensor<32x576x7x7xf32>
    %v335 = stablehlo.convolution(%v334, %b14pW)
      dim_numbers = [b, f, 0, 1]x[o, i, 0, 1]->[b, f, 0, 1],
      window = {stride = [1, 1], pad = [[0, 0], [0, 0]], lhs_dilate = [1, 1], rhs_dilate = [1, 1]}
      {batch_group_count = 1 : i64, feature_group_count = 1 : i64} : (tensor<32x576x7x7xf32>, tensor<160x576x1x1xf32>) -> tensor<32x160x7x7xf32>
    %v336 = stablehlo.broadcast_in_dim %b14pb, dims = [1] : (tensor<160xf32>) -> tensor<32x160x7x7xf32>
    %v337 = stablehlo.add %v335, %v336 : tensor<32x160x7x7xf32>
    %v338 = stablehlo.reshape %v337 : (tensor<32x160x7x7xf32>) -> tensor<32x7840xf32>
    %b14pnxi = stablehlo.reshape %v338 : (tensor<32x7840xf32>) -> tensor<32x160x7x7xf32>
    %b14pnnf = stablehlo.constant dense<1568.0> : tensor<32x160x7x7xf32>
    %b14pnep = stablehlo.constant dense<1.0e-5> : tensor<32x160x7x7xf32>
    %b14pnsmr = stablehlo.reduce(%b14pnxi init: %sc) applies stablehlo.add across dimensions = [0, 2, 3] : (tensor<32x160x7x7xf32>, tensor<f32>) -> tensor<160xf32>
    %b14pnsm = stablehlo.broadcast_in_dim %b14pnsmr, dims = [1] : (tensor<160xf32>) -> tensor<32x160x7x7xf32>
    %b14pnmu = stablehlo.divide %b14pnsm, %b14pnnf : tensor<32x160x7x7xf32>
    %b14pnxc = stablehlo.subtract %b14pnxi, %b14pnmu : tensor<32x160x7x7xf32>
    %b14pnsq = stablehlo.multiply %b14pnxc, %b14pnxc : tensor<32x160x7x7xf32>
    %b14pnvsr = stablehlo.reduce(%b14pnsq init: %sc) applies stablehlo.add across dimensions = [0, 2, 3] : (tensor<32x160x7x7xf32>, tensor<f32>) -> tensor<160xf32>
    %b14pnvs = stablehlo.broadcast_in_dim %b14pnvsr, dims = [1] : (tensor<160xf32>) -> tensor<32x160x7x7xf32>
    %b14pnvr = stablehlo.divide %b14pnvs, %b14pnnf : tensor<32x160x7x7xf32>
    %b14pnve = stablehlo.add %b14pnvr, %b14pnep : tensor<32x160x7x7xf32>
    %b14pnistd = stablehlo.rsqrt %b14pnve : tensor<32x160x7x7xf32>
    %b14pnxh = stablehlo.multiply %b14pnxc, %b14pnistd : tensor<32x160x7x7xf32>
    %b14pngb = stablehlo.broadcast_in_dim %b14pg, dims = [1] : (tensor<160xf32>) -> tensor<32x160x7x7xf32>
    %b14pnbtb = stablehlo.broadcast_in_dim %b14pbt, dims = [1] : (tensor<160xf32>) -> tensor<32x160x7x7xf32>
    %b14pngx = stablehlo.multiply %b14pnxh, %b14pngb : tensor<32x160x7x7xf32>
    %b14pnn4 = stablehlo.add %b14pngx, %b14pnbtb : tensor<32x160x7x7xf32>
    %b14pn = stablehlo.reshape %b14pnn4 : (tensor<32x160x7x7xf32>) -> tensor<32x7840xf32>
    %v339 = stablehlo.reshape %b14pn : (tensor<32x7840xf32>) -> tensor<32x160x7x7xf32>
    %v340 = stablehlo.convolution(%v339, %b15eW)
      dim_numbers = [b, f, 0, 1]x[o, i, 0, 1]->[b, f, 0, 1],
      window = {stride = [1, 1], pad = [[0, 0], [0, 0]], lhs_dilate = [1, 1], rhs_dilate = [1, 1]}
      {batch_group_count = 1 : i64, feature_group_count = 1 : i64} : (tensor<32x160x7x7xf32>, tensor<960x160x1x1xf32>) -> tensor<32x960x7x7xf32>
    %v341 = stablehlo.broadcast_in_dim %b15eb, dims = [1] : (tensor<960xf32>) -> tensor<32x960x7x7xf32>
    %v342 = stablehlo.add %v340, %v341 : tensor<32x960x7x7xf32>
    %v343 = stablehlo.reshape %v342 : (tensor<32x960x7x7xf32>) -> tensor<32x47040xf32>
    %b15enxi = stablehlo.reshape %v343 : (tensor<32x47040xf32>) -> tensor<32x960x7x7xf32>
    %b15ennf = stablehlo.constant dense<1568.0> : tensor<32x960x7x7xf32>
    %b15enep = stablehlo.constant dense<1.0e-5> : tensor<32x960x7x7xf32>
    %b15ensmr = stablehlo.reduce(%b15enxi init: %sc) applies stablehlo.add across dimensions = [0, 2, 3] : (tensor<32x960x7x7xf32>, tensor<f32>) -> tensor<960xf32>
…
    %admgb17pg = stablehlo.multiply %adob1b17pg, %b17dpndg : tensor<320xf32>
    %admnb17pg = stablehlo.add %admsb17pg, %admgb17pg : tensor<320xf32>
    %adb2b17pg = stablehlo.broadcast_in_dim %b2, dims = [] : (tensor<f32>) -> tensor<320xf32>
    %adob2b17pg = stablehlo.broadcast_in_dim %ob2, dims = [] : (tensor<f32>) -> tensor<320xf32>
    %advsb17pg = stablehlo.multiply %adb2b17pg, %b17pgv : tensor<320xf32>
    %adg2b17pg = stablehlo.multiply %b17dpndg, %b17dpndg : tensor<320xf32>
    %advgb17pg = stablehlo.multiply %adob2b17pg, %adg2b17pg : tensor<320xf32>
    %advnb17pg = stablehlo.add %advsb17pg, %advgb17pg : tensor<320xf32>
    %adbc1b17pg = stablehlo.broadcast_in_dim %bc1, dims = [] : (tensor<f32>) -> tensor<320xf32>
    %adbc2b17pg = stablehlo.broadcast_in_dim %bc2, dims = [] : (tensor<f32>) -> tensor<320xf32>
    %admhb17pg = stablehlo.divide %admnb17pg, %adbc1b17pg : tensor<320xf32>
    %advhb17pg = stablehlo.divide %advnb17pg, %adbc2b17pg : tensor<320xf32>
    %adlrb17pg = stablehlo.broadcast_in_dim %lr, dims = [] : (tensor<f32>) -> tensor<320xf32>
    %adepsb17pg = stablehlo.broadcast_in_dim %eps, dims = [] : (tensor<f32>) -> tensor<320xf32>
    %adsqb17pg = stablehlo.sqrt %advhb17pg : tensor<320xf32>
    %addenb17pg = stablehlo.add %adsqb17pg, %adepsb17pg : tensor<320xf32>
    %adratb17pg = stablehlo.divide %admhb17pg, %addenb17pg : tensor<320xf32>
    %adstb17pg = stablehlo.multiply %adlrb17pg, %adratb17pg : tensor<320xf32>
    %adsubb17pg = stablehlo.subtract %b17pg, %adstb17pg : tensor<320xf32>
    %adwdb17pg = stablehlo.broadcast_in_dim %wd, dims = [] : (tensor<f32>) -> tensor<320xf32>
    %adwdlrb17pg = stablehlo.multiply %adwdb17pg, %adlrb17pg : tensor<320xf32>
    %adwdpb17pg = stablehlo.multiply %adwdlrb17pg, %b17pg : tensor<320xf32>
    %adnewb17pg = stablehlo.subtract %adsubb17pg, %adwdpb17pg : tensor<320xf32>
    %adb1b17pbt = stablehlo.broadcast_in_dim %b1, dims = [] : (tensor<f32>) -> tensor<320xf32>
    %adob1b17pbt = stablehlo.broadcast_in_dim %ob1, dims = [] : (tensor<f32>) -> tensor<320xf32>
    %admsb17pbt = stablehlo.multiply %adb1b17pbt, %b17pbtm : tensor<320xf32>
    %admgb17pbt = stablehlo.multiply %adob1b17pbt, %b17dpndb : tensor<320xf32>
    %admnb17pbt = stablehlo.add %admsb17pbt, %admgb17pbt : tensor<320xf32>
    %adb2b17pbt = stablehlo.broadcast_in_dim %b2, dims = [] : (tensor<f32>) -> tensor<320xf32>
    %adob2b17pbt = stablehlo.broadcast_in_dim %ob2, dims = [] : (tensor<f32>) -> tensor<320xf32>
    %advsb17pbt = stablehlo.multiply %adb2b17pbt, %b17pbtv : tensor<320xf32>
    %adg2b17pbt = stablehlo.multiply %b17dpndb, %b17dpndb : tensor<320xf32>
    %advgb17pbt = stablehlo.multiply %adob2b17pbt, %adg2b17pbt : tensor<320xf32>
    %advnb17pbt = stablehlo.add %advsb17pbt, %advgb17pbt : tensor<320xf32>
    %adbc1b17pbt = stablehlo.broadcast_in_dim %bc1, dims = [] : (tensor<f32>) -> tensor<320xf32>
    %adbc2b17pbt = stablehlo.broadcast_in_dim %bc2, dims = [] : (tensor<f32>) -> tensor<320xf32>
    %admhb17pbt = stablehlo.divide %admnb17pbt, %adbc1b17pbt : tensor<320xf32>
    %advhb17pbt = stablehlo.divide %advnb17pbt, %adbc2b17pbt : tensor<320xf32>
    %adlrb17pbt = stablehlo.broadcast_in_dim %lr, dims = [] : (tensor<f32>) -> tensor<320xf32>
    %adepsb17pbt = stablehlo.broadcast_in_dim %eps, dims = [] : (tensor<f32>) -> tensor<320xf32>
    %adsqb17pbt = stablehlo.sqrt %advhb17pbt : tensor<320xf32>
    %addenb17pbt = stablehlo.add %adsqb17pbt, %adepsb17pbt : tensor<320xf32>
    %adratb17pbt = stablehlo.divide %admhb17pbt, %addenb17pbt : tensor<320xf32>
    %adstb17pbt = stablehlo.multiply %adlrb17pbt, %adratb17pbt : tensor<320xf32>
    %adsubb17pbt = stablehlo.subtract %b17pbt, %adstb17pbt : tensor<320xf32>
    %adwdb17pbt = stablehlo.broadcast_in_dim %wd, dims = [] : (tensor<f32>) -> tensor<320xf32>
    %adwdlrb17pbt = stablehlo.multiply %adwdb17pbt, %adlrb17pbt : tensor<320xf32>
    %adwdpb17pbt = stablehlo.multiply %adwdlrb17pbt, %b17pbt : tensor<320xf32>
    %adnewb17pbt = stablehlo.subtract %adsubb17pbt, %adwdpb17pbt : tensor<320xf32>
    %adb1hW = stablehlo.broadcast_in_dim %b1, dims = [] : (tensor<f32>) -> tensor<1280x320x1x1xf32>
    %adob1hW = stablehlo.broadcast_in_dim %ob1, dims = [] : (tensor<f32>) -> tensor<1280x320x1x1xf32>
    %admshW = stablehlo.multiply %adb1hW, %hWm : tensor<1280x320x1x1xf32>
    %admghW = stablehlo.multiply %adob1hW, %dhW : tensor<1280x320x1x1xf32>
    %admnhW = stablehlo.add %admshW, %admghW : tensor<1280x320x1x1xf32>
    %adb2hW = stablehlo.broadcast_in_dim %b2, dims = [] : (tensor<f32>) -> tensor<1280x320x1x1xf32>
    %adob2hW = stablehlo.broadcast_in_dim %ob2, dims = [] : (tensor<f32>) -> tensor<1280x320x1x1xf32>
    %advshW = stablehlo.multiply %adb2hW, %hWv : tensor<1280x320x1x1xf32>
    %adg2hW = stablehlo.multiply %dhW, %dhW : tensor<1280x320x1x1xf32>
    %advghW = stablehlo.multiply %adob2hW, %adg2hW : tensor<1280x320x1x1xf32>
    %advnhW = stablehlo.add %advshW, %advghW : tensor<1280x320x1x1xf32>
    %adbc1hW = stablehlo.broadcast_in_dim %bc1, dims = [] : (tensor<f32>) -> tensor<1280x320x1x1xf32>
    %adbc2hW = stablehlo.broadcast_in_dim %bc2, dims = [] : (tensor<f32>) -> tensor<1280x320x1x1xf32>
    %admhhW = stablehlo.divide %admnhW, %adbc1hW : tensor<1280x320x1x1xf32>
    %advhhW = stablehlo.divide %advnhW, %adbc2hW : tensor<1280x320x1x1xf32>
    %adlrhW = stablehlo.broadcast_in_dim %lr, dims = [] : (tensor<f32>) -> tensor<1280x320x1x1xf32>
    %adepshW = stablehlo.broadcast_in_dim %eps, dims = [] : (tensor<f32>) -> tensor<1280x320x1x1xf32>
    %adsqhW = stablehlo.sqrt %advhhW : tensor<1280x320x1x1xf32>
    %addenhW = stablehlo.add %adsqhW, %adepshW : tensor<1280x320x1x1xf32>
    %adrathW = stablehlo.divide %admhhW, %addenhW : tensor<1280x320x1x1xf32>
    %adsthW = stablehlo.multiply %adlrhW, %adrathW : tensor<1280x320x1x1xf32>
    %adsubhW = stablehlo.subtract %hW, %adsthW : tensor<1280x320x1x1xf32>
    %adwdhW = stablehlo.broadcast_in_dim %wd, dims = [] : (tensor<f32>) -> tensor<1280x320x1x1xf32>
    %adwdlrhW = stablehlo.multiply %adwdhW, %adlrhW : tensor<1280x320x1x1xf32>
    %adwdphW = stablehlo.multiply %adwdlrhW, %hW : tensor<1280x320x1x1xf32>
    %adnewhW = stablehlo.subtract %adsubhW, %adwdphW : tensor<1280x320x1x1xf32>
    %adb1hb = stablehlo.broadcast_in_dim %b1, dims = [] : (tensor<f32>) -> tensor<1280xf32>
    %adob1hb = stablehlo.broadcast_in_dim %ob1, dims = [] : (tensor<f32>) -> tensor<1280xf32>
    %admshb = stablehlo.multiply %adb1hb, %hbm : tensor<1280xf32>
    %admghb = stablehlo.multiply %adob1hb, %dhb : tensor<1280xf32>
    %admnhb = stablehlo.add %admshb, %admghb : tensor<1280xf32>
    %adb2hb = stablehlo.broadcast_in_dim %b2, dims = [] : (tensor<f32>) -> tensor<1280xf32>
    %adob2hb = stablehlo.broadcast_in_dim %ob2, dims = [] : (tensor<f32>) -> tensor<1280xf32>
    %advshb = stablehlo.multiply %adb2hb, %hbv : tensor<1280xf32>
    %adg2hb = stablehlo.multiply %dhb, %dhb : tensor<1280xf32>
    %advghb = stablehlo.multiply %adob2hb, %adg2hb : tensor<1280xf32>
    %advnhb = stablehlo.add %advshb, %advghb : tensor<1280xf32>
    %adbc1hb = stablehlo.broadcast_in_dim %bc1, dims = [] : (tensor<f32>) -> tensor<1280xf32>
    %adbc2hb = stablehlo.broadcast_in_dim %bc2, dims = [] : (tensor<f32>) -> tensor<1280xf32>
    %admhhb = stablehlo.divide %admnhb, %adbc1hb : tensor<1280xf32>
    %advhhb = stablehlo.divide %advnhb, %adbc2hb : tensor<1280xf32>
    %adlrhb = stablehlo.broadcast_in_dim %lr, dims = [] : (tensor<f32>) -> tensor<1280xf32>
    %adepshb = stablehlo.broadcast_in_dim %eps, dims = [] : (tensor<f32>) -> tensor<1280xf32>
    %adsqhb = stablehlo.sqrt %advhhb : tensor<1280xf32>
    %addenhb = stablehlo.add %adsqhb, %adepshb : tensor<1280xf32>
    %adrathb = stablehlo.divide %admhhb, %addenhb : tensor<1280xf32>
    %adsthb = stablehlo.multiply %adlrhb, %adrathb : tensor<1280xf32>
    %adsubhb = stablehlo.subtract %hb, %adsthb : tensor<1280xf32>
    %adwdhb = stablehlo.broadcast_in_dim %wd, dims = [] : (tensor<f32>) -> tensor<1280xf32>
    %adwdlrhb = stablehlo.multiply %adwdhb, %adlrhb : tensor<1280xf32>
    %adwdphb = stablehlo.multiply %adwdlrhb, %hb : tensor<1280xf32>
    %adnewhb = stablehlo.subtract %adsubhb, %adwdphb : tensor<1280xf32>
    %adb1hg = stablehlo.broadcast_in_dim %b1, dims = [] : (tensor<f32>) -> tensor<1280xf32>
    %adob1hg = stablehlo.broadcast_in_dim %ob1, dims = [] : (tensor<f32>) -> tensor<1280xf32>
    %admshg = stablehlo.multiply %adb1hg, %hgm : tensor<1280xf32>
    %admghg = stablehlo.multiply %adob1hg, %dhndg : tensor<1280xf32>
    %admnhg = stablehlo.add %admshg, %admghg : tensor<1280xf32>
    %adb2hg = stablehlo.broadcast_in_dim %b2, dims = [] : (tensor<f32>) -> tensor<1280xf32>
    %adob2hg = stablehlo.broadcast_in_dim %ob2, dims = [] : (tensor<f32>) -> tensor<1280xf32>
    %advshg = stablehlo.multiply %adb2hg, %hgv : tensor<1280xf32>
    %adg2hg = stablehlo.multiply %dhndg, %dhndg : tensor<1280xf32>
    %advghg = stablehlo.multiply %adob2hg, %adg2hg : tensor<1280xf32>
    %advnhg = stablehlo.add %advshg, %advghg : tensor<1280xf32>
    %adbc1hg = stablehlo.broadcast_in_dim %bc1, dims = [] : (tensor<f32>) -> tensor<1280xf32>
    %adbc2hg = stablehlo.broadcast_in_dim %bc2, dims = [] : (tensor<f32>) -> tensor<1280xf32>
    %admhhg = stablehlo.divide %admnhg, %adbc1hg : tensor<1280xf32>
    %advhhg = stablehlo.divide %advnhg, %adbc2hg : tensor<1280xf32>
    %adlrhg = stablehlo.broadcast_in_dim %lr, dims = [] : (tensor<f32>) -> tensor<1280xf32>
    %adepshg = stablehlo.broadcast_in_dim %eps, dims = [] : (tensor<f32>) -> tensor<1280xf32>
    %adsqhg = stablehlo.sqrt %advhhg : tensor<1280xf32>
    %addenhg = stablehlo.add %adsqhg, %adepshg : tensor<1280xf32>
    %adrathg = stablehlo.divide %admhhg, %addenhg : tensor<1280xf32>
    %adsthg = stablehlo.multiply %adlrhg, %adrathg : tensor<1280xf32>
    %adsubhg = stablehlo.subtract %hg, %adsthg : tensor<1280xf32>
    %adwdhg = stablehlo.broadcast_in_dim %wd, dims = [] : (tensor<f32>) -> tensor<1280xf32>
    %adwdlrhg = stablehlo.multiply %adwdhg, %adlrhg : tensor<1280xf32>
    %adwdphg = stablehlo.multiply %adwdlrhg, %hg : tensor<1280xf32>
    %adnewhg = stablehlo.subtract %adsubhg, %adwdphg : tensor<1280xf32>
    %adb1hbt = stablehlo.broadcast_in_dim %b1, dims = [] : (tensor<f32>) -> tensor<1280xf32>
    %adob1hbt = stablehlo.broadcast_in_dim %ob1, dims = [] : (tensor<f32>) -> tensor<1280xf32>
    %admshbt = stablehlo.multiply %adb1hbt, %hbtm : tensor<1280xf32>
    %admghbt = stablehlo.multiply %adob1hbt, %dhndb : tensor<1280xf32>
    %admnhbt = stablehlo.add %admshbt, %admghbt : tensor<1280xf32>
    %adb2hbt = stablehlo.broadcast_in_dim %b2, dims = [] : (tensor<f32>) -> tensor<1280xf32>
    %adob2hbt = stablehlo.broadcast_in_dim %ob2, dims = [] : (tensor<f32>) -> tensor<1280xf32>
    %advshbt = stablehlo.multiply %adb2hbt, %hbtv : tensor<1280xf32>
    %adg2hbt = stablehlo.multiply %dhndb, %dhndb : tensor<1280xf32>
    %advghbt = stablehlo.multiply %adob2hbt, %adg2hbt : tensor<1280xf32>
    %advnhbt = stablehlo.add %advshbt, %advghbt : tensor<1280xf32>
    %adbc1hbt = stablehlo.broadcast_in_dim %bc1, dims = [] : (tensor<f32>) -> tensor<1280xf32>
    %adbc2hbt = stablehlo.broadcast_in_dim %bc2, dims = [] : (tensor<f32>) -> tensor<1280xf32>
    %admhhbt = stablehlo.divide %admnhbt, %adbc1hbt : tensor<1280xf32>
    %advhhbt = stablehlo.divide %advnhbt, %adbc2hbt : tensor<1280xf32>
    %adlrhbt = stablehlo.broadcast_in_dim %lr, dims = [] : (tensor<f32>) -> tensor<1280xf32>
    %adepshbt = stablehlo.broadcast_in_dim %eps, dims = [] : (tensor<f32>) -> tensor<1280xf32>
    %adsqhbt = stablehlo.sqrt %advhhbt : tensor<1280xf32>
    %addenhbt = stablehlo.add %adsqhbt, %adepshbt : tensor<1280xf32>
    %adrathbt = stablehlo.divide %admhhbt, %addenhbt : tensor<1280xf32>
    %adsthbt = stablehlo.multiply %adlrhbt, %adrathbt : tensor<1280xf32>
    %adsubhbt = stablehlo.subtract %hbt, %adsthbt : tensor<1280xf32>
    %adwdhbt = stablehlo.broadcast_in_dim %wd, dims = [] : (tensor<f32>) -> tensor<1280xf32>
    %adwdlrhbt = stablehlo.multiply %adwdhbt, %adlrhbt : tensor<1280xf32>
    %adwdphbt = stablehlo.multiply %adwdlrhbt, %hbt : tensor<1280xf32>
    %adnewhbt = stablehlo.subtract %adsubhbt, %adwdphbt : tensor<1280xf32>
    %adb1Wd = stablehlo.broadcast_in_dim %b1, dims = [] : (tensor<f32>) -> tensor<1280x10xf32>
    %adob1Wd = stablehlo.broadcast_in_dim %ob1, dims = [] : (tensor<f32>) -> tensor<1280x10xf32>
    %admsWd = stablehlo.multiply %adb1Wd, %Wdm : tensor<1280x10xf32>
    %admgWd = stablehlo.multiply %adob1Wd, %dWd : tensor<1280x10xf32>
    %admnWd = stablehlo.add %admsWd, %admgWd : tensor<1280x10xf32>
    %adb2Wd = stablehlo.broadcast_in_dim %b2, dims = [] : (tensor<f32>) -> tensor<1280x10xf32>
    %adob2Wd = stablehlo.broadcast_in_dim %ob2, dims = [] : (tensor<f32>) -> tensor<1280x10xf32>
    %advsWd = stablehlo.multiply %adb2Wd, %Wdv : tensor<1280x10xf32>
    %adg2Wd = stablehlo.multiply %dWd, %dWd : tensor<1280x10xf32>
    %advgWd = stablehlo.multiply %adob2Wd, %adg2Wd : tensor<1280x10xf32>
    %advnWd = stablehlo.add %advsWd, %advgWd : tensor<1280x10xf32>
    %adbc1Wd = stablehlo.broadcast_in_dim %bc1, dims = [] : (tensor<f32>) -> tensor<1280x10xf32>
    %adbc2Wd = stablehlo.broadcast_in_dim %bc2, dims = [] : (tensor<f32>) -> tensor<1280x10xf32>
    %admhWd = stablehlo.divide %admnWd, %adbc1Wd : tensor<1280x10xf32>
    %advhWd = stablehlo.divide %advnWd, %adbc2Wd : tensor<1280x10xf32>
    %adlrWd = stablehlo.broadcast_in_dim %lr, dims = [] : (tensor<f32>) -> tensor<1280x10xf32>
    %adepsWd = stablehlo.broadcast_in_dim %eps, dims = [] : (tensor<f32>) -> tensor<1280x10xf32>
    %adsqWd = stablehlo.sqrt %advhWd : tensor<1280x10xf32>
    %addenWd = stablehlo.add %adsqWd, %adepsWd : tensor<1280x10xf32>
    %adratWd = stablehlo.divide %admhWd, %addenWd : tensor<1280x10xf32>
    %adstWd = stablehlo.multiply %adlrWd, %adratWd : tensor<1280x10xf32>
    %adsubWd = stablehlo.subtract %Wd, %adstWd : tensor<1280x10xf32>
    %adwdWd = stablehlo.broadcast_in_dim %wd, dims = [] : (tensor<f32>) -> tensor<1280x10xf32>
    %adwdlrWd = stablehlo.multiply %adwdWd, %adlrWd : tensor<1280x10xf32>
    %adwdpWd = stablehlo.multiply %adwdlrWd, %Wd : tensor<1280x10xf32>
    %adnewWd = stablehlo.subtract %adsubWd, %adwdpWd : tensor<1280x10xf32>
    %adb1bd = stablehlo.broadcast_in_dim %b1, dims = [] : (tensor<f32>) -> tensor<10xf32>
    %adob1bd = stablehlo.broadcast_in_dim %ob1, dims = [] : (tensor<f32>) -> tensor<10xf32>
    %admsbd = stablehlo.multiply %adb1bd, %bdm : tensor<10xf32>
    %admgbd = stablehlo.multiply %adob1bd, %dbd : tensor<10xf32>
    %admnbd = stablehlo.add %admsbd, %admgbd : tensor<10xf32>
    %adb2bd = stablehlo.broadcast_in_dim %b2, dims = [] : (tensor<f32>) -> tensor<10xf32>
    %adob2bd = stablehlo.broadcast_in_dim %ob2, dims = [] : (tensor<f32>) -> tensor<10xf32>
    %advsbd = stablehlo.multiply %adb2bd, %bdv : tensor<10xf32>
    %adg2bd = stablehlo.multiply %dbd, %dbd : tensor<10xf32>
    %advgbd = stablehlo.multiply %adob2bd, %adg2bd : tensor<10xf32>
    %advnbd = stablehlo.add %advsbd, %advgbd : tensor<10xf32>
    %adbc1bd = stablehlo.broadcast_in_dim %bc1, dims = [] : (tensor<f32>) -> tensor<10xf32>
    %adbc2bd = stablehlo.broadcast_in_dim %bc2, dims = [] : (tensor<f32>) -> tensor<10xf32>
    %admhbd = stablehlo.divide %admnbd, %adbc1bd : tensor<10xf32>
    %advhbd = stablehlo.divide %advnbd, %adbc2bd : tensor<10xf32>
    %adlrbd = stablehlo.broadcast_in_dim %lr, dims = [] : (tensor<f32>) -> tensor<10xf32>
    %adepsbd = stablehlo.broadcast_in_dim %eps, dims = [] : (tensor<f32>) -> tensor<10xf32>
    %adsqbd = stablehlo.sqrt %advhbd : tensor<10xf32>
    %addenbd = stablehlo.add %adsqbd, %adepsbd : tensor<10xf32>
    %adratbd = stablehlo.divide %admhbd, %addenbd : tensor<10xf32>
    %adstbd = stablehlo.multiply %adlrbd, %adratbd : tensor<10xf32>
    %adsubbd = stablehlo.subtract %bd, %adstbd : tensor<10xf32>
    %adwdbd = stablehlo.broadcast_in_dim %wd, dims = [] : (tensor<f32>) -> tensor<10xf32>
    %adwdlrbd = stablehlo.multiply %adwdbd, %adlrbd : tensor<10xf32>
    %adwdpbd = stablehlo.multiply %adwdlrbd, %bd : tensor<10xf32>
    %adnewbd = stablehlo.subtract %adsubbd, %adwdpbd : tensor<10xf32>
    %stnbnnf = stablehlo.constant dense<401408.0> : tensor<32xf32>
    %stnbnmu = stablehlo.divide %stnsmr, %stnbnnf : tensor<32xf32>
    %stnbnvar = stablehlo.divide %stnvsr, %stnbnnf : tensor<32xf32>
    %b1enbnnf = stablehlo.constant dense<401408.0> : tensor<32xf32>
    %b1enbnmu = stablehlo.divide %b1ensmr, %b1enbnnf : tensor<32xf32>
    %b1enbnvar = stablehlo.divide %b1envsr, %b1enbnnf : tensor<32xf32>
    %b1dnbnnf = stablehlo.constant dense<401408.0> : tensor<32xf32>
    %b1dnbnmu = stablehlo.divide %b1dnsmr, %b1dnbnnf : tensor<32xf32>
    %b1dnbnvar = stablehlo.divide %b1dnvsr, %b1dnbnnf : tensor<32xf32>
    %b1pnbnnf = stablehlo.constant dense<401408.0> : tensor<16xf32>
    %b1pnbnmu = stablehlo.divide %b1pnsmr, %b1pnbnnf : tensor<16xf32>
    %b1pnbnvar = stablehlo.divide %b1pnvsr, %b1pnbnnf : tensor<16xf32>
    %b2enbnnf = stablehlo.constant dense<401408.0> : tensor<96xf32>
    %b2enbnmu = stablehlo.divide %b2ensmr, %b2enbnnf : tensor<96xf32>
    %b2enbnvar = stablehlo.divide %b2envsr, %b2enbnnf : tensor<96xf32>
    %b2dnbnnf = stablehlo.constant dense<100352.0> : tensor<96xf32>
    %b2dnbnmu = stablehlo.divide %b2dnsmr, %b2dnbnnf : tensor<96xf32>
    %b2dnbnvar = stablehlo.divide %b2dnvsr, %b2dnbnnf : tensor<96xf32>
    %b2pnbnnf = stablehlo.constant dense<100352.0> : tensor<24xf32>
    %b2pnbnmu = stablehlo.divide %b2pnsmr, %b2pnbnnf : tensor<24xf32>
    %b2pnbnvar = stablehlo.divide %b2pnvsr, %b2pnbnnf : tensor<24xf32>
    %b3enbnnf = stablehlo.constant dense<100352.0> : tensor<144xf32>
    %b3enbnmu = stablehlo.divide %b3ensmr, %b3enbnnf : tensor<144xf32>
    %b3enbnvar = stablehlo.divide %b3envsr, %b3enbnnf : tensor<144xf32>
    %b3dnbnnf = stablehlo.constant dense<100352.0> : tensor<144xf32>
    %b3dnbnmu = stablehlo.divide %b3dnsmr, %b3dnbnnf : tensor<144xf32>
    %b3dnbnvar = stablehlo.divide %b3dnvsr, %b3dnbnnf : tensor<144xf32>
    %b3pnbnnf = stablehlo.constant dense<100352.0> : tensor<24xf32>
    %b3pnbnmu = stablehlo.divide %b3pnsmr, %b3pnbnnf : tensor<24xf32>
    %b3pnbnvar = stablehlo.divide %b3pnvsr, %b3pnbnnf : tensor<24xf32>
    %b4enbnnf = stablehlo.constant dense<100352.0> : tensor<144xf32>
    %b4enbnmu = stablehlo.divide %b4ensmr, %b4enbnnf : tensor<144xf32>
    %b4enbnvar = stablehlo.divide %b4envsr, %b4enbnnf : tensor<144xf32>
    %b4dnbnnf = stablehlo.constant dense<25088.0> : tensor<144xf32>
    %b4dnbnmu = stablehlo.divide %b4dnsmr, %b4dnbnnf : tensor<144xf32>
    %b4dnbnvar = stablehlo.divide %b4dnvsr, %b4dnbnnf : tensor<144xf32>
    %b4pnbnnf = stablehlo.constant dense<25088.0> : tensor<32xf32>
    %b4pnbnmu = stablehlo.divide %b4pnsmr, %b4pnbnnf : tensor<32xf32>
    %b4pnbnvar = stablehlo.divide %b4pnvsr, %b4pnbnnf : tensor<32xf32>
    %b5enbnnf = stablehlo.constant dense<25088.0> : tensor<192xf32>
    %b5enbnmu = stablehlo.divide %b5ensmr, %b5enbnnf : tensor<192xf32>
    %b5enbnvar = stablehlo.divide %b5envsr, %b5enbnnf : tensor<192xf32>
    %b5dnbnnf = stablehlo.constant dense<25088.0> : tensor<192xf32>
    %b5dnbnmu = stablehlo.divide %b5dnsmr, %b5dnbnnf : tensor<192xf32>
    %b5dnbnvar = stablehlo.divide %b5dnvsr, %b5dnbnnf : tensor<192xf32>
    %b5pnbnnf = stablehlo.constant dense<25088.0> : tensor<32xf32>
    %b5pnbnmu = stablehlo.divide %b5pnsmr, %b5pnbnnf : tensor<32xf32>
    %b5pnbnvar = stablehlo.divide %b5pnvsr, %b5pnbnnf : tensor<32xf32>
    %b6enbnnf = stablehlo.constant dense<25088.0> : tensor<192xf32>
    %b6enbnmu = stablehlo.divide %b6ensmr, %b6enbnnf : tensor<192xf32>
    %b6enbnvar = stablehlo.divide %b6envsr, %b6enbnnf : tensor<192xf32>
    %b6dnbnnf = stablehlo.constant dense<25088.0> : tensor<192xf32>
    %b6dnbnmu = stablehlo.divide %b6dnsmr, %b6dnbnnf : tensor<192xf32>
    %b6dnbnvar = stablehlo.divide %b6dnvsr, %b6dnbnnf : tensor<192xf32>
    %b6pnbnnf = stablehlo.constant dense<25088.0> : tensor<32xf32>
    %b6pnbnmu = stablehlo.divide %b6pnsmr, %b6pnbnnf : tensor<32xf32>
    %b6pnbnvar = stablehlo.divide %b6pnvsr, %b6pnbnnf : tensor<32xf32>
    %b7enbnnf = stablehlo.constant dense<25088.0> : tensor<192xf32>
    %b7enbnmu = stablehlo.divide %b7ensmr, %b7enbnnf : tensor<192xf32>
    %b7enbnvar = stablehlo.divide %b7envsr, %b7enbnnf : tensor<192xf32>
    %b7dnbnnf = stablehlo.constant dense<6272.0> : tensor<192xf32>
    %b7dnbnmu = stablehlo.divide %b7dnsmr, %b7dnbnnf : tensor<192xf32>
    %b7dnbnvar = stablehlo.divide %b7dnvsr, %b7dnbnnf : tensor<192xf32>
    %b7pnbnnf = stablehlo.constant dense<6272.0> : tensor<64xf32>
    %b7pnbnmu = stablehlo.divide %b7pnsmr, %b7pnbnnf : tensor<64xf32>
    %b7pnbnvar = stablehlo.divide %b7pnvsr, %b7pnbnnf : tensor<64xf32>
    %b8enbnnf = stablehlo.constant dense<6272.0> : tensor<384xf32>
    %b8enbnmu = stablehlo.divide %b8ensmr, %b8enbnnf : tensor<384xf32>
    %b8enbnvar = stablehlo.divide %b8envsr, %b8enbnnf : tensor<384xf32>
    %b8dnbnnf = stablehlo.constant dense<6272.0> : tensor<384xf32>
    %b8dnbnmu = stablehlo.divide %b8dnsmr, %b8dnbnnf : tensor<384xf32>
    %b8dnbnvar = stablehlo.divide %b8dnvsr, %b8dnbnnf : tensor<384xf32>
    %b8pnbnnf = stablehlo.constant dense<6272.0> : tensor<64xf32>
    %b8pnbnmu = stablehlo.divide %b8pnsmr, %b8pnbnnf : tensor<64xf32>
    %b8pnbnvar = stablehlo.divide %b8pnvsr, %b8pnbnnf : tensor<64xf32>
    %b9enbnnf = stablehlo.constant dense<6272.0> : tensor<384xf32>
    %b9enbnmu = stablehlo.divide %b9ensmr, %b9enbnnf : tensor<384xf32>
    %b9enbnvar = stablehlo.divide %b9envsr, %b9enbnnf : tensor<384xf32>
    %b9dnbnnf = stablehlo.constant dense<6272.0> : tensor<384xf32>
    %b9dnbnmu = stablehlo.divide %b9dnsmr, %b9dnbnnf : tensor<384xf32>
    %b9dnbnvar = stablehlo.divide %b9dnvsr, %b9dnbnnf : tensor<384xf32>
    %b9pnbnnf = stablehlo.constant dense<6272.0> : tensor<64xf32>
    %b9pnbnmu = stablehlo.divide %b9pnsmr, %b9pnbnnf : tensor<64xf32>
    %b9pnbnvar = stablehlo.divide %b9pnvsr, %b9pnbnnf : tensor<64xf32>
    %b10enbnnf = stablehlo.constant dense<6272.0> : tensor<384xf32>
    %b10enbnmu = stablehlo.divide %b10ensmr, %b10enbnnf : tensor<384xf32>
    %b10enbnvar = stablehlo.divide %b10envsr, %b10enbnnf : tensor<384xf32>
    %b10dnbnnf = stablehlo.constant dense<6272.0> : tensor<384xf32>
    %b10dnbnmu = stablehlo.divide %b10dnsmr, %b10dnbnnf : tensor<384xf32>
    %b10dnbnvar = stablehlo.divide %b10dnvsr, %b10dnbnnf : tensor<384xf32>
    %b10pnbnnf = stablehlo.constant dense<6272.0> : tensor<64xf32>
    %b10pnbnmu = stablehlo.divide %b10pnsmr, %b10pnbnnf : tensor<64xf32>
    %b10pnbnvar = stablehlo.divide %b10pnvsr, %b10pnbnnf : tensor<64xf32>
    %b11enbnnf = stablehlo.constant dense<6272.0> : tensor<384xf32>
    %b11enbnmu = stablehlo.divide %b11ensmr, %b11enbnnf : tensor<384xf32>
    %b11enbnvar = stablehlo.divide %b11envsr, %b11enbnnf : tensor<384xf32>
    %b11dnbnnf = stablehlo.constant dense<6272.0> : tensor<384xf32>
    %b11dnbnmu = stablehlo.divide %b11dnsmr, %b11dnbnnf : tensor<384xf32>
    %b11dnbnvar = stablehlo.divide %b11dnvsr, %b11dnbnnf : tensor<384xf32>
    %b11pnbnnf = stablehlo.constant dense<6272.0> : tensor<96xf32>
    %b11pnbnmu = stablehlo.divide %b11pnsmr, %b11pnbnnf : tensor<96xf32>
    %b11pnbnvar = stablehlo.divide %b11pnvsr, %b11pnbnnf : tensor<96xf32>
    %b12enbnnf = stablehlo.constant dense<6272.0> : tensor<576xf32>
    %b12enbnmu = stablehlo.divide %b12ensmr, %b12enbnnf : tensor<576xf32>
    %b12enbnvar = stablehlo.divide %b12envsr, %b12enbnnf : tensor<576xf32>
    %b12dnbnnf = stablehlo.constant dense<6272.0> : tensor<576xf32>
    %b12dnbnmu = stablehlo.divide %b12dnsmr, %b12dnbnnf : tensor<576xf32>
    %b12dnbnvar = stablehlo.divide %b12dnvsr, %b12dnbnnf : tensor<576xf32>
    %b12pnbnnf = stablehlo.constant dense<6272.0> : tensor<96xf32>
    %b12pnbnmu = stablehlo.divide %b12pnsmr, %b12pnbnnf : tensor<96xf32>
    %b12pnbnvar = stablehlo.divide %b12pnvsr, %b12pnbnnf : tensor<96xf32>
    %b13enbnnf = stablehlo.constant dense<6272.0> : tensor<576xf32>
    %b13enbnmu = stablehlo.divide %b13ensmr, %b13enbnnf : tensor<576xf32>
    %b13enbnvar = stablehlo.divide %b13envsr, %b13enbnnf : tensor<576xf32>
    %b13dnbnnf = stablehlo.constant dense<6272.0> : tensor<576xf32>
    %b13dnbnmu = stablehlo.divide %b13dnsmr, %b13dnbnnf : tensor<576xf32>
    %b13dnbnvar = stablehlo.divide %b13dnvsr, %b13dnbnnf : tensor<576xf32>
    %b13pnbnnf = stablehlo.constant dense<6272.0> : tensor<96xf32>
    %b13pnbnmu = stablehlo.divide %b13pnsmr, %b13pnbnnf : tensor<96xf32>
    %b13pnbnvar = stablehlo.divide %b13pnvsr, %b13pnbnnf : tensor<96xf32>
    %b14enbnnf = stablehlo.constant dense<6272.0> : tensor<576xf32>
    %b14enbnmu = stablehlo.divide %b14ensmr, %b14enbnnf : tensor<576xf32>
    %b14enbnvar = stablehlo.divide %b14envsr, %b14enbnnf : tensor<576xf32>
    %b14dnbnnf = stablehlo.constant dense<1568.0> : tensor<576xf32>
    %b14dnbnmu = stablehlo.divide %b14dnsmr, %b14dnbnnf : tensor<576xf32>
    %b14dnbnvar = stablehlo.divide %b14dnvsr, %b14dnbnnf : tensor<576xf32>
    %b14pnbnnf = stablehlo.constant dense<1568.0> : tensor<160xf32>
    %b14pnbnmu = stablehlo.divide %b14pnsmr, %b14pnbnnf : tensor<160xf32>
    %b14pnbnvar = stablehlo.divide %b14pnvsr, %b14pnbnnf : tensor<160xf32>
    %b15enbnnf = stablehlo.constant dense<1568.0> : tensor<960xf32>
    %b15enbnmu = stablehlo.divide %b15ensmr, %b15enbnnf : tensor<960xf32>
    %b15enbnvar = stablehlo.divide %b15envsr, %b15enbnnf : tensor<960xf32>
    %b15dnbnnf = stablehlo.constant dense<1568.0> : tensor<960xf32>
    %b15dnbnmu = stablehlo.divide %b15dnsmr, %b15dnbnnf : tensor<960xf32>
    %b15dnbnvar = stablehlo.divide %b15dnvsr, %b15dnbnnf : tensor<960xf32>
    %b15pnbnnf = stablehlo.constant dense<1568.0> : tensor<160xf32>
    %b15pnbnmu = stablehlo.divide %b15pnsmr, %b15pnbnnf : tensor<160xf32>
    %b15pnbnvar = stablehlo.divide %b15pnvsr, %b15pnbnnf : tensor<160xf32>
    %b16enbnnf = stablehlo.constant dense<1568.0> : tensor<960xf32>
    %b16enbnmu = stablehlo.divide %b16ensmr, %b16enbnnf : tensor<960xf32>
    %b16enbnvar = stablehlo.divide %b16envsr, %b16enbnnf : tensor<960xf32>
    %b16dnbnnf = stablehlo.constant dense<1568.0> : tensor<960xf32>
    %b16dnbnmu = stablehlo.divide %b16dnsmr, %b16dnbnnf : tensor<960xf32>
    %b16dnbnvar = stablehlo.divide %b16dnvsr, %b16dnbnnf : tensor<960xf32>
    %b16pnbnnf = stablehlo.constant dense<1568.0> : tensor<160xf32>
    %b16pnbnmu = stablehlo.divide %b16pnsmr, %b16pnbnnf : tensor<160xf32>
    %b16pnbnvar = stablehlo.divide %b16pnvsr, %b16pnbnnf : tensor<160xf32>
    %b17enbnnf = stablehlo.constant dense<1568.0> : tensor<960xf32>
    %b17enbnmu = stablehlo.divide %b17ensmr, %b17enbnnf : tensor<960xf32>
    %b17enbnvar = stablehlo.divide %b17envsr, %b17enbnnf : tensor<960xf32>
    %b17dnbnnf = stablehlo.constant dense<1568.0> : tensor<960xf32>
    %b17dnbnmu = stablehlo.divide %b17dnsmr, %b17dnbnnf : tensor<960xf32>
    %b17dnbnvar = stablehlo.divide %b17dnvsr, %b17dnbnnf : tensor<960xf32>
    %b17pnbnnf = stablehlo.constant dense<1568.0> : tensor<320xf32>
    %b17pnbnmu = stablehlo.divide %b17pnsmr, %b17pnbnnf : tensor<320xf32>
    %b17pnbnvar = stablehlo.divide %b17pnvsr, %b17pnbnnf : tensor<320xf32>
    %hnbnnf = stablehlo.constant dense<1568.0> : tensor<1280xf32>
    %hnbnmu = stablehlo.divide %hnsmr, %hnbnnf : tensor<1280xf32>
    %hnbnvar = stablehlo.divide %hnvsr, %hnbnnf : tensor<1280xf32>
    return %adnewsW, %adnewsb, %adnewsg, %adnewsbt, %adnewb1eW, %adnewb1eb, %adnewb1eg, %adnewb1ebt, %adnewb1dW, %adnewb1db, %adnewb1dg, %adnewb1dbt, %adnewb1pW, %adnewb1pb, %adnewb1pg, %adnewb1pbt, %adnewb2eW, %adnewb2eb, %adnewb2eg, %adnewb2ebt, %adnewb2dW, %adnewb2db, %adnewb2dg, %adnewb2dbt, %adnewb2pW, %adnewb2pb, %adnewb2pg, %adnewb2pbt, %adnewb3eW, %adnewb3eb, %adnewb3eg, %adnewb3ebt, %adnewb3dW, %adnewb3db, %adnewb3dg, %adnewb3dbt, %adnewb3pW, %adnewb3pb, %adnewb3pg, %adnewb3pbt, %adnewb4eW, %adnewb4eb, %adnewb4eg, %adnewb4ebt, %adnewb4dW, %adnewb4db, %adnewb4dg, %adnewb4dbt, %adnewb4pW, %adnewb4pb, %adnewb4pg, %adnewb4pbt, %adnewb5eW, %adnewb5eb, %adnewb5eg, %adnewb5ebt, %adnewb5dW, %adnewb5db, %adnewb5dg, %adnewb5dbt, %adnewb5pW, %adnewb5pb, %adnewb5pg, %adnewb5pbt, %adnewb6eW, %adnewb6eb, %adnewb6eg, %adnewb6ebt, %adnewb6dW, %adnewb6db, %adnewb6dg, %adnewb6dbt, %adnewb6pW, %adnewb6pb, %adnewb6pg, %adnewb6pbt, %adnewb7eW, %adnewb7eb, %adnewb7eg, %adnewb7ebt, %adnewb7dW, %adnewb7db, %adnewb7dg, %adnewb7dbt, %adnewb7pW, %adnewb7pb, %adnewb7pg, %adnewb7pbt, %adnewb8eW, %adnewb8eb, %adnewb8eg, %adnewb8ebt, %adnewb8dW, %adnewb8db, %adnewb8dg, %adnewb8dbt, %adnewb8pW, %adnewb8pb, %adnewb8pg, %adnewb8pbt, %adnewb9eW, %adnewb9eb, %adnewb9eg, %adnewb9ebt, %adnewb9dW, %adnewb9db, %adnewb9dg, %adnewb9dbt, %adnewb9pW, %adnewb9pb, %adnewb9pg, %adnewb9pbt, %adnewb10eW, %adnewb10eb, %adnewb10eg, %adnewb10ebt, %adnewb10dW, %adnewb10db, %adnewb10dg, %adnewb10dbt, %adnewb10pW, %adnewb10pb, %adnewb10pg, %adnewb10pbt, %adnewb11eW, %adnewb11eb, %adnewb11eg, %adnewb11ebt, %adnewb11dW, %adnewb11db, %adnewb11dg, %adnewb11dbt, %adnewb11pW, %adnewb11pb, %adnewb11pg, %adnewb11pbt, %adnewb12eW, %adnewb12eb, %adnewb12eg, %adnewb12ebt, %adnewb12dW, %adnewb12db, %adnewb12dg, %adnewb12dbt, %adnewb12pW, %adnewb12pb, %adnewb12pg, %adnewb12pbt, %adnewb13eW, %adnewb13eb, %adnewb13eg, %adnewb13ebt, %adnewb13dW, %adnewb13db, %adnewb13dg, %adnewb13dbt, %adnewb13pW, %adnewb13pb, %adnewb13pg, %adnewb13pbt, %adnewb14eW, %adnewb14eb, %adnewb14eg, %adnewb14ebt, %adnewb14dW, %adnewb14db, %adnewb14dg, %adnewb14dbt, %adnewb14pW, %adnewb14pb, %adnewb14pg, %adnewb14pbt, %adnewb15eW, %adnewb15eb, %adnewb15eg, %adnewb15ebt, %adnewb15dW, %adnewb15db, %adnewb15dg, %adnewb15dbt, %adnewb15pW, %adnewb15pb, %adnewb15pg, %adnewb15pbt, %adnewb16eW, %adnewb16eb, %adnewb16eg, %adnewb16ebt, %adnewb16dW, %adnewb16db, %adnewb16dg, %adnewb16dbt, %adnewb16pW, %adnewb16pb, %adnewb16pg, %adnewb16pbt, %adnewb17eW, %adnewb17eb, %adnewb17eg, %adnewb17ebt, %adnewb17dW, %adnewb17db, %adnewb17dg, %adnewb17dbt, %adnewb17pW, %adnewb17pb, %adnewb17pg, %adnewb17pbt, %adnewhW, %adnewhb, %adnewhg, %adnewhbt, %adnewWd, %adnewbd, %admnsW, %admnsb, %admnsg, %admnsbt, %admnb1eW, %admnb1eb, %admnb1eg, %admnb1ebt, %admnb1dW, %admnb1db, %admnb1dg, %admnb1dbt, %admnb1pW, %admnb1pb, %admnb1pg, %admnb1pbt, %admnb2eW, %admnb2eb, %admnb2eg, %admnb2ebt, %admnb2dW, %admnb2db, %admnb2dg, %admnb2dbt, %admnb2pW, %admnb2pb, %admnb2pg, %admnb2pbt, %admnb3eW, %admnb3eb, %admnb3eg, %admnb3ebt, %admnb3dW, %admnb3db, %admnb3dg, %admnb3dbt, %admnb3pW, %admnb3pb, %admnb3pg, %admnb3pbt, %admnb4eW, %admnb4eb, %admnb4eg, %admnb4ebt, %admnb4dW, %admnb4db, %admnb4dg, %admnb4dbt, %admnb4pW, %admnb4pb, %admnb4pg, %admnb4pbt, %admnb5eW, %admnb5eb, %admnb5eg, %admnb5ebt, %admnb5dW, %admnb5db, %admnb5dg, %admnb5dbt, %admnb5pW, %admnb5pb, %admnb5pg, %admnb5pbt, %admnb6eW, %admnb6eb, %admnb6eg, %admnb6ebt, %admnb6dW, %admnb6db, %admnb6dg, %admnb6dbt, %admnb6pW, %admnb6pb, %admnb6pg, %admnb6pbt, %admnb7eW, %admnb7eb, %admnb7eg, %admnb7ebt, %admnb7dW, %admnb7db, %admnb7dg, %admnb7dbt, %admnb7pW, %admnb7pb, %admnb7pg, %admnb7pbt, %admnb8eW, %admnb8eb, %admnb8eg, %admnb8ebt, %admnb8dW, %admnb8db, %admnb8dg, %admnb8dbt, %admnb8pW, %admnb8pb, %admnb8pg, %admnb8pbt, %admnb9eW, %admnb9eb, %admnb9eg, %admnb9ebt, %admnb9dW, %admnb9db, %admnb9dg, %admnb9dbt, %admnb9pW, %admnb9pb, %admnb9pg, %admnb9pbt, %admnb10eW, %admnb10eb, %admnb10eg, %admnb10ebt, %admnb10dW, %admnb10db, %admnb10dg, %admnb10dbt, %admnb10pW, %admnb10pb, %admnb10pg, %admnb10pbt, %admnb11eW, %admnb11eb, %admnb11eg, %admnb11ebt, %admnb11dW, %admnb11db, %admnb11dg, %admnb11dbt, %admnb11pW, %admnb11pb, %admnb11pg, %admnb11pbt, %admnb12eW, %admnb12eb, %admnb12eg, %admnb12ebt, %admnb12dW, %admnb12db, %admnb12dg, %admnb12dbt, %admnb12pW, %admnb12pb, %admnb12pg, %admnb12pbt, %admnb13eW, %admnb13eb, %admnb13eg, %admnb13ebt, %admnb13dW, %admnb13db, %admnb13dg, %admnb13dbt, %admnb13pW, %admnb13pb, %admnb13pg, %admnb13pbt, %admnb14eW, %admnb14eb, %admnb14eg, %admnb14ebt, %admnb14dW, %admnb14db, %admnb14dg, %admnb14dbt, %admnb14pW, %admnb14pb, %admnb14pg, %admnb14pbt, %admnb15eW, %admnb15eb, %admnb15eg, %admnb15ebt, %admnb15dW, %admnb15db, %admnb15dg, %admnb15dbt, %admnb15pW, %admnb15pb, %admnb15pg, %admnb15pbt, %admnb16eW, %admnb16eb, %admnb16eg, %admnb16ebt, %admnb16dW, %admnb16db, %admnb16dg, %admnb16dbt, %admnb16pW, %admnb16pb, %admnb16pg, %admnb16pbt, %admnb17eW, %admnb17eb, %admnb17eg, %admnb17ebt, %admnb17dW, %admnb17db, %admnb17dg, %admnb17dbt, %admnb17pW, %admnb17pb, %admnb17pg, %admnb17pbt, %admnhW, %admnhb, %admnhg, %admnhbt, %admnWd, %admnbd, %advnsW, %advnsb, %advnsg, %advnsbt, %advnb1eW, %advnb1eb, %advnb1eg, %advnb1ebt, %advnb1dW, %advnb1db, %advnb1dg, %advnb1dbt, %advnb1pW, %advnb1pb, %advnb1pg, %advnb1pbt, %advnb2eW, %advnb2eb, %advnb2eg, %advnb2ebt, %advnb2dW, %advnb2db, %advnb2dg, %advnb2dbt, %advnb2pW, %advnb2pb, %advnb2pg, %advnb2pbt, %advnb3eW, %advnb3eb, %advnb3eg, %advnb3ebt, %advnb3dW, %advnb3db, %advnb3dg, %advnb3dbt, %advnb3pW, %advnb3pb, %advnb3pg, %advnb3pbt, %advnb4eW, %advnb4eb, %advnb4eg, %advnb4ebt, %advnb4dW, %advnb4db, %advnb4dg, %advnb4dbt, %advnb4pW, %advnb4pb, %advnb4pg, %advnb4pbt, %advnb5eW, %advnb5eb, %advnb5eg, %advnb5ebt, %advnb5dW, %advnb5db, %advnb5dg, %advnb5dbt, %advnb5pW, %advnb5pb, %advnb5pg, %advnb5pbt, %advnb6eW, %advnb6eb, %advnb6eg, %advnb6ebt, %advnb6dW, %advnb6db, %advnb6dg, %advnb6dbt, %advnb6pW, %advnb6pb, %advnb6pg, %advnb6pbt, %advnb7eW, %advnb7eb, %advnb7eg, %advnb7ebt, %advnb7dW, %advnb7db, %advnb7dg, %advnb7dbt, %advnb7pW, %advnb7pb, %advnb7pg, %advnb7pbt, %advnb8eW, %advnb8eb, %advnb8eg, %advnb8ebt, %advnb8dW, %advnb8db, %advnb8dg, %advnb8dbt, %advnb8pW, %advnb8pb, %advnb8pg, %advnb8pbt, %advnb9eW, %advnb9eb, %advnb9eg, %advnb9ebt, %advnb9dW, %advnb9db, %advnb9dg, %advnb9dbt, %advnb9pW, %advnb9pb, %advnb9pg, %advnb9pbt, %advnb10eW, %advnb10eb, %advnb10eg, %advnb10ebt, %advnb10dW, %advnb10db, %advnb10dg, %advnb10dbt, %advnb10pW, %advnb10pb, %advnb10pg, %advnb10pbt, %advnb11eW, %advnb11eb, %advnb11eg, %advnb11ebt, %advnb11dW, %advnb11db, %advnb11dg, %advnb11dbt, %advnb11pW, %advnb11pb, %advnb11pg, %advnb11pbt, %advnb12eW, %advnb12eb, %advnb12eg, %advnb12ebt, %advnb12dW, %advnb12db, %advnb12dg, %advnb12dbt, %advnb12pW, %advnb12pb, %advnb12pg, %advnb12pbt, %advnb13eW, %advnb13eb, %advnb13eg, %advnb13ebt, %advnb13dW, %advnb13db, %advnb13dg, %advnb13dbt, %advnb13pW, %advnb13pb, %advnb13pg, %advnb13pbt, %advnb14eW, %advnb14eb, %advnb14eg, %advnb14ebt, %advnb14dW, %advnb14db, %advnb14dg, %advnb14dbt, %advnb14pW, %advnb14pb, %advnb14pg, %advnb14pbt, %advnb15eW, %advnb15eb, %advnb15eg, %advnb15ebt, %advnb15dW, %advnb15db, %advnb15dg, %advnb15dbt, %advnb15pW, %advnb15pb, %advnb15pg, %advnb15pbt, %advnb16eW, %advnb16eb, %advnb16eg, %advnb16ebt, %advnb16dW, %advnb16db, %advnb16dg, %advnb16dbt, %advnb16pW, %advnb16pb, %advnb16pg, %advnb16pbt, %advnb17eW, %advnb17eb, %advnb17eg, %advnb17ebt, %advnb17dW, %advnb17db, %advnb17dg, %advnb17dbt, %advnb17pW, %advnb17pb, %advnb17pg, %advnb17pbt, %advnhW, %advnhb, %advnhg, %advnhbt, %advnWd, %advnbd, %loss, %bc1, %bc2, %stnbnmu, %stnbnvar, %b1enbnmu, %b1enbnvar, %b1dnbnmu, %b1dnbnvar, %b1pnbnmu, %b1pnbnvar, %b2enbnmu, %b2enbnvar, %b2dnbnmu, %b2dnbnvar, %b2pnbnmu, %b2pnbnvar, %b3enbnmu, %b3enbnvar, %b3dnbnmu, %b3dnbnvar, %b3pnbnmu, %b3pnbnvar, %b4enbnmu, %b4enbnvar, %b4dnbnmu, %b4dnbnvar, %b4pnbnmu, %b4pnbnvar, %b5enbnmu, %b5enbnvar, %b5dnbnmu, %b5dnbnvar, %b5pnbnmu, %b5pnbnvar, %b6enbnmu, %b6enbnvar, %b6dnbnmu, %b6dnbnvar, %b6pnbnmu, %b6pnbnvar, %b7enbnmu, %b7enbnvar, %b7dnbnmu, %b7dnbnvar, %b7pnbnmu, %b7pnbnvar, %b8enbnmu, %b8enbnvar, %b8dnbnmu, %b8dnbnvar, %b8pnbnmu, %b8pnbnvar, %b9enbnmu, %b9enbnvar, %b9dnbnmu, %b9dnbnvar, %b9pnbnmu, %b9pnbnvar, %b10enbnmu, %b10enbnvar, %b10dnbnmu, %b10dnbnvar, %b10pnbnmu, %b10pnbnvar, %b11enbnmu, %b11enbnvar, %b11dnbnmu, %b11dnbnvar, %b11pnbnmu, %b11pnbnvar, %b12enbnmu, %b12enbnvar, %b12dnbnmu, %b12dnbnvar, %b12pnbnmu, %b12pnbnvar, %b13enbnmu, %b13enbnvar, %b13dnbnmu, %b13dnbnvar, %b13pnbnmu, %b13pnbnvar, %b14enbnmu, %b14enbnvar, %b14dnbnmu, %b14dnbnvar, %b14pnbnmu, %b14pnbnvar, %b15enbnmu, %b15enbnvar, %b15dnbnmu, %b15dnbnvar, %b15pnbnmu, %b15pnbnvar, %b16enbnmu, %b16enbnvar, %b16dnbnmu, %b16dnbnvar, %b16pnbnmu, %b16pnbnvar, %b17enbnmu, %b17enbnvar, %b17dnbnmu, %b17dnbnvar, %b17pnbnmu, %b17pnbnvar, %hnbnmu, %hnbnvar : tensor<32x3x3x3xf32>, tensor<32xf32>, tensor<32xf32>, tensor<32xf32>, tensor<32x32x1x1xf32>, tensor<32xf32>, tensor<32xf32>, tensor<32xf32>, tensor<32x1x3x3xf32>, tensor<32xf32>, tensor<32xf32>, tensor<32xf32>, tensor<16x32x1x1xf32>, tensor<16xf32>, tensor<16xf32>, tensor<16xf32>, tensor<96x16x1x1xf32>, tensor<96xf32>, tensor<96xf32>, tensor<96xf32>, tensor<96x1x3x3xf32>, tensor<96xf32>, tensor<96xf32>, tensor<96xf32>, tensor<24x96x1x1xf32>, tensor<24xf32>, tensor<24xf32>, tensor<24xf32>, tensor<144x24x1x1xf32>, tensor<144xf32>, tensor<144xf32>, tensor<144xf32>, tensor<144x1x3x3xf32>, tensor<144xf32>, tensor<144xf32>, tensor<144xf32>, tensor<24x144x1x1xf32>, tensor<24xf32>, tensor<24xf32>, tensor<24xf32>, tensor<144x24x1x1xf32>, tensor<144xf32>, tensor<144xf32>, tensor<144xf32>, tensor<144x1x3x3xf32>, tensor<144xf32>, tensor<144xf32>, tensor<144xf32>, tensor<32x144x1x1xf32>, tensor<32xf32>, tensor<32xf32>, tensor<32xf32>, tensor<192x32x1x1xf32>, tensor<192xf32>, tensor<192xf32>, tensor<192xf32>, tensor<192x1x3x3xf32>, tensor<192xf32>, tensor<192xf32>, tensor<192xf32>, tensor<32x192x1x1xf32>, tensor<32xf32>, tensor<32xf32>, tensor<32xf32>, tensor<192x32x1x1xf32>, tensor<192xf32>, tensor<192xf32>, tensor<192xf32>, tensor<192x1x3x3xf32>, tensor<192xf32>, tensor<192xf32>, tensor<192xf32>, tensor<32x192x1x1xf32>, tensor<32xf32>, tensor<32xf32>, tensor<32xf32>, tensor<192x32x1x1xf32>, tensor<192xf32>, tensor<192xf32>, tensor<192xf32>, tensor<192x1x3x3xf32>, tensor<192xf32>, tensor<192xf32>, tensor<192xf32>, tensor<64x192x1x1xf32>, tensor<64xf32>, tensor<64xf32>, tensor<64xf32>, tensor<384x64x1x1xf32>, tensor<384xf32>, tensor<384xf32>, tensor<384xf32>, tensor<384x1x3x3xf32>, tensor<384xf32>, tensor<384xf32>, tensor<384xf32>, tensor<64x384x1x1xf32>, tensor<64xf32>, tensor<64xf32>, tensor<64xf32>, tensor<384x64x1x1xf32>, tensor<384xf32>, tensor<384xf32>, tensor<384xf32>, tensor<384x1x3x3xf32>, tensor<384xf32>, tensor<384xf32>, tensor<384xf32>, tensor<64x384x1x1xf32>, tensor<64xf32>, tensor<64xf32>, tensor<64xf32>, tensor<384x64x1x1xf32>, tensor<384xf32>, tensor<384xf32>, tensor<384xf32>, tensor<384x1x3x3xf32>, tensor<384xf32>, tensor<384xf32>, tensor<384xf32>, tensor<64x384x1x1xf32>, tensor<64xf32>, tensor<64xf32>, tensor<64xf32>, tensor<384x64x1x1xf32>, tensor<384xf32>, tensor<384xf32>, tensor<384xf32>, tensor<384x1x3x3xf32>, tensor<384xf32>, tensor<384xf32>, tensor<384xf32>, tensor<96x384x1x1xf32>, tensor<96xf32>, tensor<96xf32>, tensor<96xf32>, tensor<576x96x1x1xf32>, tensor<576xf32>, tensor<576xf32>, tensor<576xf32>, tensor<576x1x3x3xf32>, tensor<576xf32>, tensor<576xf32>, tensor<576xf32>, tensor<96x576x1x1xf32>, tensor<96xf32>, tensor<96xf32>, tensor<96xf32>, tensor<576x96x1x1xf32>, tensor<576xf32>, tensor<576xf32>, tensor<576xf32>, tensor<576x1x3x3xf32>, tensor<576xf32>, tensor<576xf32>, tensor<576xf32>, tensor<96x576x1x1xf32>, tensor<96xf32>, tensor<96xf32>, tensor<96xf32>, tensor<576x96x1x1xf32>, tensor<576xf32>, tensor<576xf32>, tensor<576xf32>, tensor<576x1x3x3xf32>, tensor<576xf32>, tensor<576xf32>, tensor<576xf32>, tensor<160x576x1x1xf32>, tensor<160xf32>, tensor<160xf32>, tensor<160xf32>, tensor<960x160x1x1xf32>, tensor<960xf32>, tensor<960xf32>, tensor<960xf32>, tensor<960x1x3x3xf32>, tensor<960xf32>, tensor<960xf32>, tensor<960xf32>, tensor<160x960x1x1xf32>, tensor<160xf32>, tensor<160xf32>, tensor<160xf32>, tensor<960x160x1x1xf32>, tensor<960xf32>, tensor<960xf32>, tensor<960xf32>, tensor<960x1x3x3xf32>, tensor<960xf32>, tensor<960xf32>, tensor<960xf32>, tensor<160x960x1x1xf32>, tensor<160xf32>, tensor<160xf32>, tensor<160xf32>, tensor<960x160x1x1xf32>, tensor<960xf32>, tensor<960xf32>, tensor<960xf32>, tensor<960x1x3x3xf32>, tensor<960xf32>, tensor<960xf32>, tensor<960xf32>, tensor<320x960x1x1xf32>, tensor<320xf32>, tensor<320xf32>, tensor<320xf32>, tensor<1280x320x1x1xf32>, tensor<1280xf32>, tensor<1280xf32>, tensor<1280xf32>, tensor<1280x10xf32>, tensor<10xf32>, tensor<32x3x3x3xf32>, tensor<32xf32>, tensor<32xf32>, tensor<32xf32>, tensor<32x32x1x1xf32>, tensor<32xf32>, tensor<32xf32>, tensor<32xf32>, tensor<32x1x3x3xf32>, tensor<32xf32>, tensor<32xf32>, tensor<32xf32>, tensor<16x32x1x1xf32>, tensor<16xf32>, tensor<16xf32>, tensor<16xf32>, tensor<96x16x1x1xf32>, tensor<96xf32>, tensor<96xf32>, tensor<96xf32>, tensor<96x1x3x3xf32>, tensor<96xf32>, tensor<96xf32>, tensor<96xf32>, tensor<24x96x1x1xf32>, tensor<24xf32>, tensor<24xf32>, tensor<24xf32>, tensor<144x24x1x1xf32>, tensor<144xf32>, tensor<144xf32>, tensor<144xf32>, tensor<144x1x3x3xf32>, tensor<144xf32>, tensor<144xf32>, tensor<144xf32>, tensor<24x144x1x1xf32>, tensor<24xf32>, tensor<24xf32>, tensor<24xf32>, tensor<144x24x1x1xf32>, tensor<144xf32>, tensor<144xf32>, tensor<144xf32>, tensor<144x1x3x3xf32>, tensor<144xf32>, tensor<144xf32>, tensor<144xf32>, tensor<32x144x1x1xf32>, tensor<32xf32>, tensor<32xf32>, tensor<32xf32>, tensor<192x32x1x1xf32>, tensor<192xf32>, tensor<192xf32>, tensor<192xf32>, tensor<192x1x3x3xf32>, tensor<192xf32>, tensor<192xf32>, tensor<192xf32>, tensor<32x192x1x1xf32>, tensor<32xf32>, tensor<32xf32>, tensor<32xf32>, tensor<192x32x1x1xf32>, tensor<192xf32>, tensor<192xf32>, tensor<192xf32>, tensor<192x1x3x3xf32>, tensor<192xf32>, tensor<192xf32>, tensor<192xf32>, tensor<32x192x1x1xf32>, tensor<32xf32>, tensor<32xf32>, tensor<32xf32>, tensor<192x32x1x1xf32>, tensor<192xf32>, tensor<192xf32>, tensor<192xf32>, tensor<192x1x3x3xf32>, tensor<192xf32>, tensor<192xf32>, tensor<192xf32>, tensor<64x192x1x1xf32>, tensor<64xf32>, tensor<64xf32>, tensor<64xf32>, tensor<384x64x1x1xf32>, tensor<384xf32>, tensor<384xf32>, tensor<384xf32>, tensor<384x1x3x3xf32>, tensor<384xf32>, tensor<384xf32>, tensor<384xf32>, tensor<64x384x1x1xf32>, tensor<64xf32>, tensor<64xf32>, tensor<64xf32>, tensor<384x64x1x1xf32>, tensor<384xf32>, tensor<384xf32>, tensor<384xf32>, tensor<384x1x3x3xf32>, tensor<384xf32>, tensor<384xf32>, tensor<384xf32>, tensor<64x384x1x1xf32>, tensor<64xf32>, tensor<64xf32>, tensor<64xf32>, tensor<384x64x1x1xf32>, tensor<384xf32>, tensor<384xf32>, tensor<384xf32>, tensor<384x1x3x3xf32>, tensor<384xf32>, tensor<384xf32>, tensor<384xf32>, tensor<64x384x1x1xf32>, tensor<64xf32>, tensor<64xf32>, tensor<64xf32>, tensor<384x64x1x1xf32>, tensor<384xf32>, tensor<384xf32>, tensor<384xf32>, tensor<384x1x3x3xf32>, tensor<384xf32>, tensor<384xf32>, tensor<384xf32>, tensor<96x384x1x1xf32>, tensor<96xf32>, tensor<96xf32>, tensor<96xf32>, tensor<576x96x1x1xf32>, tensor<576xf32>, tensor<576xf32>, tensor<576xf32>, tensor<576x1x3x3xf32>, tensor<576xf32>, tensor<576xf32>, tensor<576xf32>, tensor<96x576x1x1xf32>, tensor<96xf32>, tensor<96xf32>, tensor<96xf32>, tensor<576x96x1x1xf32>, tensor<576xf32>, tensor<576xf32>, tensor<576xf32>, tensor<576x1x3x3xf32>, tensor<576xf32>, tensor<576xf32>, tensor<576xf32>, tensor<96x576x1x1xf32>, tensor<96xf32>, tensor<96xf32>, tensor<96xf32>, tensor<576x96x1x1xf32>, tensor<576xf32>, tensor<576xf32>, tensor<576xf32>, tensor<576x1x3x3xf32>, tensor<576xf32>, tensor<576xf32>, tensor<576xf32>, tensor<160x576x1x1xf32>, tensor<160xf32>, tensor<160xf32>, tensor<160xf32>, tensor<960x160x1x1xf32>, tensor<960xf32>, tensor<960xf32>, tensor<960xf32>, tensor<960x1x3x3xf32>, tensor<960xf32>, tensor<960xf32>, tensor<960xf32>, tensor<160x960x1x1xf32>, tensor<160xf32>, tensor<160xf32>, tensor<160xf32>, tensor<960x160x1x1xf32>, tensor<960xf32>, tensor<960xf32>, tensor<960xf32>, tensor<960x1x3x3xf32>, tensor<960xf32>, tensor<960xf32>, tensor<960xf32>, tensor<160x960x1x1xf32>, tensor<160xf32>, tensor<160xf32>, tensor<160xf32>, tensor<960x160x1x1xf32>, tensor<960xf32>, tensor<960xf32>, tensor<960xf32>, tensor<960x1x3x3xf32>, tensor<960xf32>, tensor<960xf32>, tensor<960xf32>, tensor<320x960x1x1xf32>, tensor<320xf32>, tensor<320xf32>, tensor<320xf32>, tensor<1280x320x1x1xf32>, tensor<1280xf32>, tensor<1280xf32>, tensor<1280xf32>, tensor<1280x10xf32>, tensor<10xf32>, tensor<32x3x3x3xf32>, tensor<32xf32>, tensor<32xf32>, tensor<32xf32>, tensor<32x32x1x1xf32>, tensor<32xf32>, tensor<32xf32>, tensor<32xf32>, tensor<32x1x3x3xf32>, tensor<32xf32>, tensor<32xf32>, tensor<32xf32>, tensor<16x32x1x1xf32>, tensor<16xf32>, tensor<16xf32>, tensor<16xf32>, tensor<96x16x1x1xf32>, tensor<96xf32>, tensor<96xf32>, tensor<96xf32>, tensor<96x1x3x3xf32>, tensor<96xf32>, tensor<96xf32>, tensor<96xf32>, tensor<24x96x1x1xf32>, tensor<24xf32>, tensor<24xf32>, tensor<24xf32>, tensor<144x24x1x1xf32>, tensor<144xf32>, tensor<144xf32>, tensor<144xf32>, tensor<144x1x3x3xf32>, tensor<144xf32>, tensor<144xf32>, tensor<144xf32>, tensor<24x144x1x1xf32>, tensor<24xf32>, tensor<24xf32>, tensor<24xf32>, tensor<144x24x1x1xf32>, tensor<144xf32>, tensor<144xf32>, tensor<144xf32>, tensor<144x1x3x3xf32>, tensor<144xf32>, tensor<144xf32>, tensor<144xf32>, tensor<32x144x1x1xf32>, tensor<32xf32>, tensor<32xf32>, tensor<32xf32>, tensor<192x32x1x1xf32>, tensor<192xf32>, tensor<192xf32>, tensor<192xf32>, tensor<192x1x3x3xf32>, tensor<192xf32>, tensor<192xf32>, tensor<192xf32>, tensor<32x192x1x1xf32>, tensor<32xf32>, tensor<32xf32>, tensor<32xf32>, tensor<192x32x1x1xf32>, tensor<192xf32>, tensor<192xf32>, tensor<192xf32>, tensor<192x1x3x3xf32>, tensor<192xf32>, tensor<192xf32>, tensor<192xf32>, tensor<32x192x1x1xf32>, tensor<32xf32>, tensor<32xf32>, tensor<32xf32>, tensor<192x32x1x1xf32>, tensor<192xf32>, tensor<192xf32>, tensor<192xf32>, tensor<192x1x3x3xf32>, tensor<192xf32>, tensor<192xf32>, tensor<192xf32>, tensor<64x192x1x1xf32>, tensor<64xf32>, tensor<64xf32>, tensor<64xf32>, tensor<384x64x1x1xf32>, tensor<384xf32>, tensor<384xf32>, tensor<384xf32>, tensor<384x1x3x3xf32>, tensor<384xf32>, tensor<384xf32>, tensor<384xf32>, tensor<64x384x1x1xf32>, tensor<64xf32>, tensor<64xf32>, tensor<64xf32>, tensor<384x64x1x1xf32>, tensor<384xf32>, tensor<384xf32>, tensor<384xf32>, tensor<384x1x3x3xf32>, tensor<384xf32>, tensor<384xf32>, tensor<384xf32>, tensor<64x384x1x1xf32>, tensor<64xf32>, tensor<64xf32>, tensor<64xf32>, tensor<384x64x1x1xf32>, tensor<384xf32>, tensor<384xf32>, tensor<384xf32>, tensor<384x1x3x3xf32>, tensor<384xf32>, tensor<384xf32>, tensor<384xf32>, tensor<64x384x1x1xf32>, tensor<64xf32>, tensor<64xf32>, tensor<64xf32>, tensor<384x64x1x1xf32>, tensor<384xf32>, tensor<384xf32>, tensor<384xf32>, tensor<384x1x3x3xf32>, tensor<384xf32>, tensor<384xf32>, tensor<384xf32>, tensor<96x384x1x1xf32>, tensor<96xf32>, tensor<96xf32>, tensor<96xf32>, tensor<576x96x1x1xf32>, tensor<576xf32>, tensor<576xf32>, tensor<576xf32>, tensor<576x1x3x3xf32>, tensor<576xf32>, tensor<576xf32>, tensor<576xf32>, tensor<96x576x1x1xf32>, tensor<96xf32>, tensor<96xf32>, tensor<96xf32>, tensor<576x96x1x1xf32>, tensor<576xf32>, tensor<576xf32>, tensor<576xf32>, tensor<576x1x3x3xf32>, tensor<576xf32>, tensor<576xf32>, tensor<576xf32>, tensor<96x576x1x1xf32>, tensor<96xf32>, tensor<96xf32>, tensor<96xf32>, tensor<576x96x1x1xf32>, tensor<576xf32>, tensor<576xf32>, tensor<576xf32>, tensor<576x1x3x3xf32>, tensor<576xf32>, tensor<576xf32>, tensor<576xf32>, tensor<160x576x1x1xf32>, tensor<160xf32>, tensor<160xf32>, tensor<160xf32>, tensor<960x160x1x1xf32>, tensor<960xf32>, tensor<960xf32>, tensor<960xf32>, tensor<960x1x3x3xf32>, tensor<960xf32>, tensor<960xf32>, tensor<960xf32>, tensor<160x960x1x1xf32>, tensor<160xf32>, tensor<160xf32>, tensor<160xf32>, tensor<960x160x1x1xf32>, tensor<960xf32>, tensor<960xf32>, tensor<960xf32>, tensor<960x1x3x3xf32>, tensor<960xf32>, tensor<960xf32>, tensor<960xf32>, tensor<160x960x1x1xf32>, tensor<160xf32>, tensor<160xf32>, tensor<160xf32>, tensor<960x160x1x1xf32>, tensor<960xf32>, tensor<960xf32>, tensor<960xf32>, tensor<960x1x3x3xf32>, tensor<960xf32>, tensor<960xf32>, tensor<960xf32>, tensor<320x960x1x1xf32>, tensor<320xf32>, tensor<320xf32>, tensor<320xf32>, tensor<1280x320x1x1xf32>, tensor<1280xf32>, tensor<1280xf32>, tensor<1280xf32>, tensor<1280x10xf32>, tensor<10xf32>, tensor<f32>, tensor<f32>, tensor<f32>, tensor<32xf32>, tensor<32xf32>, tensor<32xf32>, tensor<32xf32>, tensor<32xf32>, tensor<32xf32>, tensor<16xf32>, tensor<16xf32>, tensor<96xf32>, tensor<96xf32>, tensor<96xf32>, tensor<96xf32>, tensor<24xf32>, tensor<24xf32>, tensor<144xf32>, tensor<144xf32>, tensor<144xf32>, tensor<144xf32>, tensor<24xf32>, tensor<24xf32>, tensor<144xf32>, tensor<144xf32>, tensor<144xf32>, tensor<144xf32>, tensor<32xf32>, tensor<32xf32>, tensor<192xf32>, tensor<192xf32>, tensor<192xf32>, tensor<192xf32>, tensor<32xf32>, tensor<32xf32>, tensor<192xf32>, tensor<192xf32>, tensor<192xf32>, tensor<192xf32>, tensor<32xf32>, tensor<32xf32>, tensor<192xf32>, tensor<192xf32>, tensor<192xf32>, tensor<192xf32>, tensor<64xf32>, tensor<64xf32>, tensor<384xf32>, tensor<384xf32>, tensor<384xf32>, tensor<384xf32>, tensor<64xf32>, tensor<64xf32>, tensor<384xf32>, tensor<384xf32>, tensor<384xf32>, tensor<384xf32>, tensor<64xf32>, tensor<64xf32>, tensor<384xf32>, tensor<384xf32>, tensor<384xf32>, tensor<384xf32>, tensor<64xf32>, tensor<64xf32>, tensor<384xf32>, tensor<384xf32>, tensor<384xf32>, tensor<384xf32>, tensor<96xf32>, tensor<96xf32>, tensor<576xf32>, tensor<576xf32>, tensor<576xf32>, tensor<576xf32>, tensor<96xf32>, tensor<96xf32>, tensor<576xf32>, tensor<576xf32>, tensor<576xf32>, tensor<576xf32>, tensor<96xf32>, tensor<96xf32>, tensor<576xf32>, tensor<576xf32>, tensor<576xf32>, tensor<576xf32>, tensor<160xf32>, tensor<160xf32>, tensor<960xf32>, tensor<960xf32>, tensor<960xf32>, tensor<960xf32>, tensor<160xf32>, tensor<160xf32>, tensor<960xf32>, tensor<960xf32>, tensor<960xf32>, tensor<960xf32>, tensor<160xf32>, tensor<160xf32>, tensor<960xf32>, tensor<960xf32>, tensor<960xf32>, tensor<960xf32>, tensor<320xf32>, tensor<320xf32>, tensor<1280xf32>, tensor<1280xf32>
  }
}
