module @m {
  func.func @vit_adam_train_step(%x: tensor<32x150528xf32>, %wConv: tensor<192x3x16x16xf32>, %bConv: tensor<192xf32>, %cls: tensor<192xf32>, %pos: tensor<197x192xf32>, %g1_0: tensor<192xf32>, %b1_0: tensor<192xf32>, %Wq_0: tensor<192x192xf32>, %bq_0: tensor<192xf32>, %Wk_0: tensor<192x192xf32>, %bk_0: tensor<192xf32>, %Wv_0: tensor<192x192xf32>, %bv_0: tensor<192xf32>, %Wo_0: tensor<192x192xf32>, %bo_0: tensor<192xf32>, %g2_0: tensor<192xf32>, %b2_0: tensor<192xf32>, %Wfc1_0: tensor<192x768xf32>, %bfc1_0: tensor<768xf32>, %Wfc2_0: tensor<768x192xf32>, %bfc2_0: tensor<192xf32>, %g1_1: tensor<192xf32>, %b1_1: tensor<192xf32>, %Wq_1: tensor<192x192xf32>, %bq_1: tensor<192xf32>, %Wk_1: tensor<192x192xf32>, %bk_1: tensor<192xf32>, %Wv_1: tensor<192x192xf32>, %bv_1: tensor<192xf32>, %Wo_1: tensor<192x192xf32>, %bo_1: tensor<192xf32>, %g2_1: tensor<192xf32>, %b2_1: tensor<192xf32>, %Wfc1_1: tensor<192x768xf32>, %bfc1_1: tensor<768xf32>, %Wfc2_1: tensor<768x192xf32>, %bfc2_1: tensor<192xf32>, %g1_2: tensor<192xf32>, %b1_2: tensor<192xf32>, %Wq_2: tensor<192x192xf32>, %bq_2: tensor<192xf32>, %Wk_2: tensor<192x192xf32>, %bk_2: tensor<192xf32>, %Wv_2: tensor<192x192xf32>, %bv_2: tensor<192xf32>, %Wo_2: tensor<192x192xf32>, %bo_2: tensor<192xf32>, %g2_2: tensor<192xf32>, %b2_2: tensor<192xf32>, %Wfc1_2: tensor<192x768xf32>, %bfc1_2: tensor<768xf32>, %Wfc2_2: tensor<768x192xf32>, %bfc2_2: tensor<192xf32>, %g1_3: tensor<192xf32>, %b1_3: tensor<192xf32>, %Wq_3: tensor<192x192xf32>, %bq_3: tensor<192xf32>, %Wk_3: tensor<192x192xf32>, %bk_3: tensor<192xf32>, %Wv_3: tensor<192x192xf32>, %bv_3: tensor<192xf32>, %Wo_3: tensor<192x192xf32>, %bo_3: tensor<192xf32>, %g2_3: tensor<192xf32>, %b2_3: tensor<192xf32>, %Wfc1_3: tensor<192x768xf32>, %bfc1_3: tensor<768xf32>, %Wfc2_3: tensor<768x192xf32>, %bfc2_3: tensor<192xf32>, %g1_4: tensor<192xf32>, %b1_4: tensor<192xf32>, %Wq_4: tensor<192x192xf32>, %bq_4: tensor<192xf32>, %Wk_4: tensor<192x192xf32>, %bk_4: tensor<192xf32>, %Wv_4: tensor<192x192xf32>, %bv_4: tensor<192xf32>, %Wo_4: tensor<192x192xf32>, %bo_4: tensor<192xf32>, %g2_4: tensor<192xf32>, %b2_4: tensor<192xf32>, %Wfc1_4: tensor<192x768xf32>, %bfc1_4: tensor<768xf32>, %Wfc2_4: tensor<768x192xf32>, %bfc2_4: tensor<192xf32>, %g1_5: tensor<192xf32>, %b1_5: tensor<192xf32>, %Wq_5: tensor<192x192xf32>, %bq_5: tensor<192xf32>, %Wk_5: tensor<192x192xf32>, %bk_5: tensor<192xf32>, %Wv_5: tensor<192x192xf32>, %bv_5: tensor<192xf32>, %Wo_5: tensor<192x192xf32>, %bo_5: tensor<192xf32>, %g2_5: tensor<192xf32>, %b2_5: tensor<192xf32>, %Wfc1_5: tensor<192x768xf32>, %bfc1_5: tensor<768xf32>, %Wfc2_5: tensor<768x192xf32>, %bfc2_5: tensor<192xf32>, %g1_6: tensor<192xf32>, %b1_6: tensor<192xf32>, %Wq_6: tensor<192x192xf32>, %bq_6: tensor<192xf32>, %Wk_6: tensor<192x192xf32>, %bk_6: tensor<192xf32>, %Wv_6: tensor<192x192xf32>, %bv_6: tensor<192xf32>, %Wo_6: tensor<192x192xf32>, %bo_6: tensor<192xf32>, %g2_6: tensor<192xf32>, %b2_6: tensor<192xf32>, %Wfc1_6: tensor<192x768xf32>, %bfc1_6: tensor<768xf32>, %Wfc2_6: tensor<768x192xf32>, %bfc2_6: tensor<192xf32>, %g1_7: tensor<192xf32>, %b1_7: tensor<192xf32>, %Wq_7: tensor<192x192xf32>, %bq_7: tensor<192xf32>, %Wk_7: tensor<192x192xf32>, %bk_7: tensor<192xf32>, %Wv_7: tensor<192x192xf32>, %bv_7: tensor<192xf32>, %Wo_7: tensor<192x192xf32>, %bo_7: tensor<192xf32>, %g2_7: tensor<192xf32>, %b2_7: tensor<192xf32>, %Wfc1_7: tensor<192x768xf32>, %bfc1_7: tensor<768xf32>, %Wfc2_7: tensor<768x192xf32>, %bfc2_7: tensor<192xf32>, %g1_8: tensor<192xf32>, %b1_8: tensor<192xf32>, %Wq_8: tensor<192x192xf32>, %bq_8: tensor<192xf32>, %Wk_8: tensor<192x192xf32>, %bk_8: tensor<192xf32>, %Wv_8: tensor<192x192xf32>, %bv_8: tensor<192xf32>, %Wo_8: tensor<192x192xf32>, %bo_8: tensor<192xf32>, %g2_8: tensor<192xf32>, %b2_8: tensor<192xf32>, %Wfc1_8: tensor<192x768xf32>, %bfc1_8: tensor<768xf32>, %Wfc2_8: tensor<768x192xf32>, %bfc2_8: tensor<192xf32>, %g1_9: tensor<192xf32>, %b1_9: tensor<192xf32>, %Wq_9: tensor<192x192xf32>, %bq_9: tensor<192xf32>, %Wk_9: tensor<192x192xf32>, %bk_9: tensor<192xf32>, %Wv_9: tensor<192x192xf32>, %bv_9: tensor<192xf32>, %Wo_9: tensor<192x192xf32>, %bo_9: tensor<192xf32>, %g2_9: tensor<192xf32>, %b2_9: tensor<192xf32>, %Wfc1_9: tensor<192x768xf32>, %bfc1_9: tensor<768xf32>, %Wfc2_9: tensor<768x192xf32>, %bfc2_9: tensor<192xf32>, %g1_10: tensor<192xf32>, %b1_10: tensor<192xf32>, %Wq_10: tensor<192x192xf32>, %bq_10: tensor<192xf32>, %Wk_10: tensor<192x192xf32>, %bk_10: tensor<192xf32>, %Wv_10: tensor<192x192xf32>, %bv_10: tensor<192xf32>, %Wo_10: tensor<192x192xf32>, %bo_10: tensor<192xf32>, %g2_10: tensor<192xf32>, %b2_10: tensor<192xf32>, %Wfc1_10: tensor<192x768xf32>, %bfc1_10: tensor<768xf32>, %Wfc2_10: tensor<768x192xf32>, %bfc2_10: tensor<192xf32>, %g1_11: tensor<192xf32>, %b1_11: tensor<192xf32>, %Wq_11: tensor<192x192xf32>, %bq_11: tensor<192xf32>, %Wk_11: tensor<192x192xf32>, %bk_11: tensor<192xf32>, %Wv_11: tensor<192x192xf32>, %bv_11: tensor<192xf32>, %Wo_11: tensor<192x192xf32>, %bo_11: tensor<192xf32>, %g2_11: tensor<192xf32>, %b2_11: tensor<192xf32>, %Wfc1_11: tensor<192x768xf32>, %bfc1_11: tensor<768xf32>, %Wfc2_11: tensor<768x192xf32>, %bfc2_11: tensor<192xf32>, %gF: tensor<192xf32>, %bF: tensor<192xf32>, %Wc: tensor<192x10xf32>, %bc: tensor<10xf32>, %wConvm: tensor<192x3x16x16xf32>, %bConvm: tensor<192xf32>, %clsm: tensor<192xf32>, %posm: tensor<197x192xf32>, %g1_0m: tensor<192xf32>, %b1_0m: tensor<192xf32>, %Wq_0m: tensor<192x192xf32>, %bq_0m: tensor<192xf32>, %Wk_0m: tensor<192x192xf32>, %bk_0m: tensor<192xf32>, %Wv_0m: tensor<192x192xf32>, %bv_0m: tensor<192xf32>, %Wo_0m: tensor<192x192xf32>, %bo_0m: tensor<192xf32>, %g2_0m: tensor<192xf32>, %b2_0m: tensor<192xf32>, %Wfc1_0m: tensor<192x768xf32>, %bfc1_0m: tensor<768xf32>, %Wfc2_0m: tensor<768x192xf32>, %bfc2_0m: tensor<192xf32>, %g1_1m: tensor<192xf32>, %b1_1m: tensor<192xf32>, %Wq_1m: tensor<192x192xf32>, %bq_1m: tensor<192xf32>, %Wk_1m: tensor<192x192xf32>, %bk_1m: tensor<192xf32>, %Wv_1m: tensor<192x192xf32>, %bv_1m: tensor<192xf32>, %Wo_1m: tensor<192x192xf32>, %bo_1m: tensor<192xf32>, %g2_1m: tensor<192xf32>, %b2_1m: tensor<192xf32>, %Wfc1_1m: tensor<192x768xf32>, %bfc1_1m: tensor<768xf32>, %Wfc2_1m: tensor<768x192xf32>, %bfc2_1m: tensor<192xf32>, %g1_2m: tensor<192xf32>, %b1_2m: tensor<192xf32>, %Wq_2m: tensor<192x192xf32>, %bq_2m: tensor<192xf32>, %Wk_2m: tensor<192x192xf32>, %bk_2m: tensor<192xf32>, %Wv_2m: tensor<192x192xf32>, %bv_2m: tensor<192xf32>, %Wo_2m: tensor<192x192xf32>, %bo_2m: tensor<192xf32>, %g2_2m: tensor<192xf32>, %b2_2m: tensor<192xf32>, %Wfc1_2m: tensor<192x768xf32>, %bfc1_2m: tensor<768xf32>, %Wfc2_2m: tensor<768x192xf32>, %bfc2_2m: tensor<192xf32>, %g1_3m: tensor<192xf32>, %b1_3m: tensor<192xf32>, %Wq_3m: tensor<192x192xf32>, %bq_3m: tensor<192xf32>, %Wk_3m: tensor<192x192xf32>, %bk_3m: tensor<192xf32>, %Wv_3m: tensor<192x192xf32>, %bv_3m: tensor<192xf32>, %Wo_3m: tensor<192x192xf32>, %bo_3m: tensor<192xf32>, %g2_3m: tensor<192xf32>, %b2_3m: tensor<192xf32>, %Wfc1_3m: tensor<192x768xf32>, %bfc1_3m: tensor<768xf32>, %Wfc2_3m: tensor<768x192xf32>, %bfc2_3m: tensor<192xf32>, %g1_4m: tensor<192xf32>, %b1_4m: tensor<192xf32>, %Wq_4m: tensor<192x192xf32>, %bq_4m: tensor<192xf32>, %Wk_4m: tensor<192x192xf32>, %bk_4m: tensor<192xf32>, %Wv_4m: tensor<192x192xf32>, %bv_4m: tensor<192xf32>, %Wo_4m: tensor<192x192xf32>, %bo_4m: tensor<192xf32>, %g2_4m: tensor<192xf32>, %b2_4m: tensor<192xf32>, %Wfc1_4m: tensor<192x768xf32>, %bfc1_4m: tensor<768xf32>, %Wfc2_4m: tensor<768x192xf32>, %bfc2_4m: tensor<192xf32>, %g1_5m: tensor<192xf32>, %b1_5m: tensor<192xf32>, %Wq_5m: tensor<192x192xf32>, %bq_5m: tensor<192xf32>, %Wk_5m: tensor<192x192xf32>, %bk_5m: tensor<192xf32>, %Wv_5m: tensor<192x192xf32>, %bv_5m: tensor<192xf32>, %Wo_5m: tensor<192x192xf32>, %bo_5m: tensor<192xf32>, %g2_5m: tensor<192xf32>, %b2_5m: tensor<192xf32>, %Wfc1_5m: tensor<192x768xf32>, %bfc1_5m: tensor<768xf32>, %Wfc2_5m: tensor<768x192xf32>, %bfc2_5m: tensor<192xf32>, %g1_6m: tensor<192xf32>, %b1_6m: tensor<192xf32>, %Wq_6m: tensor<192x192xf32>, %bq_6m: tensor<192xf32>, %Wk_6m: tensor<192x192xf32>, %bk_6m: tensor<192xf32>, %Wv_6m: tensor<192x192xf32>, %bv_6m: tensor<192xf32>, %Wo_6m: tensor<192x192xf32>, %bo_6m: tensor<192xf32>, %g2_6m: tensor<192xf32>, %b2_6m: tensor<192xf32>, %Wfc1_6m: tensor<192x768xf32>, %bfc1_6m: tensor<768xf32>, %Wfc2_6m: tensor<768x192xf32>, %bfc2_6m: tensor<192xf32>, %g1_7m: tensor<192xf32>, %b1_7m: tensor<192xf32>, %Wq_7m: tensor<192x192xf32>, %bq_7m: tensor<192xf32>, %Wk_7m: tensor<192x192xf32>, %bk_7m: tensor<192xf32>, %Wv_7m: tensor<192x192xf32>, %bv_7m: tensor<192xf32>, %Wo_7m: tensor<192x192xf32>, %bo_7m: tensor<192xf32>, %g2_7m: tensor<192xf32>, %b2_7m: tensor<192xf32>, %Wfc1_7m: tensor<192x768xf32>, %bfc1_7m: tensor<768xf32>, %Wfc2_7m: tensor<768x192xf32>, %bfc2_7m: tensor<192xf32>, %g1_8m: tensor<192xf32>, %b1_8m: tensor<192xf32>, %Wq_8m: tensor<192x192xf32>, %bq_8m: tensor<192xf32>, %Wk_8m: tensor<192x192xf32>, %bk_8m: tensor<192xf32>, %Wv_8m: tensor<192x192xf32>, %bv_8m: tensor<192xf32>, %Wo_8m: tensor<192x192xf32>, %bo_8m: tensor<192xf32>, %g2_8m: tensor<192xf32>, %b2_8m: tensor<192xf32>, %Wfc1_8m: tensor<192x768xf32>, %bfc1_8m: tensor<768xf32>, %Wfc2_8m: tensor<768x192xf32>, %bfc2_8m: tensor<192xf32>, %g1_9m: tensor<192xf32>, %b1_9m: tensor<192xf32>, %Wq_9m: tensor<192x192xf32>, %bq_9m: tensor<192xf32>, %Wk_9m: tensor<192x192xf32>, %bk_9m: tensor<192xf32>, %Wv_9m: tensor<192x192xf32>, %bv_9m: tensor<192xf32>, %Wo_9m: tensor<192x192xf32>, %bo_9m: tensor<192xf32>, %g2_9m: tensor<192xf32>, %b2_9m: tensor<192xf32>, %Wfc1_9m: tensor<192x768xf32>, %bfc1_9m: tensor<768xf32>, %Wfc2_9m: tensor<768x192xf32>, %bfc2_9m: tensor<192xf32>, %g1_10m: tensor<192xf32>, %b1_10m: tensor<192xf32>, %Wq_10m: tensor<192x192xf32>, %bq_10m: tensor<192xf32>, %Wk_10m: tensor<192x192xf32>, %bk_10m: tensor<192xf32>, %Wv_10m: tensor<192x192xf32>, %bv_10m: tensor<192xf32>, %Wo_10m: tensor<192x192xf32>, %bo_10m: tensor<192xf32>, %g2_10m: tensor<192xf32>, %b2_10m: tensor<192xf32>, %Wfc1_10m: tensor<192x768xf32>, %bfc1_10m: tensor<768xf32>, %Wfc2_10m: tensor<768x192xf32>, %bfc2_10m: tensor<192xf32>, %g1_11m: tensor<192xf32>, %b1_11m: tensor<192xf32>, %Wq_11m: tensor<192x192xf32>, %bq_11m: tensor<192xf32>, %Wk_11m: tensor<192x192xf32>, %bk_11m: tensor<192xf32>, %Wv_11m: tensor<192x192xf32>, %bv_11m: tensor<192xf32>, %Wo_11m: tensor<192x192xf32>, %bo_11m: tensor<192xf32>, %g2_11m: tensor<192xf32>, %b2_11m: tensor<192xf32>, %Wfc1_11m: tensor<192x768xf32>, %bfc1_11m: tensor<768xf32>, %Wfc2_11m: tensor<768x192xf32>, %bfc2_11m: tensor<192xf32>, %gFm: tensor<192xf32>, %bFm: tensor<192xf32>, %Wcm: tensor<192x10xf32>, %bcm: tensor<10xf32>, %wConvv: tensor<192x3x16x16xf32>, %bConvv: tensor<192xf32>, %clsv: tensor<192xf32>, %posv: tensor<197x192xf32>, %g1_0v: tensor<192xf32>, %b1_0v: tensor<192xf32>, %Wq_0v: tensor<192x192xf32>, %bq_0v: tensor<192xf32>, %Wk_0v: tensor<192x192xf32>, %bk_0v: tensor<192xf32>, %Wv_0v: tensor<192x192xf32>, %bv_0v: tensor<192xf32>, %Wo_0v: tensor<192x192xf32>, %bo_0v: tensor<192xf32>, %g2_0v: tensor<192xf32>, %b2_0v: tensor<192xf32>, %Wfc1_0v: tensor<192x768xf32>, %bfc1_0v: tensor<768xf32>, %Wfc2_0v: tensor<768x192xf32>, %bfc2_0v: tensor<192xf32>, %g1_1v: tensor<192xf32>, %b1_1v: tensor<192xf32>, %Wq_1v: tensor<192x192xf32>, %bq_1v: tensor<192xf32>, %Wk_1v: tensor<192x192xf32>, %bk_1v: tensor<192xf32>, %Wv_1v: tensor<192x192xf32>, %bv_1v: tensor<192xf32>, %Wo_1v: tensor<192x192xf32>, %bo_1v: tensor<192xf32>, %g2_1v: tensor<192xf32>, %b2_1v: tensor<192xf32>, %Wfc1_1v: tensor<192x768xf32>, %bfc1_1v: tensor<768xf32>, %Wfc2_1v: tensor<768x192xf32>, %bfc2_1v: tensor<192xf32>, %g1_2v: tensor<192xf32>, %b1_2v: tensor<192xf32>, %Wq_2v: tensor<192x192xf32>, %bq_2v: tensor<192xf32>, %Wk_2v: tensor<192x192xf32>, %bk_2v: tensor<192xf32>, %Wv_2v: tensor<192x192xf32>, %bv_2v: tensor<192xf32>, %Wo_2v: tensor<192x192xf32>, %bo_2v: tensor<192xf32>, %g2_2v: tensor<192xf32>, %b2_2v: tensor<192xf32>, %Wfc1_2v: tensor<192x768xf32>, %bfc1_2v: tensor<768xf32>, %Wfc2_2v: tensor<768x192xf32>, %bfc2_2v: tensor<192xf32>, %g1_3v: tensor<192xf32>, %b1_3v: tensor<192xf32>, %Wq_3v: tensor<192x192xf32>, %bq_3v: tensor<192xf32>, %Wk_3v: tensor<192x192xf32>, %bk_3v: tensor<192xf32>, %Wv_3v: tensor<192x192xf32>, %bv_3v: tensor<192xf32>, %Wo_3v: tensor<192x192xf32>, %bo_3v: tensor<192xf32>, %g2_3v: tensor<192xf32>, %b2_3v: tensor<192xf32>, %Wfc1_3v: tensor<192x768xf32>, %bfc1_3v: tensor<768xf32>, %Wfc2_3v: tensor<768x192xf32>, %bfc2_3v: tensor<192xf32>, %g1_4v: tensor<192xf32>, %b1_4v: tensor<192xf32>, %Wq_4v: tensor<192x192xf32>, %bq_4v: tensor<192xf32>, %Wk_4v: tensor<192x192xf32>, %bk_4v: tensor<192xf32>, %Wv_4v: tensor<192x192xf32>, %bv_4v: tensor<192xf32>, %Wo_4v: tensor<192x192xf32>, %bo_4v: tensor<192xf32>, %g2_4v: tensor<192xf32>, %b2_4v: tensor<192xf32>, %Wfc1_4v: tensor<192x768xf32>, %bfc1_4v: tensor<768xf32>, %Wfc2_4v: tensor<768x192xf32>, %bfc2_4v: tensor<192xf32>, %g1_5v: tensor<192xf32>, %b1_5v: tensor<192xf32>, %Wq_5v: tensor<192x192xf32>, %bq_5v: tensor<192xf32>, %Wk_5v: tensor<192x192xf32>, %bk_5v: tensor<192xf32>, %Wv_5v: tensor<192x192xf32>, %bv_5v: tensor<192xf32>, %Wo_5v: tensor<192x192xf32>, %bo_5v: tensor<192xf32>, %g2_5v: tensor<192xf32>, %b2_5v: tensor<192xf32>, %Wfc1_5v: tensor<192x768xf32>, %bfc1_5v: tensor<768xf32>, %Wfc2_5v: tensor<768x192xf32>, %bfc2_5v: tensor<192xf32>, %g1_6v: tensor<192xf32>, %b1_6v: tensor<192xf32>, %Wq_6v: tensor<192x192xf32>, %bq_6v: tensor<192xf32>, %Wk_6v: tensor<192x192xf32>, %bk_6v: tensor<192xf32>, %Wv_6v: tensor<192x192xf32>, %bv_6v: tensor<192xf32>, %Wo_6v: tensor<192x192xf32>, %bo_6v: tensor<192xf32>, %g2_6v: tensor<192xf32>, %b2_6v: tensor<192xf32>, %Wfc1_6v: tensor<192x768xf32>, %bfc1_6v: tensor<768xf32>, %Wfc2_6v: tensor<768x192xf32>, %bfc2_6v: tensor<192xf32>, %g1_7v: tensor<192xf32>, %b1_7v: tensor<192xf32>, %Wq_7v: tensor<192x192xf32>, %bq_7v: tensor<192xf32>, %Wk_7v: tensor<192x192xf32>, %bk_7v: tensor<192xf32>, %Wv_7v: tensor<192x192xf32>, %bv_7v: tensor<192xf32>, %Wo_7v: tensor<192x192xf32>, %bo_7v: tensor<192xf32>, %g2_7v: tensor<192xf32>, %b2_7v: tensor<192xf32>, %Wfc1_7v: tensor<192x768xf32>, %bfc1_7v: tensor<768xf32>, %Wfc2_7v: tensor<768x192xf32>, %bfc2_7v: tensor<192xf32>, %g1_8v: tensor<192xf32>, %b1_8v: tensor<192xf32>, %Wq_8v: tensor<192x192xf32>, %bq_8v: tensor<192xf32>, %Wk_8v: tensor<192x192xf32>, %bk_8v: tensor<192xf32>, %Wv_8v: tensor<192x192xf32>, %bv_8v: tensor<192xf32>, %Wo_8v: tensor<192x192xf32>, %bo_8v: tensor<192xf32>, %g2_8v: tensor<192xf32>, %b2_8v: tensor<192xf32>, %Wfc1_8v: tensor<192x768xf32>, %bfc1_8v: tensor<768xf32>, %Wfc2_8v: tensor<768x192xf32>, %bfc2_8v: tensor<192xf32>, %g1_9v: tensor<192xf32>, %b1_9v: tensor<192xf32>, %Wq_9v: tensor<192x192xf32>, %bq_9v: tensor<192xf32>, %Wk_9v: tensor<192x192xf32>, %bk_9v: tensor<192xf32>, %Wv_9v: tensor<192x192xf32>, %bv_9v: tensor<192xf32>, %Wo_9v: tensor<192x192xf32>, %bo_9v: tensor<192xf32>, %g2_9v: tensor<192xf32>, %b2_9v: tensor<192xf32>, %Wfc1_9v: tensor<192x768xf32>, %bfc1_9v: tensor<768xf32>, %Wfc2_9v: tensor<768x192xf32>, %bfc2_9v: tensor<192xf32>, %g1_10v: tensor<192xf32>, %b1_10v: tensor<192xf32>, %Wq_10v: tensor<192x192xf32>, %bq_10v: tensor<192xf32>, %Wk_10v: tensor<192x192xf32>, %bk_10v: tensor<192xf32>, %Wv_10v: tensor<192x192xf32>, %bv_10v: tensor<192xf32>, %Wo_10v: tensor<192x192xf32>, %bo_10v: tensor<192xf32>, %g2_10v: tensor<192xf32>, %b2_10v: tensor<192xf32>, %Wfc1_10v: tensor<192x768xf32>, %bfc1_10v: tensor<768xf32>, %Wfc2_10v: tensor<768x192xf32>, %bfc2_10v: tensor<192xf32>, %g1_11v: tensor<192xf32>, %b1_11v: tensor<192xf32>, %Wq_11v: tensor<192x192xf32>, %bq_11v: tensor<192xf32>, %Wk_11v: tensor<192x192xf32>, %bk_11v: tensor<192xf32>, %Wv_11v: tensor<192x192xf32>, %bv_11v: tensor<192xf32>, %Wo_11v: tensor<192x192xf32>, %bo_11v: tensor<192xf32>, %g2_11v: tensor<192xf32>, %b2_11v: tensor<192xf32>, %Wfc1_11v: tensor<192x768xf32>, %bfc1_11v: tensor<768xf32>, %Wfc2_11v: tensor<768x192xf32>, %bfc2_11v: tensor<192xf32>, %gFv: tensor<192xf32>, %bFv: tensor<192xf32>, %Wcv: tensor<192x10xf32>, %bcv: tensor<10xf32>, %lr: tensor<f32>, %bc1: tensor<f32>, %bc2: tensor<f32>, %onehot: tensor<32x10xf32>) -> (tensor<192x3x16x16xf32>, tensor<192xf32>, tensor<192xf32>, tensor<197x192xf32>, tensor<192xf32>, tensor<192xf32>, tensor<192x192xf32>, tensor<192xf32>, tensor<192x192xf32>, tensor<192xf32>, tensor<192x192xf32>, tensor<192xf32>, tensor<192x192xf32>, tensor<192xf32>, tensor<192xf32>, tensor<192xf32>, tensor<192x768xf32>, tensor<768xf32>, tensor<768x192xf32>, tensor<192xf32>, tensor<192xf32>, tensor<192xf32>, tensor<192x192xf32>, tensor<192xf32>, tensor<192x192xf32>, tensor<192xf32>, tensor<192x192xf32>, tensor<192xf32>, tensor<192x192xf32>, tensor<192xf32>, tensor<192xf32>, tensor<192xf32>, tensor<192x768xf32>, tensor<768xf32>, tensor<768x192xf32>, tensor<192xf32>, tensor<192xf32>, tensor<192xf32>, tensor<192x192xf32>, tensor<192xf32>, tensor<192x192xf32>, tensor<192xf32>, tensor<192x192xf32>, tensor<192xf32>, tensor<192x192xf32>, tensor<192xf32>, tensor<192xf32>, tensor<192xf32>, tensor<192x768xf32>, tensor<768xf32>, tensor<768x192xf32>, tensor<192xf32>, tensor<192xf32>, tensor<192xf32>, tensor<192x192xf32>, tensor<192xf32>, tensor<192x192xf32>, tensor<192xf32>, tensor<192x192xf32>, tensor<192xf32>, tensor<192x192xf32>, tensor<192xf32>, tensor<192xf32>, tensor<192xf32>, tensor<192x768xf32>, tensor<768xf32>, tensor<768x192xf32>, tensor<192xf32>, tensor<192xf32>, tensor<192xf32>, tensor<192x192xf32>, tensor<192xf32>, tensor<192x192xf32>, tensor<192xf32>, tensor<192x192xf32>, tensor<192xf32>, tensor<192x192xf32>, tensor<192xf32>, tensor<192xf32>, tensor<192xf32>, tensor<192x768xf32>, tensor<768xf32>, tensor<768x192xf32>, tensor<192xf32>, tensor<192xf32>, tensor<192xf32>, tensor<192x192xf32>, tensor<192xf32>, tensor<192x192xf32>, tensor<192xf32>, tensor<192x192xf32>, tensor<192xf32>, tensor<192x192xf32>, tensor<192xf32>, tensor<192xf32>, tensor<192xf32>, tensor<192x768xf32>, tensor<768xf32>, tensor<768x192xf32>, tensor<192xf32>, tensor<192xf32>, tensor<192xf32>, tensor<192x192xf32>, tensor<192xf32>, tensor<192x192xf32>, tensor<192xf32>, tensor<192x192xf32>, tensor<192xf32>, tensor<192x192xf32>, tensor<192xf32>, tensor<192xf32>, tensor<192xf32>, tensor<192x768xf32>, tensor<768xf32>, tensor<768x192xf32>, tensor<192xf32>, tensor<192xf32>, tensor<192xf32>, tensor<192x192xf32>, tensor<192xf32>, tensor<192x192xf32>, tensor<192xf32>, tensor<192x192xf32>, tensor<192xf32>, tensor<192x192xf32>, tensor<192xf32>, tensor<192xf32>, tensor<192xf32>, tensor<192x768xf32>, tensor<768xf32>, tensor<768x192xf32>, tensor<192xf32>, tensor<192xf32>, tensor<192xf32>, tensor<192x192xf32>, tensor<192xf32>, tensor<192x192xf32>, tensor<192xf32>, tensor<192x192xf32>, tensor<192xf32>, tensor<192x192xf32>, tensor<192xf32>, tensor<192xf32>, tensor<192xf32>, tensor<192x768xf32>, tensor<768xf32>, tensor<768x192xf32>, tensor<192xf32>, tensor<192xf32>, tensor<192xf32>, tensor<192x192xf32>, tensor<192xf32>, tensor<192x192xf32>, tensor<192xf32>, tensor<192x192xf32>, tensor<192xf32>, tensor<192x192xf32>, tensor<192xf32>, tensor<192xf32>, tensor<192xf32>, tensor<192x768xf32>, tensor<768xf32>, tensor<768x192xf32>, tensor<192xf32>, tensor<192xf32>, tensor<192xf32>, tensor<192x192xf32>, tensor<192xf32>, tensor<192x192xf32>, tensor<192xf32>, tensor<192x192xf32>, tensor<192xf32>, tensor<192x192xf32>, tensor<192xf32>, tensor<192xf32>, tensor<192xf32>, tensor<192x768xf32>, tensor<768xf32>, tensor<768x192xf32>, tensor<192xf32>, tensor<192xf32>, tensor<192xf32>, tensor<192x192xf32>, tensor<192xf32>, tensor<192x192xf32>, tensor<192xf32>, tensor<192x192xf32>, tensor<192xf32>, tensor<192x192xf32>, tensor<192xf32>, tensor<192xf32>, tensor<192xf32>, tensor<192x768xf32>, tensor<768xf32>, tensor<768x192xf32>, tensor<192xf32>, tensor<192xf32>, tensor<192xf32>, tensor<192x10xf32>, tensor<10xf32>, tensor<192x3x16x16xf32>, tensor<192xf32>, tensor<192xf32>, tensor<197x192xf32>, tensor<192xf32>, tensor<192xf32>, tensor<192x192xf32>, tensor<192xf32>, tensor<192x192xf32>, tensor<192xf32>, tensor<192x192xf32>, tensor<192xf32>, tensor<192x192xf32>, tensor<192xf32>, tensor<192xf32>, tensor<192xf32>, tensor<192x768xf32>, tensor<768xf32>, tensor<768x192xf32>, tensor<192xf32>, tensor<192xf32>, tensor<192xf32>, tensor<192x192xf32>, tensor<192xf32>, tensor<192x192xf32>, tensor<192xf32>, tensor<192x192xf32>, tensor<192xf32>, tensor<192x192xf32>, tensor<192xf32>, tensor<192xf32>, tensor<192xf32>, tensor<192x768xf32>, tensor<768xf32>, tensor<768x192xf32>, tensor<192xf32>, tensor<192xf32>, tensor<192xf32>, tensor<192x192xf32>, tensor<192xf32>, tensor<192x192xf32>, tensor<192xf32>, tensor<192x192xf32>, tensor<192xf32>, tensor<192x192xf32>, tensor<192xf32>, tensor<192xf32>, tensor<192xf32>, tensor<192x768xf32>, tensor<768xf32>, tensor<768x192xf32>, tensor<192xf32>, tensor<192xf32>, tensor<192xf32>, tensor<192x192xf32>, tensor<192xf32>, tensor<192x192xf32>, tensor<192xf32>, tensor<192x192xf32>, tensor<192xf32>, tensor<192x192xf32>, tensor<192xf32>, tensor<192xf32>, tensor<192xf32>, tensor<192x768xf32>, tensor<768xf32>, tensor<768x192xf32>, tensor<192xf32>, tensor<192xf32>, tensor<192xf32>, tensor<192x192xf32>, tensor<192xf32>, tensor<192x192xf32>, tensor<192xf32>, tensor<192x192xf32>, tensor<192xf32>, tensor<192x192xf32>, tensor<192xf32>, tensor<192xf32>, tensor<192xf32>, tensor<192x768xf32>, tensor<768xf32>, tensor<768x192xf32>, tensor<192xf32>, tensor<192xf32>, tensor<192xf32>, tensor<192x192xf32>, tensor<192xf32>, tensor<192x192xf32>, tensor<192xf32>, tensor<192x192xf32>, tensor<192xf32>, tensor<192x192xf32>, tensor<192xf32>, tensor<192xf32>, tensor<192xf32>, tensor<192x768xf32>, tensor<768xf32>, tensor<768x192xf32>, tensor<192xf32>, tensor<192xf32>, tensor<192xf32>, tensor<192x192xf32>, tensor<192xf32>, tensor<192x192xf32>, tensor<192xf32>, tensor<192x192xf32>, tensor<192xf32>, tensor<192x192xf32>, tensor<192xf32>, tensor<192xf32>, tensor<192xf32>, tensor<192x768xf32>, tensor<768xf32>, tensor<768x192xf32>, tensor<192xf32>, tensor<192xf32>, tensor<192xf32>, tensor<192x192xf32>, tensor<192xf32>, tensor<192x192xf32>, tensor<192xf32>, tensor<192x192xf32>, tensor<192xf32>, tensor<192x192xf32>, tensor<192xf32>, tensor<192xf32>, tensor<192xf32>, tensor<192x768xf32>, tensor<768xf32>, tensor<768x192xf32>, tensor<192xf32>, tensor<192xf32>, tensor<192xf32>, tensor<192x192xf32>, tensor<192xf32>, tensor<192x192xf32>, tensor<192xf32>, tensor<192x192xf32>, tensor<192xf32>, tensor<192x192xf32>, tensor<192xf32>, tensor<192xf32>, tensor<192xf32>, tensor<192x768xf32>, tensor<768xf32>, tensor<768x192xf32>, tensor<192xf32>, tensor<192xf32>, tensor<192xf32>, tensor<192x192xf32>, tensor<192xf32>, tensor<192x192xf32>, tensor<192xf32>, tensor<192x192xf32>, tensor<192xf32>, tensor<192x192xf32>, tensor<192xf32>, tensor<192xf32>, tensor<192xf32>, tensor<192x768xf32>, tensor<768xf32>, tensor<768x192xf32>, tensor<192xf32>, tensor<192xf32>, tensor<192xf32>, tensor<192x192xf32>, tensor<192xf32>, tensor<192x192xf32>, tensor<192xf32>, tensor<192x192xf32>, tensor<192xf32>, tensor<192x192xf32>, tensor<192xf32>, tensor<192xf32>, tensor<192xf32>, tensor<192x768xf32>, tensor<768xf32>, tensor<768x192xf32>, tensor<192xf32>, tensor<192xf32>, tensor<192xf32>, tensor<192x192xf32>, tensor<192xf32>, tensor<192x192xf32>, tensor<192xf32>, tensor<192x192xf32>, tensor<192xf32>, tensor<192x192xf32>, tensor<192xf32>, tensor<192xf32>, tensor<192xf32>, tensor<192x768xf32>, tensor<768xf32>, tensor<768x192xf32>, tensor<192xf32>, tensor<192xf32>, tensor<192xf32>, tensor<192x10xf32>, tensor<10xf32>, tensor<192x3x16x16xf32>, tensor<192xf32>, tensor<192xf32>, tensor<197x192xf32>, tensor<192xf32>, tensor<192xf32>, tensor<192x192xf32>, tensor<192xf32>, tensor<192x192xf32>, tensor<192xf32>, tensor<192x192xf32>, tensor<192xf32>, tensor<192x192xf32>, tensor<192xf32>, tensor<192xf32>, tensor<192xf32>, tensor<192x768xf32>, tensor<768xf32>, tensor<768x192xf32>, tensor<192xf32>, tensor<192xf32>, tensor<192xf32>, tensor<192x192xf32>, tensor<192xf32>, tensor<192x192xf32>, tensor<192xf32>, tensor<192x192xf32>, tensor<192xf32>, tensor<192x192xf32>, tensor<192xf32>, tensor<192xf32>, tensor<192xf32>, tensor<192x768xf32>, tensor<768xf32>, tensor<768x192xf32>, tensor<192xf32>, tensor<192xf32>, tensor<192xf32>, tensor<192x192xf32>, tensor<192xf32>, tensor<192x192xf32>, tensor<192xf32>, tensor<192x192xf32>, tensor<192xf32>, tensor<192x192xf32>, tensor<192xf32>, tensor<192xf32>, tensor<192xf32>, tensor<192x768xf32>, tensor<768xf32>, tensor<768x192xf32>, tensor<192xf32>, tensor<192xf32>, tensor<192xf32>, tensor<192x192xf32>, tensor<192xf32>, tensor<192x192xf32>, tensor<192xf32>, tensor<192x192xf32>, tensor<192xf32>, tensor<192x192xf32>, tensor<192xf32>, tensor<192xf32>, tensor<192xf32>, tensor<192x768xf32>, tensor<768xf32>, tensor<768x192xf32>, tensor<192xf32>, tensor<192xf32>, tensor<192xf32>, tensor<192x192xf32>, tensor<192xf32>, tensor<192x192xf32>, tensor<192xf32>, tensor<192x192xf32>, tensor<192xf32>, tensor<192x192xf32>, tensor<192xf32>, tensor<192xf32>, tensor<192xf32>, tensor<192x768xf32>, tensor<768xf32>, tensor<768x192xf32>, tensor<192xf32>, tensor<192xf32>, tensor<192xf32>, tensor<192x192xf32>, tensor<192xf32>, tensor<192x192xf32>, tensor<192xf32>, tensor<192x192xf32>, tensor<192xf32>, tensor<192x192xf32>, tensor<192xf32>, tensor<192xf32>, tensor<192xf32>, tensor<192x768xf32>, tensor<768xf32>, tensor<768x192xf32>, tensor<192xf32>, tensor<192xf32>, tensor<192xf32>, tensor<192x192xf32>, tensor<192xf32>, tensor<192x192xf32>, tensor<192xf32>, tensor<192x192xf32>, tensor<192xf32>, tensor<192x192xf32>, tensor<192xf32>, tensor<192xf32>, tensor<192xf32>, tensor<192x768xf32>, tensor<768xf32>, tensor<768x192xf32>, tensor<192xf32>, tensor<192xf32>, tensor<192xf32>, tensor<192x192xf32>, tensor<192xf32>, tensor<192x192xf32>, tensor<192xf32>, tensor<192x192xf32>, tensor<192xf32>, tensor<192x192xf32>, tensor<192xf32>, tensor<192xf32>, tensor<192xf32>, tensor<192x768xf32>, tensor<768xf32>, tensor<768x192xf32>, tensor<192xf32>, tensor<192xf32>, tensor<192xf32>, tensor<192x192xf32>, tensor<192xf32>, tensor<192x192xf32>, tensor<192xf32>, tensor<192x192xf32>, tensor<192xf32>, tensor<192x192xf32>, tensor<192xf32>, tensor<192xf32>, tensor<192xf32>, tensor<192x768xf32>, tensor<768xf32>, tensor<768x192xf32>, tensor<192xf32>, tensor<192xf32>, tensor<192xf32>, tensor<192x192xf32>, tensor<192xf32>, tensor<192x192xf32>, tensor<192xf32>, tensor<192x192xf32>, tensor<192xf32>, tensor<192x192xf32>, tensor<192xf32>, tensor<192xf32>, tensor<192xf32>, tensor<192x768xf32>, tensor<768xf32>, tensor<768x192xf32>, tensor<192xf32>, tensor<192xf32>, tensor<192xf32>, tensor<192x192xf32>, tensor<192xf32>, tensor<192x192xf32>, tensor<192xf32>, tensor<192x192xf32>, tensor<192xf32>, tensor<192x192xf32>, tensor<192xf32>, tensor<192xf32>, tensor<192xf32>, tensor<192x768xf32>, tensor<768xf32>, tensor<768x192xf32>, tensor<192xf32>, tensor<192xf32>, tensor<192xf32>, tensor<192x192xf32>, tensor<192xf32>, tensor<192x192xf32>, tensor<192xf32>, tensor<192x192xf32>, tensor<192xf32>, tensor<192x192xf32>, tensor<192xf32>, tensor<192xf32>, tensor<192xf32>, tensor<192x768xf32>, tensor<768xf32>, tensor<768x192xf32>, tensor<192xf32>, tensor<192xf32>, tensor<192xf32>, tensor<192x10xf32>, tensor<10xf32>, tensor<f32>, tensor<f32>, tensor<f32>) {
    %sc = stablehlo.constant dense<0.0> : tensor<f32>
    %b1 = stablehlo.constant dense<0.9> : tensor<f32>
    %ob1 = stablehlo.constant dense<0.1> : tensor<f32>
    %b2 = stablehlo.constant dense<0.999> : tensor<f32>
    %ob2 = stablehlo.constant dense<0.001> : tensor<f32>
    %eps = stablehlo.constant dense<1.0e-8> : tensor<f32>
    %wd = stablehlo.constant dense<0.0001> : tensor<f32>
    %xr = stablehlo.reshape %x : (tensor<32x150528xf32>) -> tensor<32x3x224x224xf32>
    %vitpec = stablehlo.convolution(%xr, %wConv)
      dim_numbers = [b, f, 0, 1]x[o, i, 0, 1]->[b, f, 0, 1],
      window = {stride = [16, 16], pad = [[0, 0], [0, 0]], lhs_dilate = [1, 1], rhs_dilate = [1, 1]}
      {batch_group_count = 1 : i64, feature_group_count = 1 : i64} : (tensor<32x3x224x224xf32>, tensor<192x3x16x16xf32>) -> tensor<32x192x14x14xf32>
    %vitpecbb = stablehlo.broadcast_in_dim %bConv, dims = [1] : (tensor<192xf32>) -> tensor<32x192x14x14xf32>
    %vitpepe = stablehlo.add %vitpec, %vitpecbb : tensor<32x192x14x14xf32>
    %vitpept = stablehlo.transpose %vitpepe, dims = [0, 2, 3, 1] : (tensor<32x192x14x14xf32>) -> tensor<32x14x14x192xf32>
    %vitpetok = stablehlo.reshape %vitpept : (tensor<32x14x14x192xf32>) -> tensor<32x196x192xf32>
    %vitcpclsb = stablehlo.broadcast_in_dim %cls, dims = [2] : (tensor<192xf32>) -> tensor<32x1x192xf32>
    %vitcpcat = stablehlo.concatenate %vitcpclsb, %vitpetok, dim = 1 : (tensor<32x1x192xf32>, tensor<32x196x192xf32>) -> tensor<32x197x192xf32>
    %vitcpposb = stablehlo.broadcast_in_dim %pos, dims = [1, 2] : (tensor<197x192xf32>) -> tensor<32x197x192xf32>
    %vitcpz = stablehlo.add %vitcpcat, %vitcpposb : tensor<32x197x192xf32>
    %vitb0_1sum = stablehlo.reduce(%vitcpz init: %sc) applies stablehlo.add across dimensions = [2] : (tensor<32x197x192xf32>, tensor<f32>) -> tensor<32x197xf32>
    %vitb0_1nf = stablehlo.constant dense<192.0> : tensor<32x197xf32>
    %vitb0_1mu = stablehlo.divide %vitb0_1sum, %vitb0_1nf : tensor<32x197xf32>
    %vitb0_1mub = stablehlo.broadcast_in_dim %vitb0_1mu, dims = [0, 1] : (tensor<32x197xf32>) -> tensor<32x197x192xf32>
    %vitb0_1xc = stablehlo.subtract %vitcpz, %vitb0_1mub : tensor<32x197x192xf32>
    %vitb0_1sq = stablehlo.multiply %vitb0_1xc, %vitb0_1xc : tensor<32x197x192xf32>
    %vitb0_1vsum = stablehlo.reduce(%vitb0_1sq init: %sc) applies stablehlo.add across dimensions = [2] : (tensor<32x197x192xf32>, tensor<f32>) -> tensor<32x197xf32>
    %vitb0_1var = stablehlo.divide %vitb0_1vsum, %vitb0_1nf : tensor<32x197xf32>
    %vitb0_1eps = stablehlo.constant dense<1.0e-5> : tensor<32x197xf32>
    %vitb0_1ve = stablehlo.add %vitb0_1var, %vitb0_1eps : tensor<32x197xf32>
    %vitb0_1istd = stablehlo.rsqrt %vitb0_1ve : tensor<32x197xf32>
    %vitb0_1istdb = stablehlo.broadcast_in_dim %vitb0_1istd, dims = [0, 1] : (tensor<32x197xf32>) -> tensor<32x197x192xf32>
    %vitb0_1xhat = stablehlo.multiply %vitb0_1xc, %vitb0_1istdb : tensor<32x197x192xf32>
    %vitb0_1gb = stablehlo.broadcast_in_dim %g1_0, dims = [2] : (tensor<192xf32>) -> tensor<32x197x192xf32>
    %vitb0_1bbc = stablehlo.broadcast_in_dim %b1_0, dims = [2] : (tensor<192xf32>) -> tensor<32x197x192xf32>
    %vitb0_1gx = stablehlo.multiply %vitb0_1xhat, %vitb0_1gb : tensor<32x197x192xf32>
    %vitb0_1y = stablehlo.add %vitb0_1gx, %vitb0_1bbc : tensor<32x197x192xf32>
    %vitb0_mQd = stablehlo.dot_general %vitb0_1y, %Wq_0, contracting_dims = [2] x [0], precision = [DEFAULT, DEFAULT] : (tensor<32x197x192xf32>, tensor<192x192xf32>) -> tensor<32x197x192xf32>
    %vitb0_mQbb = stablehlo.broadcast_in_dim %bq_0, dims = [2] : (tensor<192xf32>) -> tensor<32x197x192xf32>
    %vitb0_mQ = stablehlo.add %vitb0_mQd, %vitb0_mQbb : tensor<32x197x192xf32>
    %vitb0_mKd = stablehlo.dot_general %vitb0_1y, %Wk_0, contracting_dims = [2] x [0], precision = [DEFAULT, DEFAULT] : (tensor<32x197x192xf32>, tensor<192x192xf32>) -> tensor<32x197x192xf32>
    %vitb0_mKbb = stablehlo.broadcast_in_dim %bk_0, dims = [2] : (tensor<192xf32>) -> tensor<32x197x192xf32>
    %vitb0_mK = stablehlo.add %vitb0_mKd, %vitb0_mKbb : tensor<32x197x192xf32>
    %vitb0_mVd = stablehlo.dot_general %vitb0_1y, %Wv_0, contracting_dims = [2] x [0], precision = [DEFAULT, DEFAULT] : (tensor<32x197x192xf32>, tensor<192x192xf32>) -> tensor<32x197x192xf32>
    %vitb0_mVbb = stablehlo.broadcast_in_dim %bv_0, dims = [2] : (tensor<192xf32>) -> tensor<32x197x192xf32>
    %vitb0_mV = stablehlo.add %vitb0_mVd, %vitb0_mVbb : tensor<32x197x192xf32>
    %vitb0_mQhr = stablehlo.reshape %vitb0_mQ : (tensor<32x197x192xf32>) -> tensor<32x197x3x64xf32>
    %vitb0_mQh = stablehlo.transpose %vitb0_mQhr, dims = [0, 2, 1, 3] : (tensor<32x197x3x64xf32>) -> tensor<32x3x197x64xf32>
    %vitb0_mKhr = stablehlo.reshape %vitb0_mK : (tensor<32x197x192xf32>) -> tensor<32x197x3x64xf32>
    %vitb0_mKh = stablehlo.transpose %vitb0_mKhr, dims = [0, 2, 1, 3] : (tensor<32x197x3x64xf32>) -> tensor<32x3x197x64xf32>
    %vitb0_mVhr = stablehlo.reshape %vitb0_mV : (tensor<32x197x192xf32>) -> tensor<32x197x3x64xf32>
    %vitb0_mVh = stablehlo.transpose %vitb0_mVhr, dims = [0, 2, 1, 3] : (tensor<32x197x3x64xf32>) -> tensor<32x3x197x64xf32>
    %vitb0_mS = stablehlo.dot_general %vitb0_mQh, %vitb0_mKh, batching_dims = [0, 1] x [0, 1], contracting_dims = [3] x [3], precision = [DEFAULT, DEFAULT] : (tensor<32x3x197x64xf32>, tensor<32x3x197x64xf32>) -> tensor<32x3x197x197xf32>
    %vitb0_mscl = stablehlo.constant dense<0.125> : tensor<32x3x197x197xf32>
    %vitb0_mSs = stablehlo.multiply %vitb0_mS, %vitb0_mscl : tensor<32x3x197x197xf32>
    %vitb0_mse = stablehlo.exponential %vitb0_mSs : tensor<32x3x197x197xf32>
    %vitb0_msum = stablehlo.reduce(%vitb0_mse init: %sc) applies stablehlo.add across dimensions = [3] : (tensor<32x3x197x197xf32>, tensor<f32>) -> tensor<32x3x197xf32>
    %vitb0_msumb = stablehlo.broadcast_in_dim %vitb0_msum, dims = [0, 1, 2] : (tensor<32x3x197xf32>) -> tensor<32x3x197x197xf32>
    %vitb0_mW = stablehlo.divide %vitb0_mse, %vitb0_msumb : tensor<32x3x197x197xf32>
    %vitb0_mA = stablehlo.dot_general %vitb0_mW, %vitb0_mVh, batching_dims = [0, 1] x [0, 1], contracting_dims = [3] x [2], precision = [DEFAULT, DEFAULT] : (tensor<32x3x197x197xf32>, tensor<32x3x197x64xf32>) -> tensor<32x3x197x64xf32>
    %vitb0_mAT = stablehlo.transpose %vitb0_mA, dims = [0, 2, 1, 3] : (tensor<32x3x197x64xf32>) -> tensor<32x197x3x64xf32>
    %vitb0_mP = stablehlo.reshape %vitb0_mAT : (tensor<32x197x3x64xf32>) -> tensor<32x197x192xf32>
    %vitb0_mod = stablehlo.dot_general %vitb0_mP, %Wo_0, contracting_dims = [2] x [0], precision = [DEFAULT, DEFAULT] : (tensor<32x197x192xf32>, tensor<192x192xf32>) -> tensor<32x197x192xf32>
    %vitb0_mobb = stablehlo.broadcast_in_dim %bo_0, dims = [2] : (tensor<192xf32>) -> tensor<32x197x192xf32>
    %vitb0_mO = stablehlo.add %vitb0_mod, %vitb0_mobb : tensor<32x197x192xf32>
    %vitb0_r1 = stablehlo.add %vitcpz, %vitb0_mO : tensor<32x197x192xf32>
    %vitb0_2sum = stablehlo.reduce(%vitb0_r1 init: %sc) applies stablehlo.add across dimensions = [2] : (tensor<32x197x192xf32>, tensor<f32>) -> tensor<32x197xf32>
    %vitb0_2nf = stablehlo.constant dense<192.0> : tensor<32x197xf32>
    %vitb0_2mu = stablehlo.divide %vitb0_2sum, %vitb0_2nf : tensor<32x197xf32>
    %vitb0_2mub = stablehlo.broadcast_in_dim %vitb0_2mu, dims = [0, 1] : (tensor<32x197xf32>) -> tensor<32x197x192xf32>
    %vitb0_2xc = stablehlo.subtract %vitb0_r1, %vitb0_2mub : tensor<32x197x192xf32>
    %vitb0_2sq = stablehlo.multiply %vitb0_2xc, %vitb0_2xc : tensor<32x197x192xf32>
    %vitb0_2vsum = stablehlo.reduce(%vitb0_2sq init: %sc) applies stablehlo.add across dimensions = [2] : (tensor<32x197x192xf32>, tensor<f32>) -> tensor<32x197xf32>
    %vitb0_2var = stablehlo.divide %vitb0_2vsum, %vitb0_2nf : tensor<32x197xf32>
    %vitb0_2eps = stablehlo.constant dense<1.0e-5> : tensor<32x197xf32>
    %vitb0_2ve = stablehlo.add %vitb0_2var, %vitb0_2eps : tensor<32x197xf32>
    %vitb0_2istd = stablehlo.rsqrt %vitb0_2ve : tensor<32x197xf32>
    %vitb0_2istdb = stablehlo.broadcast_in_dim %vitb0_2istd, dims = [0, 1] : (tensor<32x197xf32>) -> tensor<32x197x192xf32>
    %vitb0_2xhat = stablehlo.multiply %vitb0_2xc, %vitb0_2istdb : tensor<32x197x192xf32>
    %vitb0_2gb = stablehlo.broadcast_in_dim %g2_0, dims = [2] : (tensor<192xf32>) -> tensor<32x197x192xf32>
    %vitb0_2bbc = stablehlo.broadcast_in_dim %b2_0, dims = [2] : (tensor<192xf32>) -> tensor<32x197x192xf32>
    %vitb0_2gx = stablehlo.multiply %vitb0_2xhat, %vitb0_2gb : tensor<32x197x192xf32>
    %vitb0_2y = stablehlo.add %vitb0_2gx, %vitb0_2bbc : tensor<32x197x192xf32>
    %vitb0_ph1d = stablehlo.dot_general %vitb0_2y, %Wfc1_0, contracting_dims = [2] x [0], precision = [DEFAULT, DEFAULT] : (tensor<32x197x192xf32>, tensor<192x768xf32>) -> tensor<32x197x768xf32>
    %vitb0_ph1bb = stablehlo.broadcast_in_dim %bfc1_0, dims = [2] : (tensor<768xf32>) -> tensor<32x197x768xf32>
    %vitb0_ph1 = stablehlo.add %vitb0_ph1d, %vitb0_ph1bb : tensor<32x197x768xf32>
    %vitb0_pgx2 = stablehlo.multiply %vitb0_ph1, %vitb0_ph1 : tensor<32x197x768xf32>
    %vitb0_pgx3 = stablehlo.multiply %vitb0_pgx2, %vitb0_ph1 : tensor<32x197x768xf32>
    %vitb0_pgck = stablehlo.constant dense<0.044715> : tensor<32x197x768xf32>
    %vitb0_pgkx3 = stablehlo.multiply %vitb0_pgck, %vitb0_pgx3 : tensor<32x197x768xf32>
    %vitb0_pginn = stablehlo.add %vitb0_ph1, %vitb0_pgkx3 : tensor<32x197x768xf32>
    %vitb0_pgcsqrt = stablehlo.constant dense<0.7978845608028654> : tensor<32x197x768xf32>
    %vitb0_pgu = stablehlo.multiply %vitb0_pgcsqrt, %vitb0_pginn : tensor<32x197x768xf32>
    %vitb0_pgt = stablehlo.tanh %vitb0_pgu : tensor<32x197x768xf32>
    %vitb0_pgone = stablehlo.constant dense<1.0> : tensor<32x197x768xf32>
    %vitb0_pgopt = stablehlo.add %vitb0_pgone, %vitb0_pgt : tensor<32x197x768xf32>
    %vitb0_pgchalf = stablehlo.constant dense<0.5> : tensor<32x197x768xf32>
    %vitb0_pghx = stablehlo.multiply %vitb0_pgchalf, %vitb0_ph1 : tensor<32x197x768xf32>
    %vitb0_pga = stablehlo.multiply %vitb0_pghx, %vitb0_pgopt : tensor<32x197x768xf32>
    %vitb0_py2d = stablehlo.dot_general %vitb0_pga, %Wfc2_0, contracting_dims = [2] x [0], precision = [DEFAULT, DEFAULT] : (tensor<32x197x768xf32>, tensor<768x192xf32>) -> tensor<32x197x192xf32>
    %vitb0_py2bb = stablehlo.broadcast_in_dim %bfc2_0, dims = [2] : (tensor<192xf32>) -> tensor<32x197x192xf32>
    %vitb0_py = stablehlo.add %vitb0_py2d, %vitb0_py2bb : tensor<32x197x192xf32>
    %vitb0_out = stablehlo.add %vitb0_r1, %vitb0_py : tensor<32x197x192xf32>
    %vitb1_1sum = stablehlo.reduce(%vitb0_out init: %sc) applies stablehlo.add across dimensions = [2] : (tensor<32x197x192xf32>, tensor<f32>) -> tensor<32x197xf32>
    %vitb1_1nf = stablehlo.constant dense<192.0> : tensor<32x197xf32>
    %vitb1_1mu = stablehlo.divide %vitb1_1sum, %vitb1_1nf : tensor<32x197xf32>
    %vitb1_1mub = stablehlo.broadcast_in_dim %vitb1_1mu, dims = [0, 1] : (tensor<32x197xf32>) -> tensor<32x197x192xf32>
    %vitb1_1xc = stablehlo.subtract %vitb0_out, %vitb1_1mub : tensor<32x197x192xf32>
    %vitb1_1sq = stablehlo.multiply %vitb1_1xc, %vitb1_1xc : tensor<32x197x192xf32>
    %vitb1_1vsum = stablehlo.reduce(%vitb1_1sq init: %sc) applies stablehlo.add across dimensions = [2] : (tensor<32x197x192xf32>, tensor<f32>) -> tensor<32x197xf32>
    %vitb1_1var = stablehlo.divide %vitb1_1vsum, %vitb1_1nf : tensor<32x197xf32>
    %vitb1_1eps = stablehlo.constant dense<1.0e-5> : tensor<32x197xf32>
    %vitb1_1ve = stablehlo.add %vitb1_1var, %vitb1_1eps : tensor<32x197xf32>
    %vitb1_1istd = stablehlo.rsqrt %vitb1_1ve : tensor<32x197xf32>
    %vitb1_1istdb = stablehlo.broadcast_in_dim %vitb1_1istd, dims = [0, 1] : (tensor<32x197xf32>) -> tensor<32x197x192xf32>
    %vitb1_1xhat = stablehlo.multiply %vitb1_1xc, %vitb1_1istdb : tensor<32x197x192xf32>
    %vitb1_1gb = stablehlo.broadcast_in_dim %g1_1, dims = [2] : (tensor<192xf32>) -> tensor<32x197x192xf32>
    %vitb1_1bbc = stablehlo.broadcast_in_dim %b1_1, dims = [2] : (tensor<192xf32>) -> tensor<32x197x192xf32>
    %vitb1_1gx = stablehlo.multiply %vitb1_1xhat, %vitb1_1gb : tensor<32x197x192xf32>
    %vitb1_1y = stablehlo.add %vitb1_1gx, %vitb1_1bbc : tensor<32x197x192xf32>
    %vitb1_mQd = stablehlo.dot_general %vitb1_1y, %Wq_1, contracting_dims = [2] x [0], precision = [DEFAULT, DEFAULT] : (tensor<32x197x192xf32>, tensor<192x192xf32>) -> tensor<32x197x192xf32>
    %vitb1_mQbb = stablehlo.broadcast_in_dim %bq_1, dims = [2] : (tensor<192xf32>) -> tensor<32x197x192xf32>
    %vitb1_mQ = stablehlo.add %vitb1_mQd, %vitb1_mQbb : tensor<32x197x192xf32>
    %vitb1_mKd = stablehlo.dot_general %vitb1_1y, %Wk_1, contracting_dims = [2] x [0], precision = [DEFAULT, DEFAULT] : (tensor<32x197x192xf32>, tensor<192x192xf32>) -> tensor<32x197x192xf32>
    %vitb1_mKbb = stablehlo.broadcast_in_dim %bk_1, dims = [2] : (tensor<192xf32>) -> tensor<32x197x192xf32>
    %vitb1_mK = stablehlo.add %vitb1_mKd, %vitb1_mKbb : tensor<32x197x192xf32>
    %vitb1_mVd = stablehlo.dot_general %vitb1_1y, %Wv_1, contracting_dims = [2] x [0], precision = [DEFAULT, DEFAULT] : (tensor<32x197x192xf32>, tensor<192x192xf32>) -> tensor<32x197x192xf32>
    %vitb1_mVbb = stablehlo.broadcast_in_dim %bv_1, dims = [2] : (tensor<192xf32>) -> tensor<32x197x192xf32>
    %vitb1_mV = stablehlo.add %vitb1_mVd, %vitb1_mVbb : tensor<32x197x192xf32>
    %vitb1_mQhr = stablehlo.reshape %vitb1_mQ : (tensor<32x197x192xf32>) -> tensor<32x197x3x64xf32>
    %vitb1_mQh = stablehlo.transpose %vitb1_mQhr, dims = [0, 2, 1, 3] : (tensor<32x197x3x64xf32>) -> tensor<32x3x197x64xf32>
    %vitb1_mKhr = stablehlo.reshape %vitb1_mK : (tensor<32x197x192xf32>) -> tensor<32x197x3x64xf32>
    %vitb1_mKh = stablehlo.transpose %vitb1_mKhr, dims = [0, 2, 1, 3] : (tensor<32x197x3x64xf32>) -> tensor<32x3x197x64xf32>
    %vitb1_mVhr = stablehlo.reshape %vitb1_mV : (tensor<32x197x192xf32>) -> tensor<32x197x3x64xf32>
    %vitb1_mVh = stablehlo.transpose %vitb1_mVhr, dims = [0, 2, 1, 3] : (tensor<32x197x3x64xf32>) -> tensor<32x3x197x64xf32>
    %vitb1_mS = stablehlo.dot_general %vitb1_mQh, %vitb1_mKh, batching_dims = [0, 1] x [0, 1], contracting_dims = [3] x [3], precision = [DEFAULT, DEFAULT] : (tensor<32x3x197x64xf32>, tensor<32x3x197x64xf32>) -> tensor<32x3x197x197xf32>
    %vitb1_mscl = stablehlo.constant dense<0.125> : tensor<32x3x197x197xf32>
    %vitb1_mSs = stablehlo.multiply %vitb1_mS, %vitb1_mscl : tensor<32x3x197x197xf32>
    %vitb1_mse = stablehlo.exponential %vitb1_mSs : tensor<32x3x197x197xf32>
    %vitb1_msum = stablehlo.reduce(%vitb1_mse init: %sc) applies stablehlo.add across dimensions = [3] : (tensor<32x3x197x197xf32>, tensor<f32>) -> tensor<32x3x197xf32>
    %vitb1_msumb = stablehlo.broadcast_in_dim %vitb1_msum, dims = [0, 1, 2] : (tensor<32x3x197xf32>) -> tensor<32x3x197x197xf32>
    %vitb1_mW = stablehlo.divide %vitb1_mse, %vitb1_msumb : tensor<32x3x197x197xf32>
    %vitb1_mA = stablehlo.dot_general %vitb1_mW, %vitb1_mVh, batching_dims = [0, 1] x [0, 1], contracting_dims = [3] x [2], precision = [DEFAULT, DEFAULT] : (tensor<32x3x197x197xf32>, tensor<32x3x197x64xf32>) -> tensor<32x3x197x64xf32>
    %vitb1_mAT = stablehlo.transpose %vitb1_mA, dims = [0, 2, 1, 3] : (tensor<32x3x197x64xf32>) -> tensor<32x197x3x64xf32>
    %vitb1_mP = stablehlo.reshape %vitb1_mAT : (tensor<32x197x3x64xf32>) -> tensor<32x197x192xf32>
    %vitb1_mod = stablehlo.dot_general %vitb1_mP, %Wo_1, contracting_dims = [2] x [0], precision = [DEFAULT, DEFAULT] : (tensor<32x197x192xf32>, tensor<192x192xf32>) -> tensor<32x197x192xf32>
    %vitb1_mobb = stablehlo.broadcast_in_dim %bo_1, dims = [2] : (tensor<192xf32>) -> tensor<32x197x192xf32>
    %vitb1_mO = stablehlo.add %vitb1_mod, %vitb1_mobb : tensor<32x197x192xf32>
    %vitb1_r1 = stablehlo.add %vitb0_out, %vitb1_mO : tensor<32x197x192xf32>
    %vitb1_2sum = stablehlo.reduce(%vitb1_r1 init: %sc) applies stablehlo.add across dimensions = [2] : (tensor<32x197x192xf32>, tensor<f32>) -> tensor<32x197xf32>
    %vitb1_2nf = stablehlo.constant dense<192.0> : tensor<32x197xf32>
    %vitb1_2mu = stablehlo.divide %vitb1_2sum, %vitb1_2nf : tensor<32x197xf32>
    %vitb1_2mub = stablehlo.broadcast_in_dim %vitb1_2mu, dims = [0, 1] : (tensor<32x197xf32>) -> tensor<32x197x192xf32>
    %vitb1_2xc = stablehlo.subtract %vitb1_r1, %vitb1_2mub : tensor<32x197x192xf32>
    %vitb1_2sq = stablehlo.multiply %vitb1_2xc, %vitb1_2xc : tensor<32x197x192xf32>
    %vitb1_2vsum = stablehlo.reduce(%vitb1_2sq init: %sc) applies stablehlo.add across dimensions = [2] : (tensor<32x197x192xf32>, tensor<f32>) -> tensor<32x197xf32>
    %vitb1_2var = stablehlo.divide %vitb1_2vsum, %vitb1_2nf : tensor<32x197xf32>
    %vitb1_2eps = stablehlo.constant dense<1.0e-5> : tensor<32x197xf32>
    %vitb1_2ve = stablehlo.add %vitb1_2var, %vitb1_2eps : tensor<32x197xf32>
    %vitb1_2istd = stablehlo.rsqrt %vitb1_2ve : tensor<32x197xf32>
    %vitb1_2istdb = stablehlo.broadcast_in_dim %vitb1_2istd, dims = [0, 1] : (tensor<32x197xf32>) -> tensor<32x197x192xf32>
    %vitb1_2xhat = stablehlo.multiply %vitb1_2xc, %vitb1_2istdb : tensor<32x197x192xf32>
    %vitb1_2gb = stablehlo.broadcast_in_dim %g2_1, dims = [2] : (tensor<192xf32>) -> tensor<32x197x192xf32>
    %vitb1_2bbc = stablehlo.broadcast_in_dim %b2_1, dims = [2] : (tensor<192xf32>) -> tensor<32x197x192xf32>
    %vitb1_2gx = stablehlo.multiply %vitb1_2xhat, %vitb1_2gb : tensor<32x197x192xf32>
    %vitb1_2y = stablehlo.add %vitb1_2gx, %vitb1_2bbc : tensor<32x197x192xf32>
    %vitb1_ph1d = stablehlo.dot_general %vitb1_2y, %Wfc1_1, contracting_dims = [2] x [0], precision = [DEFAULT, DEFAULT] : (tensor<32x197x192xf32>, tensor<192x768xf32>) -> tensor<32x197x768xf32>
    %vitb1_ph1bb = stablehlo.broadcast_in_dim %bfc1_1, dims = [2] : (tensor<768xf32>) -> tensor<32x197x768xf32>
    %vitb1_ph1 = stablehlo.add %vitb1_ph1d, %vitb1_ph1bb : tensor<32x197x768xf32>
    %vitb1_pgx2 = stablehlo.multiply %vitb1_ph1, %vitb1_ph1 : tensor<32x197x768xf32>
    %vitb1_pgx3 = stablehlo.multiply %vitb1_pgx2, %vitb1_ph1 : tensor<32x197x768xf32>
    %vitb1_pgck = stablehlo.constant dense<0.044715> : tensor<32x197x768xf32>
    %vitb1_pgkx3 = stablehlo.multiply %vitb1_pgck, %vitb1_pgx3 : tensor<32x197x768xf32>
    %vitb1_pginn = stablehlo.add %vitb1_ph1, %vitb1_pgkx3 : tensor<32x197x768xf32>
    %vitb1_pgcsqrt = stablehlo.constant dense<0.7978845608028654> : tensor<32x197x768xf32>
    %vitb1_pgu = stablehlo.multiply %vitb1_pgcsqrt, %vitb1_pginn : tensor<32x197x768xf32>
    %vitb1_pgt = stablehlo.tanh %vitb1_pgu : tensor<32x197x768xf32>
    %vitb1_pgone = stablehlo.constant dense<1.0> : tensor<32x197x768xf32>
    %vitb1_pgopt = stablehlo.add %vitb1_pgone, %vitb1_pgt : tensor<32x197x768xf32>
    %vitb1_pgchalf = stablehlo.constant dense<0.5> : tensor<32x197x768xf32>
    %vitb1_pghx = stablehlo.multiply %vitb1_pgchalf, %vitb1_ph1 : tensor<32x197x768xf32>
    %vitb1_pga = stablehlo.multiply %vitb1_pghx, %vitb1_pgopt : tensor<32x197x768xf32>
    %vitb1_py2d = stablehlo.dot_general %vitb1_pga, %Wfc2_1, contracting_dims = [2] x [0], precision = [DEFAULT, DEFAULT] : (tensor<32x197x768xf32>, tensor<768x192xf32>) -> tensor<32x197x192xf32>
    %vitb1_py2bb = stablehlo.broadcast_in_dim %bfc2_1, dims = [2] : (tensor<192xf32>) -> tensor<32x197x192xf32>
    %vitb1_py = stablehlo.add %vitb1_py2d, %vitb1_py2bb : tensor<32x197x192xf32>
    %vitb1_out = stablehlo.add %vitb1_r1, %vitb1_py : tensor<32x197x192xf32>
    %vitb2_1sum = stablehlo.reduce(%vitb1_out init: %sc) applies stablehlo.add across dimensions = [2] : (tensor<32x197x192xf32>, tensor<f32>) -> tensor<32x197xf32>
    %vitb2_1nf = stablehlo.constant dense<192.0> : tensor<32x197xf32>
    %vitb2_1mu = stablehlo.divide %vitb2_1sum, %vitb2_1nf : tensor<32x197xf32>
    %vitb2_1mub = stablehlo.broadcast_in_dim %vitb2_1mu, dims = [0, 1] : (tensor<32x197xf32>) -> tensor<32x197x192xf32>
    %vitb2_1xc = stablehlo.subtract %vitb1_out, %vitb2_1mub : tensor<32x197x192xf32>
    %vitb2_1sq = stablehlo.multiply %vitb2_1xc, %vitb2_1xc : tensor<32x197x192xf32>
    %vitb2_1vsum = stablehlo.reduce(%vitb2_1sq init: %sc) applies stablehlo.add across dimensions = [2] : (tensor<32x197x192xf32>, tensor<f32>) -> tensor<32x197xf32>
    %vitb2_1var = stablehlo.divide %vitb2_1vsum, %vitb2_1nf : tensor<32x197xf32>
    %vitb2_1eps = stablehlo.constant dense<1.0e-5> : tensor<32x197xf32>
    %vitb2_1ve = stablehlo.add %vitb2_1var, %vitb2_1eps : tensor<32x197xf32>
    %vitb2_1istd = stablehlo.rsqrt %vitb2_1ve : tensor<32x197xf32>
    %vitb2_1istdb = stablehlo.broadcast_in_dim %vitb2_1istd, dims = [0, 1] : (tensor<32x197xf32>) -> tensor<32x197x192xf32>
    %vitb2_1xhat = stablehlo.multiply %vitb2_1xc, %vitb2_1istdb : tensor<32x197x192xf32>
    %vitb2_1gb = stablehlo.broadcast_in_dim %g1_2, dims = [2] : (tensor<192xf32>) -> tensor<32x197x192xf32>
    %vitb2_1bbc = stablehlo.broadcast_in_dim %b1_2, dims = [2] : (tensor<192xf32>) -> tensor<32x197x192xf32>
    %vitb2_1gx = stablehlo.multiply %vitb2_1xhat, %vitb2_1gb : tensor<32x197x192xf32>
    %vitb2_1y = stablehlo.add %vitb2_1gx, %vitb2_1bbc : tensor<32x197x192xf32>
    %vitb2_mQd = stablehlo.dot_general %vitb2_1y, %Wq_2, contracting_dims = [2] x [0], precision = [DEFAULT, DEFAULT] : (tensor<32x197x192xf32>, tensor<192x192xf32>) -> tensor<32x197x192xf32>
    %vitb2_mQbb = stablehlo.broadcast_in_dim %bq_2, dims = [2] : (tensor<192xf32>) -> tensor<32x197x192xf32>
    %vitb2_mQ = stablehlo.add %vitb2_mQd, %vitb2_mQbb : tensor<32x197x192xf32>
    %vitb2_mKd = stablehlo.dot_general %vitb2_1y, %Wk_2, contracting_dims = [2] x [0], precision = [DEFAULT, DEFAULT] : (tensor<32x197x192xf32>, tensor<192x192xf32>) -> tensor<32x197x192xf32>
    %vitb2_mKbb = stablehlo.broadcast_in_dim %bk_2, dims = [2] : (tensor<192xf32>) -> tensor<32x197x192xf32>
    %vitb2_mK = stablehlo.add %vitb2_mKd, %vitb2_mKbb : tensor<32x197x192xf32>
    %vitb2_mVd = stablehlo.dot_general %vitb2_1y, %Wv_2, contracting_dims = [2] x [0], precision = [DEFAULT, DEFAULT] : (tensor<32x197x192xf32>, tensor<192x192xf32>) -> tensor<32x197x192xf32>
    %vitb2_mVbb = stablehlo.broadcast_in_dim %bv_2, dims = [2] : (tensor<192xf32>) -> tensor<32x197x192xf32>
    %vitb2_mV = stablehlo.add %vitb2_mVd, %vitb2_mVbb : tensor<32x197x192xf32>
    %vitb2_mQhr = stablehlo.reshape %vitb2_mQ : (tensor<32x197x192xf32>) -> tensor<32x197x3x64xf32>
    %vitb2_mQh = stablehlo.transpose %vitb2_mQhr, dims = [0, 2, 1, 3] : (tensor<32x197x3x64xf32>) -> tensor<32x3x197x64xf32>
    %vitb2_mKhr = stablehlo.reshape %vitb2_mK : (tensor<32x197x192xf32>) -> tensor<32x197x3x64xf32>
    %vitb2_mKh = stablehlo.transpose %vitb2_mKhr, dims = [0, 2, 1, 3] : (tensor<32x197x3x64xf32>) -> tensor<32x3x197x64xf32>
    %vitb2_mVhr = stablehlo.reshape %vitb2_mV : (tensor<32x197x192xf32>) -> tensor<32x197x3x64xf32>
    %vitb2_mVh = stablehlo.transpose %vitb2_mVhr, dims = [0, 2, 1, 3] : (tensor<32x197x3x64xf32>) -> tensor<32x3x197x64xf32>
    %vitb2_mS = stablehlo.dot_general %vitb2_mQh, %vitb2_mKh, batching_dims = [0, 1] x [0, 1], contracting_dims = [3] x [3], precision = [DEFAULT, DEFAULT] : (tensor<32x3x197x64xf32>, tensor<32x3x197x64xf32>) -> tensor<32x3x197x197xf32>
    %vitb2_mscl = stablehlo.constant dense<0.125> : tensor<32x3x197x197xf32>
    %vitb2_mSs = stablehlo.multiply %vitb2_mS, %vitb2_mscl : tensor<32x3x197x197xf32>
    %vitb2_mse = stablehlo.exponential %vitb2_mSs : tensor<32x3x197x197xf32>
    %vitb2_msum = stablehlo.reduce(%vitb2_mse init: %sc) applies stablehlo.add across dimensions = [3] : (tensor<32x3x197x197xf32>, tensor<f32>) -> tensor<32x3x197xf32>
    %vitb2_msumb = stablehlo.broadcast_in_dim %vitb2_msum, dims = [0, 1, 2] : (tensor<32x3x197xf32>) -> tensor<32x3x197x197xf32>
    %vitb2_mW = stablehlo.divide %vitb2_mse, %vitb2_msumb : tensor<32x3x197x197xf32>
    %vitb2_mA = stablehlo.dot_general %vitb2_mW, %vitb2_mVh, batching_dims = [0, 1] x [0, 1], contracting_dims = [3] x [2], precision = [DEFAULT, DEFAULT] : (tensor<32x3x197x197xf32>, tensor<32x3x197x64xf32>) -> tensor<32x3x197x64xf32>
    %vitb2_mAT = stablehlo.transpose %vitb2_mA, dims = [0, 2, 1, 3] : (tensor<32x3x197x64xf32>) -> tensor<32x197x3x64xf32>
    %vitb2_mP = stablehlo.reshape %vitb2_mAT : (tensor<32x197x3x64xf32>) -> tensor<32x197x192xf32>
    %vitb2_mod = stablehlo.dot_general %vitb2_mP, %Wo_2, contracting_dims = [2] x [0], precision = [DEFAULT, DEFAULT] : (tensor<32x197x192xf32>, tensor<192x192xf32>) -> tensor<32x197x192xf32>
    %vitb2_mobb = stablehlo.broadcast_in_dim %bo_2, dims = [2] : (tensor<192xf32>) -> tensor<32x197x192xf32>
    %vitb2_mO = stablehlo.add %vitb2_mod, %vitb2_mobb : tensor<32x197x192xf32>
    %vitb2_r1 = stablehlo.add %vitb1_out, %vitb2_mO : tensor<32x197x192xf32>
    %vitb2_2sum = stablehlo.reduce(%vitb2_r1 init: %sc) applies stablehlo.add across dimensions = [2] : (tensor<32x197x192xf32>, tensor<f32>) -> tensor<32x197xf32>
    %vitb2_2nf = stablehlo.constant dense<192.0> : tensor<32x197xf32>
    %vitb2_2mu = stablehlo.divide %vitb2_2sum, %vitb2_2nf : tensor<32x197xf32>
    %vitb2_2mub = stablehlo.broadcast_in_dim %vitb2_2mu, dims = [0, 1] : (tensor<32x197xf32>) -> tensor<32x197x192xf32>
    %vitb2_2xc = stablehlo.subtract %vitb2_r1, %vitb2_2mub : tensor<32x197x192xf32>
    %vitb2_2sq = stablehlo.multiply %vitb2_2xc, %vitb2_2xc : tensor<32x197x192xf32>
    %vitb2_2vsum = stablehlo.reduce(%vitb2_2sq init: %sc) applies stablehlo.add across dimensions = [2] : (tensor<32x197x192xf32>, tensor<f32>) -> tensor<32x197xf32>
    %vitb2_2var = stablehlo.divide %vitb2_2vsum, %vitb2_2nf : tensor<32x197xf32>
    %vitb2_2eps = stablehlo.constant dense<1.0e-5> : tensor<32x197xf32>
    %vitb2_2ve = stablehlo.add %vitb2_2var, %vitb2_2eps : tensor<32x197xf32>
    %vitb2_2istd = stablehlo.rsqrt %vitb2_2ve : tensor<32x197xf32>
    %vitb2_2istdb = stablehlo.broadcast_in_dim %vitb2_2istd, dims = [0, 1] : (tensor<32x197xf32>) -> tensor<32x197x192xf32>
    %vitb2_2xhat = stablehlo.multiply %vitb2_2xc, %vitb2_2istdb : tensor<32x197x192xf32>
    %vitb2_2gb = stablehlo.broadcast_in_dim %g2_2, dims = [2] : (tensor<192xf32>) -> tensor<32x197x192xf32>
    %vitb2_2bbc = stablehlo.broadcast_in_dim %b2_2, dims = [2] : (tensor<192xf32>) -> tensor<32x197x192xf32>
    %vitb2_2gx = stablehlo.multiply %vitb2_2xhat, %vitb2_2gb : tensor<32x197x192xf32>
    %vitb2_2y = stablehlo.add %vitb2_2gx, %vitb2_2bbc : tensor<32x197x192xf32>
    %vitb2_ph1d = stablehlo.dot_general %vitb2_2y, %Wfc1_2, contracting_dims = [2] x [0], precision = [DEFAULT, DEFAULT] : (tensor<32x197x192xf32>, tensor<192x768xf32>) -> tensor<32x197x768xf32>
    %vitb2_ph1bb = stablehlo.broadcast_in_dim %bfc1_2, dims = [2] : (tensor<768xf32>) -> tensor<32x197x768xf32>
    %vitb2_ph1 = stablehlo.add %vitb2_ph1d, %vitb2_ph1bb : tensor<32x197x768xf32>
    %vitb2_pgx2 = stablehlo.multiply %vitb2_ph1, %vitb2_ph1 : tensor<32x197x768xf32>
    %vitb2_pgx3 = stablehlo.multiply %vitb2_pgx2, %vitb2_ph1 : tensor<32x197x768xf32>
    %vitb2_pgck = stablehlo.constant dense<0.044715> : tensor<32x197x768xf32>
    %vitb2_pgkx3 = stablehlo.multiply %vitb2_pgck, %vitb2_pgx3 : tensor<32x197x768xf32>
    %vitb2_pginn = stablehlo.add %vitb2_ph1, %vitb2_pgkx3 : tensor<32x197x768xf32>
    %vitb2_pgcsqrt = stablehlo.constant dense<0.7978845608028654> : tensor<32x197x768xf32>
    %vitb2_pgu = stablehlo.multiply %vitb2_pgcsqrt, %vitb2_pginn : tensor<32x197x768xf32>
    %vitb2_pgt = stablehlo.tanh %vitb2_pgu : tensor<32x197x768xf32>
    %vitb2_pgone = stablehlo.constant dense<1.0> : tensor<32x197x768xf32>
    %vitb2_pgopt = stablehlo.add %vitb2_pgone, %vitb2_pgt : tensor<32x197x768xf32>
    %vitb2_pgchalf = stablehlo.constant dense<0.5> : tensor<32x197x768xf32>
    %vitb2_pghx = stablehlo.multiply %vitb2_pgchalf, %vitb2_ph1 : tensor<32x197x768xf32>
    %vitb2_pga = stablehlo.multiply %vitb2_pghx, %vitb2_pgopt : tensor<32x197x768xf32>
    %vitb2_py2d = stablehlo.dot_general %vitb2_pga, %Wfc2_2, contracting_dims = [2] x [0], precision = [DEFAULT, DEFAULT] : (tensor<32x197x768xf32>, tensor<768x192xf32>) -> tensor<32x197x192xf32>
    %vitb2_py2bb = stablehlo.broadcast_in_dim %bfc2_2, dims = [2] : (tensor<192xf32>) -> tensor<32x197x192xf32>
    %vitb2_py = stablehlo.add %vitb2_py2d, %vitb2_py2bb : tensor<32x197x192xf32>
    %vitb2_out = stablehlo.add %vitb2_r1, %vitb2_py : tensor<32x197x192xf32>
    %vitb3_1sum = stablehlo.reduce(%vitb2_out init: %sc) applies stablehlo.add across dimensions = [2] : (tensor<32x197x192xf32>, tensor<f32>) -> tensor<32x197xf32>
    %vitb3_1nf = stablehlo.constant dense<192.0> : tensor<32x197xf32>
    %vitb3_1mu = stablehlo.divide %vitb3_1sum, %vitb3_1nf : tensor<32x197xf32>
    %vitb3_1mub = stablehlo.broadcast_in_dim %vitb3_1mu, dims = [0, 1] : (tensor<32x197xf32>) -> tensor<32x197x192xf32>
    %vitb3_1xc = stablehlo.subtract %vitb2_out, %vitb3_1mub : tensor<32x197x192xf32>
    %vitb3_1sq = stablehlo.multiply %vitb3_1xc, %vitb3_1xc : tensor<32x197x192xf32>
    %vitb3_1vsum = stablehlo.reduce(%vitb3_1sq init: %sc) applies stablehlo.add across dimensions = [2] : (tensor<32x197x192xf32>, tensor<f32>) -> tensor<32x197xf32>
    %vitb3_1var = stablehlo.divide %vitb3_1vsum, %vitb3_1nf : tensor<32x197xf32>
    %vitb3_1eps = stablehlo.constant dense<1.0e-5> : tensor<32x197xf32>
    %vitb3_1ve = stablehlo.add %vitb3_1var, %vitb3_1eps : tensor<32x197xf32>
    %vitb3_1istd = stablehlo.rsqrt %vitb3_1ve : tensor<32x197xf32>
    %vitb3_1istdb = stablehlo.broadcast_in_dim %vitb3_1istd, dims = [0, 1] : (tensor<32x197xf32>) -> tensor<32x197x192xf32>
    %vitb3_1xhat = stablehlo.multiply %vitb3_1xc, %vitb3_1istdb : tensor<32x197x192xf32>
    %vitb3_1gb = stablehlo.broadcast_in_dim %g1_3, dims = [2] : (tensor<192xf32>) -> tensor<32x197x192xf32>
    %vitb3_1bbc = stablehlo.broadcast_in_dim %b1_3, dims = [2] : (tensor<192xf32>) -> tensor<32x197x192xf32>
    %vitb3_1gx = stablehlo.multiply %vitb3_1xhat, %vitb3_1gb : tensor<32x197x192xf32>
    %vitb3_1y = stablehlo.add %vitb3_1gx, %vitb3_1bbc : tensor<32x197x192xf32>
    %vitb3_mQd = stablehlo.dot_general %vitb3_1y, %Wq_3, contracting_dims = [2] x [0], precision = [DEFAULT, DEFAULT] : (tensor<32x197x192xf32>, tensor<192x192xf32>) -> tensor<32x197x192xf32>
    %vitb3_mQbb = stablehlo.broadcast_in_dim %bq_3, dims = [2] : (tensor<192xf32>) -> tensor<32x197x192xf32>
    %vitb3_mQ = stablehlo.add %vitb3_mQd, %vitb3_mQbb : tensor<32x197x192xf32>
    %vitb3_mKd = stablehlo.dot_general %vitb3_1y, %Wk_3, contracting_dims = [2] x [0], precision = [DEFAULT, DEFAULT] : (tensor<32x197x192xf32>, tensor<192x192xf32>) -> tensor<32x197x192xf32>
    %vitb3_mKbb = stablehlo.broadcast_in_dim %bk_3, dims = [2] : (tensor<192xf32>) -> tensor<32x197x192xf32>
    %vitb3_mK = stablehlo.add %vitb3_mKd, %vitb3_mKbb : tensor<32x197x192xf32>
    %vitb3_mVd = stablehlo.dot_general %vitb3_1y, %Wv_3, contracting_dims = [2] x [0], precision = [DEFAULT, DEFAULT] : (tensor<32x197x192xf32>, tensor<192x192xf32>) -> tensor<32x197x192xf32>
    %vitb3_mVbb = stablehlo.broadcast_in_dim %bv_3, dims = [2] : (tensor<192xf32>) -> tensor<32x197x192xf32>
    %vitb3_mV = stablehlo.add %vitb3_mVd, %vitb3_mVbb : tensor<32x197x192xf32>
    %vitb3_mQhr = stablehlo.reshape %vitb3_mQ : (tensor<32x197x192xf32>) -> tensor<32x197x3x64xf32>
    %vitb3_mQh = stablehlo.transpose %vitb3_mQhr, dims = [0, 2, 1, 3] : (tensor<32x197x3x64xf32>) -> tensor<32x3x197x64xf32>
    %vitb3_mKhr = stablehlo.reshape %vitb3_mK : (tensor<32x197x192xf32>) -> tensor<32x197x3x64xf32>
    %vitb3_mKh = stablehlo.transpose %vitb3_mKhr, dims = [0, 2, 1, 3] : (tensor<32x197x3x64xf32>) -> tensor<32x3x197x64xf32>
    %vitb3_mVhr = stablehlo.reshape %vitb3_mV : (tensor<32x197x192xf32>) -> tensor<32x197x3x64xf32>
    %vitb3_mVh = stablehlo.transpose %vitb3_mVhr, dims = [0, 2, 1, 3] : (tensor<32x197x3x64xf32>) -> tensor<32x3x197x64xf32>
    %vitb3_mS = stablehlo.dot_general %vitb3_mQh, %vitb3_mKh, batching_dims = [0, 1] x [0, 1], contracting_dims = [3] x [3], precision = [DEFAULT, DEFAULT] : (tensor<32x3x197x64xf32>, tensor<32x3x197x64xf32>) -> tensor<32x3x197x197xf32>
    %vitb3_mscl = stablehlo.constant dense<0.125> : tensor<32x3x197x197xf32>
    %vitb3_mSs = stablehlo.multiply %vitb3_mS, %vitb3_mscl : tensor<32x3x197x197xf32>
    %vitb3_mse = stablehlo.exponential %vitb3_mSs : tensor<32x3x197x197xf32>
    %vitb3_msum = stablehlo.reduce(%vitb3_mse init: %sc) applies stablehlo.add across dimensions = [3] : (tensor<32x3x197x197xf32>, tensor<f32>) -> tensor<32x3x197xf32>
    %vitb3_msumb = stablehlo.broadcast_in_dim %vitb3_msum, dims = [0, 1, 2] : (tensor<32x3x197xf32>) -> tensor<32x3x197x197xf32>
    %vitb3_mW = stablehlo.divide %vitb3_mse, %vitb3_msumb : tensor<32x3x197x197xf32>
    %vitb3_mA = stablehlo.dot_general %vitb3_mW, %vitb3_mVh, batching_dims = [0, 1] x [0, 1], contracting_dims = [3] x [2], precision = [DEFAULT, DEFAULT] : (tensor<32x3x197x197xf32>, tensor<32x3x197x64xf32>) -> tensor<32x3x197x64xf32>
    %vitb3_mAT = stablehlo.transpose %vitb3_mA, dims = [0, 2, 1, 3] : (tensor<32x3x197x64xf32>) -> tensor<32x197x3x64xf32>
    %vitb3_mP = stablehlo.reshape %vitb3_mAT : (tensor<32x197x3x64xf32>) -> tensor<32x197x192xf32>
    %vitb3_mod = stablehlo.dot_general %vitb3_mP, %Wo_3, contracting_dims = [2] x [0], precision = [DEFAULT, DEFAULT] : (tensor<32x197x192xf32>, tensor<192x192xf32>) -> tensor<32x197x192xf32>
    %vitb3_mobb = stablehlo.broadcast_in_dim %bo_3, dims = [2] : (tensor<192xf32>) -> tensor<32x197x192xf32>
    %vitb3_mO = stablehlo.add %vitb3_mod, %vitb3_mobb : tensor<32x197x192xf32>
    %vitb3_r1 = stablehlo.add %vitb2_out, %vitb3_mO : tensor<32x197x192xf32>
    %vitb3_2sum = stablehlo.reduce(%vitb3_r1 init: %sc) applies stablehlo.add across dimensions = [2] : (tensor<32x197x192xf32>, tensor<f32>) -> tensor<32x197xf32>
    %vitb3_2nf = stablehlo.constant dense<192.0> : tensor<32x197xf32>
    %vitb3_2mu = stablehlo.divide %vitb3_2sum, %vitb3_2nf : tensor<32x197xf32>
    %vitb3_2mub = stablehlo.broadcast_in_dim %vitb3_2mu, dims = [0, 1] : (tensor<32x197xf32>) -> tensor<32x197x192xf32>
    %vitb3_2xc = stablehlo.subtract %vitb3_r1, %vitb3_2mub : tensor<32x197x192xf32>
    %vitb3_2sq = stablehlo.multiply %vitb3_2xc, %vitb3_2xc : tensor<32x197x192xf32>
    %vitb3_2vsum = stablehlo.reduce(%vitb3_2sq init: %sc) applies stablehlo.add across dimensions = [2] : (tensor<32x197x192xf32>, tensor<f32>) -> tensor<32x197xf32>
    %vitb3_2var = stablehlo.divide %vitb3_2vsum, %vitb3_2nf : tensor<32x197xf32>
    %vitb3_2eps = stablehlo.constant dense<1.0e-5> : tensor<32x197xf32>
    %vitb3_2ve = stablehlo.add %vitb3_2var, %vitb3_2eps : tensor<32x197xf32>
    %vitb3_2istd = stablehlo.rsqrt %vitb3_2ve : tensor<32x197xf32>
    %vitb3_2istdb = stablehlo.broadcast_in_dim %vitb3_2istd, dims = [0, 1] : (tensor<32x197xf32>) -> tensor<32x197x192xf32>
    %vitb3_2xhat = stablehlo.multiply %vitb3_2xc, %vitb3_2istdb : tensor<32x197x192xf32>
    %vitb3_2gb = stablehlo.broadcast_in_dim %g2_3, dims = [2] : (tensor<192xf32>) -> tensor<32x197x192xf32>
    %vitb3_2bbc = stablehlo.broadcast_in_dim %b2_3, dims = [2] : (tensor<192xf32>) -> tensor<32x197x192xf32>
    %vitb3_2gx = stablehlo.multiply %vitb3_2xhat, %vitb3_2gb : tensor<32x197x192xf32>
    %vitb3_2y = stablehlo.add %vitb3_2gx, %vitb3_2bbc : tensor<32x197x192xf32>
    %vitb3_ph1d = stablehlo.dot_general %vitb3_2y, %Wfc1_3, contracting_dims = [2] x [0], precision = [DEFAULT, DEFAULT] : (tensor<32x197x192xf32>, tensor<192x768xf32>) -> tensor<32x197x768xf32>
    %vitb3_ph1bb = stablehlo.broadcast_in_dim %bfc1_3, dims = [2] : (tensor<768xf32>) -> tensor<32x197x768xf32>
    %vitb3_ph1 = stablehlo.add %vitb3_ph1d, %vitb3_ph1bb : tensor<32x197x768xf32>
    %vitb3_pgx2 = stablehlo.multiply %vitb3_ph1, %vitb3_ph1 : tensor<32x197x768xf32>
    %vitb3_pgx3 = stablehlo.multiply %vitb3_pgx2, %vitb3_ph1 : tensor<32x197x768xf32>
    %vitb3_pgck = stablehlo.constant dense<0.044715> : tensor<32x197x768xf32>
    %vitb3_pgkx3 = stablehlo.multiply %vitb3_pgck, %vitb3_pgx3 : tensor<32x197x768xf32>
    %vitb3_pginn = stablehlo.add %vitb3_ph1, %vitb3_pgkx3 : tensor<32x197x768xf32>
    %vitb3_pgcsqrt = stablehlo.constant dense<0.7978845608028654> : tensor<32x197x768xf32>
    %vitb3_pgu = stablehlo.multiply %vitb3_pgcsqrt, %vitb3_pginn : tensor<32x197x768xf32>
    %vitb3_pgt = stablehlo.tanh %vitb3_pgu : tensor<32x197x768xf32>
    %vitb3_pgone = stablehlo.constant dense<1.0> : tensor<32x197x768xf32>
    %vitb3_pgopt = stablehlo.add %vitb3_pgone, %vitb3_pgt : tensor<32x197x768xf32>
    %vitb3_pgchalf = stablehlo.constant dense<0.5> : tensor<32x197x768xf32>
    %vitb3_pghx = stablehlo.multiply %vitb3_pgchalf, %vitb3_ph1 : tensor<32x197x768xf32>
    %vitb3_pga = stablehlo.multiply %vitb3_pghx, %vitb3_pgopt : tensor<32x197x768xf32>
    %vitb3_py2d = stablehlo.dot_general %vitb3_pga, %Wfc2_3, contracting_dims = [2] x [0], precision = [DEFAULT, DEFAULT] : (tensor<32x197x768xf32>, tensor<768x192xf32>) -> tensor<32x197x192xf32>
    %vitb3_py2bb = stablehlo.broadcast_in_dim %bfc2_3, dims = [2] : (tensor<192xf32>) -> tensor<32x197x192xf32>
    %vitb3_py = stablehlo.add %vitb3_py2d, %vitb3_py2bb : tensor<32x197x192xf32>
    %vitb3_out = stablehlo.add %vitb3_r1, %vitb3_py : tensor<32x197x192xf32>
    %vitb4_1sum = stablehlo.reduce(%vitb3_out init: %sc) applies stablehlo.add across dimensions = [2] : (tensor<32x197x192xf32>, tensor<f32>) -> tensor<32x197xf32>
    %vitb4_1nf = stablehlo.constant dense<192.0> : tensor<32x197xf32>
    %vitb4_1mu = stablehlo.divide %vitb4_1sum, %vitb4_1nf : tensor<32x197xf32>
    %vitb4_1mub = stablehlo.broadcast_in_dim %vitb4_1mu, dims = [0, 1] : (tensor<32x197xf32>) -> tensor<32x197x192xf32>
    %vitb4_1xc = stablehlo.subtract %vitb3_out, %vitb4_1mub : tensor<32x197x192xf32>
    %vitb4_1sq = stablehlo.multiply %vitb4_1xc, %vitb4_1xc : tensor<32x197x192xf32>
    %vitb4_1vsum = stablehlo.reduce(%vitb4_1sq init: %sc) applies stablehlo.add across dimensions = [2] : (tensor<32x197x192xf32>, tensor<f32>) -> tensor<32x197xf32>
    %vitb4_1var = stablehlo.divide %vitb4_1vsum, %vitb4_1nf : tensor<32x197xf32>
    %vitb4_1eps = stablehlo.constant dense<1.0e-5> : tensor<32x197xf32>
    %vitb4_1ve = stablehlo.add %vitb4_1var, %vitb4_1eps : tensor<32x197xf32>
    %vitb4_1istd = stablehlo.rsqrt %vitb4_1ve : tensor<32x197xf32>
    %vitb4_1istdb = stablehlo.broadcast_in_dim %vitb4_1istd, dims = [0, 1] : (tensor<32x197xf32>) -> tensor<32x197x192xf32>
    %vitb4_1xhat = stablehlo.multiply %vitb4_1xc, %vitb4_1istdb : tensor<32x197x192xf32>
    %vitb4_1gb = stablehlo.broadcast_in_dim %g1_4, dims = [2] : (tensor<192xf32>) -> tensor<32x197x192xf32>
    %vitb4_1bbc = stablehlo.broadcast_in_dim %b1_4, dims = [2] : (tensor<192xf32>) -> tensor<32x197x192xf32>
    %vitb4_1gx = stablehlo.multiply %vitb4_1xhat, %vitb4_1gb : tensor<32x197x192xf32>
    %vitb4_1y = stablehlo.add %vitb4_1gx, %vitb4_1bbc : tensor<32x197x192xf32>
    %vitb4_mQd = stablehlo.dot_general %vitb4_1y, %Wq_4, contracting_dims = [2] x [0], precision = [DEFAULT, DEFAULT] : (tensor<32x197x192xf32>, tensor<192x192xf32>) -> tensor<32x197x192xf32>
    %vitb4_mQbb = stablehlo.broadcast_in_dim %bq_4, dims = [2] : (tensor<192xf32>) -> tensor<32x197x192xf32>
    %vitb4_mQ = stablehlo.add %vitb4_mQd, %vitb4_mQbb : tensor<32x197x192xf32>
    %vitb4_mKd = stablehlo.dot_general %vitb4_1y, %Wk_4, contracting_dims = [2] x [0], precision = [DEFAULT, DEFAULT] : (tensor<32x197x192xf32>, tensor<192x192xf32>) -> tensor<32x197x192xf32>
    %vitb4_mKbb = stablehlo.broadcast_in_dim %bk_4, dims = [2] : (tensor<192xf32>) -> tensor<32x197x192xf32>
    %vitb4_mK = stablehlo.add %vitb4_mKd, %vitb4_mKbb : tensor<32x197x192xf32>
    %vitb4_mVd = stablehlo.dot_general %vitb4_1y, %Wv_4, contracting_dims = [2] x [0], precision = [DEFAULT, DEFAULT] : (tensor<32x197x192xf32>, tensor<192x192xf32>) -> tensor<32x197x192xf32>
    %vitb4_mVbb = stablehlo.broadcast_in_dim %bv_4, dims = [2] : (tensor<192xf32>) -> tensor<32x197x192xf32>
    %vitb4_mV = stablehlo.add %vitb4_mVd, %vitb4_mVbb : tensor<32x197x192xf32>
    %vitb4_mQhr = stablehlo.reshape %vitb4_mQ : (tensor<32x197x192xf32>) -> tensor<32x197x3x64xf32>
    %vitb4_mQh = stablehlo.transpose %vitb4_mQhr, dims = [0, 2, 1, 3] : (tensor<32x197x3x64xf32>) -> tensor<32x3x197x64xf32>
    %vitb4_mKhr = stablehlo.reshape %vitb4_mK : (tensor<32x197x192xf32>) -> tensor<32x197x3x64xf32>
    %vitb4_mKh = stablehlo.transpose %vitb4_mKhr, dims = [0, 2, 1, 3] : (tensor<32x197x3x64xf32>) -> tensor<32x3x197x64xf32>
    %vitb4_mVhr = stablehlo.reshape %vitb4_mV : (tensor<32x197x192xf32>) -> tensor<32x197x3x64xf32>
    %vitb4_mVh = stablehlo.transpose %vitb4_mVhr, dims = [0, 2, 1, 3] : (tensor<32x197x3x64xf32>) -> tensor<32x3x197x64xf32>
    %vitb4_mS = stablehlo.dot_general %vitb4_mQh, %vitb4_mKh, batching_dims = [0, 1] x [0, 1], contracting_dims = [3] x [3], precision = [DEFAULT, DEFAULT] : (tensor<32x3x197x64xf32>, tensor<32x3x197x64xf32>) -> tensor<32x3x197x197xf32>
    %vitb4_mscl = stablehlo.constant dense<0.125> : tensor<32x3x197x197xf32>
    %vitb4_mSs = stablehlo.multiply %vitb4_mS, %vitb4_mscl : tensor<32x3x197x197xf32>
    %vitb4_mse = stablehlo.exponential %vitb4_mSs : tensor<32x3x197x197xf32>
    %vitb4_msum = stablehlo.reduce(%vitb4_mse init: %sc) applies stablehlo.add across dimensions = [3] : (tensor<32x3x197x197xf32>, tensor<f32>) -> tensor<32x3x197xf32>
    %vitb4_msumb = stablehlo.broadcast_in_dim %vitb4_msum, dims = [0, 1, 2] : (tensor<32x3x197xf32>) -> tensor<32x3x197x197xf32>
    %vitb4_mW = stablehlo.divide %vitb4_mse, %vitb4_msumb : tensor<32x3x197x197xf32>
    %vitb4_mA = stablehlo.dot_general %vitb4_mW, %vitb4_mVh, batching_dims = [0, 1] x [0, 1], contracting_dims = [3] x [2], precision = [DEFAULT, DEFAULT] : (tensor<32x3x197x197xf32>, tensor<32x3x197x64xf32>) -> tensor<32x3x197x64xf32>
    %vitb4_mAT = stablehlo.transpose %vitb4_mA, dims = [0, 2, 1, 3] : (tensor<32x3x197x64xf32>) -> tensor<32x197x3x64xf32>
    %vitb4_mP = stablehlo.reshape %vitb4_mAT : (tensor<32x197x3x64xf32>) -> tensor<32x197x192xf32>
    %vitb4_mod = stablehlo.dot_general %vitb4_mP, %Wo_4, contracting_dims = [2] x [0], precision = [DEFAULT, DEFAULT] : (tensor<32x197x192xf32>, tensor<192x192xf32>) -> tensor<32x197x192xf32>
    %vitb4_mobb = stablehlo.broadcast_in_dim %bo_4, dims = [2] : (tensor<192xf32>) -> tensor<32x197x192xf32>
    %vitb4_mO = stablehlo.add %vitb4_mod, %vitb4_mobb : tensor<32x197x192xf32>
    %vitb4_r1 = stablehlo.add %vitb3_out, %vitb4_mO : tensor<32x197x192xf32>
    %vitb4_2sum = stablehlo.reduce(%vitb4_r1 init: %sc) applies stablehlo.add across dimensions = [2] : (tensor<32x197x192xf32>, tensor<f32>) -> tensor<32x197xf32>
    %vitb4_2nf = stablehlo.constant dense<192.0> : tensor<32x197xf32>
    %vitb4_2mu = stablehlo.divide %vitb4_2sum, %vitb4_2nf : tensor<32x197xf32>
    %vitb4_2mub = stablehlo.broadcast_in_dim %vitb4_2mu, dims = [0, 1] : (tensor<32x197xf32>) -> tensor<32x197x192xf32>
    %vitb4_2xc = stablehlo.subtract %vitb4_r1, %vitb4_2mub : tensor<32x197x192xf32>
    %vitb4_2sq = stablehlo.multiply %vitb4_2xc, %vitb4_2xc : tensor<32x197x192xf32>
    %vitb4_2vsum = stablehlo.reduce(%vitb4_2sq init: %sc) applies stablehlo.add across dimensions = [2] : (tensor<32x197x192xf32>, tensor<f32>) -> tensor<32x197xf32>
    %vitb4_2var = stablehlo.divide %vitb4_2vsum, %vitb4_2nf : tensor<32x197xf32>
    %vitb4_2eps = stablehlo.constant dense<1.0e-5> : tensor<32x197xf32>
    %vitb4_2ve = stablehlo.add %vitb4_2var, %vitb4_2eps : tensor<32x197xf32>
    %vitb4_2istd = stablehlo.rsqrt %vitb4_2ve : tensor<32x197xf32>
    %vitb4_2istdb = stablehlo.broadcast_in_dim %vitb4_2istd, dims = [0, 1] : (tensor<32x197xf32>) -> tensor<32x197x192xf32>
    %vitb4_2xhat = stablehlo.multiply %vitb4_2xc, %vitb4_2istdb : tensor<32x197x192xf32>
    %vitb4_2gb = stablehlo.broadcast_in_dim %g2_4, dims = [2] : (tensor<192xf32>) -> tensor<32x197x192xf32>
    %vitb4_2bbc = stablehlo.broadcast_in_dim %b2_4, dims = [2] : (tensor<192xf32>) -> tensor<32x197x192xf32>
    %vitb4_2gx = stablehlo.multiply %vitb4_2xhat, %vitb4_2gb : tensor<32x197x192xf32>
    %vitb4_2y = stablehlo.add %vitb4_2gx, %vitb4_2bbc : tensor<32x197x192xf32>
    %vitb4_ph1d = stablehlo.dot_general %vitb4_2y, %Wfc1_4, contracting_dims = [2] x [0], precision = [DEFAULT, DEFAULT] : (tensor<32x197x192xf32>, tensor<192x768xf32>) -> tensor<32x197x768xf32>
    %vitb4_ph1bb = stablehlo.broadcast_in_dim %bfc1_4, dims = [2] : (tensor<768xf32>) -> tensor<32x197x768xf32>
    %vitb4_ph1 = stablehlo.add %vitb4_ph1d, %vitb4_ph1bb : tensor<32x197x768xf32>
    %vitb4_pgx2 = stablehlo.multiply %vitb4_ph1, %vitb4_ph1 : tensor<32x197x768xf32>
    %vitb4_pgx3 = stablehlo.multiply %vitb4_pgx2, %vitb4_ph1 : tensor<32x197x768xf32>
    %vitb4_pgck = stablehlo.constant dense<0.044715> : tensor<32x197x768xf32>
    %vitb4_pgkx3 = stablehlo.multiply %vitb4_pgck, %vitb4_pgx3 : tensor<32x197x768xf32>
    %vitb4_pginn = stablehlo.add %vitb4_ph1, %vitb4_pgkx3 : tensor<32x197x768xf32>
    %vitb4_pgcsqrt = stablehlo.constant dense<0.7978845608028654> : tensor<32x197x768xf32>
    %vitb4_pgu = stablehlo.multiply %vitb4_pgcsqrt, %vitb4_pginn : tensor<32x197x768xf32>
    %vitb4_pgt = stablehlo.tanh %vitb4_pgu : tensor<32x197x768xf32>
    %vitb4_pgone = stablehlo.constant dense<1.0> : tensor<32x197x768xf32>
    %vitb4_pgopt = stablehlo.add %vitb4_pgone, %vitb4_pgt : tensor<32x197x768xf32>
    %vitb4_pgchalf = stablehlo.constant dense<0.5> : tensor<32x197x768xf32>
    %vitb4_pghx = stablehlo.multiply %vitb4_pgchalf, %vitb4_ph1 : tensor<32x197x768xf32>
    %vitb4_pga = stablehlo.multiply %vitb4_pghx, %vitb4_pgopt : tensor<32x197x768xf32>
    %vitb4_py2d = stablehlo.dot_general %vitb4_pga, %Wfc2_4, contracting_dims = [2] x [0], precision = [DEFAULT, DEFAULT] : (tensor<32x197x768xf32>, tensor<768x192xf32>) -> tensor<32x197x192xf32>
    %vitb4_py2bb = stablehlo.broadcast_in_dim %bfc2_4, dims = [2] : (tensor<192xf32>) -> tensor<32x197x192xf32>
    %vitb4_py = stablehlo.add %vitb4_py2d, %vitb4_py2bb : tensor<32x197x192xf32>
    %vitb4_out = stablehlo.add %vitb4_r1, %vitb4_py : tensor<32x197x192xf32>
    %vitb5_1sum = stablehlo.reduce(%vitb4_out init: %sc) applies stablehlo.add across dimensions = [2] : (tensor<32x197x192xf32>, tensor<f32>) -> tensor<32x197xf32>
    %vitb5_1nf = stablehlo.constant dense<192.0> : tensor<32x197xf32>
    %vitb5_1mu = stablehlo.divide %vitb5_1sum, %vitb5_1nf : tensor<32x197xf32>
    %vitb5_1mub = stablehlo.broadcast_in_dim %vitb5_1mu, dims = [0, 1] : (tensor<32x197xf32>) -> tensor<32x197x192xf32>
    %vitb5_1xc = stablehlo.subtract %vitb4_out, %vitb5_1mub : tensor<32x197x192xf32>
    %vitb5_1sq = stablehlo.multiply %vitb5_1xc, %vitb5_1xc : tensor<32x197x192xf32>
    %vitb5_1vsum = stablehlo.reduce(%vitb5_1sq init: %sc) applies stablehlo.add across dimensions = [2] : (tensor<32x197x192xf32>, tensor<f32>) -> tensor<32x197xf32>
    %vitb5_1var = stablehlo.divide %vitb5_1vsum, %vitb5_1nf : tensor<32x197xf32>
    %vitb5_1eps = stablehlo.constant dense<1.0e-5> : tensor<32x197xf32>
    %vitb5_1ve = stablehlo.add %vitb5_1var, %vitb5_1eps : tensor<32x197xf32>
    %vitb5_1istd = stablehlo.rsqrt %vitb5_1ve : tensor<32x197xf32>
    %vitb5_1istdb = stablehlo.broadcast_in_dim %vitb5_1istd, dims = [0, 1] : (tensor<32x197xf32>) -> tensor<32x197x192xf32>
    %vitb5_1xhat = stablehlo.multiply %vitb5_1xc, %vitb5_1istdb : tensor<32x197x192xf32>
    %vitb5_1gb = stablehlo.broadcast_in_dim %g1_5, dims = [2] : (tensor<192xf32>) -> tensor<32x197x192xf32>
    %vitb5_1bbc = stablehlo.broadcast_in_dim %b1_5, dims = [2] : (tensor<192xf32>) -> tensor<32x197x192xf32>
    %vitb5_1gx = stablehlo.multiply %vitb5_1xhat, %vitb5_1gb : tensor<32x197x192xf32>
    %vitb5_1y = stablehlo.add %vitb5_1gx, %vitb5_1bbc : tensor<32x197x192xf32>
    %vitb5_mQd = stablehlo.dot_general %vitb5_1y, %Wq_5, contracting_dims = [2] x [0], precision = [DEFAULT, DEFAULT] : (tensor<32x197x192xf32>, tensor<192x192xf32>) -> tensor<32x197x192xf32>
    %vitb5_mQbb = stablehlo.broadcast_in_dim %bq_5, dims = [2] : (tensor<192xf32>) -> tensor<32x197x192xf32>
    %vitb5_mQ = stablehlo.add %vitb5_mQd, %vitb5_mQbb : tensor<32x197x192xf32>
    %vitb5_mKd = stablehlo.dot_general %vitb5_1y, %Wk_5, contracting_dims = [2] x [0], precision = [DEFAULT, DEFAULT] : (tensor<32x197x192xf32>, tensor<192x192xf32>) -> tensor<32x197x192xf32>
    %vitb5_mKbb = stablehlo.broadcast_in_dim %bk_5, dims = [2] : (tensor<192xf32>) -> tensor<32x197x192xf32>
    %vitb5_mK = stablehlo.add %vitb5_mKd, %vitb5_mKbb : tensor<32x197x192xf32>
    %vitb5_mVd = stablehlo.dot_general %vitb5_1y, %Wv_5, contracting_dims = [2] x [0], precision = [DEFAULT, DEFAULT] : (tensor<32x197x192xf32>, tensor<192x192xf32>) -> tensor<32x197x192xf32>
    %vitb5_mVbb = stablehlo.broadcast_in_dim %bv_5, dims = [2] : (tensor<192xf32>) -> tensor<32x197x192xf32>
    %vitb5_mV = stablehlo.add %vitb5_mVd, %vitb5_mVbb : tensor<32x197x192xf32>
    %vitb5_mQhr = stablehlo.reshape %vitb5_mQ : (tensor<32x197x192xf32>) -> tensor<32x197x3x64xf32>
    %vitb5_mQh = stablehlo.transpose %vitb5_mQhr, dims = [0, 2, 1, 3] : (tensor<32x197x3x64xf32>) -> tensor<32x3x197x64xf32>
    %vitb5_mKhr = stablehlo.reshape %vitb5_mK : (tensor<32x197x192xf32>) -> tensor<32x197x3x64xf32>
    %vitb5_mKh = stablehlo.transpose %vitb5_mKhr, dims = [0, 2, 1, 3] : (tensor<32x197x3x64xf32>) -> tensor<32x3x197x64xf32>
    %vitb5_mVhr = stablehlo.reshape %vitb5_mV : (tensor<32x197x192xf32>) -> tensor<32x197x3x64xf32>
    %vitb5_mVh = stablehlo.transpose %vitb5_mVhr, dims = [0, 2, 1, 3] : (tensor<32x197x3x64xf32>) -> tensor<32x3x197x64xf32>
    %vitb5_mS = stablehlo.dot_general %vitb5_mQh, %vitb5_mKh, batching_dims = [0, 1] x [0, 1], contracting_dims = [3] x [3], precision = [DEFAULT, DEFAULT] : (tensor<32x3x197x64xf32>, tensor<32x3x197x64xf32>) -> tensor<32x3x197x197xf32>
    %vitb5_mscl = stablehlo.constant dense<0.125> : tensor<32x3x197x197xf32>
    %vitb5_mSs = stablehlo.multiply %vitb5_mS, %vitb5_mscl : tensor<32x3x197x197xf32>
    %vitb5_mse = stablehlo.exponential %vitb5_mSs : tensor<32x3x197x197xf32>
    %vitb5_msum = stablehlo.reduce(%vitb5_mse init: %sc) applies stablehlo.add across dimensions = [3] : (tensor<32x3x197x197xf32>, tensor<f32>) -> tensor<32x3x197xf32>
    %vitb5_msumb = stablehlo.broadcast_in_dim %vitb5_msum, dims = [0, 1, 2] : (tensor<32x3x197xf32>) -> tensor<32x3x197x197xf32>
    %vitb5_mW = stablehlo.divide %vitb5_mse, %vitb5_msumb : tensor<32x3x197x197xf32>
    %vitb5_mA = stablehlo.dot_general %vitb5_mW, %vitb5_mVh, batching_dims = [0, 1] x [0, 1], contracting_dims = [3] x [2], precision = [DEFAULT, DEFAULT] : (tensor<32x3x197x197xf32>, tensor<32x3x197x64xf32>) -> tensor<32x3x197x64xf32>
    %vitb5_mAT = stablehlo.transpose %vitb5_mA, dims = [0, 2, 1, 3] : (tensor<32x3x197x64xf32>) -> tensor<32x197x3x64xf32>
    %vitb5_mP = stablehlo.reshape %vitb5_mAT : (tensor<32x197x3x64xf32>) -> tensor<32x197x192xf32>
    %vitb5_mod = stablehlo.dot_general %vitb5_mP, %Wo_5, contracting_dims = [2] x [0], precision = [DEFAULT, DEFAULT] : (tensor<32x197x192xf32>, tensor<192x192xf32>) -> tensor<32x197x192xf32>
    %vitb5_mobb = stablehlo.broadcast_in_dim %bo_5, dims = [2] : (tensor<192xf32>) -> tensor<32x197x192xf32>
    %vitb5_mO = stablehlo.add %vitb5_mod, %vitb5_mobb : tensor<32x197x192xf32>
    %vitb5_r1 = stablehlo.add %vitb4_out, %vitb5_mO : tensor<32x197x192xf32>
    %vitb5_2sum = stablehlo.reduce(%vitb5_r1 init: %sc) applies stablehlo.add across dimensions = [2] : (tensor<32x197x192xf32>, tensor<f32>) -> tensor<32x197xf32>
    %vitb5_2nf = stablehlo.constant dense<192.0> : tensor<32x197xf32>
    %vitb5_2mu = stablehlo.divide %vitb5_2sum, %vitb5_2nf : tensor<32x197xf32>
    %vitb5_2mub = stablehlo.broadcast_in_dim %vitb5_2mu, dims = [0, 1] : (tensor<32x197xf32>) -> tensor<32x197x192xf32>
    %vitb5_2xc = stablehlo.subtract %vitb5_r1, %vitb5_2mub : tensor<32x197x192xf32>
    %vitb5_2sq = stablehlo.multiply %vitb5_2xc, %vitb5_2xc : tensor<32x197x192xf32>
    %vitb5_2vsum = stablehlo.reduce(%vitb5_2sq init: %sc) applies stablehlo.add across dimensions = [2] : (tensor<32x197x192xf32>, tensor<f32>) -> tensor<32x197xf32>
    %vitb5_2var = stablehlo.divide %vitb5_2vsum, %vitb5_2nf : tensor<32x197xf32>
    %vitb5_2eps = stablehlo.constant dense<1.0e-5> : tensor<32x197xf32>
    %vitb5_2ve = stablehlo.add %vitb5_2var, %vitb5_2eps : tensor<32x197xf32>
    %vitb5_2istd = stablehlo.rsqrt %vitb5_2ve : tensor<32x197xf32>
    %vitb5_2istdb = stablehlo.broadcast_in_dim %vitb5_2istd, dims = [0, 1] : (tensor<32x197xf32>) -> tensor<32x197x192xf32>
    %vitb5_2xhat = stablehlo.multiply %vitb5_2xc, %vitb5_2istdb : tensor<32x197x192xf32>
    %vitb5_2gb = stablehlo.broadcast_in_dim %g2_5, dims = [2] : (tensor<192xf32>) -> tensor<32x197x192xf32>
    %vitb5_2bbc = stablehlo.broadcast_in_dim %b2_5, dims = [2] : (tensor<192xf32>) -> tensor<32x197x192xf32>
    %vitb5_2gx = stablehlo.multiply %vitb5_2xhat, %vitb5_2gb : tensor<32x197x192xf32>
    %vitb5_2y = stablehlo.add %vitb5_2gx, %vitb5_2bbc : tensor<32x197x192xf32>
    %vitb5_ph1d = stablehlo.dot_general %vitb5_2y, %Wfc1_5, contracting_dims = [2] x [0], precision = [DEFAULT, DEFAULT] : (tensor<32x197x192xf32>, tensor<192x768xf32>) -> tensor<32x197x768xf32>
    %vitb5_ph1bb = stablehlo.broadcast_in_dim %bfc1_5, dims = [2] : (tensor<768xf32>) -> tensor<32x197x768xf32>
    %vitb5_ph1 = stablehlo.add %vitb5_ph1d, %vitb5_ph1bb : tensor<32x197x768xf32>
    %vitb5_pgx2 = stablehlo.multiply %vitb5_ph1, %vitb5_ph1 : tensor<32x197x768xf32>
    %vitb5_pgx3 = stablehlo.multiply %vitb5_pgx2, %vitb5_ph1 : tensor<32x197x768xf32>
    %vitb5_pgck = stablehlo.constant dense<0.044715> : tensor<32x197x768xf32>
    %vitb5_pgkx3 = stablehlo.multiply %vitb5_pgck, %vitb5_pgx3 : tensor<32x197x768xf32>
    %vitb5_pginn = stablehlo.add %vitb5_ph1, %vitb5_pgkx3 : tensor<32x197x768xf32>
    %vitb5_pgcsqrt = stablehlo.constant dense<0.7978845608028654> : tensor<32x197x768xf32>
    %vitb5_pgu = stablehlo.multiply %vitb5_pgcsqrt, %vitb5_pginn : tensor<32x197x768xf32>
    %vitb5_pgt = stablehlo.tanh %vitb5_pgu : tensor<32x197x768xf32>
    %vitb5_pgone = stablehlo.constant dense<1.0> : tensor<32x197x768xf32>
    %vitb5_pgopt = stablehlo.add %vitb5_pgone, %vitb5_pgt : tensor<32x197x768xf32>
    %vitb5_pgchalf = stablehlo.constant dense<0.5> : tensor<32x197x768xf32>
    %vitb5_pghx = stablehlo.multiply %vitb5_pgchalf, %vitb5_ph1 : tensor<32x197x768xf32>
    %vitb5_pga = stablehlo.multiply %vitb5_pghx, %vitb5_pgopt : tensor<32x197x768xf32>
    %vitb5_py2d = stablehlo.dot_general %vitb5_pga, %Wfc2_5, contracting_dims = [2] x [0], precision = [DEFAULT, DEFAULT] : (tensor<32x197x768xf32>, tensor<768x192xf32>) -> tensor<32x197x192xf32>
    %vitb5_py2bb = stablehlo.broadcast_in_dim %bfc2_5, dims = [2] : (tensor<192xf32>) -> tensor<32x197x192xf32>
    %vitb5_py = stablehlo.add %vitb5_py2d, %vitb5_py2bb : tensor<32x197x192xf32>
    %vitb5_out = stablehlo.add %vitb5_r1, %vitb5_py : tensor<32x197x192xf32>
    %vitb6_1sum = stablehlo.reduce(%vitb5_out init: %sc) applies stablehlo.add across dimensions = [2] : (tensor<32x197x192xf32>, tensor<f32>) -> tensor<32x197xf32>
    %vitb6_1nf = stablehlo.constant dense<192.0> : tensor<32x197xf32>
    %vitb6_1mu = stablehlo.divide %vitb6_1sum, %vitb6_1nf : tensor<32x197xf32>
    %vitb6_1mub = stablehlo.broadcast_in_dim %vitb6_1mu, dims = [0, 1] : (tensor<32x197xf32>) -> tensor<32x197x192xf32>
    %vitb6_1xc = stablehlo.subtract %vitb5_out, %vitb6_1mub : tensor<32x197x192xf32>
    %vitb6_1sq = stablehlo.multiply %vitb6_1xc, %vitb6_1xc : tensor<32x197x192xf32>
    %vitb6_1vsum = stablehlo.reduce(%vitb6_1sq init: %sc) applies stablehlo.add across dimensions = [2] : (tensor<32x197x192xf32>, tensor<f32>) -> tensor<32x197xf32>
    %vitb6_1var = stablehlo.divide %vitb6_1vsum, %vitb6_1nf : tensor<32x197xf32>
    %vitb6_1eps = stablehlo.constant dense<1.0e-5> : tensor<32x197xf32>
    %vitb6_1ve = stablehlo.add %vitb6_1var, %vitb6_1eps : tensor<32x197xf32>
    %vitb6_1istd = stablehlo.rsqrt %vitb6_1ve : tensor<32x197xf32>
    %vitb6_1istdb = stablehlo.broadcast_in_dim %vitb6_1istd, dims = [0, 1] : (tensor<32x197xf32>) -> tensor<32x197x192xf32>
    %vitb6_1xhat = stablehlo.multiply %vitb6_1xc, %vitb6_1istdb : tensor<32x197x192xf32>
    %vitb6_1gb = stablehlo.broadcast_in_dim %g1_6, dims = [2] : (tensor<192xf32>) -> tensor<32x197x192xf32>
    %vitb6_1bbc = stablehlo.broadcast_in_dim %b1_6, dims = [2] : (tensor<192xf32>) -> tensor<32x197x192xf32>
    %vitb6_1gx = stablehlo.multiply %vitb6_1xhat, %vitb6_1gb : tensor<32x197x192xf32>
    %vitb6_1y = stablehlo.add %vitb6_1gx, %vitb6_1bbc : tensor<32x197x192xf32>
    %vitb6_mQd = stablehlo.dot_general %vitb6_1y, %Wq_6, contracting_dims = [2] x [0], precision = [DEFAULT, DEFAULT] : (tensor<32x197x192xf32>, tensor<192x192xf32>) -> tensor<32x197x192xf32>
    %vitb6_mQbb = stablehlo.broadcast_in_dim %bq_6, dims = [2] : (tensor<192xf32>) -> tensor<32x197x192xf32>
    %vitb6_mQ = stablehlo.add %vitb6_mQd, %vitb6_mQbb : tensor<32x197x192xf32>
    %vitb6_mKd = stablehlo.dot_general %vitb6_1y, %Wk_6, contracting_dims = [2] x [0], precision = [DEFAULT, DEFAULT] : (tensor<32x197x192xf32>, tensor<192x192xf32>) -> tensor<32x197x192xf32>
    %vitb6_mKbb = stablehlo.broadcast_in_dim %bk_6, dims = [2] : (tensor<192xf32>) -> tensor<32x197x192xf32>
    %vitb6_mK = stablehlo.add %vitb6_mKd, %vitb6_mKbb : tensor<32x197x192xf32>
    %vitb6_mVd = stablehlo.dot_general %vitb6_1y, %Wv_6, contracting_dims = [2] x [0], precision = [DEFAULT, DEFAULT] : (tensor<32x197x192xf32>, tensor<192x192xf32>) -> tensor<32x197x192xf32>
    %vitb6_mVbb = stablehlo.broadcast_in_dim %bv_6, dims = [2] : (tensor<192xf32>) -> tensor<32x197x192xf32>
    %vitb6_mV = stablehlo.add %vitb6_mVd, %vitb6_mVbb : tensor<32x197x192xf32>
    %vitb6_mQhr = stablehlo.reshape %vitb6_mQ : (tensor<32x197x192xf32>) -> tensor<32x197x3x64xf32>
    %vitb6_mQh = stablehlo.transpose %vitb6_mQhr, dims = [0, 2, 1, 3] : (tensor<32x197x3x64xf32>) -> tensor<32x3x197x64xf32>
    %vitb6_mKhr = stablehlo.reshape %vitb6_mK : (tensor<32x197x192xf32>) -> tensor<32x197x3x64xf32>
    %vitb6_mKh = stablehlo.transpose %vitb6_mKhr, dims = [0, 2, 1, 3] : (tensor<32x197x3x64xf32>) -> tensor<32x3x197x64xf32>
    %vitb6_mVhr = stablehlo.reshape %vitb6_mV : (tensor<32x197x192xf32>) -> tensor<32x197x3x64xf32>
    %vitb6_mVh = stablehlo.transpose %vitb6_mVhr, dims = [0, 2, 1, 3] : (tensor<32x197x3x64xf32>) -> tensor<32x3x197x64xf32>
    %vitb6_mS = stablehlo.dot_general %vitb6_mQh, %vitb6_mKh, batching_dims = [0, 1] x [0, 1], contracting_dims = [3] x [3], precision = [DEFAULT, DEFAULT] : (tensor<32x3x197x64xf32>, tensor<32x3x197x64xf32>) -> tensor<32x3x197x197xf32>
    %vitb6_mscl = stablehlo.constant dense<0.125> : tensor<32x3x197x197xf32>
    %vitb6_mSs = stablehlo.multiply %vitb6_mS, %vitb6_mscl : tensor<32x3x197x197xf32>
    %vitb6_mse = stablehlo.exponential %vitb6_mSs : tensor<32x3x197x197xf32>
    %vitb6_msum = stablehlo.reduce(%vitb6_mse init: %sc) applies stablehlo.add across dimensions = [3] : (tensor<32x3x197x197xf32>, tensor<f32>) -> tensor<32x3x197xf32>
    %vitb6_msumb = stablehlo.broadcast_in_dim %vitb6_msum, dims = [0, 1, 2] : (tensor<32x3x197xf32>) -> tensor<32x3x197x197xf32>
    %vitb6_mW = stablehlo.divide %vitb6_mse, %vitb6_msumb : tensor<32x3x197x197xf32>
    %vitb6_mA = stablehlo.dot_general %vitb6_mW, %vitb6_mVh, batching_dims = [0, 1] x [0, 1], contracting_dims = [3] x [2], precision = [DEFAULT, DEFAULT] : (tensor<32x3x197x197xf32>, tensor<32x3x197x64xf32>) -> tensor<32x3x197x64xf32>
    %vitb6_mAT = stablehlo.transpose %vitb6_mA, dims = [0, 2, 1, 3] : (tensor<32x3x197x64xf32>) -> tensor<32x197x3x64xf32>
    %vitb6_mP = stablehlo.reshape %vitb6_mAT : (tensor<32x197x3x64xf32>) -> tensor<32x197x192xf32>
    %vitb6_mod = stablehlo.dot_general %vitb6_mP, %Wo_6, contracting_dims = [2] x [0], precision = [DEFAULT, DEFAULT] : (tensor<32x197x192xf32>, tensor<192x192xf32>) -> tensor<32x197x192xf32>
    %vitb6_mobb = stablehlo.broadcast_in_dim %bo_6, dims = [2] : (tensor<192xf32>) -> tensor<32x197x192xf32>
    %vitb6_mO = stablehlo.add %vitb6_mod, %vitb6_mobb : tensor<32x197x192xf32>
    %vitb6_r1 = stablehlo.add %vitb5_out, %vitb6_mO : tensor<32x197x192xf32>
    %vitb6_2sum = stablehlo.reduce(%vitb6_r1 init: %sc) applies stablehlo.add across dimensions = [2] : (tensor<32x197x192xf32>, tensor<f32>) -> tensor<32x197xf32>
    %vitb6_2nf = stablehlo.constant dense<192.0> : tensor<32x197xf32>
    %vitb6_2mu = stablehlo.divide %vitb6_2sum, %vitb6_2nf : tensor<32x197xf32>
    %vitb6_2mub = stablehlo.broadcast_in_dim %vitb6_2mu, dims = [0, 1] : (tensor<32x197xf32>) -> tensor<32x197x192xf32>
    %vitb6_2xc = stablehlo.subtract %vitb6_r1, %vitb6_2mub : tensor<32x197x192xf32>
    %vitb6_2sq = stablehlo.multiply %vitb6_2xc, %vitb6_2xc : tensor<32x197x192xf32>
    %vitb6_2vsum = stablehlo.reduce(%vitb6_2sq init: %sc) applies stablehlo.add across dimensions = [2] : (tensor<32x197x192xf32>, tensor<f32>) -> tensor<32x197xf32>
    %vitb6_2var = stablehlo.divide %vitb6_2vsum, %vitb6_2nf : tensor<32x197xf32>
    %vitb6_2eps = stablehlo.constant dense<1.0e-5> : tensor<32x197xf32>
    %vitb6_2ve = stablehlo.add %vitb6_2var, %vitb6_2eps : tensor<32x197xf32>
    %vitb6_2istd = stablehlo.rsqrt %vitb6_2ve : tensor<32x197xf32>
    %vitb6_2istdb = stablehlo.broadcast_in_dim %vitb6_2istd, dims = [0, 1] : (tensor<32x197xf32>) -> tensor<32x197x192xf32>
    %vitb6_2xhat = stablehlo.multiply %vitb6_2xc, %vitb6_2istdb : tensor<32x197x192xf32>
    %vitb6_2gb = stablehlo.broadcast_in_dim %g2_6, dims = [2] : (tensor<192xf32>) -> tensor<32x197x192xf32>
    %vitb6_2bbc = stablehlo.broadcast_in_dim %b2_6, dims = [2] : (tensor<192xf32>) -> tensor<32x197x192xf32>
    %vitb6_2gx = stablehlo.multiply %vitb6_2xhat, %vitb6_2gb : tensor<32x197x192xf32>
    %vitb6_2y = stablehlo.add %vitb6_2gx, %vitb6_2bbc : tensor<32x197x192xf32>
    %vitb6_ph1d = stablehlo.dot_general %vitb6_2y, %Wfc1_6, contracting_dims = [2] x [0], precision = [DEFAULT, DEFAULT] : (tensor<32x197x192xf32>, tensor<192x768xf32>) -> tensor<32x197x768xf32>
    %vitb6_ph1bb = stablehlo.broadcast_in_dim %bfc1_6, dims = [2] : (tensor<768xf32>) -> tensor<32x197x768xf32>
    %vitb6_ph1 = stablehlo.add %vitb6_ph1d, %vitb6_ph1bb : tensor<32x197x768xf32>
    %vitb6_pgx2 = stablehlo.multiply %vitb6_ph1, %vitb6_ph1 : tensor<32x197x768xf32>
    %vitb6_pgx3 = stablehlo.multiply %vitb6_pgx2, %vitb6_ph1 : tensor<32x197x768xf32>
    %vitb6_pgck = stablehlo.constant dense<0.044715> : tensor<32x197x768xf32>
    %vitb6_pgkx3 = stablehlo.multiply %vitb6_pgck, %vitb6_pgx3 : tensor<32x197x768xf32>
    %vitb6_pginn = stablehlo.add %vitb6_ph1, %vitb6_pgkx3 : tensor<32x197x768xf32>
    %vitb6_pgcsqrt = stablehlo.constant dense<0.7978845608028654> : tensor<32x197x768xf32>
    %vitb6_pgu = stablehlo.multiply %vitb6_pgcsqrt, %vitb6_pginn : tensor<32x197x768xf32>
    %vitb6_pgt = stablehlo.tanh %vitb6_pgu : tensor<32x197x768xf32>
    %vitb6_pgone = stablehlo.constant dense<1.0> : tensor<32x197x768xf32>
    %vitb6_pgopt = stablehlo.add %vitb6_pgone, %vitb6_pgt : tensor<32x197x768xf32>
    %vitb6_pgchalf = stablehlo.constant dense<0.5> : tensor<32x197x768xf32>
    %vitb6_pghx = stablehlo.multiply %vitb6_pgchalf, %vitb6_ph1 : tensor<32x197x768xf32>
    %vitb6_pga = stablehlo.multiply %vitb6_pghx, %vitb6_pgopt : tensor<32x197x768xf32>
    %vitb6_py2d = stablehlo.dot_general %vitb6_pga, %Wfc2_6, contracting_dims = [2] x [0], precision = [DEFAULT, DEFAULT] : (tensor<32x197x768xf32>, tensor<768x192xf32>) -> tensor<32x197x192xf32>
    %vitb6_py2bb = stablehlo.broadcast_in_dim %bfc2_6, dims = [2] : (tensor<192xf32>) -> tensor<32x197x192xf32>
    %vitb6_py = stablehlo.add %vitb6_py2d, %vitb6_py2bb : tensor<32x197x192xf32>
    %vitb6_out = stablehlo.add %vitb6_r1, %vitb6_py : tensor<32x197x192xf32>
    %vitb7_1sum = stablehlo.reduce(%vitb6_out init: %sc) applies stablehlo.add across dimensions = [2] : (tensor<32x197x192xf32>, tensor<f32>) -> tensor<32x197xf32>
    %vitb7_1nf = stablehlo.constant dense<192.0> : tensor<32x197xf32>
    %vitb7_1mu = stablehlo.divide %vitb7_1sum, %vitb7_1nf : tensor<32x197xf32>
    %vitb7_1mub = stablehlo.broadcast_in_dim %vitb7_1mu, dims = [0, 1] : (tensor<32x197xf32>) -> tensor<32x197x192xf32>
    %vitb7_1xc = stablehlo.subtract %vitb6_out, %vitb7_1mub : tensor<32x197x192xf32>
    %vitb7_1sq = stablehlo.multiply %vitb7_1xc, %vitb7_1xc : tensor<32x197x192xf32>
    %vitb7_1vsum = stablehlo.reduce(%vitb7_1sq init: %sc) applies stablehlo.add across dimensions = [2] : (tensor<32x197x192xf32>, tensor<f32>) -> tensor<32x197xf32>
    %vitb7_1var = stablehlo.divide %vitb7_1vsum, %vitb7_1nf : tensor<32x197xf32>
    %vitb7_1eps = stablehlo.constant dense<1.0e-5> : tensor<32x197xf32>
    %vitb7_1ve = stablehlo.add %vitb7_1var, %vitb7_1eps : tensor<32x197xf32>
    %vitb7_1istd = stablehlo.rsqrt %vitb7_1ve : tensor<32x197xf32>
    %vitb7_1istdb = stablehlo.broadcast_in_dim %vitb7_1istd, dims = [0, 1] : (tensor<32x197xf32>) -> tensor<32x197x192xf32>
    %vitb7_1xhat = stablehlo.multiply %vitb7_1xc, %vitb7_1istdb : tensor<32x197x192xf32>
    %vitb7_1gb = stablehlo.broadcast_in_dim %g1_7, dims = [2] : (tensor<192xf32>) -> tensor<32x197x192xf32>
    %vitb7_1bbc = stablehlo.broadcast_in_dim %b1_7, dims = [2] : (tensor<192xf32>) -> tensor<32x197x192xf32>
    %vitb7_1gx = stablehlo.multiply %vitb7_1xhat, %vitb7_1gb : tensor<32x197x192xf32>
    %vitb7_1y = stablehlo.add %vitb7_1gx, %vitb7_1bbc : tensor<32x197x192xf32>
    %vitb7_mQd = stablehlo.dot_general %vitb7_1y, %Wq_7, contracting_dims = [2] x [0], precision = [DEFAULT, DEFAULT] : (tensor<32x197x192xf32>, tensor<192x192xf32>) -> tensor<32x197x192xf32>
    %vitb7_mQbb = stablehlo.broadcast_in_dim %bq_7, dims = [2] : (tensor<192xf32>) -> tensor<32x197x192xf32>
    %vitb7_mQ = stablehlo.add %vitb7_mQd, %vitb7_mQbb : tensor<32x197x192xf32>
    %vitb7_mKd = stablehlo.dot_general %vitb7_1y, %Wk_7, contracting_dims = [2] x [0], precision = [DEFAULT, DEFAULT] : (tensor<32x197x192xf32>, tensor<192x192xf32>) -> tensor<32x197x192xf32>
    %vitb7_mKbb = stablehlo.broadcast_in_dim %bk_7, dims = [2] : (tensor<192xf32>) -> tensor<32x197x192xf32>
    %vitb7_mK = stablehlo.add %vitb7_mKd, %vitb7_mKbb : tensor<32x197x192xf32>
    %vitb7_mVd = stablehlo.dot_general %vitb7_1y, %Wv_7, contracting_dims = [2] x [0], precision = [DEFAULT, DEFAULT] : (tensor<32x197x192xf32>, tensor<192x192xf32>) -> tensor<32x197x192xf32>
    %vitb7_mVbb = stablehlo.broadcast_in_dim %bv_7, dims = [2] : (tensor<192xf32>) -> tensor<32x197x192xf32>
    %vitb7_mV = stablehlo.add %vitb7_mVd, %vitb7_mVbb : tensor<32x197x192xf32>
    %vitb7_mQhr = stablehlo.reshape %vitb7_mQ : (tensor<32x197x192xf32>) -> tensor<32x197x3x64xf32>
    %vitb7_mQh = stablehlo.transpose %vitb7_mQhr, dims = [0, 2, 1, 3] : (tensor<32x197x3x64xf32>) -> tensor<32x3x197x64xf32>
    %vitb7_mKhr = stablehlo.reshape %vitb7_mK : (tensor<32x197x192xf32>) -> tensor<32x197x3x64xf32>
    %vitb7_mKh = stablehlo.transpose %vitb7_mKhr, dims = [0, 2, 1, 3] : (tensor<32x197x3x64xf32>) -> tensor<32x3x197x64xf32>
    %vitb7_mVhr = stablehlo.reshape %vitb7_mV : (tensor<32x197x192xf32>) -> tensor<32x197x3x64xf32>
    %vitb7_mVh = stablehlo.transpose %vitb7_mVhr, dims = [0, 2, 1, 3] : (tensor<32x197x3x64xf32>) -> tensor<32x3x197x64xf32>
    %vitb7_mS = stablehlo.dot_general %vitb7_mQh, %vitb7_mKh, batching_dims = [0, 1] x [0, 1], contracting_dims = [3] x [3], precision = [DEFAULT, DEFAULT] : (tensor<32x3x197x64xf32>, tensor<32x3x197x64xf32>) -> tensor<32x3x197x197xf32>
    %vitb7_mscl = stablehlo.constant dense<0.125> : tensor<32x3x197x197xf32>
    %vitb7_mSs = stablehlo.multiply %vitb7_mS, %vitb7_mscl : tensor<32x3x197x197xf32>
    %vitb7_mse = stablehlo.exponential %vitb7_mSs : tensor<32x3x197x197xf32>
    %vitb7_msum = stablehlo.reduce(%vitb7_mse init: %sc) applies stablehlo.add across dimensions = [3] : (tensor<32x3x197x197xf32>, tensor<f32>) -> tensor<32x3x197xf32>
    %vitb7_msumb = stablehlo.broadcast_in_dim %vitb7_msum, dims = [0, 1, 2] : (tensor<32x3x197xf32>) -> tensor<32x3x197x197xf32>
    %vitb7_mW = stablehlo.divide %vitb7_mse, %vitb7_msumb : tensor<32x3x197x197xf32>
    %vitb7_mA = stablehlo.dot_general %vitb7_mW, %vitb7_mVh, batching_dims = [0, 1] x [0, 1], contracting_dims = [3] x [2], precision = [DEFAULT, DEFAULT] : (tensor<32x3x197x197xf32>, tensor<32x3x197x64xf32>) -> tensor<32x3x197x64xf32>
    %vitb7_mAT = stablehlo.transpose %vitb7_mA, dims = [0, 2, 1, 3] : (tensor<32x3x197x64xf32>) -> tensor<32x197x3x64xf32>
    %vitb7_mP = stablehlo.reshape %vitb7_mAT : (tensor<32x197x3x64xf32>) -> tensor<32x197x192xf32>
    %vitb7_mod = stablehlo.dot_general %vitb7_mP, %Wo_7, contracting_dims = [2] x [0], precision = [DEFAULT, DEFAULT] : (tensor<32x197x192xf32>, tensor<192x192xf32>) -> tensor<32x197x192xf32>
    %vitb7_mobb = stablehlo.broadcast_in_dim %bo_7, dims = [2] : (tensor<192xf32>) -> tensor<32x197x192xf32>
    %vitb7_mO = stablehlo.add %vitb7_mod, %vitb7_mobb : tensor<32x197x192xf32>
    %vitb7_r1 = stablehlo.add %vitb6_out, %vitb7_mO : tensor<32x197x192xf32>
    %vitb7_2sum = stablehlo.reduce(%vitb7_r1 init: %sc) applies stablehlo.add across dimensions = [2] : (tensor<32x197x192xf32>, tensor<f32>) -> tensor<32x197xf32>
    %vitb7_2nf = stablehlo.constant dense<192.0> : tensor<32x197xf32>
    %vitb7_2mu = stablehlo.divide %vitb7_2sum, %vitb7_2nf : tensor<32x197xf32>
    %vitb7_2mub = stablehlo.broadcast_in_dim %vitb7_2mu, dims = [0, 1] : (tensor<32x197xf32>) -> tensor<32x197x192xf32>
    %vitb7_2xc = stablehlo.subtract %vitb7_r1, %vitb7_2mub : tensor<32x197x192xf32>
    %vitb7_2sq = stablehlo.multiply %vitb7_2xc, %vitb7_2xc : tensor<32x197x192xf32>
    %vitb7_2vsum = stablehlo.reduce(%vitb7_2sq init: %sc) applies stablehlo.add across dimensions = [2] : (tensor<32x197x192xf32>, tensor<f32>) -> tensor<32x197xf32>
    %vitb7_2var = stablehlo.divide %vitb7_2vsum, %vitb7_2nf : tensor<32x197xf32>
    %vitb7_2eps = stablehlo.constant dense<1.0e-5> : tensor<32x197xf32>
    %vitb7_2ve = stablehlo.add %vitb7_2var, %vitb7_2eps : tensor<32x197xf32>
    %vitb7_2istd = stablehlo.rsqrt %vitb7_2ve : tensor<32x197xf32>
    %vitb7_2istdb = stablehlo.broadcast_in_dim %vitb7_2istd, dims = [0, 1] : (tensor<32x197xf32>) -> tensor<32x197x192xf32>
    %vitb7_2xhat = stablehlo.multiply %vitb7_2xc, %vitb7_2istdb : tensor<32x197x192xf32>
    %vitb7_2gb = stablehlo.broadcast_in_dim %g2_7, dims = [2] : (tensor<192xf32>) -> tensor<32x197x192xf32>
    %vitb7_2bbc = stablehlo.broadcast_in_dim %b2_7, dims = [2] : (tensor<192xf32>) -> tensor<32x197x192xf32>
    %vitb7_2gx = stablehlo.multiply %vitb7_2xhat, %vitb7_2gb : tensor<32x197x192xf32>
    %vitb7_2y = stablehlo.add %vitb7_2gx, %vitb7_2bbc : tensor<32x197x192xf32>
    %vitb7_ph1d = stablehlo.dot_general %vitb7_2y, %Wfc1_7, contracting_dims = [2] x [0], precision = [DEFAULT, DEFAULT] : (tensor<32x197x192xf32>, tensor<192x768xf32>) -> tensor<32x197x768xf32>
    %vitb7_ph1bb = stablehlo.broadcast_in_dim %bfc1_7, dims = [2] : (tensor<768xf32>) -> tensor<32x197x768xf32>
    %vitb7_ph1 = stablehlo.add %vitb7_ph1d, %vitb7_ph1bb : tensor<32x197x768xf32>
    %vitb7_pgx2 = stablehlo.multiply %vitb7_ph1, %vitb7_ph1 : tensor<32x197x768xf32>
    %vitb7_pgx3 = stablehlo.multiply %vitb7_pgx2, %vitb7_ph1 : tensor<32x197x768xf32>
    %vitb7_pgck = stablehlo.constant dense<0.044715> : tensor<32x197x768xf32>
    %vitb7_pgkx3 = stablehlo.multiply %vitb7_pgck, %vitb7_pgx3 : tensor<32x197x768xf32>
    %vitb7_pginn = stablehlo.add %vitb7_ph1, %vitb7_pgkx3 : tensor<32x197x768xf32>
    %vitb7_pgcsqrt = stablehlo.constant dense<0.7978845608028654> : tensor<32x197x768xf32>
    %vitb7_pgu = stablehlo.multiply %vitb7_pgcsqrt, %vitb7_pginn : tensor<32x197x768xf32>
    %vitb7_pgt = stablehlo.tanh %vitb7_pgu : tensor<32x197x768xf32>
    %vitb7_pgone = stablehlo.constant dense<1.0> : tensor<32x197x768xf32>
    %vitb7_pgopt = stablehlo.add %vitb7_pgone, %vitb7_pgt : tensor<32x197x768xf32>
    %vitb7_pgchalf = stablehlo.constant dense<0.5> : tensor<32x197x768xf32>
    %vitb7_pghx = stablehlo.multiply %vitb7_pgchalf, %vitb7_ph1 : tensor<32x197x768xf32>
    %vitb7_pga = stablehlo.multiply %vitb7_pghx, %vitb7_pgopt : tensor<32x197x768xf32>
    %vitb7_py2d = stablehlo.dot_general %vitb7_pga, %Wfc2_7, contracting_dims = [2] x [0], precision = [DEFAULT, DEFAULT] : (tensor<32x197x768xf32>, tensor<768x192xf32>) -> tensor<32x197x192xf32>
    %vitb7_py2bb = stablehlo.broadcast_in_dim %bfc2_7, dims = [2] : (tensor<192xf32>) -> tensor<32x197x192xf32>
    %vitb7_py = stablehlo.add %vitb7_py2d, %vitb7_py2bb : tensor<32x197x192xf32>
    %vitb7_out = stablehlo.add %vitb7_r1, %vitb7_py : tensor<32x197x192xf32>
    %vitb8_1sum = stablehlo.reduce(%vitb7_out init: %sc) applies stablehlo.add across dimensions = [2] : (tensor<32x197x192xf32>, tensor<f32>) -> tensor<32x197xf32>
    %vitb8_1nf = stablehlo.constant dense<192.0> : tensor<32x197xf32>
    %vitb8_1mu = stablehlo.divide %vitb8_1sum, %vitb8_1nf : tensor<32x197xf32>
    %vitb8_1mub = stablehlo.broadcast_in_dim %vitb8_1mu, dims = [0, 1] : (tensor<32x197xf32>) -> tensor<32x197x192xf32>
    %vitb8_1xc = stablehlo.subtract %vitb7_out, %vitb8_1mub : tensor<32x197x192xf32>
    %vitb8_1sq = stablehlo.multiply %vitb8_1xc, %vitb8_1xc : tensor<32x197x192xf32>
    %vitb8_1vsum = stablehlo.reduce(%vitb8_1sq init: %sc) applies stablehlo.add across dimensions = [2] : (tensor<32x197x192xf32>, tensor<f32>) -> tensor<32x197xf32>
    %vitb8_1var = stablehlo.divide %vitb8_1vsum, %vitb8_1nf : tensor<32x197xf32>
    %vitb8_1eps = stablehlo.constant dense<1.0e-5> : tensor<32x197xf32>
    %vitb8_1ve = stablehlo.add %vitb8_1var, %vitb8_1eps : tensor<32x197xf32>
    %vitb8_1istd = stablehlo.rsqrt %vitb8_1ve : tensor<32x197xf32>
    %vitb8_1istdb = stablehlo.broadcast_in_dim %vitb8_1istd, dims = [0, 1] : (tensor<32x197xf32>) -> tensor<32x197x192xf32>
    %vitb8_1xhat = stablehlo.multiply %vitb8_1xc, %vitb8_1istdb : tensor<32x197x192xf32>
    %vitb8_1gb = stablehlo.broadcast_in_dim %g1_8, dims = [2] : (tensor<192xf32>) -> tensor<32x197x192xf32>
    %vitb8_1bbc = stablehlo.broadcast_in_dim %b1_8, dims = [2] : (tensor<192xf32>) -> tensor<32x197x192xf32>
    %vitb8_1gx = stablehlo.multiply %vitb8_1xhat, %vitb8_1gb : tensor<32x197x192xf32>
    %vitb8_1y = stablehlo.add %vitb8_1gx, %vitb8_1bbc : tensor<32x197x192xf32>
    %vitb8_mQd = stablehlo.dot_general %vitb8_1y, %Wq_8, contracting_dims = [2] x [0], precision = [DEFAULT, DEFAULT] : (tensor<32x197x192xf32>, tensor<192x192xf32>) -> tensor<32x197x192xf32>
    %vitb8_mQbb = stablehlo.broadcast_in_dim %bq_8, dims = [2] : (tensor<192xf32>) -> tensor<32x197x192xf32>
    %vitb8_mQ = stablehlo.add %vitb8_mQd, %vitb8_mQbb : tensor<32x197x192xf32>
    %vitb8_mKd = stablehlo.dot_general %vitb8_1y, %Wk_8, contracting_dims = [2] x [0], precision = [DEFAULT, DEFAULT] : (tensor<32x197x192xf32>, tensor<192x192xf32>) -> tensor<32x197x192xf32>
    %vitb8_mKbb = stablehlo.broadcast_in_dim %bk_8, dims = [2] : (tensor<192xf32>) -> tensor<32x197x192xf32>
    %vitb8_mK = stablehlo.add %vitb8_mKd, %vitb8_mKbb : tensor<32x197x192xf32>
    %vitb8_mVd = stablehlo.dot_general %vitb8_1y, %Wv_8, contracting_dims = [2] x [0], precision = [DEFAULT, DEFAULT] : (tensor<32x197x192xf32>, tensor<192x192xf32>) -> tensor<32x197x192xf32>
    %vitb8_mVbb = stablehlo.broadcast_in_dim %bv_8, dims = [2] : (tensor<192xf32>) -> tensor<32x197x192xf32>
    %vitb8_mV = stablehlo.add %vitb8_mVd, %vitb8_mVbb : tensor<32x197x192xf32>
    %vitb8_mQhr = stablehlo.reshape %vitb8_mQ : (tensor<32x197x192xf32>) -> tensor<32x197x3x64xf32>
    %vitb8_mQh = stablehlo.transpose %vitb8_mQhr, dims = [0, 2, 1, 3] : (tensor<32x197x3x64xf32>) -> tensor<32x3x197x64xf32>
    %vitb8_mKhr = stablehlo.reshape %vitb8_mK : (tensor<32x197x192xf32>) -> tensor<32x197x3x64xf32>
    %vitb8_mKh = stablehlo.transpose %vitb8_mKhr, dims = [0, 2, 1, 3] : (tensor<32x197x3x64xf32>) -> tensor<32x3x197x64xf32>
    %vitb8_mVhr = stablehlo.reshape %vitb8_mV : (tensor<32x197x192xf32>) -> tensor<32x197x3x64xf32>
    %vitb8_mVh = stablehlo.transpose %vitb8_mVhr, dims = [0, 2, 1, 3] : (tensor<32x197x3x64xf32>) -> tensor<32x3x197x64xf32>
    %vitb8_mS = stablehlo.dot_general %vitb8_mQh, %vitb8_mKh, batching_dims = [0, 1] x [0, 1], contracting_dims = [3] x [3], precision = [DEFAULT, DEFAULT] : (tensor<32x3x197x64xf32>, tensor<32x3x197x64xf32>) -> tensor<32x3x197x197xf32>
    %vitb8_mscl = stablehlo.constant dense<0.125> : tensor<32x3x197x197xf32>
    %vitb8_mSs = stablehlo.multiply %vitb8_mS, %vitb8_mscl : tensor<32x3x197x197xf32>
    %vitb8_mse = stablehlo.exponential %vitb8_mSs : tensor<32x3x197x197xf32>
    %vitb8_msum = stablehlo.reduce(%vitb8_mse init: %sc) applies stablehlo.add across dimensions = [3] : (tensor<32x3x197x197xf32>, tensor<f32>) -> tensor<32x3x197xf32>
    %vitb8_msumb = stablehlo.broadcast_in_dim %vitb8_msum, dims = [0, 1, 2] : (tensor<32x3x197xf32>) -> tensor<32x3x197x197xf32>
    %vitb8_mW = stablehlo.divide %vitb8_mse, %vitb8_msumb : tensor<32x3x197x197xf32>
    %vitb8_mA = stablehlo.dot_general %vitb8_mW, %vitb8_mVh, batching_dims = [0, 1] x [0, 1], contracting_dims = [3] x [2], precision = [DEFAULT, DEFAULT] : (tensor<32x3x197x197xf32>, tensor<32x3x197x64xf32>) -> tensor<32x3x197x64xf32>
    %vitb8_mAT = stablehlo.transpose %vitb8_mA, dims = [0, 2, 1, 3] : (tensor<32x3x197x64xf32>) -> tensor<32x197x3x64xf32>
    %vitb8_mP = stablehlo.reshape %vitb8_mAT : (tensor<32x197x3x64xf32>) -> tensor<32x197x192xf32>
    %vitb8_mod = stablehlo.dot_general %vitb8_mP, %Wo_8, contracting_dims = [2] x [0], precision = [DEFAULT, DEFAULT] : (tensor<32x197x192xf32>, tensor<192x192xf32>) -> tensor<32x197x192xf32>
    %vitb8_mobb = stablehlo.broadcast_in_dim %bo_8, dims = [2] : (tensor<192xf32>) -> tensor<32x197x192xf32>
    %vitb8_mO = stablehlo.add %vitb8_mod, %vitb8_mobb : tensor<32x197x192xf32>
    %vitb8_r1 = stablehlo.add %vitb7_out, %vitb8_mO : tensor<32x197x192xf32>
    %vitb8_2sum = stablehlo.reduce(%vitb8_r1 init: %sc) applies stablehlo.add across dimensions = [2] : (tensor<32x197x192xf32>, tensor<f32>) -> tensor<32x197xf32>
    %vitb8_2nf = stablehlo.constant dense<192.0> : tensor<32x197xf32>
    %vitb8_2mu = stablehlo.divide %vitb8_2sum, %vitb8_2nf : tensor<32x197xf32>
    %vitb8_2mub = stablehlo.broadcast_in_dim %vitb8_2mu, dims = [0, 1] : (tensor<32x197xf32>) -> tensor<32x197x192xf32>
    %vitb8_2xc = stablehlo.subtract %vitb8_r1, %vitb8_2mub : tensor<32x197x192xf32>
    %vitb8_2sq = stablehlo.multiply %vitb8_2xc, %vitb8_2xc : tensor<32x197x192xf32>
    %vitb8_2vsum = stablehlo.reduce(%vitb8_2sq init: %sc) applies stablehlo.add across dimensions = [2] : (tensor<32x197x192xf32>, tensor<f32>) -> tensor<32x197xf32>
    %vitb8_2var = stablehlo.divide %vitb8_2vsum, %vitb8_2nf : tensor<32x197xf32>
    %vitb8_2eps = stablehlo.constant dense<1.0e-5> : tensor<32x197xf32>
    %vitb8_2ve = stablehlo.add %vitb8_2var, %vitb8_2eps : tensor<32x197xf32>
    %vitb8_2istd = stablehlo.rsqrt %vitb8_2ve : tensor<32x197xf32>
    %vitb8_2istdb = stablehlo.broadcast_in_dim %vitb8_2istd, dims = [0, 1] : (tensor<32x197xf32>) -> tensor<32x197x192xf32>
    %vitb8_2xhat = stablehlo.multiply %vitb8_2xc, %vitb8_2istdb : tensor<32x197x192xf32>
    %vitb8_2gb = stablehlo.broadcast_in_dim %g2_8, dims = [2] : (tensor<192xf32>) -> tensor<32x197x192xf32>
    %vitb8_2bbc = stablehlo.broadcast_in_dim %b2_8, dims = [2] : (tensor<192xf32>) -> tensor<32x197x192xf32>
    %vitb8_2gx = stablehlo.multiply %vitb8_2xhat, %vitb8_2gb : tensor<32x197x192xf32>
    %vitb8_2y = stablehlo.add %vitb8_2gx, %vitb8_2bbc : tensor<32x197x192xf32>
    %vitb8_ph1d = stablehlo.dot_general %vitb8_2y, %Wfc1_8, contracting_dims = [2] x [0], precision = [DEFAULT, DEFAULT] : (tensor<32x197x192xf32>, tensor<192x768xf32>) -> tensor<32x197x768xf32>
    %vitb8_ph1bb = stablehlo.broadcast_in_dim %bfc1_8, dims = [2] : (tensor<768xf32>) -> tensor<32x197x768xf32>
    %vitb8_ph1 = stablehlo.add %vitb8_ph1d, %vitb8_ph1bb : tensor<32x197x768xf32>
    %vitb8_pgx2 = stablehlo.multiply %vitb8_ph1, %vitb8_ph1 : tensor<32x197x768xf32>
    %vitb8_pgx3 = stablehlo.multiply %vitb8_pgx2, %vitb8_ph1 : tensor<32x197x768xf32>
    %vitb8_pgck = stablehlo.constant dense<0.044715> : tensor<32x197x768xf32>
    %vitb8_pgkx3 = stablehlo.multiply %vitb8_pgck, %vitb8_pgx3 : tensor<32x197x768xf32>
    %vitb8_pginn = stablehlo.add %vitb8_ph1, %vitb8_pgkx3 : tensor<32x197x768xf32>
    %vitb8_pgcsqrt = stablehlo.constant dense<0.7978845608028654> : tensor<32x197x768xf32>
    %vitb8_pgu = stablehlo.multiply %vitb8_pgcsqrt, %vitb8_pginn : tensor<32x197x768xf32>
    %vitb8_pgt = stablehlo.tanh %vitb8_pgu : tensor<32x197x768xf32>
    %vitb8_pgone = stablehlo.constant dense<1.0> : tensor<32x197x768xf32>
    %vitb8_pgopt = stablehlo.add %vitb8_pgone, %vitb8_pgt : tensor<32x197x768xf32>
    %vitb8_pgchalf = stablehlo.constant dense<0.5> : tensor<32x197x768xf32>
    %vitb8_pghx = stablehlo.multiply %vitb8_pgchalf, %vitb8_ph1 : tensor<32x197x768xf32>
    %vitb8_pga = stablehlo.multiply %vitb8_pghx, %vitb8_pgopt : tensor<32x197x768xf32>
    %vitb8_py2d = stablehlo.dot_general %vitb8_pga, %Wfc2_8, contracting_dims = [2] x [0], precision = [DEFAULT, DEFAULT] : (tensor<32x197x768xf32>, tensor<768x192xf32>) -> tensor<32x197x192xf32>
    %vitb8_py2bb = stablehlo.broadcast_in_dim %bfc2_8, dims = [2] : (tensor<192xf32>) -> tensor<32x197x192xf32>
    %vitb8_py = stablehlo.add %vitb8_py2d, %vitb8_py2bb : tensor<32x197x192xf32>
    %vitb8_out = stablehlo.add %vitb8_r1, %vitb8_py : tensor<32x197x192xf32>
    %vitb9_1sum = stablehlo.reduce(%vitb8_out init: %sc) applies stablehlo.add across dimensions = [2] : (tensor<32x197x192xf32>, tensor<f32>) -> tensor<32x197xf32>
    %vitb9_1nf = stablehlo.constant dense<192.0> : tensor<32x197xf32>
    %vitb9_1mu = stablehlo.divide %vitb9_1sum, %vitb9_1nf : tensor<32x197xf32>
    %vitb9_1mub = stablehlo.broadcast_in_dim %vitb9_1mu, dims = [0, 1] : (tensor<32x197xf32>) -> tensor<32x197x192xf32>
    %vitb9_1xc = stablehlo.subtract %vitb8_out, %vitb9_1mub : tensor<32x197x192xf32>
    %vitb9_1sq = stablehlo.multiply %vitb9_1xc, %vitb9_1xc : tensor<32x197x192xf32>
    %vitb9_1vsum = stablehlo.reduce(%vitb9_1sq init: %sc) applies stablehlo.add across dimensions = [2] : (tensor<32x197x192xf32>, tensor<f32>) -> tensor<32x197xf32>
    %vitb9_1var = stablehlo.divide %vitb9_1vsum, %vitb9_1nf : tensor<32x197xf32>
    %vitb9_1eps = stablehlo.constant dense<1.0e-5> : tensor<32x197xf32>
    %vitb9_1ve = stablehlo.add %vitb9_1var, %vitb9_1eps : tensor<32x197xf32>
    %vitb9_1istd = stablehlo.rsqrt %vitb9_1ve : tensor<32x197xf32>
    %vitb9_1istdb = stablehlo.broadcast_in_dim %vitb9_1istd, dims = [0, 1] : (tensor<32x197xf32>) -> tensor<32x197x192xf32>
    %vitb9_1xhat = stablehlo.multiply %vitb9_1xc, %vitb9_1istdb : tensor<32x197x192xf32>
    %vitb9_1gb = stablehlo.broadcast_in_dim %g1_9, dims = [2] : (tensor<192xf32>) -> tensor<32x197x192xf32>
    %vitb9_1bbc = stablehlo.broadcast_in_dim %b1_9, dims = [2] : (tensor<192xf32>) -> tensor<32x197x192xf32>
    %vitb9_1gx = stablehlo.multiply %vitb9_1xhat, %vitb9_1gb : tensor<32x197x192xf32>
    %vitb9_1y = stablehlo.add %vitb9_1gx, %vitb9_1bbc : tensor<32x197x192xf32>
    %vitb9_mQd = stablehlo.dot_general %vitb9_1y, %Wq_9, contracting_dims = [2] x [0], precision = [DEFAULT, DEFAULT] : (tensor<32x197x192xf32>, tensor<192x192xf32>) -> tensor<32x197x192xf32>
    %vitb9_mQbb = stablehlo.broadcast_in_dim %bq_9, dims = [2] : (tensor<192xf32>) -> tensor<32x197x192xf32>
    %vitb9_mQ = stablehlo.add %vitb9_mQd, %vitb9_mQbb : tensor<32x197x192xf32>
    %vitb9_mKd = stablehlo.dot_general %vitb9_1y, %Wk_9, contracting_dims = [2] x [0], precision = [DEFAULT, DEFAULT] : (tensor<32x197x192xf32>, tensor<192x192xf32>) -> tensor<32x197x192xf32>
    %vitb9_mKbb = stablehlo.broadcast_in_dim %bk_9, dims = [2] : (tensor<192xf32>) -> tensor<32x197x192xf32>
    %vitb9_mK = stablehlo.add %vitb9_mKd, %vitb9_mKbb : tensor<32x197x192xf32>
    %vitb9_mVd = stablehlo.dot_general %vitb9_1y, %Wv_9, contracting_dims = [2] x [0], precision = [DEFAULT, DEFAULT] : (tensor<32x197x192xf32>, tensor<192x192xf32>) -> tensor<32x197x192xf32>
    %vitb9_mVbb = stablehlo.broadcast_in_dim %bv_9, dims = [2] : (tensor<192xf32>) -> tensor<32x197x192xf32>
    %vitb9_mV = stablehlo.add %vitb9_mVd, %vitb9_mVbb : tensor<32x197x192xf32>
    %vitb9_mQhr = stablehlo.reshape %vitb9_mQ : (tensor<32x197x192xf32>) -> tensor<32x197x3x64xf32>
    %vitb9_mQh = stablehlo.transpose %vitb9_mQhr, dims = [0, 2, 1, 3] : (tensor<32x197x3x64xf32>) -> tensor<32x3x197x64xf32>
    %vitb9_mKhr = stablehlo.reshape %vitb9_mK : (tensor<32x197x192xf32>) -> tensor<32x197x3x64xf32>
    %vitb9_mKh = stablehlo.transpose %vitb9_mKhr, dims = [0, 2, 1, 3] : (tensor<32x197x3x64xf32>) -> tensor<32x3x197x64xf32>
    %vitb9_mVhr = stablehlo.reshape %vitb9_mV : (tensor<32x197x192xf32>) -> tensor<32x197x3x64xf32>
    %vitb9_mVh = stablehlo.transpose %vitb9_mVhr, dims = [0, 2, 1, 3] : (tensor<32x197x3x64xf32>) -> tensor<32x3x197x64xf32>
    %vitb9_mS = stablehlo.dot_general %vitb9_mQh, %vitb9_mKh, batching_dims = [0, 1] x [0, 1], contracting_dims = [3] x [3], precision = [DEFAULT, DEFAULT] : (tensor<32x3x197x64xf32>, tensor<32x3x197x64xf32>) -> tensor<32x3x197x197xf32>
    %vitb9_mscl = stablehlo.constant dense<0.125> : tensor<32x3x197x197xf32>
    %vitb9_mSs = stablehlo.multiply %vitb9_mS, %vitb9_mscl : tensor<32x3x197x197xf32>
    %vitb9_mse = stablehlo.exponential %vitb9_mSs : tensor<32x3x197x197xf32>
    %vitb9_msum = stablehlo.reduce(%vitb9_mse init: %sc) applies stablehlo.add across dimensions = [3] : (tensor<32x3x197x197xf32>, tensor<f32>) -> tensor<32x3x197xf32>
    %vitb9_msumb = stablehlo.broadcast_in_dim %vitb9_msum, dims = [0, 1, 2] : (tensor<32x3x197xf32>) -> tensor<32x3x197x197xf32>
    %vitb9_mW = stablehlo.divide %vitb9_mse, %vitb9_msumb : tensor<32x3x197x197xf32>
    %vitb9_mA = stablehlo.dot_general %vitb9_mW, %vitb9_mVh, batching_dims = [0, 1] x [0, 1], contracting_dims = [3] x [2], precision = [DEFAULT, DEFAULT] : (tensor<32x3x197x197xf32>, tensor<32x3x197x64xf32>) -> tensor<32x3x197x64xf32>
    %vitb9_mAT = stablehlo.transpose %vitb9_mA, dims = [0, 2, 1, 3] : (tensor<32x3x197x64xf32>) -> tensor<32x197x3x64xf32>
    %vitb9_mP = stablehlo.reshape %vitb9_mAT : (tensor<32x197x3x64xf32>) -> tensor<32x197x192xf32>
    %vitb9_mod = stablehlo.dot_general %vitb9_mP, %Wo_9, contracting_dims = [2] x [0], precision = [DEFAULT, DEFAULT] : (tensor<32x197x192xf32>, tensor<192x192xf32>) -> tensor<32x197x192xf32>
    %vitb9_mobb = stablehlo.broadcast_in_dim %bo_9, dims = [2] : (tensor<192xf32>) -> tensor<32x197x192xf32>
    %vitb9_mO = stablehlo.add %vitb9_mod, %vitb9_mobb : tensor<32x197x192xf32>
    %vitb9_r1 = stablehlo.add %vitb8_out, %vitb9_mO : tensor<32x197x192xf32>
    %vitb9_2sum = stablehlo.reduce(%vitb9_r1 init: %sc) applies stablehlo.add across dimensions = [2] : (tensor<32x197x192xf32>, tensor<f32>) -> tensor<32x197xf32>
    %vitb9_2nf = stablehlo.constant dense<192.0> : tensor<32x197xf32>
    %vitb9_2mu = stablehlo.divide %vitb9_2sum, %vitb9_2nf : tensor<32x197xf32>
    %vitb9_2mub = stablehlo.broadcast_in_dim %vitb9_2mu, dims = [0, 1] : (tensor<32x197xf32>) -> tensor<32x197x192xf32>
    %vitb9_2xc = stablehlo.subtract %vitb9_r1, %vitb9_2mub : tensor<32x197x192xf32>
    %vitb9_2sq = stablehlo.multiply %vitb9_2xc, %vitb9_2xc : tensor<32x197x192xf32>
    %vitb9_2vsum = stablehlo.reduce(%vitb9_2sq init: %sc) applies stablehlo.add across dimensions = [2] : (tensor<32x197x192xf32>, tensor<f32>) -> tensor<32x197xf32>
    %vitb9_2var = stablehlo.divide %vitb9_2vsum, %vitb9_2nf : tensor<32x197xf32>
    %vitb9_2eps = stablehlo.constant dense<1.0e-5> : tensor<32x197xf32>
    %vitb9_2ve = stablehlo.add %vitb9_2var, %vitb9_2eps : tensor<32x197xf32>
    %vitb9_2istd = stablehlo.rsqrt %vitb9_2ve : tensor<32x197xf32>
    %vitb9_2istdb = stablehlo.broadcast_in_dim %vitb9_2istd, dims = [0, 1] : (tensor<32x197xf32>) -> tensor<32x197x192xf32>
    %vitb9_2xhat = stablehlo.multiply %vitb9_2xc, %vitb9_2istdb : tensor<32x197x192xf32>
    %vitb9_2gb = stablehlo.broadcast_in_dim %g2_9, dims = [2] : (tensor<192xf32>) -> tensor<32x197x192xf32>
    %vitb9_2bbc = stablehlo.broadcast_in_dim %b2_9, dims = [2] : (tensor<192xf32>) -> tensor<32x197x192xf32>
    %vitb9_2gx = stablehlo.multiply %vitb9_2xhat, %vitb9_2gb : tensor<32x197x192xf32>
    %vitb9_2y = stablehlo.add %vitb9_2gx, %vitb9_2bbc : tensor<32x197x192xf32>
    %vitb9_ph1d = stablehlo.dot_general %vitb9_2y, %Wfc1_9, contracting_dims = [2] x [0], precision = [DEFAULT, DEFAULT] : (tensor<32x197x192xf32>, tensor<192x768xf32>) -> tensor<32x197x768xf32>
    %vitb9_ph1bb = stablehlo.broadcast_in_dim %bfc1_9, dims = [2] : (tensor<768xf32>) -> tensor<32x197x768xf32>
    %vitb9_ph1 = stablehlo.add %vitb9_ph1d, %vitb9_ph1bb : tensor<32x197x768xf32>
    %vitb9_pgx2 = stablehlo.multiply %vitb9_ph1, %vitb9_ph1 : tensor<32x197x768xf32>
    %vitb9_pgx3 = stablehlo.multiply %vitb9_pgx2, %vitb9_ph1 : tensor<32x197x768xf32>
    %vitb9_pgck = stablehlo.constant dense<0.044715> : tensor<32x197x768xf32>
    %vitb9_pgkx3 = stablehlo.multiply %vitb9_pgck, %vitb9_pgx3 : tensor<32x197x768xf32>
    %vitb9_pginn = stablehlo.add %vitb9_ph1, %vitb9_pgkx3 : tensor<32x197x768xf32>
    %vitb9_pgcsqrt = stablehlo.constant dense<0.7978845608028654> : tensor<32x197x768xf32>
    %vitb9_pgu = stablehlo.multiply %vitb9_pgcsqrt, %vitb9_pginn : tensor<32x197x768xf32>
    %vitb9_pgt = stablehlo.tanh %vitb9_pgu : tensor<32x197x768xf32>
    %vitb9_pgone = stablehlo.constant dense<1.0> : tensor<32x197x768xf32>
    %vitb9_pgopt = stablehlo.add %vitb9_pgone, %vitb9_pgt : tensor<32x197x768xf32>
    %vitb9_pgchalf = stablehlo.constant dense<0.5> : tensor<32x197x768xf32>
    %vitb9_pghx = stablehlo.multiply %vitb9_pgchalf, %vitb9_ph1 : tensor<32x197x768xf32>
    %vitb9_pga = stablehlo.multiply %vitb9_pghx, %vitb9_pgopt : tensor<32x197x768xf32>
    %vitb9_py2d = stablehlo.dot_general %vitb9_pga, %Wfc2_9, contracting_dims = [2] x [0], precision = [DEFAULT, DEFAULT] : (tensor<32x197x768xf32>, tensor<768x192xf32>) -> tensor<32x197x192xf32>
    %vitb9_py2bb = stablehlo.broadcast_in_dim %bfc2_9, dims = [2] : (tensor<192xf32>) -> tensor<32x197x192xf32>
    %vitb9_py = stablehlo.add %vitb9_py2d, %vitb9_py2bb : tensor<32x197x192xf32>
    %vitb9_out = stablehlo.add %vitb9_r1, %vitb9_py : tensor<32x197x192xf32>
    %vitb10_1sum = stablehlo.reduce(%vitb9_out init: %sc) applies stablehlo.add across dimensions = [2] : (tensor<32x197x192xf32>, tensor<f32>) -> tensor<32x197xf32>
    %vitb10_1nf = stablehlo.constant dense<192.0> : tensor<32x197xf32>
    %vitb10_1mu = stablehlo.divide %vitb10_1sum, %vitb10_1nf : tensor<32x197xf32>
    %vitb10_1mub = stablehlo.broadcast_in_dim %vitb10_1mu, dims = [0, 1] : (tensor<32x197xf32>) -> tensor<32x197x192xf32>
    %vitb10_1xc = stablehlo.subtract %vitb9_out, %vitb10_1mub : tensor<32x197x192xf32>
    %vitb10_1sq = stablehlo.multiply %vitb10_1xc, %vitb10_1xc : tensor<32x197x192xf32>
    %vitb10_1vsum = stablehlo.reduce(%vitb10_1sq init: %sc) applies stablehlo.add across dimensions = [2] : (tensor<32x197x192xf32>, tensor<f32>) -> tensor<32x197xf32>
    %vitb10_1var = stablehlo.divide %vitb10_1vsum, %vitb10_1nf : tensor<32x197xf32>
    %vitb10_1eps = stablehlo.constant dense<1.0e-5> : tensor<32x197xf32>
    %vitb10_1ve = stablehlo.add %vitb10_1var, %vitb10_1eps : tensor<32x197xf32>
    %vitb10_1istd = stablehlo.rsqrt %vitb10_1ve : tensor<32x197xf32>
    %vitb10_1istdb = stablehlo.broadcast_in_dim %vitb10_1istd, dims = [0, 1] : (tensor<32x197xf32>) -> tensor<32x197x192xf32>
    %vitb10_1xhat = stablehlo.multiply %vitb10_1xc, %vitb10_1istdb : tensor<32x197x192xf32>
    %vitb10_1gb = stablehlo.broadcast_in_dim %g1_10, dims = [2] : (tensor<192xf32>) -> tensor<32x197x192xf32>
    %vitb10_1bbc = stablehlo.broadcast_in_dim %b1_10, dims = [2] : (tensor<192xf32>) -> tensor<32x197x192xf32>
    %vitb10_1gx = stablehlo.multiply %vitb10_1xhat, %vitb10_1gb : tensor<32x197x192xf32>
    %vitb10_1y = stablehlo.add %vitb10_1gx, %vitb10_1bbc : tensor<32x197x192xf32>
    %vitb10_mQd = stablehlo.dot_general %vitb10_1y, %Wq_10, contracting_dims = [2] x [0], precision = [DEFAULT, DEFAULT] : (tensor<32x197x192xf32>, tensor<192x192xf32>) -> tensor<32x197x192xf32>
    %vitb10_mQbb = stablehlo.broadcast_in_dim %bq_10, dims = [2] : (tensor<192xf32>) -> tensor<32x197x192xf32>
    %vitb10_mQ = stablehlo.add %vitb10_mQd, %vitb10_mQbb : tensor<32x197x192xf32>
    %vitb10_mKd = stablehlo.dot_general %vitb10_1y, %Wk_10, contracting_dims = [2] x [0], precision = [DEFAULT, DEFAULT] : (tensor<32x197x192xf32>, tensor<192x192xf32>) -> tensor<32x197x192xf32>
    %vitb10_mKbb = stablehlo.broadcast_in_dim %bk_10, dims = [2] : (tensor<192xf32>) -> tensor<32x197x192xf32>
    %vitb10_mK = stablehlo.add %vitb10_mKd, %vitb10_mKbb : tensor<32x197x192xf32>
    %vitb10_mVd = stablehlo.dot_general %vitb10_1y, %Wv_10, contracting_dims = [2] x [0], precision = [DEFAULT, DEFAULT] : (tensor<32x197x192xf32>, tensor<192x192xf32>) -> tensor<32x197x192xf32>
    %vitb10_mVbb = stablehlo.broadcast_in_dim %bv_10, dims = [2] : (tensor<192xf32>) -> tensor<32x197x192xf32>
    %vitb10_mV = stablehlo.add %vitb10_mVd, %vitb10_mVbb : tensor<32x197x192xf32>
    %vitb10_mQhr = stablehlo.reshape %vitb10_mQ : (tensor<32x197x192xf32>) -> tensor<32x197x3x64xf32>
    %vitb10_mQh = stablehlo.transpose %vitb10_mQhr, dims = [0, 2, 1, 3] : (tensor<32x197x3x64xf32>) -> tensor<32x3x197x64xf32>
    %vitb10_mKhr = stablehlo.reshape %vitb10_mK : (tensor<32x197x192xf32>) -> tensor<32x197x3x64xf32>
    %vitb10_mKh = stablehlo.transpose %vitb10_mKhr, dims = [0, 2, 1, 3] : (tensor<32x197x3x64xf32>) -> tensor<32x3x197x64xf32>
    %vitb10_mVhr = stablehlo.reshape %vitb10_mV : (tensor<32x197x192xf32>) -> tensor<32x197x3x64xf32>
    %vitb10_mVh = stablehlo.transpose %vitb10_mVhr, dims = [0, 2, 1, 3] : (tensor<32x197x3x64xf32>) -> tensor<32x3x197x64xf32>
    %vitb10_mS = stablehlo.dot_general %vitb10_mQh, %vitb10_mKh, batching_dims = [0, 1] x [0, 1], contracting_dims = [3] x [3], precision = [DEFAULT, DEFAULT] : (tensor<32x3x197x64xf32>, tensor<32x3x197x64xf32>) -> tensor<32x3x197x197xf32>
    %vitb10_mscl = stablehlo.constant dense<0.125> : tensor<32x3x197x197xf32>
    %vitb10_mSs = stablehlo.multiply %vitb10_mS, %vitb10_mscl : tensor<32x3x197x197xf32>
    %vitb10_mse = stablehlo.exponential %vitb10_mSs : tensor<32x3x197x197xf32>
    %vitb10_msum = stablehlo.reduce(%vitb10_mse init: %sc) applies stablehlo.add across dimensions = [3] : (tensor<32x3x197x197xf32>, tensor<f32>) -> tensor<32x3x197xf32>
    %vitb10_msumb = stablehlo.broadcast_in_dim %vitb10_msum, dims = [0, 1, 2] : (tensor<32x3x197xf32>) -> tensor<32x3x197x197xf32>
    %vitb10_mW = stablehlo.divide %vitb10_mse, %vitb10_msumb : tensor<32x3x197x197xf32>
    %vitb10_mA = stablehlo.dot_general %vitb10_mW, %vitb10_mVh, batching_dims = [0, 1] x [0, 1], contracting_dims = [3] x [2], precision = [DEFAULT, DEFAULT] : (tensor<32x3x197x197xf32>, tensor<32x3x197x64xf32>) -> tensor<32x3x197x64xf32>
    %vitb10_mAT = stablehlo.transpose %vitb10_mA, dims = [0, 2, 1, 3] : (tensor<32x3x197x64xf32>) -> tensor<32x197x3x64xf32>
    %vitb10_mP = stablehlo.reshape %vitb10_mAT : (tensor<32x197x3x64xf32>) -> tensor<32x197x192xf32>
    %vitb10_mod = stablehlo.dot_general %vitb10_mP, %Wo_10, contracting_dims = [2] x [0], precision = [DEFAULT, DEFAULT] : (tensor<32x197x192xf32>, tensor<192x192xf32>) -> tensor<32x197x192xf32>
    %vitb10_mobb = stablehlo.broadcast_in_dim %bo_10, dims = [2] : (tensor<192xf32>) -> tensor<32x197x192xf32>
    %vitb10_mO = stablehlo.add %vitb10_mod, %vitb10_mobb : tensor<32x197x192xf32>
    %vitb10_r1 = stablehlo.add %vitb9_out, %vitb10_mO : tensor<32x197x192xf32>
    %vitb10_2sum = stablehlo.reduce(%vitb10_r1 init: %sc) applies stablehlo.add across dimensions = [2] : (tensor<32x197x192xf32>, tensor<f32>) -> tensor<32x197xf32>
    %vitb10_2nf = stablehlo.constant dense<192.0> : tensor<32x197xf32>
    %vitb10_2mu = stablehlo.divide %vitb10_2sum, %vitb10_2nf : tensor<32x197xf32>
    %vitb10_2mub = stablehlo.broadcast_in_dim %vitb10_2mu, dims = [0, 1] : (tensor<32x197xf32>) -> tensor<32x197x192xf32>
    %vitb10_2xc = stablehlo.subtract %vitb10_r1, %vitb10_2mub : tensor<32x197x192xf32>
    %vitb10_2sq = stablehlo.multiply %vitb10_2xc, %vitb10_2xc : tensor<32x197x192xf32>
    %vitb10_2vsum = stablehlo.reduce(%vitb10_2sq init: %sc) applies stablehlo.add across dimensions = [2] : (tensor<32x197x192xf32>, tensor<f32>) -> tensor<32x197xf32>
    %vitb10_2var = stablehlo.divide %vitb10_2vsum, %vitb10_2nf : tensor<32x197xf32>
    %vitb10_2eps = stablehlo.constant dense<1.0e-5> : tensor<32x197xf32>
    %vitb10_2ve = stablehlo.add %vitb10_2var, %vitb10_2eps : tensor<32x197xf32>
    %vitb10_2istd = stablehlo.rsqrt %vitb10_2ve : tensor<32x197xf32>
    %vitb10_2istdb = stablehlo.broadcast_in_dim %vitb10_2istd, dims = [0, 1] : (tensor<32x197xf32>) -> tensor<32x197x192xf32>
    %vitb10_2xhat = stablehlo.multiply %vitb10_2xc, %vitb10_2istdb : tensor<32x197x192xf32>
    %vitb10_2gb = stablehlo.broadcast_in_dim %g2_10, dims = [2] : (tensor<192xf32>) -> tensor<32x197x192xf32>
    %vitb10_2bbc = stablehlo.broadcast_in_dim %b2_10, dims = [2] : (tensor<192xf32>) -> tensor<32x197x192xf32>
    %vitb10_2gx = stablehlo.multiply %vitb10_2xhat, %vitb10_2gb : tensor<32x197x192xf32>
    %vitb10_2y = stablehlo.add %vitb10_2gx, %vitb10_2bbc : tensor<32x197x192xf32>
    %vitb10_ph1d = stablehlo.dot_general %vitb10_2y, %Wfc1_10, contracting_dims = [2] x [0], precision = [DEFAULT, DEFAULT] : (tensor<32x197x192xf32>, tensor<192x768xf32>) -> tensor<32x197x768xf32>
    %vitb10_ph1bb = stablehlo.broadcast_in_dim %bfc1_10, dims = [2] : (tensor<768xf32>) -> tensor<32x197x768xf32>
    %vitb10_ph1 = stablehlo.add %vitb10_ph1d, %vitb10_ph1bb : tensor<32x197x768xf32>
    %vitb10_pgx2 = stablehlo.multiply %vitb10_ph1, %vitb10_ph1 : tensor<32x197x768xf32>
    %vitb10_pgx3 = stablehlo.multiply %vitb10_pgx2, %vitb10_ph1 : tensor<32x197x768xf32>
    %vitb10_pgck = stablehlo.constant dense<0.044715> : tensor<32x197x768xf32>
    %vitb10_pgkx3 = stablehlo.multiply %vitb10_pgck, %vitb10_pgx3 : tensor<32x197x768xf32>
    %vitb10_pginn = stablehlo.add %vitb10_ph1, %vitb10_pgkx3 : tensor<32x197x768xf32>
    %vitb10_pgcsqrt = stablehlo.constant dense<0.7978845608028654> : tensor<32x197x768xf32>
    %vitb10_pgu = stablehlo.multiply %vitb10_pgcsqrt, %vitb10_pginn : tensor<32x197x768xf32>
    %vitb10_pgt = stablehlo.tanh %vitb10_pgu : tensor<32x197x768xf32>
    %vitb10_pgone = stablehlo.constant dense<1.0> : tensor<32x197x768xf32>
    %vitb10_pgopt = stablehlo.add %vitb10_pgone, %vitb10_pgt : tensor<32x197x768xf32>
    %vitb10_pgchalf = stablehlo.constant dense<0.5> : tensor<32x197x768xf32>
    %vitb10_pghx = stablehlo.multiply %vitb10_pgchalf, %vitb10_ph1 : tensor<32x197x768xf32>
    %vitb10_pga = stablehlo.multiply %vitb10_pghx, %vitb10_pgopt : tensor<32x197x768xf32>
    %vitb10_py2d = stablehlo.dot_general %vitb10_pga, %Wfc2_10, contracting_dims = [2] x [0], precision = [DEFAULT, DEFAULT] : (tensor<32x197x768xf32>, tensor<768x192xf32>) -> tensor<32x197x192xf32>
    %vitb10_py2bb = stablehlo.broadcast_in_dim %bfc2_10, dims = [2] : (tensor<192xf32>) -> tensor<32x197x192xf32>
    %vitb10_py = stablehlo.add %vitb10_py2d, %vitb10_py2bb : tensor<32x197x192xf32>
    %vitb10_out = stablehlo.add %vitb10_r1, %vitb10_py : tensor<32x197x192xf32>
    %vitb11_1sum = stablehlo.reduce(%vitb10_out init: %sc) applies stablehlo.add across dimensions = [2] : (tensor<32x197x192xf32>, tensor<f32>) -> tensor<32x197xf32>
    %vitb11_1nf = stablehlo.constant dense<192.0> : tensor<32x197xf32>
    %vitb11_1mu = stablehlo.divide %vitb11_1sum, %vitb11_1nf : tensor<32x197xf32>
    %vitb11_1mub = stablehlo.broadcast_in_dim %vitb11_1mu, dims = [0, 1] : (tensor<32x197xf32>) -> tensor<32x197x192xf32>
    %vitb11_1xc = stablehlo.subtract %vitb10_out, %vitb11_1mub : tensor<32x197x192xf32>
    %vitb11_1sq = stablehlo.multiply %vitb11_1xc, %vitb11_1xc : tensor<32x197x192xf32>
    %vitb11_1vsum = stablehlo.reduce(%vitb11_1sq init: %sc) applies stablehlo.add across dimensions = [2] : (tensor<32x197x192xf32>, tensor<f32>) -> tensor<32x197xf32>
    %vitb11_1var = stablehlo.divide %vitb11_1vsum, %vitb11_1nf : tensor<32x197xf32>
    %vitb11_1eps = stablehlo.constant dense<1.0e-5> : tensor<32x197xf32>
    %vitb11_1ve = stablehlo.add %vitb11_1var, %vitb11_1eps : tensor<32x197xf32>
    %vitb11_1istd = stablehlo.rsqrt %vitb11_1ve : tensor<32x197xf32>
    %vitb11_1istdb = stablehlo.broadcast_in_dim %vitb11_1istd, dims = [0, 1] : (tensor<32x197xf32>) -> tensor<32x197x192xf32>
    %vitb11_1xhat = stablehlo.multiply %vitb11_1xc, %vitb11_1istdb : tensor<32x197x192xf32>
    %vitb11_1gb = stablehlo.broadcast_in_dim %g1_11, dims = [2] : (tensor<192xf32>) -> tensor<32x197x192xf32>
    %vitb11_1bbc = stablehlo.broadcast_in_dim %b1_11, dims = [2] : (tensor<192xf32>) -> tensor<32x197x192xf32>
    %vitb11_1gx = stablehlo.multiply %vitb11_1xhat, %vitb11_1gb : tensor<32x197x192xf32>
    %vitb11_1y = stablehlo.add %vitb11_1gx, %vitb11_1bbc : tensor<32x197x192xf32>
    %vitb11_mQd = stablehlo.dot_general %vitb11_1y, %Wq_11, contracting_dims = [2] x [0], precision = [DEFAULT, DEFAULT] : (tensor<32x197x192xf32>, tensor<192x192xf32>) -> tensor<32x197x192xf32>
    %vitb11_mQbb = stablehlo.broadcast_in_dim %bq_11, dims = [2] : (tensor<192xf32>) -> tensor<32x197x192xf32>
    %vitb11_mQ = stablehlo.add %vitb11_mQd, %vitb11_mQbb : tensor<32x197x192xf32>
    %vitb11_mKd = stablehlo.dot_general %vitb11_1y, %Wk_11, contracting_dims = [2] x [0], precision = [DEFAULT, DEFAULT] : (tensor<32x197x192xf32>, tensor<192x192xf32>) -> tensor<32x197x192xf32>
    %vitb11_mKbb = stablehlo.broadcast_in_dim %bk_11, dims = [2] : (tensor<192xf32>) -> tensor<32x197x192xf32>
    %vitb11_mK = stablehlo.add %vitb11_mKd, %vitb11_mKbb : tensor<32x197x192xf32>
    %vitb11_mVd = stablehlo.dot_general %vitb11_1y, %Wv_11, contracting_dims = [2] x [0], precision = [DEFAULT, DEFAULT] : (tensor<32x197x192xf32>, tensor<192x192xf32>) -> tensor<32x197x192xf32>
    %vitb11_mVbb = stablehlo.broadcast_in_dim %bv_11, dims = [2] : (tensor<192xf32>) -> tensor<32x197x192xf32>
    %vitb11_mV = stablehlo.add %vitb11_mVd, %vitb11_mVbb : tensor<32x197x192xf32>
    %vitb11_mQhr = stablehlo.reshape %vitb11_mQ : (tensor<32x197x192xf32>) -> tensor<32x197x3x64xf32>
    %vitb11_mQh = stablehlo.transpose %vitb11_mQhr, dims = [0, 2, 1, 3] : (tensor<32x197x3x64xf32>) -> tensor<32x3x197x64xf32>
    %vitb11_mKhr = stablehlo.reshape %vitb11_mK : (tensor<32x197x192xf32>) -> tensor<32x197x3x64xf32>
    %vitb11_mKh = stablehlo.transpose %vitb11_mKhr, dims = [0, 2, 1, 3] : (tensor<32x197x3x64xf32>) -> tensor<32x3x197x64xf32>
    %vitb11_mVhr = stablehlo.reshape %vitb11_mV : (tensor<32x197x192xf32>) -> tensor<32x197x3x64xf32>
    %vitb11_mVh = stablehlo.transpose %vitb11_mVhr, dims = [0, 2, 1, 3] : (tensor<32x197x3x64xf32>) -> tensor<32x3x197x64xf32>
    %vitb11_mS = stablehlo.dot_general %vitb11_mQh, %vitb11_mKh, batching_dims = [0, 1] x [0, 1], contracting_dims = [3] x [3], precision = [DEFAULT, DEFAULT] : (tensor<32x3x197x64xf32>, tensor<32x3x197x64xf32>) -> tensor<32x3x197x197xf32>
    %vitb11_mscl = stablehlo.constant dense<0.125> : tensor<32x3x197x197xf32>
    %vitb11_mSs = stablehlo.multiply %vitb11_mS, %vitb11_mscl : tensor<32x3x197x197xf32>
    %vitb11_mse = stablehlo.exponential %vitb11_mSs : tensor<32x3x197x197xf32>
    %vitb11_msum = stablehlo.reduce(%vitb11_mse init: %sc) applies stablehlo.add across dimensions = [3] : (tensor<32x3x197x197xf32>, tensor<f32>) -> tensor<32x3x197xf32>
    %vitb11_msumb = stablehlo.broadcast_in_dim %vitb11_msum, dims = [0, 1, 2] : (tensor<32x3x197xf32>) -> tensor<32x3x197x197xf32>
    %vitb11_mW = stablehlo.divide %vitb11_mse, %vitb11_msumb : tensor<32x3x197x197xf32>
    %vitb11_mA = stablehlo.dot_general %vitb11_mW, %vitb11_mVh, batching_dims = [0, 1] x [0, 1], contracting_dims = [3] x [2], precision = [DEFAULT, DEFAULT] : (tensor<32x3x197x197xf32>, tensor<32x3x197x64xf32>) -> tensor<32x3x197x64xf32>
    %vitb11_mAT = stablehlo.transpose %vitb11_mA, dims = [0, 2, 1, 3] : (tensor<32x3x197x64xf32>) -> tensor<32x197x3x64xf32>
    %vitb11_mP = stablehlo.reshape %vitb11_mAT : (tensor<32x197x3x64xf32>) -> tensor<32x197x192xf32>
    %vitb11_mod = stablehlo.dot_general %vitb11_mP, %Wo_11, contracting_dims = [2] x [0], precision = [DEFAULT, DEFAULT] : (tensor<32x197x192xf32>, tensor<192x192xf32>) -> tensor<32x197x192xf32>
    %vitb11_mobb = stablehlo.broadcast_in_dim %bo_11, dims = [2] : (tensor<192xf32>) -> tensor<32x197x192xf32>
    %vitb11_mO = stablehlo.add %vitb11_mod, %vitb11_mobb : tensor<32x197x192xf32>
    %vitb11_r1 = stablehlo.add %vitb10_out, %vitb11_mO : tensor<32x197x192xf32>
    %vitb11_2sum = stablehlo.reduce(%vitb11_r1 init: %sc) applies stablehlo.add across dimensions = [2] : (tensor<32x197x192xf32>, tensor<f32>) -> tensor<32x197xf32>
    %vitb11_2nf = stablehlo.constant dense<192.0> : tensor<32x197xf32>
    %vitb11_2mu = stablehlo.divide %vitb11_2sum, %vitb11_2nf : tensor<32x197xf32>
    %vitb11_2mub = stablehlo.broadcast_in_dim %vitb11_2mu, dims = [0, 1] : (tensor<32x197xf32>) -> tensor<32x197x192xf32>
    %vitb11_2xc = stablehlo.subtract %vitb11_r1, %vitb11_2mub : tensor<32x197x192xf32>
    %vitb11_2sq = stablehlo.multiply %vitb11_2xc, %vitb11_2xc : tensor<32x197x192xf32>
    %vitb11_2vsum = stablehlo.reduce(%vitb11_2sq init: %sc) applies stablehlo.add across dimensions = [2] : (tensor<32x197x192xf32>, tensor<f32>) -> tensor<32x197xf32>
    %vitb11_2var = stablehlo.divide %vitb11_2vsum, %vitb11_2nf : tensor<32x197xf32>
    %vitb11_2eps = stablehlo.constant dense<1.0e-5> : tensor<32x197xf32>
    %vitb11_2ve = stablehlo.add %vitb11_2var, %vitb11_2eps : tensor<32x197xf32>
    %vitb11_2istd = stablehlo.rsqrt %vitb11_2ve : tensor<32x197xf32>
    %vitb11_2istdb = stablehlo.broadcast_in_dim %vitb11_2istd, dims = [0, 1] : (tensor<32x197xf32>) -> tensor<32x197x192xf32>
    %vitb11_2xhat = stablehlo.multiply %vitb11_2xc, %vitb11_2istdb : tensor<32x197x192xf32>
    %vitb11_2gb = stablehlo.broadcast_in_dim %g2_11, dims = [2] : (tensor<192xf32>) -> tensor<32x197x192xf32>
    %vitb11_2bbc = stablehlo.broadcast_in_dim %b2_11, dims = [2] : (tensor<192xf32>) -> tensor<32x197x192xf32>
    %vitb11_2gx = stablehlo.multiply %vitb11_2xhat, %vitb11_2gb : tensor<32x197x192xf32>
    %vitb11_2y = stablehlo.add %vitb11_2gx, %vitb11_2bbc : tensor<32x197x192xf32>
    %vitb11_ph1d = stablehlo.dot_general %vitb11_2y, %Wfc1_11, contracting_dims = [2] x [0], precision = [DEFAULT, DEFAULT] : (tensor<32x197x192xf32>, tensor<192x768xf32>) -> tensor<32x197x768xf32>
    %vitb11_ph1bb = stablehlo.broadcast_in_dim %bfc1_11, dims = [2] : (tensor<768xf32>) -> tensor<32x197x768xf32>
    %vitb11_ph1 = stablehlo.add %vitb11_ph1d, %vitb11_ph1bb : tensor<32x197x768xf32>
    %vitb11_pgx2 = stablehlo.multiply %vitb11_ph1, %vitb11_ph1 : tensor<32x197x768xf32>
    %vitb11_pgx3 = stablehlo.multiply %vitb11_pgx2, %vitb11_ph1 : tensor<32x197x768xf32>
    %vitb11_pgck = stablehlo.constant dense<0.044715> : tensor<32x197x768xf32>
    %vitb11_pgkx3 = stablehlo.multiply %vitb11_pgck, %vitb11_pgx3 : tensor<32x197x768xf32>
    %vitb11_pginn = stablehlo.add %vitb11_ph1, %vitb11_pgkx3 : tensor<32x197x768xf32>
    %vitb11_pgcsqrt = stablehlo.constant dense<0.7978845608028654> : tensor<32x197x768xf32>
    %vitb11_pgu = stablehlo.multiply %vitb11_pgcsqrt, %vitb11_pginn : tensor<32x197x768xf32>
    %vitb11_pgt = stablehlo.tanh %vitb11_pgu : tensor<32x197x768xf32>
    %vitb11_pgone = stablehlo.constant dense<1.0> : tensor<32x197x768xf32>
    %vitb11_pgopt = stablehlo.add %vitb11_pgone, %vitb11_pgt : tensor<32x197x768xf32>
    %vitb11_pgchalf = stablehlo.constant dense<0.5> : tensor<32x197x768xf32>
    %vitb11_pghx = stablehlo.multiply %vitb11_pgchalf, %vitb11_ph1 : tensor<32x197x768xf32>
    %vitb11_pga = stablehlo.multiply %vitb11_pghx, %vitb11_pgopt : tensor<32x197x768xf32>
    %vitb11_py2d = stablehlo.dot_general %vitb11_pga, %Wfc2_11, contracting_dims = [2] x [0], precision = [DEFAULT, DEFAULT] : (tensor<32x197x768xf32>, tensor<768x192xf32>) -> tensor<32x197x192xf32>
    %vitb11_py2bb = stablehlo.broadcast_in_dim %bfc2_11, dims = [2] : (tensor<192xf32>) -> tensor<32x197x192xf32>
    %vitb11_py = stablehlo.add %vitb11_py2d, %vitb11_py2bb : tensor<32x197x192xf32>
    %vitb11_out = stablehlo.add %vitb11_r1, %vitb11_py : tensor<32x197x192xf32>
    %vitflnsum = stablehlo.reduce(%vitb11_out init: %sc) applies stablehlo.add across dimensions = [2] : (tensor<32x197x192xf32>, tensor<f32>) -> tensor<32x197xf32>
    %vitflnnf = stablehlo.constant dense<192.0> : tensor<32x197xf32>
    %vitflnmu = stablehlo.divide %vitflnsum, %vitflnnf : tensor<32x197xf32>
    %vitflnmub = stablehlo.broadcast_in_dim %vitflnmu, dims = [0, 1] : (tensor<32x197xf32>) -> tensor<32x197x192xf32>
    %vitflnxc = stablehlo.subtract %vitb11_out, %vitflnmub : tensor<32x197x192xf32>
    %vitflnsq = stablehlo.multiply %vitflnxc, %vitflnxc : tensor<32x197x192xf32>
    %vitflnvsum = stablehlo.reduce(%vitflnsq init: %sc) applies stablehlo.add across dimensions = [2] : (tensor<32x197x192xf32>, tensor<f32>) -> tensor<32x197xf32>
    %vitflnvar = stablehlo.divide %vitflnvsum, %vitflnnf : tensor<32x197xf32>
    %vitflneps = stablehlo.constant dense<1.0e-5> : tensor<32x197xf32>
    %vitflnve = stablehlo.add %vitflnvar, %vitflneps : tensor<32x197xf32>
    %vitflnistd = stablehlo.rsqrt %vitflnve : tensor<32x197xf32>
    %vitflnistdb = stablehlo.broadcast_in_dim %vitflnistd, dims = [0, 1] : (tensor<32x197xf32>) -> tensor<32x197x192xf32>
    %vitflnxhat = stablehlo.multiply %vitflnxc, %vitflnistdb : tensor<32x197x192xf32>
    %vitflngb = stablehlo.broadcast_in_dim %gF, dims = [2] : (tensor<192xf32>) -> tensor<32x197x192xf32>
    %vitflnbbc = stablehlo.broadcast_in_dim %bF, dims = [2] : (tensor<192xf32>) -> tensor<32x197x192xf32>
    %vitflngx = stablehlo.multiply %vitflnxhat, %vitflngb : tensor<32x197x192xf32>
    %vitflny = stablehlo.add %vitflngx, %vitflnbbc : tensor<32x197x192xf32>
    %vithdcls = stablehlo.slice %vitflny [0:32, 0:1, 0:192] : (tensor<32x197x192xf32>) -> tensor<32x1x192xf32>
    %vithdclsv = stablehlo.reshape %vithdcls : (tensor<32x1x192xf32>) -> tensor<32x192xf32>
    %vithdhd = stablehlo.dot_general %vithdclsv, %Wc, contracting_dims = [1] x [0], precision = [DEFAULT, DEFAULT] : (tensor<32x192xf32>, tensor<192x10xf32>) -> tensor<32x10xf32>
    %vithdhbb = stablehlo.broadcast_in_dim %bc, dims = [1] : (tensor<10xf32>) -> tensor<32x10xf32>
    %vithdlogits = stablehlo.add %vithdhd, %vithdhbb : tensor<32x10xf32>
    %le = stablehlo.exponential %vithdlogits : tensor<32x10xf32>
    %lsum = stablehlo.reduce(%le init: %sc) applies stablehlo.add across dimensions = [1] : (tensor<32x10xf32>, tensor<f32>) -> tensor<32xf32>
    %lsb = stablehlo.broadcast_in_dim %lsum, dims = [0] : (tensor<32xf32>) -> tensor<32x10xf32>
    %lsm = stablehlo.divide %le, %lsb : tensor<32x10xf32>
    %dyr0 = stablehlo.subtract %lsm, %onehot : tensor<32x10xf32>
    %lsa = stablehlo.constant dense<0.100000> : tensor<32x10xf32>
    %lsaoh = stablehlo.multiply %lsa, %onehot : tensor<32x10xf32>
    %dyr1 = stablehlo.add %dyr0, %lsaoh : tensor<32x10xf32>
    %lsaik = stablehlo.constant dense<0.010000> : tensor<32x10xf32>
    %dyr = stablehlo.subtract %dyr1, %lsaik : tensor<32x10xf32>
    %bnc = stablehlo.constant dense<32.0> : tensor<32x10xf32>
    %dy = stablehlo.divide %dyr, %bnc : tensor<32x10xf32>
    %llog = stablehlo.log %lsm : tensor<32x10xf32>
    %ohll = stablehlo.multiply %onehot, %llog : tensor<32x10xf32>
    %t1s = stablehlo.reduce(%ohll init: %sc) applies stablehlo.add across dimensions = [1] : (tensor<32x10xf32>, tensor<f32>) -> tensor<32xf32>
    %lls = stablehlo.reduce(%llog init: %sc) applies stablehlo.add across dimensions = [1] : (tensor<32x10xf32>, tensor<f32>) -> tensor<32xf32>
    %omac = stablehlo.constant dense<0.900000> : tensor<32xf32>
    %aKc = stablehlo.constant dense<0.010000> : tensor<32xf32>
    %lt1 = stablehlo.multiply %omac, %t1s : tensor<32xf32>
    %lt2 = stablehlo.multiply %aKc, %lls : tensor<32xf32>
    %lpe = stablehlo.add %lt1, %lt2 : tensor<32xf32>
    %lsum2 = stablehlo.reduce(%lpe init: %sc) applies stablehlo.add across dimensions = [0] : (tensor<32xf32>, tensor<f32>) -> tensor<f32>
    %lbfc = stablehlo.constant dense<32.0> : tensor<f32>
    %lossm = stablehlo.divide %lsum2, %lbfc : tensor<f32>
    %loss = stablehlo.negate %lossm : tensor<f32>
    %vithddWc = stablehlo.dot_general %vithdclsv, %dy, contracting_dims = [0] x [0], precision = [DEFAULT, DEFAULT] : (tensor<32x192xf32>, tensor<32x10xf32>) -> tensor<192x10xf32>
    %vithddbc = stablehlo.reduce(%dy init: %sc) applies stablehlo.add across dimensions = [0] : (tensor<32x10xf32>, tensor<f32>) -> tensor<10xf32>
    %vithddclsv = stablehlo.dot_general %dy, %Wc, contracting_dims = [1] x [1], precision = [DEFAULT, DEFAULT] : (tensor<32x10xf32>, tensor<192x10xf32>) -> tensor<32x192xf32>
    %vithddclsr = stablehlo.reshape %vithddclsv : (tensor<32x192xf32>) -> tensor<32x1x192xf32>
    %vithddz = stablehlo.pad %vithddclsr, %sc, low = [0, 0, 0], high = [0, 196, 0], interior = [0, 0, 0] : (tensor<32x1x192xf32>, tensor<f32>) -> tensor<32x197x192xf32>
    %vitflngbk = stablehlo.broadcast_in_dim %gF, dims = [2] : (tensor<192xf32>) -> tensor<32x197x192xf32>
    %vitflndxhat = stablehlo.multiply %vithddz, %vitflngbk : tensor<32x197x192xf32>
    %vitflndgpre = stablehlo.multiply %vithddz, %vitflnxhat : tensor<32x197x192xf32>
    %vitflndg = stablehlo.reduce(%vitflndgpre init: %sc) applies stablehlo.add across dimensions = [0, 1] : (tensor<32x197x192xf32>, tensor<f32>) -> tensor<192xf32>
    %vitflndb = stablehlo.reduce(%vithddz init: %sc) applies stablehlo.add across dimensions = [0, 1] : (tensor<32x197x192xf32>, tensor<f32>) -> tensor<192xf32>
    %vitflnm1s = stablehlo.reduce(%vitflndxhat init: %sc) applies stablehlo.add across dimensions = [2] : (tensor<32x197x192xf32>, tensor<f32>) -> tensor<32x197xf32>
    %vitflnm1 = stablehlo.divide %vitflnm1s, %vitflnnf : tensor<32x197xf32>
    %vitflndxxh = stablehlo.multiply %vitflndxhat, %vitflnxhat : tensor<32x197x192xf32>
    %vitflnm2s = stablehlo.reduce(%vitflndxxh init: %sc) applies stablehlo.add across dimensions = [2] : (tensor<32x197x192xf32>, tensor<f32>) -> tensor<32x197xf32>
    %vitflnm2 = stablehlo.divide %vitflnm2s, %vitflnnf : tensor<32x197xf32>
    %vitflnm1b = stablehlo.broadcast_in_dim %vitflnm1, dims = [0, 1] : (tensor<32x197xf32>) -> tensor<32x197x192xf32>
    %vitflnm2b = stablehlo.broadcast_in_dim %vitflnm2, dims = [0, 1] : (tensor<32x197xf32>) -> tensor<32x197x192xf32>
    %vitflnt1 = stablehlo.subtract %vitflndxhat, %vitflnm1b : tensor<32x197x192xf32>
    %vitflnxm2 = stablehlo.multiply %vitflnxhat, %vitflnm2b : tensor<32x197x192xf32>
    %vitflnt2 = stablehlo.subtract %vitflnt1, %vitflnxm2 : tensor<32x197x192xf32>
    %vitflndx = stablehlo.multiply %vitflnistdb, %vitflnt2 : tensor<32x197x192xf32>
    %vitb11_pda1 = stablehlo.dot_general %vitflndx, %Wfc2_11, contracting_dims = [2] x [1], precision = [DEFAULT, DEFAULT] : (tensor<32x197x192xf32>, tensor<768x192xf32>) -> tensor<32x197x768xf32>
    %vitb11_pdWfc2 = stablehlo.dot_general %vitb11_pga, %vitflndx, contracting_dims = [0, 1] x [0, 1], precision = [DEFAULT, DEFAULT] : (tensor<32x197x768xf32>, tensor<32x197x192xf32>) -> tensor<768x192xf32>
    %vitb11_pdbfc2 = stablehlo.reduce(%vitflndx init: %sc) applies stablehlo.add across dimensions = [0, 1] : (tensor<32x197x192xf32>, tensor<f32>) -> tensor<192xf32>
    %vitb11_pgbbx2 = stablehlo.multiply %vitb11_ph1, %vitb11_ph1 : tensor<32x197x768xf32>
    %vitb11_pgbbx3 = stablehlo.multiply %vitb11_pgbbx2, %vitb11_ph1 : tensor<32x197x768xf32>
    %vitb11_pgbbck = stablehlo.constant dense<0.044715> : tensor<32x197x768xf32>
    %vitb11_pgbbkx3 = stablehlo.multiply %vitb11_pgbbck, %vitb11_pgbbx3 : tensor<32x197x768xf32>
    %vitb11_pgbbinn = stablehlo.add %vitb11_ph1, %vitb11_pgbbkx3 : tensor<32x197x768xf32>
    %vitb11_pgbbcsqrt = stablehlo.constant dense<0.7978845608028654> : tensor<32x197x768xf32>
    %vitb11_pgbbu = stablehlo.multiply %vitb11_pgbbcsqrt, %vitb11_pgbbinn : tensor<32x197x768xf32>
    %vitb11_pgbbt = stablehlo.tanh %vitb11_pgbbu : tensor<32x197x768xf32>
    %vitb11_pgbbone = stablehlo.constant dense<1.0> : tensor<32x197x768xf32>
    %vitb11_pgbbopt = stablehlo.add %vitb11_pgbbone, %vitb11_pgbbt : tensor<32x197x768xf32>
    %vitb11_pgbbchalf = stablehlo.constant dense<0.5> : tensor<32x197x768xf32>
    %vitb11_pgbbterm1 = stablehlo.multiply %vitb11_pgbbchalf, %vitb11_pgbbopt : tensor<32x197x768xf32>
    %vitb11_pgbbt2 = stablehlo.multiply %vitb11_pgbbt, %vitb11_pgbbt : tensor<32x197x768xf32>
    %vitb11_pgbbomt2 = stablehlo.subtract %vitb11_pgbbone, %vitb11_pgbbt2 : tensor<32x197x768xf32>
    %vitb11_pgbbhx = stablehlo.multiply %vitb11_pgbbchalf, %vitb11_ph1 : tensor<32x197x768xf32>
    %vitb11_pgbbhxo = stablehlo.multiply %vitb11_pgbbhx, %vitb11_pgbbomt2 : tensor<32x197x768xf32>
    %vitb11_pgbbc3b = stablehlo.constant dense<0.134145> : tensor<32x197x768xf32>
    %vitb11_pgbba3x2 = stablehlo.multiply %vitb11_pgbbc3b, %vitb11_pgbbx2 : tensor<32x197x768xf32>
    %vitb11_pgbbin2 = stablehlo.add %vitb11_pgbbone, %vitb11_pgbba3x2 : tensor<32x197x768xf32>
    %vitb11_pgbbup = stablehlo.multiply %vitb11_pgbbcsqrt, %vitb11_pgbbin2 : tensor<32x197x768xf32>
    %vitb11_pgbbterm2 = stablehlo.multiply %vitb11_pgbbhxo, %vitb11_pgbbup : tensor<32x197x768xf32>
    %vitb11_pgbbgp = stablehlo.add %vitb11_pgbbterm1, %vitb11_pgbbterm2 : tensor<32x197x768xf32>
    %vitb11_pgbdx = stablehlo.multiply %vitb11_pda1, %vitb11_pgbbgp : tensor<32x197x768xf32>
    %vitb11_pdx = stablehlo.dot_general %vitb11_pgbdx, %Wfc1_11, contracting_dims = [2] x [1], precision = [DEFAULT, DEFAULT] : (tensor<32x197x768xf32>, tensor<192x768xf32>) -> tensor<32x197x192xf32>
    %vitb11_pdWfc1 = stablehlo.dot_general %vitb11_2y, %vitb11_pgbdx, contracting_dims = [0, 1] x [0, 1], precision = [DEFAULT, DEFAULT] : (tensor<32x197x192xf32>, tensor<32x197x768xf32>) -> tensor<192x768xf32>
    %vitb11_pdbfc1 = stablehlo.reduce(%vitb11_pgbdx init: %sc) applies stablehlo.add across dimensions = [0, 1] : (tensor<32x197x768xf32>, tensor<f32>) -> tensor<768xf32>
    %vitb11_2gbk = stablehlo.broadcast_in_dim %g2_11, dims = [2] : (tensor<192xf32>) -> tensor<32x197x192xf32>
    %vitb11_2dxhat = stablehlo.multiply %vitb11_pdx, %vitb11_2gbk : tensor<32x197x192xf32>
    %vitb11_2dgpre = stablehlo.multiply %vitb11_pdx, %vitb11_2xhat : tensor<32x197x192xf32>
    %vitb11_2dg = stablehlo.reduce(%vitb11_2dgpre init: %sc) applies stablehlo.add across dimensions = [0, 1] : (tensor<32x197x192xf32>, tensor<f32>) -> tensor<192xf32>
    %vitb11_2db = stablehlo.reduce(%vitb11_pdx init: %sc) applies stablehlo.add across dimensions = [0, 1] : (tensor<32x197x192xf32>, tensor<f32>) -> tensor<192xf32>
    %vitb11_2m1s = stablehlo.reduce(%vitb11_2dxhat init: %sc) applies stablehlo.add across dimensions = [2] : (tensor<32x197x192xf32>, tensor<f32>) -> tensor<32x197xf32>
    %vitb11_2m1 = stablehlo.divide %vitb11_2m1s, %vitb11_2nf : tensor<32x197xf32>
    %vitb11_2dxxh = stablehlo.multiply %vitb11_2dxhat, %vitb11_2xhat : tensor<32x197x192xf32>
    %vitb11_2m2s = stablehlo.reduce(%vitb11_2dxxh init: %sc) applies stablehlo.add across dimensions = [2] : (tensor<32x197x192xf32>, tensor<f32>) -> tensor<32x197xf32>
    %vitb11_2m2 = stablehlo.divide %vitb11_2m2s, %vitb11_2nf : tensor<32x197xf32>
    %vitb11_2m1b = stablehlo.broadcast_in_dim %vitb11_2m1, dims = [0, 1] : (tensor<32x197xf32>) -> tensor<32x197x192xf32>
    %vitb11_2m2b = stablehlo.broadcast_in_dim %vitb11_2m2, dims = [0, 1] : (tensor<32x197xf32>) -> tensor<32x197x192xf32>
    %vitb11_2t1 = stablehlo.subtract %vitb11_2dxhat, %vitb11_2m1b : tensor<32x197x192xf32>
    %vitb11_2xm2 = stablehlo.multiply %vitb11_2xhat, %vitb11_2m2b : tensor<32x197x192xf32>
    %vitb11_2t2 = stablehlo.subtract %vitb11_2t1, %vitb11_2xm2 : tensor<32x197x192xf32>
    %vitb11_2dx = stablehlo.multiply %vitb11_2istdb, %vitb11_2t2 : tensor<32x197x192xf32>
    %vitb11_dr1 = stablehlo.add %vitflndx, %vitb11_2dx : tensor<32x197x192xf32>
    %vitb11_mdP = stablehlo.dot_general %vitb11_dr1, %Wo_11, contracting_dims = [2] x [1], precision = [DEFAULT, DEFAULT] : (tensor<32x197x192xf32>, tensor<192x192xf32>) -> tensor<32x197x192xf32>
    %vitb11_mdWo = stablehlo.dot_general %vitb11_mP, %vitb11_dr1, contracting_dims = [0, 1] x [0, 1], precision = [DEFAULT, DEFAULT] : (tensor<32x197x192xf32>, tensor<32x197x192xf32>) -> tensor<192x192xf32>
    %vitb11_mdbo = stablehlo.reduce(%vitb11_dr1 init: %sc) applies stablehlo.add across dimensions = [0, 1] : (tensor<32x197x192xf32>, tensor<f32>) -> tensor<192xf32>
    %vitb11_mdPr = stablehlo.reshape %vitb11_mdP : (tensor<32x197x192xf32>) -> tensor<32x197x3x64xf32>
    %vitb11_mdA = stablehlo.transpose %vitb11_mdPr, dims = [0, 2, 1, 3] : (tensor<32x197x3x64xf32>) -> tensor<32x3x197x64xf32>
    %vitb11_mdW = stablehlo.dot_general %vitb11_mdA, %vitb11_mVh, batching_dims = [0, 1] x [0, 1], contracting_dims = [3] x [3], precision = [DEFAULT, DEFAULT] : (tensor<32x3x197x64xf32>, tensor<32x3x197x64xf32>) -> tensor<32x3x197x197xf32>
    %vitb11_mdVh = stablehlo.dot_general %vitb11_mW, %vitb11_mdA, batching_dims = [0, 1] x [0, 1], contracting_dims = [2] x [2], precision = [DEFAULT, DEFAULT] : (tensor<32x3x197x197xf32>, tensor<32x3x197x64xf32>) -> tensor<32x3x197x64xf32>
    %vitb11_mpdw = stablehlo.multiply %vitb11_mW, %vitb11_mdW : tensor<32x3x197x197xf32>
    %vitb11_msrow = stablehlo.reduce(%vitb11_mpdw init: %sc) applies stablehlo.add across dimensions = [3] : (tensor<32x3x197x197xf32>, tensor<f32>) -> tensor<32x3x197xf32>
    %vitb11_msrowb = stablehlo.broadcast_in_dim %vitb11_msrow, dims = [0, 1, 2] : (tensor<32x3x197xf32>) -> tensor<32x3x197x197xf32>
    %vitb11_mdiff = stablehlo.subtract %vitb11_mdW, %vitb11_msrowb : tensor<32x3x197x197xf32>
    %vitb11_mdSs = stablehlo.multiply %vitb11_mW, %vitb11_mdiff : tensor<32x3x197x197xf32>
    %vitb11_msclb = stablehlo.constant dense<0.125> : tensor<32x3x197x197xf32>
    %vitb11_mdS = stablehlo.multiply %vitb11_mdSs, %vitb11_msclb : tensor<32x3x197x197xf32>
    %vitb11_mdQh = stablehlo.dot_general %vitb11_mdS, %vitb11_mKh, batching_dims = [0, 1] x [0, 1], contracting_dims = [3] x [2], precision = [DEFAULT, DEFAULT] : (tensor<32x3x197x197xf32>, tensor<32x3x197x64xf32>) -> tensor<32x3x197x64xf32>
    %vitb11_mdKh = stablehlo.dot_general %vitb11_mdS, %vitb11_mQh, batching_dims = [0, 1] x [0, 1], contracting_dims = [2] x [2], precision = [DEFAULT, DEFAULT] : (tensor<32x3x197x197xf32>, tensor<32x3x197x64xf32>) -> tensor<32x3x197x64xf32>
    %vitb11_mdQT = stablehlo.transpose %vitb11_mdQh, dims = [0, 2, 1, 3] : (tensor<32x3x197x64xf32>) -> tensor<32x197x3x64xf32>
…
    %advsbk_11 = stablehlo.multiply %adb2bk_11, %bk_11v : tensor<192xf32>
    %adg2bk_11 = stablehlo.multiply %vitb11_mdbK, %vitb11_mdbK : tensor<192xf32>
    %advgbk_11 = stablehlo.multiply %adob2bk_11, %adg2bk_11 : tensor<192xf32>
    %advnbk_11 = stablehlo.add %advsbk_11, %advgbk_11 : tensor<192xf32>
    %adbc1bk_11 = stablehlo.broadcast_in_dim %bc1, dims = [] : (tensor<f32>) -> tensor<192xf32>
    %adbc2bk_11 = stablehlo.broadcast_in_dim %bc2, dims = [] : (tensor<f32>) -> tensor<192xf32>
    %admhbk_11 = stablehlo.divide %admnbk_11, %adbc1bk_11 : tensor<192xf32>
    %advhbk_11 = stablehlo.divide %advnbk_11, %adbc2bk_11 : tensor<192xf32>
    %adlrbk_11 = stablehlo.broadcast_in_dim %lr, dims = [] : (tensor<f32>) -> tensor<192xf32>
    %adepsbk_11 = stablehlo.broadcast_in_dim %eps, dims = [] : (tensor<f32>) -> tensor<192xf32>
    %adsqbk_11 = stablehlo.sqrt %advhbk_11 : tensor<192xf32>
    %addenbk_11 = stablehlo.add %adsqbk_11, %adepsbk_11 : tensor<192xf32>
    %adratbk_11 = stablehlo.divide %admhbk_11, %addenbk_11 : tensor<192xf32>
    %adstbk_11 = stablehlo.multiply %adlrbk_11, %adratbk_11 : tensor<192xf32>
    %adsubbk_11 = stablehlo.subtract %bk_11, %adstbk_11 : tensor<192xf32>
    %adwdbk_11 = stablehlo.broadcast_in_dim %wd, dims = [] : (tensor<f32>) -> tensor<192xf32>
    %adwdlrbk_11 = stablehlo.multiply %adwdbk_11, %adlrbk_11 : tensor<192xf32>
    %adwdpbk_11 = stablehlo.multiply %adwdlrbk_11, %bk_11 : tensor<192xf32>
    %adnewbk_11 = stablehlo.subtract %adsubbk_11, %adwdpbk_11 : tensor<192xf32>
    %adb1Wv_11 = stablehlo.broadcast_in_dim %b1, dims = [] : (tensor<f32>) -> tensor<192x192xf32>
    %adob1Wv_11 = stablehlo.broadcast_in_dim %ob1, dims = [] : (tensor<f32>) -> tensor<192x192xf32>
    %admsWv_11 = stablehlo.multiply %adb1Wv_11, %Wv_11m : tensor<192x192xf32>
    %admgWv_11 = stablehlo.multiply %adob1Wv_11, %vitb11_mdWV : tensor<192x192xf32>
    %admnWv_11 = stablehlo.add %admsWv_11, %admgWv_11 : tensor<192x192xf32>
    %adb2Wv_11 = stablehlo.broadcast_in_dim %b2, dims = [] : (tensor<f32>) -> tensor<192x192xf32>
    %adob2Wv_11 = stablehlo.broadcast_in_dim %ob2, dims = [] : (tensor<f32>) -> tensor<192x192xf32>
    %advsWv_11 = stablehlo.multiply %adb2Wv_11, %Wv_11v : tensor<192x192xf32>
    %adg2Wv_11 = stablehlo.multiply %vitb11_mdWV, %vitb11_mdWV : tensor<192x192xf32>
    %advgWv_11 = stablehlo.multiply %adob2Wv_11, %adg2Wv_11 : tensor<192x192xf32>
    %advnWv_11 = stablehlo.add %advsWv_11, %advgWv_11 : tensor<192x192xf32>
    %adbc1Wv_11 = stablehlo.broadcast_in_dim %bc1, dims = [] : (tensor<f32>) -> tensor<192x192xf32>
    %adbc2Wv_11 = stablehlo.broadcast_in_dim %bc2, dims = [] : (tensor<f32>) -> tensor<192x192xf32>
    %admhWv_11 = stablehlo.divide %admnWv_11, %adbc1Wv_11 : tensor<192x192xf32>
    %advhWv_11 = stablehlo.divide %advnWv_11, %adbc2Wv_11 : tensor<192x192xf32>
    %adlrWv_11 = stablehlo.broadcast_in_dim %lr, dims = [] : (tensor<f32>) -> tensor<192x192xf32>
    %adepsWv_11 = stablehlo.broadcast_in_dim %eps, dims = [] : (tensor<f32>) -> tensor<192x192xf32>
    %adsqWv_11 = stablehlo.sqrt %advhWv_11 : tensor<192x192xf32>
    %addenWv_11 = stablehlo.add %adsqWv_11, %adepsWv_11 : tensor<192x192xf32>
    %adratWv_11 = stablehlo.divide %admhWv_11, %addenWv_11 : tensor<192x192xf32>
    %adstWv_11 = stablehlo.multiply %adlrWv_11, %adratWv_11 : tensor<192x192xf32>
    %adsubWv_11 = stablehlo.subtract %Wv_11, %adstWv_11 : tensor<192x192xf32>
    %adwdWv_11 = stablehlo.broadcast_in_dim %wd, dims = [] : (tensor<f32>) -> tensor<192x192xf32>
    %adwdlrWv_11 = stablehlo.multiply %adwdWv_11, %adlrWv_11 : tensor<192x192xf32>
    %adwdpWv_11 = stablehlo.multiply %adwdlrWv_11, %Wv_11 : tensor<192x192xf32>
    %adnewWv_11 = stablehlo.subtract %adsubWv_11, %adwdpWv_11 : tensor<192x192xf32>
    %adb1bv_11 = stablehlo.broadcast_in_dim %b1, dims = [] : (tensor<f32>) -> tensor<192xf32>
    %adob1bv_11 = stablehlo.broadcast_in_dim %ob1, dims = [] : (tensor<f32>) -> tensor<192xf32>
    %admsbv_11 = stablehlo.multiply %adb1bv_11, %bv_11m : tensor<192xf32>
    %admgbv_11 = stablehlo.multiply %adob1bv_11, %vitb11_mdbV : tensor<192xf32>
    %admnbv_11 = stablehlo.add %admsbv_11, %admgbv_11 : tensor<192xf32>
    %adb2bv_11 = stablehlo.broadcast_in_dim %b2, dims = [] : (tensor<f32>) -> tensor<192xf32>
    %adob2bv_11 = stablehlo.broadcast_in_dim %ob2, dims = [] : (tensor<f32>) -> tensor<192xf32>
    %advsbv_11 = stablehlo.multiply %adb2bv_11, %bv_11v : tensor<192xf32>
    %adg2bv_11 = stablehlo.multiply %vitb11_mdbV, %vitb11_mdbV : tensor<192xf32>
    %advgbv_11 = stablehlo.multiply %adob2bv_11, %adg2bv_11 : tensor<192xf32>
    %advnbv_11 = stablehlo.add %advsbv_11, %advgbv_11 : tensor<192xf32>
    %adbc1bv_11 = stablehlo.broadcast_in_dim %bc1, dims = [] : (tensor<f32>) -> tensor<192xf32>
    %adbc2bv_11 = stablehlo.broadcast_in_dim %bc2, dims = [] : (tensor<f32>) -> tensor<192xf32>
    %admhbv_11 = stablehlo.divide %admnbv_11, %adbc1bv_11 : tensor<192xf32>
    %advhbv_11 = stablehlo.divide %advnbv_11, %adbc2bv_11 : tensor<192xf32>
    %adlrbv_11 = stablehlo.broadcast_in_dim %lr, dims = [] : (tensor<f32>) -> tensor<192xf32>
    %adepsbv_11 = stablehlo.broadcast_in_dim %eps, dims = [] : (tensor<f32>) -> tensor<192xf32>
    %adsqbv_11 = stablehlo.sqrt %advhbv_11 : tensor<192xf32>
    %addenbv_11 = stablehlo.add %adsqbv_11, %adepsbv_11 : tensor<192xf32>
    %adratbv_11 = stablehlo.divide %admhbv_11, %addenbv_11 : tensor<192xf32>
    %adstbv_11 = stablehlo.multiply %adlrbv_11, %adratbv_11 : tensor<192xf32>
    %adsubbv_11 = stablehlo.subtract %bv_11, %adstbv_11 : tensor<192xf32>
    %adwdbv_11 = stablehlo.broadcast_in_dim %wd, dims = [] : (tensor<f32>) -> tensor<192xf32>
    %adwdlrbv_11 = stablehlo.multiply %adwdbv_11, %adlrbv_11 : tensor<192xf32>
    %adwdpbv_11 = stablehlo.multiply %adwdlrbv_11, %bv_11 : tensor<192xf32>
    %adnewbv_11 = stablehlo.subtract %adsubbv_11, %adwdpbv_11 : tensor<192xf32>
    %adb1Wo_11 = stablehlo.broadcast_in_dim %b1, dims = [] : (tensor<f32>) -> tensor<192x192xf32>
    %adob1Wo_11 = stablehlo.broadcast_in_dim %ob1, dims = [] : (tensor<f32>) -> tensor<192x192xf32>
    %admsWo_11 = stablehlo.multiply %adb1Wo_11, %Wo_11m : tensor<192x192xf32>
    %admgWo_11 = stablehlo.multiply %adob1Wo_11, %vitb11_mdWo : tensor<192x192xf32>
    %admnWo_11 = stablehlo.add %admsWo_11, %admgWo_11 : tensor<192x192xf32>
    %adb2Wo_11 = stablehlo.broadcast_in_dim %b2, dims = [] : (tensor<f32>) -> tensor<192x192xf32>
    %adob2Wo_11 = stablehlo.broadcast_in_dim %ob2, dims = [] : (tensor<f32>) -> tensor<192x192xf32>
    %advsWo_11 = stablehlo.multiply %adb2Wo_11, %Wo_11v : tensor<192x192xf32>
    %adg2Wo_11 = stablehlo.multiply %vitb11_mdWo, %vitb11_mdWo : tensor<192x192xf32>
    %advgWo_11 = stablehlo.multiply %adob2Wo_11, %adg2Wo_11 : tensor<192x192xf32>
    %advnWo_11 = stablehlo.add %advsWo_11, %advgWo_11 : tensor<192x192xf32>
    %adbc1Wo_11 = stablehlo.broadcast_in_dim %bc1, dims = [] : (tensor<f32>) -> tensor<192x192xf32>
    %adbc2Wo_11 = stablehlo.broadcast_in_dim %bc2, dims = [] : (tensor<f32>) -> tensor<192x192xf32>
    %admhWo_11 = stablehlo.divide %admnWo_11, %adbc1Wo_11 : tensor<192x192xf32>
    %advhWo_11 = stablehlo.divide %advnWo_11, %adbc2Wo_11 : tensor<192x192xf32>
    %adlrWo_11 = stablehlo.broadcast_in_dim %lr, dims = [] : (tensor<f32>) -> tensor<192x192xf32>
    %adepsWo_11 = stablehlo.broadcast_in_dim %eps, dims = [] : (tensor<f32>) -> tensor<192x192xf32>
    %adsqWo_11 = stablehlo.sqrt %advhWo_11 : tensor<192x192xf32>
    %addenWo_11 = stablehlo.add %adsqWo_11, %adepsWo_11 : tensor<192x192xf32>
    %adratWo_11 = stablehlo.divide %admhWo_11, %addenWo_11 : tensor<192x192xf32>
    %adstWo_11 = stablehlo.multiply %adlrWo_11, %adratWo_11 : tensor<192x192xf32>
    %adsubWo_11 = stablehlo.subtract %Wo_11, %adstWo_11 : tensor<192x192xf32>
    %adwdWo_11 = stablehlo.broadcast_in_dim %wd, dims = [] : (tensor<f32>) -> tensor<192x192xf32>
    %adwdlrWo_11 = stablehlo.multiply %adwdWo_11, %adlrWo_11 : tensor<192x192xf32>
    %adwdpWo_11 = stablehlo.multiply %adwdlrWo_11, %Wo_11 : tensor<192x192xf32>
    %adnewWo_11 = stablehlo.subtract %adsubWo_11, %adwdpWo_11 : tensor<192x192xf32>
    %adb1bo_11 = stablehlo.broadcast_in_dim %b1, dims = [] : (tensor<f32>) -> tensor<192xf32>
    %adob1bo_11 = stablehlo.broadcast_in_dim %ob1, dims = [] : (tensor<f32>) -> tensor<192xf32>
    %admsbo_11 = stablehlo.multiply %adb1bo_11, %bo_11m : tensor<192xf32>
    %admgbo_11 = stablehlo.multiply %adob1bo_11, %vitb11_mdbo : tensor<192xf32>
    %admnbo_11 = stablehlo.add %admsbo_11, %admgbo_11 : tensor<192xf32>
    %adb2bo_11 = stablehlo.broadcast_in_dim %b2, dims = [] : (tensor<f32>) -> tensor<192xf32>
    %adob2bo_11 = stablehlo.broadcast_in_dim %ob2, dims = [] : (tensor<f32>) -> tensor<192xf32>
    %advsbo_11 = stablehlo.multiply %adb2bo_11, %bo_11v : tensor<192xf32>
    %adg2bo_11 = stablehlo.multiply %vitb11_mdbo, %vitb11_mdbo : tensor<192xf32>
    %advgbo_11 = stablehlo.multiply %adob2bo_11, %adg2bo_11 : tensor<192xf32>
    %advnbo_11 = stablehlo.add %advsbo_11, %advgbo_11 : tensor<192xf32>
    %adbc1bo_11 = stablehlo.broadcast_in_dim %bc1, dims = [] : (tensor<f32>) -> tensor<192xf32>
    %adbc2bo_11 = stablehlo.broadcast_in_dim %bc2, dims = [] : (tensor<f32>) -> tensor<192xf32>
    %admhbo_11 = stablehlo.divide %admnbo_11, %adbc1bo_11 : tensor<192xf32>
    %advhbo_11 = stablehlo.divide %advnbo_11, %adbc2bo_11 : tensor<192xf32>
    %adlrbo_11 = stablehlo.broadcast_in_dim %lr, dims = [] : (tensor<f32>) -> tensor<192xf32>
    %adepsbo_11 = stablehlo.broadcast_in_dim %eps, dims = [] : (tensor<f32>) -> tensor<192xf32>
    %adsqbo_11 = stablehlo.sqrt %advhbo_11 : tensor<192xf32>
    %addenbo_11 = stablehlo.add %adsqbo_11, %adepsbo_11 : tensor<192xf32>
    %adratbo_11 = stablehlo.divide %admhbo_11, %addenbo_11 : tensor<192xf32>
    %adstbo_11 = stablehlo.multiply %adlrbo_11, %adratbo_11 : tensor<192xf32>
    %adsubbo_11 = stablehlo.subtract %bo_11, %adstbo_11 : tensor<192xf32>
    %adwdbo_11 = stablehlo.broadcast_in_dim %wd, dims = [] : (tensor<f32>) -> tensor<192xf32>
    %adwdlrbo_11 = stablehlo.multiply %adwdbo_11, %adlrbo_11 : tensor<192xf32>
    %adwdpbo_11 = stablehlo.multiply %adwdlrbo_11, %bo_11 : tensor<192xf32>
    %adnewbo_11 = stablehlo.subtract %adsubbo_11, %adwdpbo_11 : tensor<192xf32>
    %adb1g2_11 = stablehlo.broadcast_in_dim %b1, dims = [] : (tensor<f32>) -> tensor<192xf32>
    %adob1g2_11 = stablehlo.broadcast_in_dim %ob1, dims = [] : (tensor<f32>) -> tensor<192xf32>
    %admsg2_11 = stablehlo.multiply %adb1g2_11, %g2_11m : tensor<192xf32>
    %admgg2_11 = stablehlo.multiply %adob1g2_11, %vitb11_2dg : tensor<192xf32>
    %admng2_11 = stablehlo.add %admsg2_11, %admgg2_11 : tensor<192xf32>
    %adb2g2_11 = stablehlo.broadcast_in_dim %b2, dims = [] : (tensor<f32>) -> tensor<192xf32>
    %adob2g2_11 = stablehlo.broadcast_in_dim %ob2, dims = [] : (tensor<f32>) -> tensor<192xf32>
    %advsg2_11 = stablehlo.multiply %adb2g2_11, %g2_11v : tensor<192xf32>
    %adg2g2_11 = stablehlo.multiply %vitb11_2dg, %vitb11_2dg : tensor<192xf32>
    %advgg2_11 = stablehlo.multiply %adob2g2_11, %adg2g2_11 : tensor<192xf32>
    %advng2_11 = stablehlo.add %advsg2_11, %advgg2_11 : tensor<192xf32>
    %adbc1g2_11 = stablehlo.broadcast_in_dim %bc1, dims = [] : (tensor<f32>) -> tensor<192xf32>
    %adbc2g2_11 = stablehlo.broadcast_in_dim %bc2, dims = [] : (tensor<f32>) -> tensor<192xf32>
    %admhg2_11 = stablehlo.divide %admng2_11, %adbc1g2_11 : tensor<192xf32>
    %advhg2_11 = stablehlo.divide %advng2_11, %adbc2g2_11 : tensor<192xf32>
    %adlrg2_11 = stablehlo.broadcast_in_dim %lr, dims = [] : (tensor<f32>) -> tensor<192xf32>
    %adepsg2_11 = stablehlo.broadcast_in_dim %eps, dims = [] : (tensor<f32>) -> tensor<192xf32>
    %adsqg2_11 = stablehlo.sqrt %advhg2_11 : tensor<192xf32>
    %addeng2_11 = stablehlo.add %adsqg2_11, %adepsg2_11 : tensor<192xf32>
    %adratg2_11 = stablehlo.divide %admhg2_11, %addeng2_11 : tensor<192xf32>
    %adstg2_11 = stablehlo.multiply %adlrg2_11, %adratg2_11 : tensor<192xf32>
    %adsubg2_11 = stablehlo.subtract %g2_11, %adstg2_11 : tensor<192xf32>
    %adwdg2_11 = stablehlo.broadcast_in_dim %wd, dims = [] : (tensor<f32>) -> tensor<192xf32>
    %adwdlrg2_11 = stablehlo.multiply %adwdg2_11, %adlrg2_11 : tensor<192xf32>
    %adwdpg2_11 = stablehlo.multiply %adwdlrg2_11, %g2_11 : tensor<192xf32>
    %adnewg2_11 = stablehlo.subtract %adsubg2_11, %adwdpg2_11 : tensor<192xf32>
    %adb1b2_11 = stablehlo.broadcast_in_dim %b1, dims = [] : (tensor<f32>) -> tensor<192xf32>
    %adob1b2_11 = stablehlo.broadcast_in_dim %ob1, dims = [] : (tensor<f32>) -> tensor<192xf32>
    %admsb2_11 = stablehlo.multiply %adb1b2_11, %b2_11m : tensor<192xf32>
    %admgb2_11 = stablehlo.multiply %adob1b2_11, %vitb11_2db : tensor<192xf32>
    %admnb2_11 = stablehlo.add %admsb2_11, %admgb2_11 : tensor<192xf32>
    %adb2b2_11 = stablehlo.broadcast_in_dim %b2, dims = [] : (tensor<f32>) -> tensor<192xf32>
    %adob2b2_11 = stablehlo.broadcast_in_dim %ob2, dims = [] : (tensor<f32>) -> tensor<192xf32>
    %advsb2_11 = stablehlo.multiply %adb2b2_11, %b2_11v : tensor<192xf32>
    %adg2b2_11 = stablehlo.multiply %vitb11_2db, %vitb11_2db : tensor<192xf32>
    %advgb2_11 = stablehlo.multiply %adob2b2_11, %adg2b2_11 : tensor<192xf32>
    %advnb2_11 = stablehlo.add %advsb2_11, %advgb2_11 : tensor<192xf32>
    %adbc1b2_11 = stablehlo.broadcast_in_dim %bc1, dims = [] : (tensor<f32>) -> tensor<192xf32>
    %adbc2b2_11 = stablehlo.broadcast_in_dim %bc2, dims = [] : (tensor<f32>) -> tensor<192xf32>
    %admhb2_11 = stablehlo.divide %admnb2_11, %adbc1b2_11 : tensor<192xf32>
    %advhb2_11 = stablehlo.divide %advnb2_11, %adbc2b2_11 : tensor<192xf32>
    %adlrb2_11 = stablehlo.broadcast_in_dim %lr, dims = [] : (tensor<f32>) -> tensor<192xf32>
    %adepsb2_11 = stablehlo.broadcast_in_dim %eps, dims = [] : (tensor<f32>) -> tensor<192xf32>
    %adsqb2_11 = stablehlo.sqrt %advhb2_11 : tensor<192xf32>
    %addenb2_11 = stablehlo.add %adsqb2_11, %adepsb2_11 : tensor<192xf32>
    %adratb2_11 = stablehlo.divide %admhb2_11, %addenb2_11 : tensor<192xf32>
    %adstb2_11 = stablehlo.multiply %adlrb2_11, %adratb2_11 : tensor<192xf32>
    %adsubb2_11 = stablehlo.subtract %b2_11, %adstb2_11 : tensor<192xf32>
    %adwdb2_11 = stablehlo.broadcast_in_dim %wd, dims = [] : (tensor<f32>) -> tensor<192xf32>
    %adwdlrb2_11 = stablehlo.multiply %adwdb2_11, %adlrb2_11 : tensor<192xf32>
    %adwdpb2_11 = stablehlo.multiply %adwdlrb2_11, %b2_11 : tensor<192xf32>
    %adnewb2_11 = stablehlo.subtract %adsubb2_11, %adwdpb2_11 : tensor<192xf32>
    %adb1Wfc1_11 = stablehlo.broadcast_in_dim %b1, dims = [] : (tensor<f32>) -> tensor<192x768xf32>
    %adob1Wfc1_11 = stablehlo.broadcast_in_dim %ob1, dims = [] : (tensor<f32>) -> tensor<192x768xf32>
    %admsWfc1_11 = stablehlo.multiply %adb1Wfc1_11, %Wfc1_11m : tensor<192x768xf32>
    %admgWfc1_11 = stablehlo.multiply %adob1Wfc1_11, %vitb11_pdWfc1 : tensor<192x768xf32>
    %admnWfc1_11 = stablehlo.add %admsWfc1_11, %admgWfc1_11 : tensor<192x768xf32>
    %adb2Wfc1_11 = stablehlo.broadcast_in_dim %b2, dims = [] : (tensor<f32>) -> tensor<192x768xf32>
    %adob2Wfc1_11 = stablehlo.broadcast_in_dim %ob2, dims = [] : (tensor<f32>) -> tensor<192x768xf32>
    %advsWfc1_11 = stablehlo.multiply %adb2Wfc1_11, %Wfc1_11v : tensor<192x768xf32>
    %adg2Wfc1_11 = stablehlo.multiply %vitb11_pdWfc1, %vitb11_pdWfc1 : tensor<192x768xf32>
    %advgWfc1_11 = stablehlo.multiply %adob2Wfc1_11, %adg2Wfc1_11 : tensor<192x768xf32>
    %advnWfc1_11 = stablehlo.add %advsWfc1_11, %advgWfc1_11 : tensor<192x768xf32>
    %adbc1Wfc1_11 = stablehlo.broadcast_in_dim %bc1, dims = [] : (tensor<f32>) -> tensor<192x768xf32>
    %adbc2Wfc1_11 = stablehlo.broadcast_in_dim %bc2, dims = [] : (tensor<f32>) -> tensor<192x768xf32>
    %admhWfc1_11 = stablehlo.divide %admnWfc1_11, %adbc1Wfc1_11 : tensor<192x768xf32>
    %advhWfc1_11 = stablehlo.divide %advnWfc1_11, %adbc2Wfc1_11 : tensor<192x768xf32>
    %adlrWfc1_11 = stablehlo.broadcast_in_dim %lr, dims = [] : (tensor<f32>) -> tensor<192x768xf32>
    %adepsWfc1_11 = stablehlo.broadcast_in_dim %eps, dims = [] : (tensor<f32>) -> tensor<192x768xf32>
    %adsqWfc1_11 = stablehlo.sqrt %advhWfc1_11 : tensor<192x768xf32>
    %addenWfc1_11 = stablehlo.add %adsqWfc1_11, %adepsWfc1_11 : tensor<192x768xf32>
    %adratWfc1_11 = stablehlo.divide %admhWfc1_11, %addenWfc1_11 : tensor<192x768xf32>
    %adstWfc1_11 = stablehlo.multiply %adlrWfc1_11, %adratWfc1_11 : tensor<192x768xf32>
    %adsubWfc1_11 = stablehlo.subtract %Wfc1_11, %adstWfc1_11 : tensor<192x768xf32>
    %adwdWfc1_11 = stablehlo.broadcast_in_dim %wd, dims = [] : (tensor<f32>) -> tensor<192x768xf32>
    %adwdlrWfc1_11 = stablehlo.multiply %adwdWfc1_11, %adlrWfc1_11 : tensor<192x768xf32>
    %adwdpWfc1_11 = stablehlo.multiply %adwdlrWfc1_11, %Wfc1_11 : tensor<192x768xf32>
    %adnewWfc1_11 = stablehlo.subtract %adsubWfc1_11, %adwdpWfc1_11 : tensor<192x768xf32>
    %adb1bfc1_11 = stablehlo.broadcast_in_dim %b1, dims = [] : (tensor<f32>) -> tensor<768xf32>
    %adob1bfc1_11 = stablehlo.broadcast_in_dim %ob1, dims = [] : (tensor<f32>) -> tensor<768xf32>
    %admsbfc1_11 = stablehlo.multiply %adb1bfc1_11, %bfc1_11m : tensor<768xf32>
    %admgbfc1_11 = stablehlo.multiply %adob1bfc1_11, %vitb11_pdbfc1 : tensor<768xf32>
    %admnbfc1_11 = stablehlo.add %admsbfc1_11, %admgbfc1_11 : tensor<768xf32>
    %adb2bfc1_11 = stablehlo.broadcast_in_dim %b2, dims = [] : (tensor<f32>) -> tensor<768xf32>
    %adob2bfc1_11 = stablehlo.broadcast_in_dim %ob2, dims = [] : (tensor<f32>) -> tensor<768xf32>
    %advsbfc1_11 = stablehlo.multiply %adb2bfc1_11, %bfc1_11v : tensor<768xf32>
    %adg2bfc1_11 = stablehlo.multiply %vitb11_pdbfc1, %vitb11_pdbfc1 : tensor<768xf32>
    %advgbfc1_11 = stablehlo.multiply %adob2bfc1_11, %adg2bfc1_11 : tensor<768xf32>
    %advnbfc1_11 = stablehlo.add %advsbfc1_11, %advgbfc1_11 : tensor<768xf32>
    %adbc1bfc1_11 = stablehlo.broadcast_in_dim %bc1, dims = [] : (tensor<f32>) -> tensor<768xf32>
    %adbc2bfc1_11 = stablehlo.broadcast_in_dim %bc2, dims = [] : (tensor<f32>) -> tensor<768xf32>
    %admhbfc1_11 = stablehlo.divide %admnbfc1_11, %adbc1bfc1_11 : tensor<768xf32>
    %advhbfc1_11 = stablehlo.divide %advnbfc1_11, %adbc2bfc1_11 : tensor<768xf32>
    %adlrbfc1_11 = stablehlo.broadcast_in_dim %lr, dims = [] : (tensor<f32>) -> tensor<768xf32>
    %adepsbfc1_11 = stablehlo.broadcast_in_dim %eps, dims = [] : (tensor<f32>) -> tensor<768xf32>
    %adsqbfc1_11 = stablehlo.sqrt %advhbfc1_11 : tensor<768xf32>
    %addenbfc1_11 = stablehlo.add %adsqbfc1_11, %adepsbfc1_11 : tensor<768xf32>
    %adratbfc1_11 = stablehlo.divide %admhbfc1_11, %addenbfc1_11 : tensor<768xf32>
    %adstbfc1_11 = stablehlo.multiply %adlrbfc1_11, %adratbfc1_11 : tensor<768xf32>
    %adsubbfc1_11 = stablehlo.subtract %bfc1_11, %adstbfc1_11 : tensor<768xf32>
    %adwdbfc1_11 = stablehlo.broadcast_in_dim %wd, dims = [] : (tensor<f32>) -> tensor<768xf32>
    %adwdlrbfc1_11 = stablehlo.multiply %adwdbfc1_11, %adlrbfc1_11 : tensor<768xf32>
    %adwdpbfc1_11 = stablehlo.multiply %adwdlrbfc1_11, %bfc1_11 : tensor<768xf32>
    %adnewbfc1_11 = stablehlo.subtract %adsubbfc1_11, %adwdpbfc1_11 : tensor<768xf32>
    %adb1Wfc2_11 = stablehlo.broadcast_in_dim %b1, dims = [] : (tensor<f32>) -> tensor<768x192xf32>
    %adob1Wfc2_11 = stablehlo.broadcast_in_dim %ob1, dims = [] : (tensor<f32>) -> tensor<768x192xf32>
    %admsWfc2_11 = stablehlo.multiply %adb1Wfc2_11, %Wfc2_11m : tensor<768x192xf32>
    %admgWfc2_11 = stablehlo.multiply %adob1Wfc2_11, %vitb11_pdWfc2 : tensor<768x192xf32>
    %admnWfc2_11 = stablehlo.add %admsWfc2_11, %admgWfc2_11 : tensor<768x192xf32>
    %adb2Wfc2_11 = stablehlo.broadcast_in_dim %b2, dims = [] : (tensor<f32>) -> tensor<768x192xf32>
    %adob2Wfc2_11 = stablehlo.broadcast_in_dim %ob2, dims = [] : (tensor<f32>) -> tensor<768x192xf32>
    %advsWfc2_11 = stablehlo.multiply %adb2Wfc2_11, %Wfc2_11v : tensor<768x192xf32>
    %adg2Wfc2_11 = stablehlo.multiply %vitb11_pdWfc2, %vitb11_pdWfc2 : tensor<768x192xf32>
    %advgWfc2_11 = stablehlo.multiply %adob2Wfc2_11, %adg2Wfc2_11 : tensor<768x192xf32>
    %advnWfc2_11 = stablehlo.add %advsWfc2_11, %advgWfc2_11 : tensor<768x192xf32>
    %adbc1Wfc2_11 = stablehlo.broadcast_in_dim %bc1, dims = [] : (tensor<f32>) -> tensor<768x192xf32>
    %adbc2Wfc2_11 = stablehlo.broadcast_in_dim %bc2, dims = [] : (tensor<f32>) -> tensor<768x192xf32>
    %admhWfc2_11 = stablehlo.divide %admnWfc2_11, %adbc1Wfc2_11 : tensor<768x192xf32>
    %advhWfc2_11 = stablehlo.divide %advnWfc2_11, %adbc2Wfc2_11 : tensor<768x192xf32>
    %adlrWfc2_11 = stablehlo.broadcast_in_dim %lr, dims = [] : (tensor<f32>) -> tensor<768x192xf32>
    %adepsWfc2_11 = stablehlo.broadcast_in_dim %eps, dims = [] : (tensor<f32>) -> tensor<768x192xf32>
    %adsqWfc2_11 = stablehlo.sqrt %advhWfc2_11 : tensor<768x192xf32>
    %addenWfc2_11 = stablehlo.add %adsqWfc2_11, %adepsWfc2_11 : tensor<768x192xf32>
    %adratWfc2_11 = stablehlo.divide %admhWfc2_11, %addenWfc2_11 : tensor<768x192xf32>
    %adstWfc2_11 = stablehlo.multiply %adlrWfc2_11, %adratWfc2_11 : tensor<768x192xf32>
    %adsubWfc2_11 = stablehlo.subtract %Wfc2_11, %adstWfc2_11 : tensor<768x192xf32>
    %adwdWfc2_11 = stablehlo.broadcast_in_dim %wd, dims = [] : (tensor<f32>) -> tensor<768x192xf32>
    %adwdlrWfc2_11 = stablehlo.multiply %adwdWfc2_11, %adlrWfc2_11 : tensor<768x192xf32>
    %adwdpWfc2_11 = stablehlo.multiply %adwdlrWfc2_11, %Wfc2_11 : tensor<768x192xf32>
    %adnewWfc2_11 = stablehlo.subtract %adsubWfc2_11, %adwdpWfc2_11 : tensor<768x192xf32>
    %adb1bfc2_11 = stablehlo.broadcast_in_dim %b1, dims = [] : (tensor<f32>) -> tensor<192xf32>
    %adob1bfc2_11 = stablehlo.broadcast_in_dim %ob1, dims = [] : (tensor<f32>) -> tensor<192xf32>
    %admsbfc2_11 = stablehlo.multiply %adb1bfc2_11, %bfc2_11m : tensor<192xf32>
    %admgbfc2_11 = stablehlo.multiply %adob1bfc2_11, %vitb11_pdbfc2 : tensor<192xf32>
    %admnbfc2_11 = stablehlo.add %admsbfc2_11, %admgbfc2_11 : tensor<192xf32>
    %adb2bfc2_11 = stablehlo.broadcast_in_dim %b2, dims = [] : (tensor<f32>) -> tensor<192xf32>
    %adob2bfc2_11 = stablehlo.broadcast_in_dim %ob2, dims = [] : (tensor<f32>) -> tensor<192xf32>
    %advsbfc2_11 = stablehlo.multiply %adb2bfc2_11, %bfc2_11v : tensor<192xf32>
    %adg2bfc2_11 = stablehlo.multiply %vitb11_pdbfc2, %vitb11_pdbfc2 : tensor<192xf32>
    %advgbfc2_11 = stablehlo.multiply %adob2bfc2_11, %adg2bfc2_11 : tensor<192xf32>
    %advnbfc2_11 = stablehlo.add %advsbfc2_11, %advgbfc2_11 : tensor<192xf32>
    %adbc1bfc2_11 = stablehlo.broadcast_in_dim %bc1, dims = [] : (tensor<f32>) -> tensor<192xf32>
    %adbc2bfc2_11 = stablehlo.broadcast_in_dim %bc2, dims = [] : (tensor<f32>) -> tensor<192xf32>
    %admhbfc2_11 = stablehlo.divide %admnbfc2_11, %adbc1bfc2_11 : tensor<192xf32>
    %advhbfc2_11 = stablehlo.divide %advnbfc2_11, %adbc2bfc2_11 : tensor<192xf32>
    %adlrbfc2_11 = stablehlo.broadcast_in_dim %lr, dims = [] : (tensor<f32>) -> tensor<192xf32>
    %adepsbfc2_11 = stablehlo.broadcast_in_dim %eps, dims = [] : (tensor<f32>) -> tensor<192xf32>
    %adsqbfc2_11 = stablehlo.sqrt %advhbfc2_11 : tensor<192xf32>
    %addenbfc2_11 = stablehlo.add %adsqbfc2_11, %adepsbfc2_11 : tensor<192xf32>
    %adratbfc2_11 = stablehlo.divide %admhbfc2_11, %addenbfc2_11 : tensor<192xf32>
    %adstbfc2_11 = stablehlo.multiply %adlrbfc2_11, %adratbfc2_11 : tensor<192xf32>
    %adsubbfc2_11 = stablehlo.subtract %bfc2_11, %adstbfc2_11 : tensor<192xf32>
    %adwdbfc2_11 = stablehlo.broadcast_in_dim %wd, dims = [] : (tensor<f32>) -> tensor<192xf32>
    %adwdlrbfc2_11 = stablehlo.multiply %adwdbfc2_11, %adlrbfc2_11 : tensor<192xf32>
    %adwdpbfc2_11 = stablehlo.multiply %adwdlrbfc2_11, %bfc2_11 : tensor<192xf32>
    %adnewbfc2_11 = stablehlo.subtract %adsubbfc2_11, %adwdpbfc2_11 : tensor<192xf32>
    %adb1gF = stablehlo.broadcast_in_dim %b1, dims = [] : (tensor<f32>) -> tensor<192xf32>
    %adob1gF = stablehlo.broadcast_in_dim %ob1, dims = [] : (tensor<f32>) -> tensor<192xf32>
    %admsgF = stablehlo.multiply %adb1gF, %gFm : tensor<192xf32>
    %admggF = stablehlo.multiply %adob1gF, %vitflndg : tensor<192xf32>
    %admngF = stablehlo.add %admsgF, %admggF : tensor<192xf32>
    %adb2gF = stablehlo.broadcast_in_dim %b2, dims = [] : (tensor<f32>) -> tensor<192xf32>
    %adob2gF = stablehlo.broadcast_in_dim %ob2, dims = [] : (tensor<f32>) -> tensor<192xf32>
    %advsgF = stablehlo.multiply %adb2gF, %gFv : tensor<192xf32>
    %adg2gF = stablehlo.multiply %vitflndg, %vitflndg : tensor<192xf32>
    %advggF = stablehlo.multiply %adob2gF, %adg2gF : tensor<192xf32>
    %advngF = stablehlo.add %advsgF, %advggF : tensor<192xf32>
    %adbc1gF = stablehlo.broadcast_in_dim %bc1, dims = [] : (tensor<f32>) -> tensor<192xf32>
    %adbc2gF = stablehlo.broadcast_in_dim %bc2, dims = [] : (tensor<f32>) -> tensor<192xf32>
    %admhgF = stablehlo.divide %admngF, %adbc1gF : tensor<192xf32>
    %advhgF = stablehlo.divide %advngF, %adbc2gF : tensor<192xf32>
    %adlrgF = stablehlo.broadcast_in_dim %lr, dims = [] : (tensor<f32>) -> tensor<192xf32>
    %adepsgF = stablehlo.broadcast_in_dim %eps, dims = [] : (tensor<f32>) -> tensor<192xf32>
    %adsqgF = stablehlo.sqrt %advhgF : tensor<192xf32>
    %addengF = stablehlo.add %adsqgF, %adepsgF : tensor<192xf32>
    %adratgF = stablehlo.divide %admhgF, %addengF : tensor<192xf32>
    %adstgF = stablehlo.multiply %adlrgF, %adratgF : tensor<192xf32>
    %adsubgF = stablehlo.subtract %gF, %adstgF : tensor<192xf32>
    %adwdgF = stablehlo.broadcast_in_dim %wd, dims = [] : (tensor<f32>) -> tensor<192xf32>
    %adwdlrgF = stablehlo.multiply %adwdgF, %adlrgF : tensor<192xf32>
    %adwdpgF = stablehlo.multiply %adwdlrgF, %gF : tensor<192xf32>
    %adnewgF = stablehlo.subtract %adsubgF, %adwdpgF : tensor<192xf32>
    %adb1bF = stablehlo.broadcast_in_dim %b1, dims = [] : (tensor<f32>) -> tensor<192xf32>
    %adob1bF = stablehlo.broadcast_in_dim %ob1, dims = [] : (tensor<f32>) -> tensor<192xf32>
    %admsbF = stablehlo.multiply %adb1bF, %bFm : tensor<192xf32>
    %admgbF = stablehlo.multiply %adob1bF, %vitflndb : tensor<192xf32>
    %admnbF = stablehlo.add %admsbF, %admgbF : tensor<192xf32>
    %adb2bF = stablehlo.broadcast_in_dim %b2, dims = [] : (tensor<f32>) -> tensor<192xf32>
    %adob2bF = stablehlo.broadcast_in_dim %ob2, dims = [] : (tensor<f32>) -> tensor<192xf32>
    %advsbF = stablehlo.multiply %adb2bF, %bFv : tensor<192xf32>
    %adg2bF = stablehlo.multiply %vitflndb, %vitflndb : tensor<192xf32>
    %advgbF = stablehlo.multiply %adob2bF, %adg2bF : tensor<192xf32>
    %advnbF = stablehlo.add %advsbF, %advgbF : tensor<192xf32>
    %adbc1bF = stablehlo.broadcast_in_dim %bc1, dims = [] : (tensor<f32>) -> tensor<192xf32>
    %adbc2bF = stablehlo.broadcast_in_dim %bc2, dims = [] : (tensor<f32>) -> tensor<192xf32>
    %admhbF = stablehlo.divide %admnbF, %adbc1bF : tensor<192xf32>
    %advhbF = stablehlo.divide %advnbF, %adbc2bF : tensor<192xf32>
    %adlrbF = stablehlo.broadcast_in_dim %lr, dims = [] : (tensor<f32>) -> tensor<192xf32>
    %adepsbF = stablehlo.broadcast_in_dim %eps, dims = [] : (tensor<f32>) -> tensor<192xf32>
    %adsqbF = stablehlo.sqrt %advhbF : tensor<192xf32>
    %addenbF = stablehlo.add %adsqbF, %adepsbF : tensor<192xf32>
    %adratbF = stablehlo.divide %admhbF, %addenbF : tensor<192xf32>
    %adstbF = stablehlo.multiply %adlrbF, %adratbF : tensor<192xf32>
    %adsubbF = stablehlo.subtract %bF, %adstbF : tensor<192xf32>
    %adwdbF = stablehlo.broadcast_in_dim %wd, dims = [] : (tensor<f32>) -> tensor<192xf32>
    %adwdlrbF = stablehlo.multiply %adwdbF, %adlrbF : tensor<192xf32>
    %adwdpbF = stablehlo.multiply %adwdlrbF, %bF : tensor<192xf32>
    %adnewbF = stablehlo.subtract %adsubbF, %adwdpbF : tensor<192xf32>
    %adb1Wc = stablehlo.broadcast_in_dim %b1, dims = [] : (tensor<f32>) -> tensor<192x10xf32>
    %adob1Wc = stablehlo.broadcast_in_dim %ob1, dims = [] : (tensor<f32>) -> tensor<192x10xf32>
    %admsWc = stablehlo.multiply %adb1Wc, %Wcm : tensor<192x10xf32>
    %admgWc = stablehlo.multiply %adob1Wc, %vithddWc : tensor<192x10xf32>
    %admnWc = stablehlo.add %admsWc, %admgWc : tensor<192x10xf32>
    %adb2Wc = stablehlo.broadcast_in_dim %b2, dims = [] : (tensor<f32>) -> tensor<192x10xf32>
    %adob2Wc = stablehlo.broadcast_in_dim %ob2, dims = [] : (tensor<f32>) -> tensor<192x10xf32>
    %advsWc = stablehlo.multiply %adb2Wc, %Wcv : tensor<192x10xf32>
    %adg2Wc = stablehlo.multiply %vithddWc, %vithddWc : tensor<192x10xf32>
    %advgWc = stablehlo.multiply %adob2Wc, %adg2Wc : tensor<192x10xf32>
    %advnWc = stablehlo.add %advsWc, %advgWc : tensor<192x10xf32>
    %adbc1Wc = stablehlo.broadcast_in_dim %bc1, dims = [] : (tensor<f32>) -> tensor<192x10xf32>
    %adbc2Wc = stablehlo.broadcast_in_dim %bc2, dims = [] : (tensor<f32>) -> tensor<192x10xf32>
    %admhWc = stablehlo.divide %admnWc, %adbc1Wc : tensor<192x10xf32>
    %advhWc = stablehlo.divide %advnWc, %adbc2Wc : tensor<192x10xf32>
    %adlrWc = stablehlo.broadcast_in_dim %lr, dims = [] : (tensor<f32>) -> tensor<192x10xf32>
    %adepsWc = stablehlo.broadcast_in_dim %eps, dims = [] : (tensor<f32>) -> tensor<192x10xf32>
    %adsqWc = stablehlo.sqrt %advhWc : tensor<192x10xf32>
    %addenWc = stablehlo.add %adsqWc, %adepsWc : tensor<192x10xf32>
    %adratWc = stablehlo.divide %admhWc, %addenWc : tensor<192x10xf32>
    %adstWc = stablehlo.multiply %adlrWc, %adratWc : tensor<192x10xf32>
    %adsubWc = stablehlo.subtract %Wc, %adstWc : tensor<192x10xf32>
    %adwdWc = stablehlo.broadcast_in_dim %wd, dims = [] : (tensor<f32>) -> tensor<192x10xf32>
    %adwdlrWc = stablehlo.multiply %adwdWc, %adlrWc : tensor<192x10xf32>
    %adwdpWc = stablehlo.multiply %adwdlrWc, %Wc : tensor<192x10xf32>
    %adnewWc = stablehlo.subtract %adsubWc, %adwdpWc : tensor<192x10xf32>
    %adb1bc = stablehlo.broadcast_in_dim %b1, dims = [] : (tensor<f32>) -> tensor<10xf32>
    %adob1bc = stablehlo.broadcast_in_dim %ob1, dims = [] : (tensor<f32>) -> tensor<10xf32>
    %admsbc = stablehlo.multiply %adb1bc, %bcm : tensor<10xf32>
    %admgbc = stablehlo.multiply %adob1bc, %vithddbc : tensor<10xf32>
    %admnbc = stablehlo.add %admsbc, %admgbc : tensor<10xf32>
    %adb2bc = stablehlo.broadcast_in_dim %b2, dims = [] : (tensor<f32>) -> tensor<10xf32>
    %adob2bc = stablehlo.broadcast_in_dim %ob2, dims = [] : (tensor<f32>) -> tensor<10xf32>
    %advsbc = stablehlo.multiply %adb2bc, %bcv : tensor<10xf32>
    %adg2bc = stablehlo.multiply %vithddbc, %vithddbc : tensor<10xf32>
    %advgbc = stablehlo.multiply %adob2bc, %adg2bc : tensor<10xf32>
    %advnbc = stablehlo.add %advsbc, %advgbc : tensor<10xf32>
    %adbc1bc = stablehlo.broadcast_in_dim %bc1, dims = [] : (tensor<f32>) -> tensor<10xf32>
    %adbc2bc = stablehlo.broadcast_in_dim %bc2, dims = [] : (tensor<f32>) -> tensor<10xf32>
    %admhbc = stablehlo.divide %admnbc, %adbc1bc : tensor<10xf32>
    %advhbc = stablehlo.divide %advnbc, %adbc2bc : tensor<10xf32>
    %adlrbc = stablehlo.broadcast_in_dim %lr, dims = [] : (tensor<f32>) -> tensor<10xf32>
    %adepsbc = stablehlo.broadcast_in_dim %eps, dims = [] : (tensor<f32>) -> tensor<10xf32>
    %adsqbc = stablehlo.sqrt %advhbc : tensor<10xf32>
    %addenbc = stablehlo.add %adsqbc, %adepsbc : tensor<10xf32>
    %adratbc = stablehlo.divide %admhbc, %addenbc : tensor<10xf32>
    %adstbc = stablehlo.multiply %adlrbc, %adratbc : tensor<10xf32>
    %adsubbc = stablehlo.subtract %bc, %adstbc : tensor<10xf32>
    %adwdbc = stablehlo.broadcast_in_dim %wd, dims = [] : (tensor<f32>) -> tensor<10xf32>
    %adwdlrbc = stablehlo.multiply %adwdbc, %adlrbc : tensor<10xf32>
    %adwdpbc = stablehlo.multiply %adwdlrbc, %bc : tensor<10xf32>
    %adnewbc = stablehlo.subtract %adsubbc, %adwdpbc : tensor<10xf32>
    return %adnewwConv, %adnewbConv, %adnewcls, %adnewpos, %adnewg1_0, %adnewb1_0, %adnewWq_0, %adnewbq_0, %adnewWk_0, %adnewbk_0, %adnewWv_0, %adnewbv_0, %adnewWo_0, %adnewbo_0, %adnewg2_0, %adnewb2_0, %adnewWfc1_0, %adnewbfc1_0, %adnewWfc2_0, %adnewbfc2_0, %adnewg1_1, %adnewb1_1, %adnewWq_1, %adnewbq_1, %adnewWk_1, %adnewbk_1, %adnewWv_1, %adnewbv_1, %adnewWo_1, %adnewbo_1, %adnewg2_1, %adnewb2_1, %adnewWfc1_1, %adnewbfc1_1, %adnewWfc2_1, %adnewbfc2_1, %adnewg1_2, %adnewb1_2, %adnewWq_2, %adnewbq_2, %adnewWk_2, %adnewbk_2, %adnewWv_2, %adnewbv_2, %adnewWo_2, %adnewbo_2, %adnewg2_2, %adnewb2_2, %adnewWfc1_2, %adnewbfc1_2, %adnewWfc2_2, %adnewbfc2_2, %adnewg1_3, %adnewb1_3, %adnewWq_3, %adnewbq_3, %adnewWk_3, %adnewbk_3, %adnewWv_3, %adnewbv_3, %adnewWo_3, %adnewbo_3, %adnewg2_3, %adnewb2_3, %adnewWfc1_3, %adnewbfc1_3, %adnewWfc2_3, %adnewbfc2_3, %adnewg1_4, %adnewb1_4, %adnewWq_4, %adnewbq_4, %adnewWk_4, %adnewbk_4, %adnewWv_4, %adnewbv_4, %adnewWo_4, %adnewbo_4, %adnewg2_4, %adnewb2_4, %adnewWfc1_4, %adnewbfc1_4, %adnewWfc2_4, %adnewbfc2_4, %adnewg1_5, %adnewb1_5, %adnewWq_5, %adnewbq_5, %adnewWk_5, %adnewbk_5, %adnewWv_5, %adnewbv_5, %adnewWo_5, %adnewbo_5, %adnewg2_5, %adnewb2_5, %adnewWfc1_5, %adnewbfc1_5, %adnewWfc2_5, %adnewbfc2_5, %adnewg1_6, %adnewb1_6, %adnewWq_6, %adnewbq_6, %adnewWk_6, %adnewbk_6, %adnewWv_6, %adnewbv_6, %adnewWo_6, %adnewbo_6, %adnewg2_6, %adnewb2_6, %adnewWfc1_6, %adnewbfc1_6, %adnewWfc2_6, %adnewbfc2_6, %adnewg1_7, %adnewb1_7, %adnewWq_7, %adnewbq_7, %adnewWk_7, %adnewbk_7, %adnewWv_7, %adnewbv_7, %adnewWo_7, %adnewbo_7, %adnewg2_7, %adnewb2_7, %adnewWfc1_7, %adnewbfc1_7, %adnewWfc2_7, %adnewbfc2_7, %adnewg1_8, %adnewb1_8, %adnewWq_8, %adnewbq_8, %adnewWk_8, %adnewbk_8, %adnewWv_8, %adnewbv_8, %adnewWo_8, %adnewbo_8, %adnewg2_8, %adnewb2_8, %adnewWfc1_8, %adnewbfc1_8, %adnewWfc2_8, %adnewbfc2_8, %adnewg1_9, %adnewb1_9, %adnewWq_9, %adnewbq_9, %adnewWk_9, %adnewbk_9, %adnewWv_9, %adnewbv_9, %adnewWo_9, %adnewbo_9, %adnewg2_9, %adnewb2_9, %adnewWfc1_9, %adnewbfc1_9, %adnewWfc2_9, %adnewbfc2_9, %adnewg1_10, %adnewb1_10, %adnewWq_10, %adnewbq_10, %adnewWk_10, %adnewbk_10, %adnewWv_10, %adnewbv_10, %adnewWo_10, %adnewbo_10, %adnewg2_10, %adnewb2_10, %adnewWfc1_10, %adnewbfc1_10, %adnewWfc2_10, %adnewbfc2_10, %adnewg1_11, %adnewb1_11, %adnewWq_11, %adnewbq_11, %adnewWk_11, %adnewbk_11, %adnewWv_11, %adnewbv_11, %adnewWo_11, %adnewbo_11, %adnewg2_11, %adnewb2_11, %adnewWfc1_11, %adnewbfc1_11, %adnewWfc2_11, %adnewbfc2_11, %adnewgF, %adnewbF, %adnewWc, %adnewbc, %admnwConv, %admnbConv, %admncls, %admnpos, %admng1_0, %admnb1_0, %admnWq_0, %admnbq_0, %admnWk_0, %admnbk_0, %admnWv_0, %admnbv_0, %admnWo_0, %admnbo_0, %admng2_0, %admnb2_0, %admnWfc1_0, %admnbfc1_0, %admnWfc2_0, %admnbfc2_0, %admng1_1, %admnb1_1, %admnWq_1, %admnbq_1, %admnWk_1, %admnbk_1, %admnWv_1, %admnbv_1, %admnWo_1, %admnbo_1, %admng2_1, %admnb2_1, %admnWfc1_1, %admnbfc1_1, %admnWfc2_1, %admnbfc2_1, %admng1_2, %admnb1_2, %admnWq_2, %admnbq_2, %admnWk_2, %admnbk_2, %admnWv_2, %admnbv_2, %admnWo_2, %admnbo_2, %admng2_2, %admnb2_2, %admnWfc1_2, %admnbfc1_2, %admnWfc2_2, %admnbfc2_2, %admng1_3, %admnb1_3, %admnWq_3, %admnbq_3, %admnWk_3, %admnbk_3, %admnWv_3, %admnbv_3, %admnWo_3, %admnbo_3, %admng2_3, %admnb2_3, %admnWfc1_3, %admnbfc1_3, %admnWfc2_3, %admnbfc2_3, %admng1_4, %admnb1_4, %admnWq_4, %admnbq_4, %admnWk_4, %admnbk_4, %admnWv_4, %admnbv_4, %admnWo_4, %admnbo_4, %admng2_4, %admnb2_4, %admnWfc1_4, %admnbfc1_4, %admnWfc2_4, %admnbfc2_4, %admng1_5, %admnb1_5, %admnWq_5, %admnbq_5, %admnWk_5, %admnbk_5, %admnWv_5, %admnbv_5, %admnWo_5, %admnbo_5, %admng2_5, %admnb2_5, %admnWfc1_5, %admnbfc1_5, %admnWfc2_5, %admnbfc2_5, %admng1_6, %admnb1_6, %admnWq_6, %admnbq_6, %admnWk_6, %admnbk_6, %admnWv_6, %admnbv_6, %admnWo_6, %admnbo_6, %admng2_6, %admnb2_6, %admnWfc1_6, %admnbfc1_6, %admnWfc2_6, %admnbfc2_6, %admng1_7, %admnb1_7, %admnWq_7, %admnbq_7, %admnWk_7, %admnbk_7, %admnWv_7, %admnbv_7, %admnWo_7, %admnbo_7, %admng2_7, %admnb2_7, %admnWfc1_7, %admnbfc1_7, %admnWfc2_7, %admnbfc2_7, %admng1_8, %admnb1_8, %admnWq_8, %admnbq_8, %admnWk_8, %admnbk_8, %admnWv_8, %admnbv_8, %admnWo_8, %admnbo_8, %admng2_8, %admnb2_8, %admnWfc1_8, %admnbfc1_8, %admnWfc2_8, %admnbfc2_8, %admng1_9, %admnb1_9, %admnWq_9, %admnbq_9, %admnWk_9, %admnbk_9, %admnWv_9, %admnbv_9, %admnWo_9, %admnbo_9, %admng2_9, %admnb2_9, %admnWfc1_9, %admnbfc1_9, %admnWfc2_9, %admnbfc2_9, %admng1_10, %admnb1_10, %admnWq_10, %admnbq_10, %admnWk_10, %admnbk_10, %admnWv_10, %admnbv_10, %admnWo_10, %admnbo_10, %admng2_10, %admnb2_10, %admnWfc1_10, %admnbfc1_10, %admnWfc2_10, %admnbfc2_10, %admng1_11, %admnb1_11, %admnWq_11, %admnbq_11, %admnWk_11, %admnbk_11, %admnWv_11, %admnbv_11, %admnWo_11, %admnbo_11, %admng2_11, %admnb2_11, %admnWfc1_11, %admnbfc1_11, %admnWfc2_11, %admnbfc2_11, %admngF, %admnbF, %admnWc, %admnbc, %advnwConv, %advnbConv, %advncls, %advnpos, %advng1_0, %advnb1_0, %advnWq_0, %advnbq_0, %advnWk_0, %advnbk_0, %advnWv_0, %advnbv_0, %advnWo_0, %advnbo_0, %advng2_0, %advnb2_0, %advnWfc1_0, %advnbfc1_0, %advnWfc2_0, %advnbfc2_0, %advng1_1, %advnb1_1, %advnWq_1, %advnbq_1, %advnWk_1, %advnbk_1, %advnWv_1, %advnbv_1, %advnWo_1, %advnbo_1, %advng2_1, %advnb2_1, %advnWfc1_1, %advnbfc1_1, %advnWfc2_1, %advnbfc2_1, %advng1_2, %advnb1_2, %advnWq_2, %advnbq_2, %advnWk_2, %advnbk_2, %advnWv_2, %advnbv_2, %advnWo_2, %advnbo_2, %advng2_2, %advnb2_2, %advnWfc1_2, %advnbfc1_2, %advnWfc2_2, %advnbfc2_2, %advng1_3, %advnb1_3, %advnWq_3, %advnbq_3, %advnWk_3, %advnbk_3, %advnWv_3, %advnbv_3, %advnWo_3, %advnbo_3, %advng2_3, %advnb2_3, %advnWfc1_3, %advnbfc1_3, %advnWfc2_3, %advnbfc2_3, %advng1_4, %advnb1_4, %advnWq_4, %advnbq_4, %advnWk_4, %advnbk_4, %advnWv_4, %advnbv_4, %advnWo_4, %advnbo_4, %advng2_4, %advnb2_4, %advnWfc1_4, %advnbfc1_4, %advnWfc2_4, %advnbfc2_4, %advng1_5, %advnb1_5, %advnWq_5, %advnbq_5, %advnWk_5, %advnbk_5, %advnWv_5, %advnbv_5, %advnWo_5, %advnbo_5, %advng2_5, %advnb2_5, %advnWfc1_5, %advnbfc1_5, %advnWfc2_5, %advnbfc2_5, %advng1_6, %advnb1_6, %advnWq_6, %advnbq_6, %advnWk_6, %advnbk_6, %advnWv_6, %advnbv_6, %advnWo_6, %advnbo_6, %advng2_6, %advnb2_6, %advnWfc1_6, %advnbfc1_6, %advnWfc2_6, %advnbfc2_6, %advng1_7, %advnb1_7, %advnWq_7, %advnbq_7, %advnWk_7, %advnbk_7, %advnWv_7, %advnbv_7, %advnWo_7, %advnbo_7, %advng2_7, %advnb2_7, %advnWfc1_7, %advnbfc1_7, %advnWfc2_7, %advnbfc2_7, %advng1_8, %advnb1_8, %advnWq_8, %advnbq_8, %advnWk_8, %advnbk_8, %advnWv_8, %advnbv_8, %advnWo_8, %advnbo_8, %advng2_8, %advnb2_8, %advnWfc1_8, %advnbfc1_8, %advnWfc2_8, %advnbfc2_8, %advng1_9, %advnb1_9, %advnWq_9, %advnbq_9, %advnWk_9, %advnbk_9, %advnWv_9, %advnbv_9, %advnWo_9, %advnbo_9, %advng2_9, %advnb2_9, %advnWfc1_9, %advnbfc1_9, %advnWfc2_9, %advnbfc2_9, %advng1_10, %advnb1_10, %advnWq_10, %advnbq_10, %advnWk_10, %advnbk_10, %advnWv_10, %advnbv_10, %advnWo_10, %advnbo_10, %advng2_10, %advnb2_10, %advnWfc1_10, %advnbfc1_10, %advnWfc2_10, %advnbfc2_10, %advng1_11, %advnb1_11, %advnWq_11, %advnbq_11, %advnWk_11, %advnbk_11, %advnWv_11, %advnbv_11, %advnWo_11, %advnbo_11, %advng2_11, %advnb2_11, %advnWfc1_11, %advnbfc1_11, %advnWfc2_11, %advnbfc2_11, %advngF, %advnbF, %advnWc, %advnbc, %loss, %bc1, %bc2 : tensor<192x3x16x16xf32>, tensor<192xf32>, tensor<192xf32>, tensor<197x192xf32>, tensor<192xf32>, tensor<192xf32>, tensor<192x192xf32>, tensor<192xf32>, tensor<192x192xf32>, tensor<192xf32>, tensor<192x192xf32>, tensor<192xf32>, tensor<192x192xf32>, tensor<192xf32>, tensor<192xf32>, tensor<192xf32>, tensor<192x768xf32>, tensor<768xf32>, tensor<768x192xf32>, tensor<192xf32>, tensor<192xf32>, tensor<192xf32>, tensor<192x192xf32>, tensor<192xf32>, tensor<192x192xf32>, tensor<192xf32>, tensor<192x192xf32>, tensor<192xf32>, tensor<192x192xf32>, tensor<192xf32>, tensor<192xf32>, tensor<192xf32>, tensor<192x768xf32>, tensor<768xf32>, tensor<768x192xf32>, tensor<192xf32>, tensor<192xf32>, tensor<192xf32>, tensor<192x192xf32>, tensor<192xf32>, tensor<192x192xf32>, tensor<192xf32>, tensor<192x192xf32>, tensor<192xf32>, tensor<192x192xf32>, tensor<192xf32>, tensor<192xf32>, tensor<192xf32>, tensor<192x768xf32>, tensor<768xf32>, tensor<768x192xf32>, tensor<192xf32>, tensor<192xf32>, tensor<192xf32>, tensor<192x192xf32>, tensor<192xf32>, tensor<192x192xf32>, tensor<192xf32>, tensor<192x192xf32>, tensor<192xf32>, tensor<192x192xf32>, tensor<192xf32>, tensor<192xf32>, tensor<192xf32>, tensor<192x768xf32>, tensor<768xf32>, tensor<768x192xf32>, tensor<192xf32>, tensor<192xf32>, tensor<192xf32>, tensor<192x192xf32>, tensor<192xf32>, tensor<192x192xf32>, tensor<192xf32>, tensor<192x192xf32>, tensor<192xf32>, tensor<192x192xf32>, tensor<192xf32>, tensor<192xf32>, tensor<192xf32>, tensor<192x768xf32>, tensor<768xf32>, tensor<768x192xf32>, tensor<192xf32>, tensor<192xf32>, tensor<192xf32>, tensor<192x192xf32>, tensor<192xf32>, tensor<192x192xf32>, tensor<192xf32>, tensor<192x192xf32>, tensor<192xf32>, tensor<192x192xf32>, tensor<192xf32>, tensor<192xf32>, tensor<192xf32>, tensor<192x768xf32>, tensor<768xf32>, tensor<768x192xf32>, tensor<192xf32>, tensor<192xf32>, tensor<192xf32>, tensor<192x192xf32>, tensor<192xf32>, tensor<192x192xf32>, tensor<192xf32>, tensor<192x192xf32>, tensor<192xf32>, tensor<192x192xf32>, tensor<192xf32>, tensor<192xf32>, tensor<192xf32>, tensor<192x768xf32>, tensor<768xf32>, tensor<768x192xf32>, tensor<192xf32>, tensor<192xf32>, tensor<192xf32>, tensor<192x192xf32>, tensor<192xf32>, tensor<192x192xf32>, tensor<192xf32>, tensor<192x192xf32>, tensor<192xf32>, tensor<192x192xf32>, tensor<192xf32>, tensor<192xf32>, tensor<192xf32>, tensor<192x768xf32>, tensor<768xf32>, tensor<768x192xf32>, tensor<192xf32>, tensor<192xf32>, tensor<192xf32>, tensor<192x192xf32>, tensor<192xf32>, tensor<192x192xf32>, tensor<192xf32>, tensor<192x192xf32>, tensor<192xf32>, tensor<192x192xf32>, tensor<192xf32>, tensor<192xf32>, tensor<192xf32>, tensor<192x768xf32>, tensor<768xf32>, tensor<768x192xf32>, tensor<192xf32>, tensor<192xf32>, tensor<192xf32>, tensor<192x192xf32>, tensor<192xf32>, tensor<192x192xf32>, tensor<192xf32>, tensor<192x192xf32>, tensor<192xf32>, tensor<192x192xf32>, tensor<192xf32>, tensor<192xf32>, tensor<192xf32>, tensor<192x768xf32>, tensor<768xf32>, tensor<768x192xf32>, tensor<192xf32>, tensor<192xf32>, tensor<192xf32>, tensor<192x192xf32>, tensor<192xf32>, tensor<192x192xf32>, tensor<192xf32>, tensor<192x192xf32>, tensor<192xf32>, tensor<192x192xf32>, tensor<192xf32>, tensor<192xf32>, tensor<192xf32>, tensor<192x768xf32>, tensor<768xf32>, tensor<768x192xf32>, tensor<192xf32>, tensor<192xf32>, tensor<192xf32>, tensor<192x192xf32>, tensor<192xf32>, tensor<192x192xf32>, tensor<192xf32>, tensor<192x192xf32>, tensor<192xf32>, tensor<192x192xf32>, tensor<192xf32>, tensor<192xf32>, tensor<192xf32>, tensor<192x768xf32>, tensor<768xf32>, tensor<768x192xf32>, tensor<192xf32>, tensor<192xf32>, tensor<192xf32>, tensor<192x10xf32>, tensor<10xf32>, tensor<192x3x16x16xf32>, tensor<192xf32>, tensor<192xf32>, tensor<197x192xf32>, tensor<192xf32>, tensor<192xf32>, tensor<192x192xf32>, tensor<192xf32>, tensor<192x192xf32>, tensor<192xf32>, tensor<192x192xf32>, tensor<192xf32>, tensor<192x192xf32>, tensor<192xf32>, tensor<192xf32>, tensor<192xf32>, tensor<192x768xf32>, tensor<768xf32>, tensor<768x192xf32>, tensor<192xf32>, tensor<192xf32>, tensor<192xf32>, tensor<192x192xf32>, tensor<192xf32>, tensor<192x192xf32>, tensor<192xf32>, tensor<192x192xf32>, tensor<192xf32>, tensor<192x192xf32>, tensor<192xf32>, tensor<192xf32>, tensor<192xf32>, tensor<192x768xf32>, tensor<768xf32>, tensor<768x192xf32>, tensor<192xf32>, tensor<192xf32>, tensor<192xf32>, tensor<192x192xf32>, tensor<192xf32>, tensor<192x192xf32>, tensor<192xf32>, tensor<192x192xf32>, tensor<192xf32>, tensor<192x192xf32>, tensor<192xf32>, tensor<192xf32>, tensor<192xf32>, tensor<192x768xf32>, tensor<768xf32>, tensor<768x192xf32>, tensor<192xf32>, tensor<192xf32>, tensor<192xf32>, tensor<192x192xf32>, tensor<192xf32>, tensor<192x192xf32>, tensor<192xf32>, tensor<192x192xf32>, tensor<192xf32>, tensor<192x192xf32>, tensor<192xf32>, tensor<192xf32>, tensor<192xf32>, tensor<192x768xf32>, tensor<768xf32>, tensor<768x192xf32>, tensor<192xf32>, tensor<192xf32>, tensor<192xf32>, tensor<192x192xf32>, tensor<192xf32>, tensor<192x192xf32>, tensor<192xf32>, tensor<192x192xf32>, tensor<192xf32>, tensor<192x192xf32>, tensor<192xf32>, tensor<192xf32>, tensor<192xf32>, tensor<192x768xf32>, tensor<768xf32>, tensor<768x192xf32>, tensor<192xf32>, tensor<192xf32>, tensor<192xf32>, tensor<192x192xf32>, tensor<192xf32>, tensor<192x192xf32>, tensor<192xf32>, tensor<192x192xf32>, tensor<192xf32>, tensor<192x192xf32>, tensor<192xf32>, tensor<192xf32>, tensor<192xf32>, tensor<192x768xf32>, tensor<768xf32>, tensor<768x192xf32>, tensor<192xf32>, tensor<192xf32>, tensor<192xf32>, tensor<192x192xf32>, tensor<192xf32>, tensor<192x192xf32>, tensor<192xf32>, tensor<192x192xf32>, tensor<192xf32>, tensor<192x192xf32>, tensor<192xf32>, tensor<192xf32>, tensor<192xf32>, tensor<192x768xf32>, tensor<768xf32>, tensor<768x192xf32>, tensor<192xf32>, tensor<192xf32>, tensor<192xf32>, tensor<192x192xf32>, tensor<192xf32>, tensor<192x192xf32>, tensor<192xf32>, tensor<192x192xf32>, tensor<192xf32>, tensor<192x192xf32>, tensor<192xf32>, tensor<192xf32>, tensor<192xf32>, tensor<192x768xf32>, tensor<768xf32>, tensor<768x192xf32>, tensor<192xf32>, tensor<192xf32>, tensor<192xf32>, tensor<192x192xf32>, tensor<192xf32>, tensor<192x192xf32>, tensor<192xf32>, tensor<192x192xf32>, tensor<192xf32>, tensor<192x192xf32>, tensor<192xf32>, tensor<192xf32>, tensor<192xf32>, tensor<192x768xf32>, tensor<768xf32>, tensor<768x192xf32>, tensor<192xf32>, tensor<192xf32>, tensor<192xf32>, tensor<192x192xf32>, tensor<192xf32>, tensor<192x192xf32>, tensor<192xf32>, tensor<192x192xf32>, tensor<192xf32>, tensor<192x192xf32>, tensor<192xf32>, tensor<192xf32>, tensor<192xf32>, tensor<192x768xf32>, tensor<768xf32>, tensor<768x192xf32>, tensor<192xf32>, tensor<192xf32>, tensor<192xf32>, tensor<192x192xf32>, tensor<192xf32>, tensor<192x192xf32>, tensor<192xf32>, tensor<192x192xf32>, tensor<192xf32>, tensor<192x192xf32>, tensor<192xf32>, tensor<192xf32>, tensor<192xf32>, tensor<192x768xf32>, tensor<768xf32>, tensor<768x192xf32>, tensor<192xf32>, tensor<192xf32>, tensor<192xf32>, tensor<192x192xf32>, tensor<192xf32>, tensor<192x192xf32>, tensor<192xf32>, tensor<192x192xf32>, tensor<192xf32>, tensor<192x192xf32>, tensor<192xf32>, tensor<192xf32>, tensor<192xf32>, tensor<192x768xf32>, tensor<768xf32>, tensor<768x192xf32>, tensor<192xf32>, tensor<192xf32>, tensor<192xf32>, tensor<192x10xf32>, tensor<10xf32>, tensor<192x3x16x16xf32>, tensor<192xf32>, tensor<192xf32>, tensor<197x192xf32>, tensor<192xf32>, tensor<192xf32>, tensor<192x192xf32>, tensor<192xf32>, tensor<192x192xf32>, tensor<192xf32>, tensor<192x192xf32>, tensor<192xf32>, tensor<192x192xf32>, tensor<192xf32>, tensor<192xf32>, tensor<192xf32>, tensor<192x768xf32>, tensor<768xf32>, tensor<768x192xf32>, tensor<192xf32>, tensor<192xf32>, tensor<192xf32>, tensor<192x192xf32>, tensor<192xf32>, tensor<192x192xf32>, tensor<192xf32>, tensor<192x192xf32>, tensor<192xf32>, tensor<192x192xf32>, tensor<192xf32>, tensor<192xf32>, tensor<192xf32>, tensor<192x768xf32>, tensor<768xf32>, tensor<768x192xf32>, tensor<192xf32>, tensor<192xf32>, tensor<192xf32>, tensor<192x192xf32>, tensor<192xf32>, tensor<192x192xf32>, tensor<192xf32>, tensor<192x192xf32>, tensor<192xf32>, tensor<192x192xf32>, tensor<192xf32>, tensor<192xf32>, tensor<192xf32>, tensor<192x768xf32>, tensor<768xf32>, tensor<768x192xf32>, tensor<192xf32>, tensor<192xf32>, tensor<192xf32>, tensor<192x192xf32>, tensor<192xf32>, tensor<192x192xf32>, tensor<192xf32>, tensor<192x192xf32>, tensor<192xf32>, tensor<192x192xf32>, tensor<192xf32>, tensor<192xf32>, tensor<192xf32>, tensor<192x768xf32>, tensor<768xf32>, tensor<768x192xf32>, tensor<192xf32>, tensor<192xf32>, tensor<192xf32>, tensor<192x192xf32>, tensor<192xf32>, tensor<192x192xf32>, tensor<192xf32>, tensor<192x192xf32>, tensor<192xf32>, tensor<192x192xf32>, tensor<192xf32>, tensor<192xf32>, tensor<192xf32>, tensor<192x768xf32>, tensor<768xf32>, tensor<768x192xf32>, tensor<192xf32>, tensor<192xf32>, tensor<192xf32>, tensor<192x192xf32>, tensor<192xf32>, tensor<192x192xf32>, tensor<192xf32>, tensor<192x192xf32>, tensor<192xf32>, tensor<192x192xf32>, tensor<192xf32>, tensor<192xf32>, tensor<192xf32>, tensor<192x768xf32>, tensor<768xf32>, tensor<768x192xf32>, tensor<192xf32>, tensor<192xf32>, tensor<192xf32>, tensor<192x192xf32>, tensor<192xf32>, tensor<192x192xf32>, tensor<192xf32>, tensor<192x192xf32>, tensor<192xf32>, tensor<192x192xf32>, tensor<192xf32>, tensor<192xf32>, tensor<192xf32>, tensor<192x768xf32>, tensor<768xf32>, tensor<768x192xf32>, tensor<192xf32>, tensor<192xf32>, tensor<192xf32>, tensor<192x192xf32>, tensor<192xf32>, tensor<192x192xf32>, tensor<192xf32>, tensor<192x192xf32>, tensor<192xf32>, tensor<192x192xf32>, tensor<192xf32>, tensor<192xf32>, tensor<192xf32>, tensor<192x768xf32>, tensor<768xf32>, tensor<768x192xf32>, tensor<192xf32>, tensor<192xf32>, tensor<192xf32>, tensor<192x192xf32>, tensor<192xf32>, tensor<192x192xf32>, tensor<192xf32>, tensor<192x192xf32>, tensor<192xf32>, tensor<192x192xf32>, tensor<192xf32>, tensor<192xf32>, tensor<192xf32>, tensor<192x768xf32>, tensor<768xf32>, tensor<768x192xf32>, tensor<192xf32>, tensor<192xf32>, tensor<192xf32>, tensor<192x192xf32>, tensor<192xf32>, tensor<192x192xf32>, tensor<192xf32>, tensor<192x192xf32>, tensor<192xf32>, tensor<192x192xf32>, tensor<192xf32>, tensor<192xf32>, tensor<192xf32>, tensor<192x768xf32>, tensor<768xf32>, tensor<768x192xf32>, tensor<192xf32>, tensor<192xf32>, tensor<192xf32>, tensor<192x192xf32>, tensor<192xf32>, tensor<192x192xf32>, tensor<192xf32>, tensor<192x192xf32>, tensor<192xf32>, tensor<192x192xf32>, tensor<192xf32>, tensor<192xf32>, tensor<192xf32>, tensor<192x768xf32>, tensor<768xf32>, tensor<768x192xf32>, tensor<192xf32>, tensor<192xf32>, tensor<192xf32>, tensor<192x192xf32>, tensor<192xf32>, tensor<192x192xf32>, tensor<192xf32>, tensor<192x192xf32>, tensor<192xf32>, tensor<192x192xf32>, tensor<192xf32>, tensor<192xf32>, tensor<192xf32>, tensor<192x768xf32>, tensor<768xf32>, tensor<768x192xf32>, tensor<192xf32>, tensor<192xf32>, tensor<192xf32>, tensor<192x10xf32>, tensor<10xf32>, tensor<f32>, tensor<f32>, tensor<f32>
  }
}
